training/old_logs/nn-xsmall.pth (torch, 65507 bytes, 8 tensors)

net.0.weight f4 [48, 25]
-9.028577 1.2731423 -0.64781225 -0.32937393 -0.09001077 -0.034935135 -0.00827843 -0.024540504
2.041414 0.091328055 -0.055355728 -0.037297707 -0.00068480877 0.005696308 0.031496283 0.0917685
0.959636 0.0072424277 1.286001 -0.45016584 0.64955527 0.65141463 -0.101624876 0.002206482
0.0041736937 3.3215184 2.8388145 -2.4737866 -3.305955 -1.2043254 0.17431828 0.27271792
-0.073909275 -0.25852376 -0.14334953 0.0283492 0.053418577 -0.06385376 -0.12176252 -0.04001134
0.022959925 1.2880725 -0.07633766 3.5016742 -0.50237334 -0.062842384 -0.6228149 0.08716095
0.10466967 0.01963562 -0.2768554 -0.55496186 -0.5454445 -0.41592062 -0.21222444 -0.12117423
-0.12376848 -0.016030619 0.1943586 0.13278282 -0.02052079 -0.020814564 0.028045233 0.054330725
0.09641843 0.05412641 -0.061368406 0.05054812 -2.4189074 1.0889825 -1.5301449 0.27469426
0.010016314 -0.005566621 -0.023600345 0.2904893 -0.39398018 -0.2730701 -0.035980094 0.05682405
0.030580208 -0.053636495 0.0820551 0.08983441 0.09034372 0.067159526 0.1588593 0.14621603
0.10280052 0.147208 0.14377221 0.016658453 0.06984433 -0.87214506 0.123128474 0.80526847
2.3125465 -0.0050098165 0.2787536 -0.0050889 -1.0084236 -2.1510684 0.10317136 2.5811703
2.1240559 0.2552366 -0.55966586 -0.21983698 -0.0050192503 0.10944333 0.25508252 0.10964586
-0.017511247 -0.02049496 0.03258226 0.064110264 -0.4911725 0.055323705 -1.7368706 -0.066450156
-2.1050482 0.0126947565 0.047765963 0.048569653 -0.020824041 1.4822743 1.7472221 -1.148752
-0.9245294 -0.3396535 -0.058511723 0.04934437 0.043871503 0.20864059 -0.07116595 0.030629646
0.075547 0.03424612 -0.008690705 -0.009152587 0.03538732 1.1348478 0.02179567 1.4350325
-0.48319906 -1.0933613 0.6858452 -0.12104991 0.03448913 0.014710432 -0.07366191 -0.36671835
0.035607267 0.15990338 -0.05744763 -0.25707355 -0.14117092 0.1336736 0.14352344 -0.006654228
0.20579214 0.15010893 0.15379633 0.32505003 0.47879037 0.92915034 -0.14093538 0.40600768
0.8829111 -0.35506344 0.88239115 0.24071558 -0.0261092 0.030488372 -0.06646707 -0.85584897
-0.30723417 0.43615657 0.5916994 0.21239729 -0.2011901 -0.23011662 0.044002935 1.959451
0.9191804 -1.09654 -0.9409671 -0.27388555 -0.028326867 0.03336402 -0.009823989 0.4502973
0.060165044 0.56766886 0.1312099 0.9349145 -0.40367606 0.119709715 0.028496938 -0.059959903
-0.35016993 -0.17714256 0.08364856 0.18431666 -0.0158814 -0.13799514 0.07013695 0.120447025
-0.092688024 0.07656666 0.060908347 0.0013355516 0.007300664 0.014890119 -0.014836446 0.0037861571
-0.07601116 0.057855982 -1.0860037 -1.1403238 0.36991367 -0.35985452 0.13507152 1.8076785
0.005262833 0.19632533 -0.27107707 -0.6855611 0.3283631 0.21407764 -0.1559834 -0.12827604
0.19976933 -0.079402044 -0.47528338 -0.5198073 -0.21025816 0.29410377 0.46130157 0.20775001
0.04770053 0.25065655 0.021393463 -1.113178 0.19530714 0.8972337 -0.6080773 0.17584124
0.002710576 0.068620116 -0.0448527 -0.39115345 -0.49104565 -0.33906472 -0.034124415 0.13975835
00000000: 0d75 10c1 54f6 a23f 06d7 25bf b3a3 a8be
00000010: 9157 b8bd 2518 0fbd 41a2 07bc 2b09 c9bc
00000020: 87a6 0240 340a bb3d b0bc 62bd 7bc5 18bd
00000030: bd84 33ba 18a8 ba3b 3f02 013d 20f1 bb3d
00000040: b4aa 753f e351 ed3b ae9b a43f 237c e6be
00000050: 4149 263f 1cc3 263f b420 d0bd a09a 103b
00000060: 7bc3 883b c293 5440 23af 3540 8552 1ec0
00000070: c494 53c0 5627 9abf 7e80 323e afa1 8b3e
00000080: bf5d 97bd 3a5d 84be 38ca 12be 953c e83c
00000090: 70cd 5a3d c3c5 82bd a15e f9bd eee2 23bd
000000a0: 7416 bc3c 8fdf a43f eb56 9cbd 6e1b 6040
000000b0: 8a9b 00bf 82b3 80bd cc70 1fbf 7181 b23d
000000c0: 0d5d d63d e1da a03c febf 8dbe fb11 0ebf
000000d0: 40a2 0bbf 8cf3 d4be 5d51 59be 322a f8bd
000000e0: 547a fdbd a552 83bc f105 473e 38f8 073e
000000f0: 371b a8bc 4e83 aabc 1ebf e53c e589 5e3d
00000100: 0777 c53d a8b3 5d3d 705d 7bbd 8c0b 4f3d
00000110: 61cf 1ac0 c763 8b3f cadb c3bf baa4 8c3e
00000120: 771b 243c 3468 b6bb 8355 c1bc 03bb 943e
00000130: c5b7 c9be d8cf 8bbe dd5f 13bd 56c0 683d
00000140: 5883 fa3c f1b1 5bbd 810c a83d 1afb b73d
00000150: 2106 b93d ef8a 893d 03ac 223e a8b9 153e
00000160: 1489 d23d b2bd 163e 0639 133e 4f77 883c
00000170: 8b0a 8f3d e644 5fbf c82a fc3d 1326 4e3f
00000180: c300 1440 6329 a4bb cbb8 8e3e cac0 a6bb
00000190: 0614 81bf 1bab 09c0 824b d33d e531 2540
000001a0: 88f0 0740 5fae 823e 4346 0fbf f21c 61be
000001b0: 8678 a4bb d323 e03d 2d9a 823e 028e e03d
000001c0: bf73 8fbc 0ce5 a7bc fa74 053d 3e4c 833d
000001d0: f67a fbbe 1c9b 623d c751 debf 0517 88bd
000001e0: 1cb9 06c0 abfd 4f3c 3ea6 433d f9f0 463d
000001f0: 2e97 aabc 2abb bd3f f9a4 df3f 4e0a 93bf
00000200: f5ad 6cbf 10e7 adbe fda9 6fbd 521d 4a3d
00000210: 9bb2 333d e1a5 553e 74bf 91bd 06eb fa3c
00000220: 63b8 9a3d a945 0c3d 7563 0ebc bbf4 15bc
00000230: 4bf2 103d b142 913f d58c b23c 25af b73f
00000240: de65 f7be 43f3 8bbf 8d93 2f3f 04e9 f7bd
00000250: 7944 0d3d 0604 713c 0edc 96bd 82c2 bbbe
00000260: edd8 113d b6bd 233e 354e 6bbd 259f 83be
00000270: 1c8f 10be bbe1 083e cff7 123e b60b dabb
00000280: 2dbb 523e 28b6 193e c97c 1d3e f56c a63e
00000290: 0324 f53e ccdc 6d3f 5d51 10be 3de0 cf3e
000002a0: 7606 623f e0ca b5be 63e4 613f 257e 763e
000002b0: f6e2 d5bc c0c2 f93c e31f 88bd eb18 5bbf
000002c0: cc4d 9dbe ea4f df3e 9d79 173f ad7e 593e
000002d0: c704 4ebe b1a3 6bbe 6c3c 343d 4acf fa3f
000002e0: 684f 6b3f 6c5b 8cbf 38e3 70bf ba3a 8cbe
000002f0: bf0d e8bc b6a8 083d ccf4 20bc 5e8d e63e
00000300: 9f6f 763d bf52 113f e35b 063e 8f56 6f3f
00000310: a1ae cebe 5e2a f53d 6972 e93c 8498 75bd
00000320: 7949 b3be dc64 35be f04f ab3d 82bd 3c3e
00000330: b619 82bc 994e 0dbe f6a3 8f3d eeac f63d
00000340: 38d3 bdbd fbce 9c3d 087b 793d ad0d af3a
00000350: 693a ef3b b0f5 733c 9114 73bc 2d21 783b
00000360: bdab 9bbd 65fa 6c3d 2b02 8bbf 21f6 91bf
00000370: 5365 bd3e da3e b8be 3050 0a3e 0262 e73f
00000380: d873 ac3b 8209 493e 9dca 8abe ef80 2fbf
00000390: 351f a83e 2b37 5b3e 1dba 1fbe cb5a 03be
000003a0: 5590 4c3e 8a9d a2bd 5858 f3be 1712 05bf
000003b0: ea4d 57be c594 963e b82f ec3e 6bbc 543e
000003c0: a261 433d 0e56 803e 5841 af3c 9e7c 8ebf
000003d0: 98fe 473e 1cb1 653f f4aa 1bbf ba0f 343e
000003e0: eba3 313b b488 8c3d 77b7 37bd 4445 c8be
000003f0: 566a fbbe e499 adbe 0bc6 0bbd d01c 0f3e

net.0.bias f4 [48]
-0.16053839 -0.6225177 0.37559468 0.55011433 -0.5103091 -0.58205813 -0.24435656 0.45408452
-1.4235027 0.40858334 0.19962887 -0.61057264 0.37977502 -0.25179204 0.09308047 0.4929943
-0.59009737 0.6270473 -0.035366002 0.33406466 0.925836 -0.90770906 0.3445892 0.9644005
-0.41524613 0.27982032 0.08101882 0.58493257 -0.5805095 -0.46664184 -0.09299705 0.10986439
0.29578307 -0.82548463 0.21385998 1.1208163 0.3619374 -0.049872216 -0.08805166 -0.24910173
-0.21253696 0.8066882 -0.36221182 0.39768106 3.144679 0.16538163 -0.61708814 -0.7821195
00000000: 2d64 24be 525d 1fbf f24d c03e 4bd4 0c3f
00000010: 9ea3 02bf c301 15bf 9b38 7abe c47d e83e
00000020: 5635 b6bf d631 d13e 836b 4c3e 7d4e 1cbf
00000030: df71 c23e e3ea 80be f9a0 be3d c069 fc3e
00000040: 9f10 17bf 2c86 203f f1db 10bd 860a ab3e
00000050: 9703 6d3f 9f5f 68bf ff6d b03e f3e2 763f
00000060: 249b d4be 9c44 8f3e 32ed a53d 24be 153f
00000070: 459c 14bf aeeb eebe 3d75 bebd 9500 e13d
00000080: e170 973e f652 53bf 1cfe 5a3e e976 8f3f
00000090: dc4f b93e cf46 4cbd 6e54 b4bd 8614 7fbe
000000a0: 4aa3 59be 1e83 4e3f d473 b9be da9c cb3e
000000b0: 6c42 4940 cd59 293e 7df9 1dbf fc38 48bf

net.2.weight f4 [48, 48]
3.0926976 -0.5893672 1.0581936 -0.47769666 -0.019835524 -1.7558874 0.54000556 -0.5657765
-0.14264083 -1.9393517 0.19857956 0.16089098 0.06580649 0.2885739 1.5126915 0.035222396
-0.3756954 -0.17080553 1.0216061 0.9337872 0.08657947 0.15792228 0.43362278 -0.20054214
2.3466966 -0.24234249 0.064959764 0.15851836 0.64374715 -0.9743766 -0.034943804 0.09977979
0.39486402 0.19675806 4.7350683 1.585542 0.48679566 -0.53572667 0.3562047 0.13421728
0.22882143 -2.581404 3.5833442 -1.082371 -0.30934954 0.015000212 -0.3874215 -0.3667919
0.23851284 -1.6837248 -2.4242387 0.780864 2.2392635 -1.7245338 -1.2639016 0.8405825
-0.24858467 2.1607912 -0.34213454 -0.1998847 0.14157574 0.3399371 -0.7761292 0.0039267936
0.055553406 1.061423 -1.1294693 -1.1689173 -0.27338332 -0.108707726 -0.4134996 -2.0644877
0.9819456 0.5142626 0.18734546 -0.8646039 -0.51946646 1.1567012 0.3663017 -0.7369591
-0.23749864 -3.2562413 0.14921398 -0.8754202 0.100493066 -1.8551086 -0.14351766 0.28131288
-0.16571489 -0.67406344 -0.80856144 2.5187523 0.6328883 1.0969937 -0.6503085 0.10727664
0.031621322 -0.2705708 0.27146888 -0.44309342 -0.3936245 0.3247722 -0.117116354 -0.021828305
-0.15634997 -0.30957198 -0.11691986 -1.6037856 -0.065086275 0.18163225 0.08141925 -0.013005051
-0.16526334 0.41935518 -0.1547433 0.0049510854 -0.08152229 0.06639478 0.21305804 -0.4388192
-0.14609316 0.84018934 0.6087628 0.19693674 -0.17358065 0.36816886 -0.6696623 -1.1762774
-0.5317123 0.10524693 0.38411596 -0.42471844 0.11379179 -0.87054294 -0.08000331 0.34417102
0.036433257 0.007905771 -0.08019315 0.43168142 -1.0781591 -0.011215494 -0.17612095 0.76155895
-0.057412826 -0.12098297 -0.81525165 0.19459988 0.15669292 0.08784802 0.039665863 0.014091738
0.000410975 -0.045100443 0.09117464 -0.0767606 -0.14186577 -0.04583117 -0.5931683 -0.026181715
0.41464508 0.21011442 -1.0315738 -0.36364177 -0.06643021 -0.08747266 0.1497756 0.55370325
-0.5032787 0.23523712 0.07062998 0.0006959183 0.004778974 0.009562903 0.3005411 -0.07654753
-0.1116736 0.060076386 0.1912 -0.5309721 0.0169075 0.6256488 0.24105786 0.2294644
-0.1788361 -0.14281483 -0.22697964 0.21529877 0.14492306 0.08988027 -0.13432014 0.39833027
-0.21706733 0.06633161 0.06174602 0.8182737 0.24392739 0.31249517 -0.8171658 0.06716568
-0.23050517 -1.4950329 -0.89167255 0.5098972 0.16922307 1.0109009 0.6672153 0.046199683
1.1898303 0.04322351 0.31642395 0.16258097 0.022674993 0.5204719 0.13596313 0.2186389
-0.16051263 0.5877808 -0.14836895 -0.1728728 1.9134309 -0.08864254 0.16180277 1.2619437
-4.8034625 0.19636604 -1.1396449 -0.4785757 0.19677597 0.19433932 -0.04948141 0.51744986
-0.1358514 0.9759148 -1.143256 -0.19770995 0.15910733 -0.0897009 0.015652286 0.7386849
0.17194124 0.3562171 -0.48313338 -0.009089479 -0.39364216 -0.6999377 -0.0024516238 0.12601662
0.10480479 0.5079989 0.24370807 -0.031271823 0.101316474 0.16641262 0.39463955 0.024066478
00000000: c2ee 4540 c5e0 16bf e372 873f a894 f4be
00000010: 1c7e a2bc ebc0 e0bf ce3d 0a3f bbd6 10bf
00000020: 7010 12be ad3c f8bf 7158 4b3e 9bc0 243e
00000030: 8ec5 863d f5bf 933e e09f c13f 5c45 103d
00000040: 265b c0be a5e7 2ebe fdc3 823f ae0c 6f3f
00000050: 9450 b13d 61b6 213e ce03 de3e eb5a 4dbe
00000060: 4730 1640 a128 78be a009 853d a352 223e
00000070: 9dcc 243f bf70 79bf 3c21 0fbd 5959 cc3d
00000080: 9e2b ca3e f27a 493e ae85 9740 0af3 ca3f
00000090: 483d f93e 6225 09bf 7660 b63e 4170 093e
000000a0: 2a50 6a3e b935 25c0 8355 6540 228b 8abf
000000b0: 1063 9ebe 73c3 753c 1c5c c6be 26cc bbbe
000000c0: b63c 743e 4b84 d7bf ba26 1bc0 b4e6 473f
000000d0: 1850 0f40 86bd dcbf 87c7 a1bf 6a30 573f
000000e0: fb8c 7ebe 674a 0a40 422c afbe 93ae 4cbe
000000f0: 3bf9 103e 3c0c ae3e 67b0 46bf 55ac 803b
00000100: f88b 633d b5dc 873f 7392 90bf 159f 95bf
00000110: e6f8 8bbe 28a2 debd 38b6 d3be 9120 04c0
00000120: c960 7b3f b7a6 033f 7dd7 3f3e ae56 5dbf
00000130: c1fb 04bf c90e 943f e58b bb3e 5aa9 3cbf
00000140: d832 73be 4266 50c0 8dcb 183e 8a1b 60bf
00000150: 4fcf cd3d 3374 edbf 4bf6 12be 3e08 903e
00000160: 2ab1 29be 6c8f 2cbf e2fd 4ebf 3d33 2140
00000170: f804 223f 4a6a 8c3f 9e7a 26bf dbb3 db3d
00000180: 5c85 013d 4288 8abe f8fd 8a3e 24dd e2be
00000190: 2789 c9be 8b48 a63e b3da efbd 46d1 b2bc
000001a0: 351a 20be 3880 9ebe ae73 efbd d948 cdbf
000001b0: f44b 85bd cefd 393e 23bf a63d 2313 55bc
000001c0: cb3a 29be b9b5 d63e 0775 1ebe b73c a23b
000001d0: 29f5 a6bd fdf9 873d e32b 5a3e e9ac e0be
000001e0: 7299 15be a616 573f e1d7 1b3f c9a9 493e
000001f0: 20bf 31be a180 bc3e fd6e 2bbf 4290 96bf
00000200: 4c1e 08bf b48b d73d d9aa c43e b274 d9be
00000210: ac0b e93d e7db 5ebf c7d8 a3bd 2f37 b03e
00000220: 0a3b 153d 3587 013c 4e3c a4bd 5905 dd3e
00000230: 1e01 8abf 31c1 37bc 0d59 34be 87f5 423f
00000240: b629 6bbd ebc5 f7bd 55b4 50bf 3145 473e
00000250: 1c74 203e aae9 b33d ac78 223d 08e1 663c
00000260: 2178 d739 3ebb 38bd c5b9 ba3d a934 9dbd
00000270: 4345 11be 77b9 3bbd e1d9 17bf 097b d6bc
00000280: 5c4c d43e 3c28 573e 9c0a 84bf 412f babe
00000290: 900c 88bd de24 b3bd c65e 193e 7fbf 0d3f
000002a0: dfd6 00bf 00e2 703e 73a6 903d 496e 363a
000002b0: f198 9c3b b9ad 1c3c 86e0 993e f4c4 9cbd
000002c0: 21b5 e4bd a812 763d efc9 433e caed 07bf
000002d0: 9981 8a3c 852a 203f dfd7 763e b7f8 6a3e
000002e0: d020 37be 0d3e 12be 5a6d 68be 4877 5c3e
000002f0: b666 143e 2613 b83d 388b 09be f2f1 cb3e
00000300: e646 5ebe ded8 873d 65e9 7c3d 637a 513f
00000310: 1ac8 793e 5eff 9f3e c731 51bf 298e 893d
00000320: 8c09 6cbe 3d5d bfbf a744 64bf 9f88 023f
00000330: d048 2d3e 3365 813f 9fce 2a3f e13b 3d3d
00000340: 5c4c 983f 230b 313d 5202 a23e a07b 263e
00000350: e8c0 b93c a53d 053f eb39 0b3e e0e2 5f3e
00000360: 6c5d 24be cd78 163f 08ee 17be 9105 31be
00000370: 4eeb f43f 388a b5bd a0af 253e 5f87 a13f
00000380: f7b5 99c0 2e14 493e e2df 91bf e007 f5be
00000390: a47f 493e e300 473e 05ad 4abd 9877 043f
000003a0: a11c 0bbe 8dd5 793f 3656 92bf 7a74 4abe
000003b0: 08ed 223e 1bb5 b7bd 3939 803c 741a 3d3f
000003c0: 5d11 303e 1662 b63e 425d f7be 0aec 14bc
000003d0: 778b c9be 1e2f 33bf 6cab 20bb 800a 013e
000003e0: e5a3 d63d 370c 023f 9c8e 793e e216 00bd
000003f0: 037f cf3d 1268 2a3e 320e ca3e 1027 c53c

net.2.bias f4 [48]
1.1709214 -1.1195494 1.5982724 2.0084963 -1.3300459 0.46778947 -1.2167637 -0.32087943
-1.3043258 -0.24712467 0.36789173 -0.52171504 2.966926 0.6407001 -0.30317873 -2.3481202
-0.032562513 -2.073095 0.42524287 0.23312524 0.034983292 -1.1549515 1.0517027 -1.7241629
-0.49051964 2.0995166 -1.0930862 -0.8419272 -1.1548095 0.42422748 -1.1956694 -1.152889
-0.38116914 2.5701804 2.2994194 -2.5423484 3.0939887 2.3561969 -0.08554557 -0.25295612
-1.4417928 0.28225005 0.16602716 -0.5203623 0.34997535 0.6694456 0.6390931 0.79606175
00000000: c1e0 953f 654d 8fbf 3194 cc3f 348b 0040
00000010: f23e aabf 1a82 ef3e eabe 9bbf 4f4a a4be
00000020: 26f4 a6bf 400e 7dbe 4e5c bc3e 1e8f 05bf
00000030: 1ee2 3d40 ec04 243f 3e3a 9bbe 9a47 16c0
00000040: 4560 05bd 97ad 04c0 6fb9 d93e 62b8 6e3e
00000050: a44a 0f3d 73d5 93bf 329e 863f 5fb1 dcbf
00000060: 6425 fbbe 7b5e 0640 40ea 8bbf 8a88 57bf
00000070: ccd0 93bf 5834 d93e b20b 99bf de91 93bf
00000080: 9a28 c3be d67d 2440 b029 1340 d6b5 22c0
00000090: e903 4640 eecb 1640 8432 afbd 7783 81be
000000a0: ab8c b8bf 1483 903e 0603 2a3e 7736 05bf
000000b0: f82f b33e c960 2b3f 9b9b 233f b4ca 4b3f

net.4.weight f4 [48, 48]
-0.17775443 -0.16231793 -0.04947923 0.043525808 -0.010686413 -0.19986857 -0.21897441 0.32480827
-0.42660773 0.07621745 0.90831506 0.0074894545 0.48822227 -1.1502793 -0.10994045 -0.27044874
-0.5539472 0.529753 0.2574448 -0.39970794 0.07493584 -0.49408486 0.03909557 0.017621549
-0.0115768835 0.33238757 -0.9533702 -0.42129233 -0.03018017 -0.06868853 0.60634255 -0.24809888
0.56845784 0.1722236 0.338005 -0.033762947 -0.3480086 -0.124438904 -0.19133118 0.29136288
-0.23773032 -0.023681287 0.428814 -0.46002355 0.46361953 -0.27307123 -0.32362983 -0.26714492
0.06860439 0.037707344 1.4785191 0.4122986 1.925513 -0.27235335 0.59925973 0.032944568
-0.17817883 1.7526728 0.28482413 0.014840393 0.039827015 -0.66514856 -0.023519618 -0.18269601
0.5928091 0.37290376 -0.108526535 0.3513912 -0.21208464 -0.24928065 -0.771981 0.16122481
-0.054193936 0.9858553 0.017886112 0.056133863 0.43704996 0.15789661 0.2157342 0.2423929
-0.29588398 -0.1081872 -0.051291652 -1.7520844 -0.1292683 -0.2086982 0.30996364 0.55636954
-0.17969204 0.55372113 0.16168179 -0.12276077 -0.4467067 1.7105331 -0.0012380538 -0.3695252
1.4429952 -1.6219702 -0.054675836 0.44908074 -0.0041031665 0.51266634 -0.025718855 -0.36232778
-1.7533156 -0.012092528 -0.09391454 -0.085176 0.46751952 -0.4282419 -0.005716723 -1.4733133
-0.71216357 -0.8016198 -0.29795405 -0.3390631 -0.20416705 -0.5361364 -0.21382141 0.13363577
-1.0154392 1.0999871 -0.53607875 -0.080178574 0.40913594 -0.003919606 0.10123642 -0.38754997
0.5891657 0.1590145 1.2258651 -0.15439898 -0.7150437 0.9597691 0.39346942 0.8008682
1.1241419 -0.2008794 0.7495784 0.28847528 1.3029754 1.8684782 0.08055698 -0.002539321
0.15983662 -0.17279693 0.02701215 -0.4022362 -0.0047001676 0.17548224 0.1581536 0.043632925
-0.2091641 -0.006735633 0.8402255 -0.011229446 0.08349465 -0.31606635 0.16459006 -0.046063066
0.0061457325 -0.15597871 0.00012368849 0.020978633 -0.011793815 0.09589367 -0.2075779 0.11659478
0.092188306 0.338147 0.09142963 0.06908269 0.053800493 0.028953006 0.064579695 -0.4463711
0.6741949 -0.10718333 0.046974536 0.02367946 -0.0213027 0.16083471 0.2799306 0.27979177
0.15755841 0.17619096 0.18284416 -0.12234093 -0.059312545 0.22552381 0.09041451 -0.03510282
-0.18083164 0.39347506 -0.0088728415 0.3848995 0.09786404 -0.09129651 0.044998296 -0.733387
0.13091733 -0.0094122095 0.8488389 -0.03149939 -0.30733052 0.044106986 -0.016118774 1.7588615
1.5069216 0.514159 -0.5279772 0.3970864 0.10381973 -0.46049076 0.26207626 -0.12754005
0.6045488 -0.10692465 0.91119516 0.4715034 0.3406325 0.0033234304 -0.6364082 -0.40695652
0.60087866 -0.07983059 -1.9523636 0.078056194 -0.4406853 -0.633174 1.1260011 -0.11940194
-1.1465936 -0.76963025 0.055924114 1.6082969 0.3638937 0.15071388 0.99807966 -0.15643302
-0.06404403 0.14185649 0.078809515 -0.20300329 0.054861266 0.34899455 1.2308856 -0.020242373
-0.6617416 0.04797871 -0.051788997 -0.074826166 -0.5388303 0.41364595 -0.32965946 0.64076734
00000000: 4205 36be ac36 26be bcaa 4abd 1e48 323d
00000010: 1116 2fbc 59aa 4cbe d43a 60be 454d a63e
00000020: 546c dabe e517 9c3d 5687 683f 196a f53b
00000030: 45f8 f93e 5a3c 93bf 7528 e1bd 4278 8abe
00000040: 7ccf 0dbf e59d 073f cecf 833e 85a6 ccbe
00000050: f677 993d b1f8 fcbe ad22 203d 115b 903c
00000060: f8ac 3dbc b42e aa3e 1210 74bf a1b3 d7be
00000070: 673c f7bc 92ac 8cbd 4439 1b3f a20d 7ebe
00000080: 7486 113f 625b 303e fe0e ad3e 044b 0abd
00000090: 2f2e b2be d3d9 febd 52ec 43be 842d 953e
000000a0: 946f 73be 42ff c1bc 828d db3e 3588 ebbe
000000b0: 8a5f ed3e fecf 8bbe cfb2 a5be 38c7 88be
000000c0: 7580 8c3d 0473 1a3d 1d40 bd3f cd18 d33e
000000d0: 3677 f63f e671 8bbe 1669 193f e2f0 063d
000000e0: 8374 36be 9557 e03f 78d4 913e 1f25 733c
000000f0: a721 233d 2d47 2abf 37ac c0bc aa14 3bbe
00000100: 56c2 173f 3eed be3e 2943 debd 8ce9 b33e
00000110: b72c 59be 6d43 7fbe 8ca0 45bf 1e18 253e
00000120: 76fa 5dbd 0361 7c3f e585 923c 9fec 653d
00000130: 03c5 df3e a6af 213e 6de9 5c3e d835 783e
00000140: 1b7e 97be 4091 ddbd 3217 52bd 4d44 e0bf
00000150: e95e 04be fbb4 55be 8eb3 9e3e 3c6e 0e3f
00000160: 3101 38be abc0 0d3f e98f 253e 006a fbbd
00000170: beb6 e4be c0f2 da3f 3146 a2ba 6832 bdbe
00000180: 11b4 b83f b89c cfbf c5f3 5fbd e9ed e53e
00000190: db73 86bb 1a3e 033f 59b0 d2bc 0783 b9be
000001a0: a56c e0bf bd1f 46bc 4456 c0bd c170 aebd
000001b0: b85e ef3e 8642 dbbe 5953 bbbb 8895 bcbf
000001c0: 5a50 36bf f536 4dbf 6f8d 98be ae99 adbe
000001d0: 2b11 51be 3c40 09bf 00f4 5abe d1d7 083e
000001e0: e9f9 81bf 61cc 8c3f 753c 09bf aa34 a4bd
000001f0: 447a d13e 0a70 80bb 0a55 cf3d f36c c6be
00000200: 90d3 163f b2d4 223e 26e9 9c3f c41a 1ebe
00000210: 1b0d 37bf 6eb3 753f d374 c93e b305 4d3f
00000220: e2e3 8f3f 54b3 4dbe 5fe4 3f3f 08b3 933e
00000230: e6c7 a63f 4b2a ef3f 0ffb a43d bd6a 26bb
00000240: 36ac 233e aef1 30be 9648 dd3c e7f1 cdbe
00000250: dd03 9abb 9eb1 333e 04f3 213e 70b8 323d
00000260: 1d2f 56be 96b6 dcbb 0519 573f b6fb 37bc
00000270: 3eff aa3d 73d3 a1be 4c8a 283e a0ac 3cbd
00000280: 2462 c93b e2b8 1fbe 60b2 0139 62db ab3c
00000290: d83a 41bc e763 c43d 4d8f 54be 3ec9 ee3d
000002a0: 39cd bc3d 9b21 ad3e 753f bb3d 3a7b 8d3d
000002b0: e85d 5c3d db2e ed3c 5c42 843d c18a e4be
000002c0: 0998 2c3f ef82 dbbd 5f68 403d 6dfb c13c
000002d0: 0083 aebc dbb1 243e 1053 8f3e de40 8f3e
000002e0: fe56 213e 676b 343e 803b 3b3e e28d fabd
000002f0: b6f1 72bd b7ef 663e 3e2b b93d f9c7 0fbd
00000300: ee2b 39be 9075 c93e 655f 11bc 8c11 c53e
00000310: f16c c83d aaf9 babd 2250 383d 40bf 3bbf
00000320: 310f 063e ab35 1abc 824d 593f 8105 01bd
00000330: 6d5a 9dbe 87a9 343d 850b 84bc 6022 e13f
00000340: cfe2 c03f ed9f 033f 8429 07bf e94e cb3e
00000350: 709f d43d 72c5 ebbe dc2e 863e dc99 02be
00000360: b6c3 1a3f 50fb dabd 1644 693f e568 f13e
00000370: 6267 ae3e e9cd 593b a6eb 22bf 9b5c d0be
00000380: 2fd3 193f 387e a3bd 0de7 f9bf eddb 9f3d
00000390: 81a1 e1be b117 22bf ce20 903f 0189 f4bd
000003a0: 94c3 92bf 7d06 45bf af10 653d acdc cd3f
000003b0: 4650 ba3e bd54 1a3e 2682 7f3f fa2f 20be
000003c0: 8429 83bd d442 113e e266 a13d 18e0 4fbe
000003d0: 35b6 603d 6aaf b23e a98d 9d3f 55d3 a5bc
000003e0: e667 29bf 5385 443d b320 54bd 763e 99bd
000003f0: c8f0 09bf 67c9 d33e 20c9 a8be 5409 243f

net.4.bias f4 [48]
0.97607046 0.48527122 -0.137346 0.7144438 0.6467143 0.15222263 2.2248914 0.44822913
-0.11293094 -1.0079874 1.3457191 -0.18118934 1.4974362 -1.0180479 -0.08647359 0.12711078
-0.13178404 0.9018107 0.45614144 1.2043393 -0.1878061 1.2924088 1.5298723 -0.10660743
1.0690134 -0.3505643 -0.9054443 0.9607342 -0.750149 -0.6075128 1.8124346 0.4180061
-0.48082033 -0.2430899 0.2086438 -1.6678034 0.85486925 2.0200546 -0.25123048 0.42557496
-1.0069392 -1.954601 0.74945277 -1.0515116 1.8386927 0.02374372 -0.2331822 -0.76700056
00000000: c1df 793f 7875 f83e 6ea4 0cbe cae5 363f
00000010: 128f 253f 40e0 1b3e 9f64 0e40 4a7e e53e
00000020: 5648 e7bd bb05 81bf 8640 ac3f b389 39be
00000030: fdab bf3f 654f 82bf 1119 b1bd 5429 023e
00000040: 65f2 06be 11dd 663f 5f8b e93e ca27 9a3f
00000050: 3e50 40be a76d a53f dbd2 c33f ff54 dabd
00000060: 6ed5 883f 2a7d b3be 33cb 67bf adf2 753f
00000070: c409 40bf f585 1bbf dbfd e73f e504 d63e
00000080: 152e f6be 8fec 78be b8a6 553e 957a d5bf
00000090: b6d8 5a3f 9348 0140 48a1 80be f6e4 d93e
000000a0: 62e3 80bf 5e30 fabf 23dc 3f3f ef97 86bf
000000b0: 485a eb3f 3182 c23c 51c7 6ebe 265a 44bf

net.6.weight f4 [198, 48]
-2.1403978 0.056655124 -0.11155808 -1.3766595 -0.2873585 -0.20417477 -3.0274606 -0.39974606
-2.4967778 4.222246 -1.2099794 -0.11085763 -0.23504375 0.5479065 0.44884157 -0.4385478
-1.591636 -0.2083401 0.059357837 -0.8759824 -1.1521578 -0.9268912 1.2853343 2.6082747
0.37513983 1.5051119 0.16837782 0.097283155 0.16098806 -0.47756398 0.025257125 1.2605315
0.29312325 0.03217951 2.7471783 2.0503078 -0.56345713 -0.51078385 -0.014505713 0.006469308
-1.343221 0.69956255 5.819761 -0.13548176 0.037777733 -1.5193927 0.50871956 0.051585197
-0.26934478 0.014826167 0.0029318875 -0.0089342175 1.2272321 0.34720793 -1.411257 -1.4944628
-0.33439213 -0.044481874 -1.3161545 -0.46342456 1.3122054 0.2497192 -1.3279473 0.31559432
-0.235514 -0.37503532 0.1871965 1.5289215 -0.13771176 0.44882092 1.5411283 0.8877126
0.009385428 1.7742907 0.21019134 0.9415966 0.10647152 -0.15558705 -0.29252267 -0.010894228
0.2873871 1.0862273 -0.18431848 0.32645407 -0.2826258 0.36032742 0.006505188 -0.60965216
0.11365679 -0.9782178 8.097451e-05 -0.009283144 -0.014827688 -0.94802386 -0.46496508 0.007828033
0.1620445 0.035712276 0.05208108 -0.5922149 -0.51710457 -0.16734257 0.56760794 0.34037516
0.5241254 -0.01979614 -0.035996743 -0.03306861 0.0048209513 -0.3152827 0.009244712 -0.001695884
0.49663156 -0.29951718 -0.1190153 0.14710505 0.5711089 -0.20171809 -0.15949632 -0.015915303
0.022614349 -0.7457801 -0.42546472 -0.20741914 -0.9275871 -0.009796579 0.06844845 -0.524679
-0.27337977 -0.20291853 -0.18831092 -0.548668 -0.33719894 0.20405038 0.024689846 -0.045023583
0.22294614 0.16352867 -0.0014023344 0.0833649 -0.13984375 0.4798723 0.30770844 0.05157926
-0.68283224 -0.05114784 0.08162469 0.56661564 0.89685047 -0.79263264 -2.4704218 3.728222
-1.2236577 -0.015907776 3.9414833 0.94295144 -2.3755386 -0.011059652 2.3685627 -0.68606275
0.15296105 1.0659323 0.6550866 1.3252908 0.15551583 -0.5421507 -3.8323095 -0.69828016
-0.021956641 1.1792498 -0.81681174 -1.6844063 -0.48295268 0.28511125 0.34067863 -0.16896202
1.1318923 -2.0018575 0.17064023 -0.7194165 0.1952082 -0.8813528 0.03856594 0.7241423
-0.679119 0.6955704 0.042134594 -0.2518089 -0.55644906 -0.34272644 -0.38361153 -0.090222195
-0.03293607 -0.0010295996 -0.28592232 -0.20868133 0.022209631 0.020562658 0.005616438 -0.006405067
-0.1017222 -0.003164449 -0.07876745 0.29554346 -0.089851394 -0.02563153 0.012257711 0.0891396
-0.16741464 0.036686897 -0.015692059 -0.03179674 -0.094769515 0.16279662 -0.032548726 -0.054524463
-0.003332067 -0.023040382 0.017735552 0.0016627108 0.009323946 -0.17507471 -0.003291951 -0.0125593515
0.09486501 0.012224848 -0.10177257 -0.10589868 0.032827474 0.029319184 -0.0010607209 0.008458862
0.03080742 0.02847817 0.0063425014 0.06600301 3.4115 -0.0059732264 -0.014408591 0.0037921397
0.0051537845 -0.187413 0.00699181 -0.02644088 -0.016939854 0.0094089545 -0.041631263 0.00469041
-0.023011202 -0.0016206631 -0.02797801 -0.011121299 -0.006073307 0.006820322 0.008849092 0.007534316
00000000: 47fc 08c0 340f 683d 9078 e4bd 6136 b0bf
00000010: a720 93be 3113 51be eac1 41c0 84ab ccbe
00000020: 35cb 1fc0 a41c 8740 9be0 9abf 5309 e3bd
00000030: 4faf 70be 9a43 0c3f 90ce e53e 5689 e0be
00000040: baba cbbf 1b57 55be 3421 733d 6240 60bf
00000050: e879 93bf be48 6dbf d685 a43f f9ed 2640
00000060: 5412 c03e 82a7 c03f 3c6b 2c3e 643c c73d
00000070: 0eda 243e 4483 f4be 08e8 ce3c 1959 a13f
00000080: 4014 963e a9ce 033d c5d1 2f40 3e38 0340
00000090: ba3e 10bf bbc2 02bf 5fa9 6dbc 7dfc d33b
000000a0: aaee abbf 8816 333f 7b3b ba40 bbbb 0abe
000000b0: d3bc 1a3d 767b c2bf 723b 023f 004b 533d
000000c0: 8fe7 89be 74e9 723c e924 403b d360 12bc
000000d0: f115 9d3f 3dc5 b13e 12a4 b4bf 8f4a bfbf
000000e0: 7235 abbe a032 36bd c077 a8bf fc45 edbe
000000f0: 59f6 a73f 64b6 7f3e 2dfa a9bf 9495 a13e
00000100: 952a 71be a104 c0be 70b0 3f3e b3b3 c33f
00000110: 5004 0dbe dbcb e53e b143 c53f 2241 633f
00000120: 57c5 193c f51b e33f 663c 573e 7a0c 713f
00000130: be0d da3d 3652 1fbe 88c5 95be b47d 32bc
00000140: 6724 933e 7f09 8b3f fcbd 3cbe fd24 a73e
00000150: 54b4 90be d67c b83e 7929 d53b 2a12 1cbf
00000160: e4c4 e83d 7b6c 7abf dcd0 a938 5418 18bc
00000170: d5ef 72bc b1b1 72bf e70f eebe 2641 003c
00000180: feee 253e 0947 123d f852 553d 659b 17bf
00000190: f760 04bf da5b 2bbe c14e 113f a745 ae3e
000001a0: 152d 063f 842b a2bc 5271 13bd f372 07bd
000001b0: 12f9 9d3b bc6c a1be 2277 173c 6d48 deba
000001c0: 7e46 fe3e 515a 99be 4bbe f3bd b5a2 163e
000001d0: 3134 123f 308f 4ebe 0153 23be cf60 82bc
000001e0: ba41 b93c 72eb 3ebf 83d6 d9be af65 54be
000001f0: 5976 6dbf d581 20bc b32e 8c3d 5d51 06bf
00000200: 6ff8 8bbe e0c9 4fbe 94d4 40be 8275 0cbf
00000210: 57a5 acbe 95f2 503e 5c42 ca3c a66a 38bd
00000220: fe4b 643e 0f74 273e 89ce b7ba 37bb aa3d
00000230: 3333 0fbe d2b1 f53e f68b 9d3e c644 533d
00000240: 18ce 2ebf 6680 51bd d82a a73d b90d 113f
00000250: fe97 653f f9e9 4abf 641b 1ec0 309b 6e40
00000260: d1a0 9cbf 0651 82bc 4341 7c40 4465 713f
00000270: d308 18c0 8b33 35bc 8896 1740 cfa1 2fbf
00000280: d2a1 1c3e 7870 883f c1b3 273f 21a3 a93f
00000290: 8b3f 1f3e 63ca 0abf 8f44 75c0 7dc2 32bf
000002a0: 6ade b3bc a8f1 963f 931a 51bf a09a d7bf
000002b0: 9345 f7be 1afa 913e 6e6d ae3e 6104 2dbe
000002c0: d9e1 903f 6f1e 00c0 50bc 2e3e ae2b 38bf
000002d0: a9e4 473e 56a0 61bf 52f7 1d3d 6461 393f
000002e0: beda 2dbf e710 323f 5395 2c3d 19ed 80be
000002f0: 7273 0ebf d779 afbe bb68 c4be 6ac6 b8bd
00000300: f9e7 06bd a1f3 86ba 6964 92be 8fb0 55be
00000310: f9f0 b53c 0573 a83c 190a b83b 99e1 d1bb
00000320: bb53 d0bd a562 4fbb d450 a1bd 7951 973e
00000330: 0204 b8bd 37f9 d1bc 91d4 483c d38e b63d
00000340: be6e 2bbe 0045 163d a28c 80bc 4c3d 02bd
00000350: 8516 c2bd 28b4 263e d051 05bd 0b55 5fbd
00000360: cf5e 5abb 2fbf bcbc 264a 913c 51ef d93a
00000370: 77c3 183c c946 33be c6bd 57bb bdc5 4dbc
00000380: 9648 c23d bb4a 483c 236e d0bd 68e1 d8bd
00000390: 1a76 063d c92e f03c e307 8bba 0a97 0a3c
000003a0: d85f fc3c 0d4b e93c c2d4 cf3b 962c 873d
000003b0: 0456 5a40 0ebb c3bb 0312 6cbc 8c85 783b
000003c0: 14e1 a83b 32e9 3fbe 8e1b e53b 8b9a d8bc
000003d0: 73c5 8abc 0428 1a3c 8b85 2abd 03b2 993b
000003e0: fd81 bcbc 6e6c d4ba 2432 e5bc 1c36 36bc
000003f0: 9702 c7bb 027d df3b c8fb 103c 6ce2 f63b

net.6.bias f4 [198]
-0.34868208 -2.83861e-40 0.47112006 7.7448e-41 -0.9124602 -0.9229613 0.2791418 0.2030045
0.478824 0.6370802 0.7186522 0.76588565 0.7913627 0.79809433 0.8011037 0.81304765
0.83330387 0.85502243 0.8722236 0.8889375 0.9101399 0.934191 0.9576761 0.9795677
1.0008475 1.022019 1.0397769 1.050238 1.0515327 1.0456526 1.0364016 1.027828
1.0218697 1.0178654 1.0124091 0.9972341 0.9577144 0.8817526 0.9832588 0.55208975
0.35365543 0.3024152 0.26275358 0.20134959 0.14181064 0.08629484 0.011757768 -0.05279908
-0.091982014 -0.09452777 -0.064278595 -0.012913132 0.04287712 0.09535233 0.15543927 0.21001105
0.25592452 0.3162073 0.39553997 0.48694187 0.5978702 0.7259246 0.8425928 0.92883736
0.9810871 1.0030786 1.0001353 0.9708931 0.9021989 0.804694 0.5352 0.47159514
0.4442194 0.44751227 0.46202376 0.48440105 0.5128079 0.544624 0.57729733 0.6092707
0.638584 0.66380763 0.6837981 0.69692093 0.70177305 0.69819975 0.6873634 0.671697
0.6543785 0.63877857 0.6280094 0.6230533 0.6244531 0.6308634 0.64023894 0.65143126
0.66309226 0.67454135 0.6895757 0.71502954 0.76156485 0.84047216 0.2791418 0.2030045
0.478824 0.6370802 0.7186522 0.76588565 0.7913627 0.79809433 0.8011037 0.81304765
0.83330387 0.85502243 0.8722236 0.8889375 0.9101399 0.934191 0.9576761 0.9795677
1.0008475 1.022019 1.0397769 1.050238 1.0515327 1.0456526 1.0364016 1.027828
1.0218697 1.0178654 1.0124091 0.9972341 0.9577144 0.8817526 0.9832588 0.55208975
0.35365543 0.3024152 0.26275358 0.20134959 0.14181064 0.08629484 0.011757768 -0.05279908
-0.091982014 -0.09452777 -0.064278595 -0.012913132 0.04287712 0.09535233 0.15543927 0.21001105
0.25592452 0.3162073 0.39553997 0.48694187 0.5978702 0.7259246 0.8425928 0.92883736
0.9810871 1.0030786 1.0001353 0.9708931 0.9021989 0.804694 -0.5352 -0.47159514
-0.4442194 -0.44751227 -0.46202376 -0.48440105 -0.5128079 -0.544624 -0.57729733 -0.6092707
-0.638584 -0.66380763 -0.6837981 -0.69692093 -0.70177305 -0.69819975 -0.6873634 -0.671697
-0.6543785 -0.63877857 -0.6280094 -0.6230533 -0.6244531 -0.6308634 -0.64023894 -0.65143126
-0.66309226 -0.67454135 -0.6895757 -0.71502954 -0.76156485 -0.84047216
00000000: 7586 b2be 4a17 0380 a636 f13e e5d7 0000
00000010: fe96 69bf 3147 6cbf adeb 8e3e 69e0 4f3e
00000020: 6b28 f53e b017 233f 97f9 373f 1511 443f
00000030: bf96 4a3f e94f 4c3f 2215 4d3f e423 503f
00000040: 6753 553f c0e2 5a3f 0c4a 5f3f 6891 633f
00000050: eefe 683f 2427 6f3f 432a 753f f3c4 7a3f
00000060: c51b 803f 85d1 823f 6917 853f 336e 863f
00000070: a098 863f f2d7 853f cfa8 843f de8f 833f
00000080: a0cc 823f 6a49 823f 9f96 813f bc4a 7f3f
00000090: c52c 753f 8aba 613f d9b6 7b3f c155 0d3f
000000a0: 5312 b53e 2ad6 9a3e a387 863e 962e 4e3e
000000b0: cf36 113e 59bb b03d a7a3 403c d943 58bd
000000c0: 1161 bcbd c797 c1bd 7fa4 83bd 9a91 53bc
000000d0: eb9f 2f3d 1548 c33d 792b 1f3e 230d 573e
000000e0: 8a08 833e ece5 a13e 3784 ca3e 7250 f93e
000000f0: 050e 193f 32d6 393f 29b4 573f 49c8 6d3f
00000100: 8628 7b3f e164 803f 6f04 803f 738c 783f
00000110: 82f6 663f 6d00 4e3f de02 093f eb74 f13e
00000120: ba70 e33e 5420 e53e 618e ec3e 6a03 f83e
00000130: 6147 033f 7a6c 0b3f c2c9 133f 2af9 1b3f
00000140: 3e7a 233f 4cef 293f 640d 2f3f 6969 323f
00000150: 66a7 333f 38bd 323f 0cf7 2f3f 56f4 2b3f
00000160: 5985 273f fe86 233f 39c5 203f 6c80 1f3f
00000170: 29dc 1f3f 4480 213f b3e6 233f 33c4 263f
00000180: 6ac0 293f beae 2c3f 0888 303f 2d0c 373f
00000190: eaf5 423f 2f29 573f adeb 8e3e 69e0 4f3e
000001a0: 6b28 f53e b017 233f 97f9 373f 1511 443f
000001b0: bf96 4a3f e94f 4c3f 2215 4d3f e423 503f
000001c0: 6753 553f c0e2 5a3f 0c4a 5f3f 6891 633f
000001d0: eefe 683f 2427 6f3f 432a 753f f3c4 7a3f
000001e0: c51b 803f 85d1 823f 6917 853f 336e 863f
000001f0: a098 863f f2d7 853f cfa8 843f de8f 833f
00000200: a0cc 823f 6a49 823f 9f96 813f bc4a 7f3f
00000210: c52c 753f 8aba 613f d9b6 7b3f c155 0d3f
00000220: 5312 b53e 2ad6 9a3e a387 863e 962e 4e3e
00000230: cf36 113e 59bb b03d a7a3 403c d943 58bd
00000240: 1161 bcbd c797 c1bd 7fa4 83bd 9a91 53bc
00000250: eb9f 2f3d 1548 c33d 792b 1f3e 230d 573e
00000260: 8a08 833e ece5 a13e 3784 ca3e 7250 f93e
00000270: 050e 193f 32d6 393f 29b4 573f 49c8 6d3f
00000280: 8628 7b3f e164 803f 6f04 803f 738c 783f
00000290: 82f6 663f 6d00 4e3f de02 09bf eb74 f1be
000002a0: ba70 e3be 5420 e5be 618e ecbe 6a03 f8be
000002b0: 6147 03bf 7a6c 0bbf c2c9 13bf 2af9 1bbf
000002c0: 3e7a 23bf 4cef 29bf 640d 2fbf 6969 32bf
000002d0: 66a7 33bf 38bd 32bf 0cf7 2fbf 56f4 2bbf
000002e0: 5985 27bf fe86 23bf 39c5 20bf 6c80 1fbf
000002f0: 29dc 1fbf 4480 21bf b3e6 23bf 33c4 26bf
00000300: 6ac0 29bf beae 2cbf 0888 30bf 2d0c 37bf
00000310: eaf5 42bf 2f29 57bf
