training/old_logs/nn-xxsmall.pth (torch, 55471 bytes, 6 tensors)

net.0.weight f4 [48, 25]
0	0x3ea40953	0.32038364
1	0x3e1613a2	0.14655927
2	0xbd816cbf	-0.0631957
3	0xbd7a8422	-0.061161168
4	0x3dd5ca6c	0.104389995
5	0x3ea41ea4	0.32054627
6	0x3f0614ed	0.5237568
7	0x3fb83152	1.4390051
8	0xbe8f02c7	-0.27931806
9	0xbe83ad33	-0.25718078
10	0x3d8acda5	0.06777505
11	0x3da466b0	0.080273986
12	0xbe15c4de	-0.1462588
13	0xbe60ec25	-0.21965082
14	0xbd7d43d1	-0.061832253
15	0xbe65838d	-0.22413464
16	0xbcdce7e5	-0.026966045
17	0xbf13b34a	-0.5769545
18	0x3f9a7702	1.2067568
19	0xbf33f9cb	-0.7030303
20	0x3f56153f	0.8362617
21	0xbd6d7517	-0.057972994
22	0x3c048ac8	0.008089729
23	0xbb7c3b9a	-0.0038487674
24	0x3d43cb9b	0.047801595
25	0xbcb562b4	-0.022141792
26	0xbd0ac8d1	-0.03388292
27	0x3e0212d2	0.12702492
28	0x3e041f3e	0.12902543
29	0xb9cc9860	-0.0003902344
30	0xbdc7eaa8	-0.09761554
31	0xbd651e13	-0.055936884
32	0x3c93f4dd	0.018061096
33	0x3e4cdcde	0.20006129
34	0xbcf80607	-0.030276312
35	0x3dd6ae2f	0.10482442
36	0x3e8fc73d	0.28081694
37	0x3e17a1df	0.14807843
38	0xbe8fe980	-0.28107834
39	0xbf4d1103	-0.8010408
40	0xbfb8b098	-1.4428892
41	0x3b0d1aeb	0.0021530937
42	0xbdf67bfc	-0.12035367
43	0xbf4ffb65	-0.8124297
44	0x3ecf7074	0.40515482
45	0xbe6d1423	-0.23152213
46	0xbe09902f	-0.13433908
47	0xbc8a7772	-0.01690266
48	0xbb0fa204	-0.0021916637
49	0xbd4334c0	-0.04765773
50	0xbde3a6b3	-0.1111578
51	0x3da3a4cf	0.07990419
52	0xbcffa74c	-0.031207703
53	0xbdea1f63	-0.11431768
54	0xbd7f62e6	-0.062350176
55	0x3d7a373b	0.061087828
56	0x3ded1e31	0.11578024
57	0xbd19c35c	-0.037539825
58	0xbeb87f56	-0.3603465
59	0xbe4c798d	-0.19968243
60	0x3e6ab818	0.22921789
61	0x3e78df30	0.2430389
62	0xbe4a78c8	-0.19772637
63	0xbf3538e2	-0.7078992
64	0xbf3b5556	-0.7317709
65	0x3dbddbe9	0.0927046
66	0xbe06eeca	-0.13177028
67	0x3bc92127	0.0061379853
68	0xbfe3d2ea	-1.7798741
69	0xbf1facbc	-0.62372947
70	0x3f75463f	0.9581031
71	0xbf879fa2	-1.0595591
72	0xbbe00848	-0.0068369247
73	0xbd9ad90e	-0.07560931
74	0x3e17b1fa	0.14813986
75	0x412c578a	10.771372
76	0x3ebf37fd	0.37347403
77	0x3f23825f	0.63870806
78	0x3de58062	0.11206128
79	0xbe3f2568	-0.18666613
80	0xbe0ed640	-0.13948917
81	0x3e13d6b0	0.14437366
82	0x3e5bccb9	0.21464814
83	0x4000a415	2.0100148
84	0xbe2f165b	-0.17098372
85	0x3d05a933	0.032632064
86	0xbdf837a5	-0.12119988
87	0xbe82f211	-0.25575307
88	0xbe774aaf	-0.24149583
89	0xbd8aeb4c	-0.067831606
90	0x3e57cff5	0.21075423
91	0x3e3be2d7	0.18348251
92	0xbd54e4ea	-0.051976122
93	0x3ef9a9bc	0.4876231
94	0x3f868b85	1.0511328
95	0xc07819a2	-3.8765645
96	0xbe9ccc98	-0.30624843
97	0xbcd7f77e	-0.02636313
98	0xbcc55291	-0.024087222
99	0xbd7ae250	-0.061250985
100	0x3ecbc436	0.39798135
101	0xbda73564	-0.0816448
102	0xbde57cdd	-0.112054564
103	0x3d862b4b	0.06551226
104	0x3e6762ca	0.22596279
105	0x3ea1da4b	0.31611857
106	0x3ed2bf4c	0.41161573
107	0x3f8b4e8c	1.0883346
108	0xbed5449d	-0.4165391
109	0x3d3e3e61	0.046446208
110	0x3e818c8f	0.2530255
111	0xbd692804	-0.056922927
112	0xbec309f5	-0.38093534
113	0xbeb3a263	-0.3508483
114	0xbdb0256f	-0.0860089
115	0xbd2655e5	-0.04060926
116	0xbd438e53	-0.047743153
117	0xbf054d8d	-0.5207146
118	0x3f60bd8d	0.8778923
119	0xbe74d8ba	-0.239108
120	0xc0049244	-2.0714273
121	0x3e6dfd9e	0.23241279
122	0xbc26bcbc	-0.010176834
123	0xbaec5f6e	-0.0018033811
124	0x3d935688	0.07194239
125	0x3cd4a418	0.025957152
126	0xbd7878b8	-0.060662
127	0x3e18640f	0.1488192
128	0x3db3514c	0.087557405
129	0xbd07f7c9	-0.03319529
130	0xbd50b0c2	-0.05094982
131	0xbdc7d78b	-0.097579084
132	0xbdf29e85	-0.118466415
133	0x40745013	3.8173873
134	0x40995542	4.7916574
135	0x3fda2cd8	1.7044935
136	0x3ec30a66	0.3809387
137	0xbe09fb0e	-0.13474676
138	0xbe6171c1	-0.2201605
139	0xbdc76805	-0.09736637
140	0x3d6e93cf	0.05824643
141	0x3ff6b344	1.9273458
142	0xbc2da6a0	-0.0105988085
143	0xc0a23a89	-5.0696454
144	0x3e98ecaa	0.2986806
145	0xc0c6f8c5	-6.2178674
146	0xbf3f901d	-0.74829274
147	0x3e0c9f2c	0.13732594
148	0x3d161fce	0.036651425
149	0x3d152929	0.036416207
150	0xbe9d6721	-0.30742744
151	0xbdbf088d	-0.09327803
152	0xbe227142	-0.15863517
153	0xbd4b8c57	-0.049694385
154	0x3e1eec9e	0.1551995
155	0x3e650aa4	0.2236734
156	0x3e2acf74	0.166807
157	0x3dccbb5c	0.099966735
158	0xbf8a7182	-1.081589
159	0xc0335783	-2.8022163
160	0xbf992a7d	-1.1966091
161	0xbea074e5	-0.31339183
162	0x3e151214	0.14557678
163	0x3e702af8	0.23453891
164	0x3e1e660c	0.15468615
165	0x3d8401f2	0.064456835
166	0xbf6951af	-0.91140264
167	0xbc9fe93e	-0.019520398
168	0x4086ac17	4.208507
169	0xbeca3234	-0.39491427
170	0x40b725ef	5.7233806
171	0xbfb1c040	-1.3886795
172	0x3dd95f3a	0.10613866
173	0x3b003c40	0.0019567162
174	0x3e25037d	0.16114612
175	0x3e41b0a4	0.1891504
176	0x3e3956ce	0.1809952
177	0xbdbc9adf	-0.09209227
178	0xbe930d98	-0.2872131
179	0xbe3bd4ce	-0.18342897
180	0x3d2e857b	0.042607766
181	0x3e2b53e4	0.1673122
182	0x3c25c7fb	0.01011848
183	0xc031f06b	-2.780299
184	0xbfa9fd72	-1.328047
185	0x3c923d91	0.017851623
186	0x3ef9d91a	0.48798448
187	0x3ed9469b	0.4243668
188	0x3e27ecf0	0.16398978
189	0xbd8c6178	-0.06854528
190	0xbd914464	-0.070931226
191	0xbf3e0a94	-0.7423489
192	0xbb3f0e07	-0.0029152648
193	0xbefa9c7d	-0.48947516
194	0xbced50eb	-0.028969249
195	0xc00bf1aa	-2.186625
196	0x3fd3021d	1.648502
197	0xbe993a07	-0.29927084
198	0xbc529da0	-0.012854964
199	0x3d8bcf3f	0.068266384
200	0x3c9cb687	0.019130005
201	0xbd407c16	-0.046993338
202	0xbde0e951	-0.109820016
203	0xbe023663	-0.1271606
204	0xbd85458d	-0.065074064
205	0xbd308a84	-0.04310085
206	0xbdf0b19a	-0.11752625
207	0xbd7801e7	-0.06054869
208	0x3fba6da8	1.4564714
209	0x3e726eb5	0.23675044
210	0x3e22bad0	0.15891576
211	0x3f0bd657	0.5462393
212	0x3ec769f2	0.38948017
213	0xbd019d2b	-0.031644028
214	0xbe64d935	-0.22348483
215	0xbdf6f4d3	-0.12058415
216	0x3ea234b1	0.31680825
217	0x3da62764	0.08112982
218	0xbdd76e7e	-0.105191216
219	0x3f914ce8	1.1351595
220	0x3ede6b0a	0.4344104
221	0x408cb4ca	4.397069
222	0xbfab6c68	-1.3392458
223	0x3d25927c	0.0404229
224	0x3e4897eb	0.19589202
225	0x3ec480fa	0.3837965
226	0x3e786d09	0.24260344
227	0x3dac68ed	0.084184505
228	0xbdc42163	-0.095766805
229	0xbe14650a	-0.14491668
230	0xbdb45cb2	-0.08806743
231	0x3cd38b65	0.025823304
232	0x3d0177e2	0.03160847
233	0xc0313217	-2.7686822
234	0xbff29739	-1.89524
235	0x3d1a4787	0.03766587
236	0x3ff850f9	1.9399711
237	0x40129722	2.2904744
238	0x3fa227ed	1.2668434
239	0x3dbda047	0.09259086
240	0xbec51cbc	-0.38498485
241	0xbf238147	-0.63869137
242	0xbd2a7508	-0.041615516
243	0xc03e2615	-2.9710743
244	0xbf9e86ec	-1.2384925
245	0x407cee3b	3.9520404
246	0xbf90017f	-1.1250457
247	0x3e7f7652	0.2494748
248	0xbcef55db	-0.029215744
249	0x3e0ab2e0	0.13544798
250	0xc0b62549	-5.6920514
251	0x3f6f7767	0.9354157
252	0xbdcc8ee5	-0.099881925
253	0xbe9da97a	-0.30793363
254	0xbde75236	-0.11294977
255	0x3d39d118	0.045365423

net.0.bias f4 [48]
0	0xbf22c011	-0.6357432
1	0x3ee5b256	0.44862622
2	0xbe87df8e	-0.26537746
3	0xbdd12db3	-0.102137946
4	0xbf2dc6dc	-0.6788156
5	0xbfab3def	-1.3378276
6	0x3f3d732b	0.7400386
7	0xbf67b856	-0.9051565
8	0x3fb02f95	1.3764521
9	0xbee1fc84	-0.44137967
10	0xbf0bce95	-0.54612094
11	0x3d8dc6f6	0.069227144
12	0x3edc8c37	0.43075725
13	0x3ff4f890	1.9138355
14	0x3f2bf89b	0.67176217
15	0xbdc9ada1	-0.0984757
16	0xbe56e3df	-0.20985363
17	0x3fff3001	1.9936525
18	0x3dbb365d	0.09141228
19	0x3f0e721d	0.55642873
20	0x3fda522c	1.7056327
21	0xbf3de229	-0.7417322
22	0x3d9c687f	0.076371185
23	0xbea309d9	-0.3184345
24	0xbebaae44	-0.3646108
25	0x3f348672	0.7051765
26	0x3e6679d4	0.22507411
27	0x3f8fb467	1.122693
28	0xbefa2b65	-0.48861232
29	0xbf33a0c2	-0.7016717
30	0x3f41c0b2	0.75684655
31	0xbde6a85e	-0.11262582
32	0x3ec0105a	0.37512475
33	0xbf5c7b51	-0.86125666
34	0xbe8b0d29	-0.27158478
35	0xbf902210	-1.1260395
36	0x3f8c9479	1.098281
37	0x3ee1d341	0.44106486
38	0x3d95eff1	0.07321156
39	0x3efbbf80	0.4916954
40	0xbeb473b1	-0.35244516
41	0x3f847c91	1.0350515
42	0x3ee6d7f1	0.45086625
43	0x3ed535a3	0.41642484
44	0x3c0614f0	0.008183703
45	0xbe2e912d	-0.17047568
46	0xbed42283	-0.4143258
47	0x3e0e8f5e	0.13921878

net.2.weight f4 [48, 48]
0	0xbee46104	-0.44605267
1	0x3de372c5	0.11105875
2	0xbecb791a	-0.3974083
3	0x3bb79b4e	0.0056032306
4	0x3f546fba	0.8298298
5	0x3e9ce507	0.30643484
6	0x3ed5770d	0.4169239
7	0xbe0a7104	-0.13519675
8	0x3eab3e17	0.33445808
9	0xbee50b3c	-0.44735134
10	0xbf28ec07	-0.6598515
11	0x3fd59845	1.6687094
12	0xbe460cd8	-0.19340837
13	0xc00528dd	-2.080619
14	0xbedd6710	-0.43242693
15	0xbf62d962	-0.8861295
16	0xbf2e6c17	-0.6813368
17	0xbe182ec3	-0.14861588
18	0x3cd5cb65	0.026097963
19	0xbf948b8c	-1.1605086
20	0xbfa67b8b	-1.3006452
21	0xbd02bd8c	-0.031919047
22	0xbfb06b37	-1.3782719
23	0xbf9c07df	-1.2189902
24	0xbef6937c	-0.48159397
25	0x3fa555d0	1.2916813
26	0x3fb87037	1.4409245
27	0x402f8f2a	2.743113
28	0xbe5105be	-0.20412347
29	0xbe3e6db7	-0.1859654
30	0x3ff8ce36	1.943793
31	0xbf37cb1b	-0.7179429
32	0xbe7b80e7	-0.24560891
33	0x3f558250	0.83401966
34	0xbffbfbb9	-1.9686195
35	0x3f3d47df	0.7393779
36	0x3f6286ef	0.8848714
37	0xbf021f79	-0.50829273
38	0xbe09116e	-0.13385555
39	0x3e502265	0.2032562
40	0xbed16746	-0.40899104
41	0xbf170ad1	-0.5900088
42	0x3f17771f	0.5916614
43	0x3f90eaad	1.1321617
44	0x3da16d8a	0.07882221
45	0x3e712d1a	0.23552361
46	0x3e4f209b	0.20227282
47	0xbf7fd366	-0.99931943
48	0x3e98bfc4	0.29833806
49	0x3e7f4d54	0.24931842
50	0x3ec8bb41	0.39205363
51	0x3dc59344	0.09647229
52	0xbeb9d9ff	-0.3629913
53	0x3ecabfe1	0.39599517
54	0xbdd2516b	-0.102694355
55	0xbcbee692	-0.023303304
56	0x3eaa2c71	0.3323703
57	0xbf273be3	-0.65325755
58	0xbe6b173d	-0.22958083
59	0x3cd407c2	0.025882605
60	0xbe77c8cb	-0.2419769
61	0x3bba8fca	0.0056934105
62	0x3f8640a9	1.0488483
63	0xbe8b9abe	-0.27266496
64	0xbe945d5d	-0.2897748
65	0x3d92408e	0.07141219
66	0x3bc40e6d	0.005983165
67	0xbefc3cdc	-0.49265182
68	0xbd86380b	-0.06553658
69	0xbda3e673	-0.08002939
70	0xbe930e77	-0.28721973
71	0xc0023a29	-2.0347998
72	0x3fc68026	1.5507858
73	0xbcdceace	-0.026967432
74	0x3d0b368a	0.03398756
75	0x3a1e2780	0.00060331076
76	0x3de93135	0.113863386
77	0xbe80fca6	-0.25192755
78	0xbe679212	-0.22614315
79	0x3f586dfe	0.84542835
80	0x3dfc287d	0.1231241
81	0x3d3cb8ae	0.04607456
82	0xbe8d272f	-0.27568957
83	0x3ee72e27	0.451524
84	0x3ec43058	0.38318133
85	0x3f57572f	0.84117407
86	0xbdc09656	-0.09403674
87	0x3f9f8854	1.2463479
88	0x3ee36ea5	0.44420353
89	0x3e134c70	0.14384627
90	0xbdf1cf37	-0.11807101
91	0x3fa68f6b	1.3012518
92	0x3b9e7708	0.004835967
93	0x3d9119e6	0.07085018
94	0x3ec9e4ca	0.39432365
95	0x3e855fae	0.2604956
96	0xbe8bceaa	-0.2730611
97	0x3e742b8b	0.23844735
98	0x3ed6762f	0.41887042
99	0x3cc1f21d	0.023675019
100	0x3ef6ffbc	0.48241985
101	0x3e8fa8c7	0.28058454
102	0x3f11adae	0.5690564
103	0xbde8806d	-0.1135262
104	0x3f2c0e33	0.67209166
105	0xbdf27cfb	-0.118402444
106	0xbf510ae6	-0.81657255
107	0x3ffb173d	1.9616467
108	0xbe72a6ee	-0.23696491
109	0xc00bcff9	-2.1845686
110	0xbf08916e	-0.5334691
111	0x3f02fd73	0.5116798
112	0xbfd33229	-1.6499683
113	0x3e8d1495	0.27554765
114	0xbdb24576	-0.08704655
115	0xbf5b89c0	-0.85757065
116	0xbffb02fc	-1.9610286
117	0xbc176207	-0.00923968
118	0xbf35562c	-0.7083461
119	0xc002e982	-2.0455022
120	0x3eb7baba	0.3588465
121	0x3ef58d31	0.47959283
122	0x3f2d614a	0.67726576
123	0x4018ed05	2.3894665
124	0x3d085147	0.033280637
125	0xbf3e529c	-0.743448
126	0x403381b9	2.8047926
127	0xbf31dc18	-0.6947646
128	0x3e41306d	0.18866129
129	0x3f1971d6	0.59939325
130	0xbee50576	-0.4473073
131	0x3f6e60c3	0.93116397
132	0x3ed49e36	0.41526955
133	0xbf8eab1e	-1.1145971
134	0xbf4a5b1f	-0.7904529
135	0xbf792c44	-0.9733317
136	0xbf9e1808	-1.2351084
137	0xbf1d537c	-0.6145551
138	0x3f086257	0.53275055
139	0x3f8ca188	1.0986795
140	0x3d7a3d3e	0.06109356
141	0xbe20c23c	-0.15699095
142	0x3e86335b	0.26211056
143	0xbf6fab35	-0.93620616
144	0x3e4110de	0.1885409
145	0x3cb43483	0.021997696
146	0x3d4fbaba	0.050715186
147	0xbe51e416	-0.20497164
148	0xbe5b1ae2	-0.21396974
149	0x3dd30f84	0.10305694
150	0xbdd481da	-0.1037633
151	0x3e7bb7e1	0.24581863
152	0xbe2f9489	-0.17146505
153	0x3df5bd4d	0.11998997
154	0xbead575b	-0.3385571
155	0xbea55dc5	-0.32298103
156	0xbe3d0c1d	-0.18461652
157	0xbd754ff1	-0.05989069
158	0x3e2cfc6f	0.16893171
159	0xbc606938	-0.013696961
160	0xbd7747a7	-0.060371067
161	0xbe12a979	-0.14322461
162	0x3d0f248c	0.034946963
163	0x3d17fb5d	0.037104953
164	0x3d74a8ae	0.059731178
165	0x3b6a2df8	0.0035732966
166	0xbec8ae47	-0.39195463
167	0xbe8c4bfb	-0.27401718
168	0xbea11ccb	-0.3146728
169	0x3badfdcb	0.0053097955
170	0xbdcdef06	-0.10055356
171	0xbd638a42	-0.055551775
172	0xbe668e91	-0.22515322
173	0xbea05ce4	-0.3132087
174	0xbf420f8a	-0.7580496
175	0xbe56cb7e	-0.20976064
176	0x3d4add09	0.0495272
177	0xbe501032	-0.20318678
178	0x3e952cec	0.29135835
179	0xbc8bc7d0	-0.017063051
180	0xbe3f2a81	-0.18668558
181	0x3e12b037	0.14325033
182	0xbda35a9d	-0.079762675
183	0xbf4586ec	-0.77159
184	0xbc97f903	-0.018551355
185	0x3d1f0c17	0.03882989
186	0x3db24c43	0.08705952
187	0xbdd75225	-0.10513715
188	0x3dad49ab	0.08461317
189	0xbe89574a	-0.2682441
190	0xbd57e567	-0.05270901
191	0x3e0d61cd	0.1380684
192	0x3dda2f25	0.10653523
193	0x3e2e8c81	0.17045785
194	0xbdf788c8	-0.12086636
195	0xbf14cc54	-0.5812428
196	0x3d6c3761	0.05767
197	0x3e0ec87e	0.13943669
198	0xbf168fcb	-0.5881316
199	0xbe8ec96e	-0.27888054
200	0x3ee522ee	0.44753212
201	0xbed96a1c	-0.42463768
202	0xbf65a72e	-0.8970822
203	0x3ed39289	0.41322735
204	0xbf5216cb	-0.8206603
205	0xbf774373	-0.96587294
206	0xbc9897a7	-0.018627001
207	0x3e1fba3c	0.15598387
208	0x3ef8c75c	0.485896
209	0x3d80c5e1	0.062877424
210	0x3e6df502	0.23237994
211	0x3eb60ff2	0.3555904
212	0xbe888d35	-0.26670232
213	0x3d3479b3	0.044061374
214	0xbf03408e	-0.5127038
215	0x3e97dfce	0.29662937
216	0xbf0632d8	-0.5242133
217	0x3d39bfe0	0.045349002
218	0x3e4a6b47	0.19767486
219	0x3e86fafb	0.26363358
220	0xbf668e04	-0.9006045
221	0x3f12af77	0.5729899
222	0xbe12c84f	-0.14334224
223	0xbf882632	-1.0636656
224	0x3f3b1a0a	0.7308661
225	0x3db646f1	0.0890025
226	0xbd16893c	-0.03675197
227	0xbcde7bb9	-0.027158605
228	0x3e82bcf4	0.25534785
229	0xbee43b3f	-0.4457645
230	0x3dd4cfb8	0.10391182
231	0xbf87797e	-1.0583951
232	0x3f252fbc	0.6452596
233	0xbf933ee7	-1.1503571
234	0x3dde9376	0.1086797
235	0x3f4e7a0e	0.8065499
236	0x3e3f30ff	0.18671034
237	0xbf3683b7	-0.7129473
238	0x3d4a0bc0	0.049327612
239	0x3d170461	0.03686941
240	0xbf4a7761	-0.7908841
241	0xbfb74e79	-1.4320823
242	0x3e51da97	0.20493542
243	0x3d0e08d5	0.03467639
244	0x3f1532dd	0.58280736
245	0x3e750390	0.2392714
246	0xbe0cda8f	-0.13755248
247	0xbe5da106	-0.21643457
248	0xbbcd6f94	-0.0062694047
249	0x3d9b8e90	0.07595551
250	0xbda62670	-0.081128
251	0x3eeb7ef4	0.45995295
252	0xbca9c54f	-0.020723967
253	0xbc9a79c0	-0.018856883
254	0xbe138240	-0.14405155
255	0x3c710f0c	0.01471306

net.2.bias f4 [48]
0	0x3faede39	1.3661567
1	0xbfe53a58	-1.790843
2	0x3fc470ab	1.5346884
3	0xbdf141ff	-0.11780166
4	0x3ef2f2f9	0.47450998
5	0x40032193	2.0489242
6	0x3d8ec912	0.06971945
7	0xbfbcf4d4	-1.4762216
8	0xc032634f	-2.7873113
9	0xbfb58aa2	-1.4182932
10	0xbf1e585b	-0.6185357
11	0x3e1f1dea	0.15538755
12	0xbf6b27d9	-0.9185768
13	0x3fed4f45	1.8539816
14	0xbefd44e3	-0.4946662
15	0x3f7e736e	0.9939488
16	0xbeb80710	-0.35942888
17	0xc06a1672	-3.65762
18	0x3f5afb24	0.8553946
19	0xc00725f1	-2.1116908
20	0xbdc856ea	-0.097822025
21	0x3f511b9b	0.8168275
22	0xbf42c249	-0.76077706
23	0x3f96953f	1.1764296
24	0xbe552f91	-0.20818926
25	0xbea39ca1	-0.31955436
26	0x404f7229	3.2413428
27	0xc0208b0d	-2.508487
28	0x3f995bca	1.1981137
29	0x3f4eb3a7	0.8074288
30	0x3fc33b1a	1.5252411
31	0x3f1840b6	0.5947374
32	0xc061da8d	-3.5289643
33	0x3e68c12b	0.22729938
34	0x3f41eec6	0.75754964
35	0x40035dfd	2.0526116
36	0x4061cf46	3.528276
37	0x3efe387e	0.49652475
38	0xbfedc712	-1.8576376
39	0x3f15ca71	0.58512026
40	0xbebd3e6f	-0.36961696
41	0xbf390e2a	-0.7228724
42	0xbd429bfb	-0.047512036
43	0x3e54496f	0.20731138
44	0x3e1839b7	0.14865766
45	0x3fbf5003	1.4946293
46	0x3ec2d1fb	0.38050827
47	0xc01c8271	-2.4454615

net.4.weight f4 [198, 48]
0	0x3e174b5c	0.14774841
1	0x3f3693ed	0.71319467
2	0x3e33125b	0.17487471
3	0x3f3738f5	0.71571285
4	0xbfc1a476	-1.5128314
5	0x3f58d681	0.84702307
6	0xbfda6a6f	-1.7063731
7	0x3f43a067	0.7641663
8	0x3fe2f287	1.7730263
9	0xbf32aaf9	-0.69792134
10	0xbe8d36bb	-0.2758082
11	0x40a0964d	5.0183473
12	0x3d47a2f3	0.048739385
13	0x3fca8915	1.5823084
14	0xc00e2833	-2.2212036
15	0xbfd188f3	-1.6369919
16	0x3f8d48af	1.1037806
17	0xbd44ccd5	-0.048046906
18	0xbf9a6df5	-1.2064806
19	0xbf8443a3	-1.0333141
20	0xc029c6af	-2.6527517
21	0x3f486d99	0.7829223
22	0xbec14903	-0.37751016
23	0xbf13895f	-0.57631487
24	0x3e57b7db	0.21066229
25	0xbf52d521	-0.8235646
26	0xbfe89b2c	-1.8172355
27	0x4000959a	2.009131
28	0xbfa0635e	-1.2530324
29	0xbec554cc	-0.38541257
30	0xbedb7faa	-0.42870837
31	0xbe672044	-0.22570902
32	0xbf2b2a77	-0.6686167
33	0x3f5ba8a8	0.85804224
34	0x403479e6	2.81994
35	0xbfa96412	-1.3233664
36	0xbe94e348	-0.29079652
37	0x3f9e4c9e	1.2367132
38	0x40aaa7da	5.3329897
39	0xbf39b13f	-0.7253608
40	0xbffe9b22	-1.9891093
41	0x3fb11d19	1.3837005
42	0xc01a520f	-2.4112585
43	0x3e3d1f7e	0.18469045
44	0xbfc13d99	-1.5096923
45	0x3fd06ed8	1.6283827
46	0xc094da37	-4.6516376
47	0xbe0ad9d2	-0.13559654
48	0xbeecd88c	-0.46258962
49	0xbe2c8e0f	-0.16851066
50	0x3ee426ca	0.44560844
51	0x3f57e711	0.84336954
52	0x3e8ad567	0.27115938
53	0x3fc7046e	1.5548227
54	0xbec714b7	-0.38882992
55	0x3cd9c3b4	0.026582576
56	0xbd418f98	-0.047256082
57	0xbe27ef69	-0.16399921
58	0xbf44079e	-0.7657412
59	0xbe4f46c1	-0.20241834
60	0x3e3b9cba	0.18321505
61	0x3e25e980	0.16202354
62	0xbf3efae7	-0.74601597
63	0x3f5f361a	0.8719193
64	0xbec3ab76	-0.38216752
65	0x3f852fb5	1.0405184
66	0x403df5cf	2.968128
67	0x3fa36cf0	1.276762
68	0xbf6b6632	-0.9195281
69	0xbf796f54	-0.974355
70	0x3dec87f8	0.115493715
71	0xbf1af1a5	-0.6052497
72	0x3f9d10d4	1.227076
73	0xbf38a451	-0.72125727
74	0x3ead68ae	0.33868927
75	0xbf690a88	-0.91031694
76	0x3f8e5363	1.1119198
77	0xbdd3b809	-0.10337836
78	0xbd886e86	-0.06661706
79	0x3c3c8fa9	0.011508861
80	0x3e271d5f	0.16319798
81	0x3ea82edd	0.32848254
82	0x3ed72e0c	0.42027318
83	0x4003a929	2.0571997
84	0xbd8f8963	-0.07008626
85	0xbfc2c67a	-1.521682
86	0x3c3d512b	0.0115549965
87	0x3f159566	0.5843109
88	0x3f39282c	0.7232692
89	0xbdf3fc6b	-0.11913379
90	0x3f513713	0.8172466
91	0xbf6e760a	-0.93148863
92	0xbe59cef0	-0.21270347
93	0xc022ce2c	-2.5438337
94	0xbd5f631b	-0.054537874
95	0x3dbc9370	0.09207809
96	0x3d83dd0e	0.06438647
97	0xbec8031b	-0.3906487
98	0xbd1beeca	-0.038069524
99	0x3f598625	0.84970313
100	0x3e83a614	0.25712645
101	0x3d8e6474	0.06952754
102	0xbf1dd77a	-0.61656916
103	0xbe0889c1	-0.13333799
104	0xbea79fc1	-0.3273907
105	0x3e2ac407	0.16676341
106	0xbf0287f8	-0.5098872
107	0x3de71a85	0.11284355
108	0xbe8560c1	-0.2605038
109	0xbe788096	-0.24267802
110	0xbe88ad89	-0.26694897
111	0x3f3f0ecf	0.7463197
112	0xbe6d2ce5	-0.23161657
113	0x3e3b94ba	0.18318453
114	0xbdceb8cc	-0.10093841
115	0x3eb11dca	0.3459304
116	0xbbb885e5	-0.005631196
117	0xbd665944	-0.056237474
118	0xbca8bd86	-0.020598184
119	0xbe48cf17	-0.19610249
120	0x3fa868a6	1.3156936
121	0x3ea9c789	0.33160046
122	0x3ebc51bc	0.36781108
123	0xbe8e8ef4	-0.2784344
124	0x3f1f9acb	0.6234557
125	0xbe8794e8	-0.26480794
126	0x3e31d7b8	0.17367446
127	0x3d5da011	0.05410773
128	0x3cf0e575	0.029406289
129	0xbe63ff59	-0.22265376
130	0xbe091870	-0.13388228
131	0x3f018385	0.5059131
132	0xbe0fb88a	-0.1403524
133	0xbe52b22b	-0.20575778
134	0xbb8bf12a	-0.0042706924
135	0x3e3ba394	0.18324119
136	0x3e0ca959	0.13736476
137	0xbeb0f885	-0.34564605
138	0x3f2a92d1	0.66630274
139	0xbee95278	-0.4557073
140	0x3ac1892c	0.0014765612
141	0xbbd279d3	-0.006423214
142	0x3e47d466	0.19514617
143	0x3d0b3dce	0.03399449
144	0x3f0a623d	0.5405615
145	0xbf173cab	-0.59076947
146	0xbefa4570	-0.48881102
147	0xbf6bd66f	-0.92124075
148	0xbea5ad43	-0.3235875
149	0xc07afb9a	-3.9216065
150	0x3e8974ec	0.26847017
151	0xbc27641f	-0.010216742
152	0x3f2beaf3	0.6715538
153	0x3d9f8e0b	0.077907644
154	0x3f643e65	0.89157706
155	0x3e6af928	0.22946608
156	0x3e61fae9	0.22068371
157	0xbdfd94cb	-0.12381896
158	0x3f208b85	0.6271289
159	0x3e110587	0.14162265
160	0x3f097524	0.5369437
161	0xc016dcb7	-2.3572214
162	0xc0005860	-2.005394
163	0xc09576dd	-4.6707597
164	0x404054fd	3.0051873
165	0x3fd01b86	1.62584
166	0xbe1da67e	-0.15395543
167	0xbf1723cf	-0.59039015
168	0x3f7d9c15	0.9906629
169	0x3f92d119	1.1470062
170	0xbe05fbad	-0.13084288
171	0x406ea267	3.7286623
172	0x3f1ed046	0.6203655
173	0x3f7baca5	0.9831031
174	0x3d9e1644	0.077190906
175	0xbdb994c8	-0.09061581
176	0x3efcbbd5	0.49362054
177	0x3fa3ceb9	1.2797462
178	0xbfcd23c6	-1.6026542
179	0x4068d860	3.6382065
180	0xbefea522	-0.4973536
181	0x401923ea	2.392817
182	0x3d0bcf47	0.034133222
183	0xbf495ad7	-0.78654236
184	0x3f48d8af	0.7845563
185	0xbe287622	-0.16451314
186	0xbd0f046b	-0.034916323
187	0xbefc8a52	-0.4932428
188	0xbd750a96	-0.05982455
189	0x40113e90	2.2694435
190	0x3eb142ad	0.34621182
191	0xbd4cea55	-0.050028164
192	0x3b97b754	0.0046300087
193	0x3ccda328	0.025102213
194	0xbbbb86be	-0.0057228496
195	0xbce3e998	-0.027821347
196	0x3bfef9d1	0.0077812453
197	0xbc05c2fc	-0.008164164
198	0xbc65ce09	-0.014026173
199	0x3ec1be34	0.37840426
200	0xbc856fec	-0.01628872
201	0xbcc6fa86	-0.02428938
202	0xbba11d48	-0.0049168207
203	0xbc881342	-0.016610745
204	0x3c45f1e1	0.012081594
205	0x3d78634d	0.060641576
206	0xbd3f4d19	-0.046704385
207	0x3ca59366	0.020211887
208	0xbc06f895	-0.0082379775
209	0xbd0b3ed0	-0.03399545
210	0xbdb3ed86	-0.087855384
211	0xbc7bc032	-0.015365647
212	0x3bd2e2c0	0.006435722
213	0xbb0281d4	-0.001991381
214	0xbb59a962	-0.0033212532
215	0xbc506d00	-0.0127213
216	0x3c975d60	0.018477142
217	0x38f574a5	0.00011704237
218	0x3b1c433c	0.0023843786
219	0xbd025fc6	-0.031829618
220	0xbaf124c7	-0.0018397801
221	0x3d7f770b	0.062369388
222	0xbe8890e4	-0.26673043
223	0xbbc4a74c	-0.0060013887
224	0x3a9cd132	0.00119642
225	0xbcd4b035	-0.025962928
226	0x3d1917a8	0.037376076
227	0xbc514e3e	-0.012775002
228	0xbba88cd9	-0.0051437435
229	0x3c721184	0.014774684
230	0xbbbc1962	-0.0057403306
231	0xbcf3fe48	-0.029784337
232	0xbd03c331	-0.03216857
233	0xbd30dbaa	-0.043178238
234	0x3c4bc68b	0.012437473
235	0xbc3c2411	-0.011483208
236	0xbd244cd9	-0.04011235
237	0xbd2273a0	-0.03966105
238	0xbba8c28f	-0.0051501463
239	0x3c9d4e97	0.019202514
240	0xbeb9c0e4	-0.36279976
241	0x3c5efbf0	0.013609871
242	0x3ebe35bf	0.3715038
243	0x3c69d703	0.014272454
244	0xbe4e32a5	-0.20136507
245	0x3c9884ff	0.018618105
246	0x3cd38691	0.025821002
247	0x3ba80ec5	0.005128714
248	0x3d09961b	0.033590417
249	0x3b83e279	0.0040248004
250	0x3bc1074e	0.0058907634
251	0x3cae4962	0.021275226
252	0xbb456305	-0.0030118835
253	0x3ad0ee30	0.0015940126
254	0x3d75ad76	0.05997988
255	0xbda152a5	-0.07877091

net.4.bias f4 [198]
0	0xbea5862c	-0.32328928
1	0x00021e3a	1.94514e-40
2	0x3f265a6a	0.6498171
3	0x80021103	-1.89774e-40
4	0x3e14b16d	0.14520808
5	0x3e196b5b	0.14982359
6	0x3f0c87e1	0.54894835
7	0x3f43249c	0.76227736
8	0x3f7b4376	0.9814981
9	0x3f898c71	1.0745984
10	0x3f8ba05d	1.0908314
11	0x3f8915a2	1.0709727
12	0x3f85124b	1.0396208
13	0x3f81b545	1.0133444
14	0x3f7f26ad	0.9966839
15	0x3f7cec11	0.9879771
16	0x3f7c365d	0.9852045
17	0x3f7d39fa	0.9891659
18	0x3f8012aa	1.0005696
19	0x3f82bd70	1.0214062
20	0x3f867ca1	1.0506784
21	0x3f8ae30a	1.0850537
22	0x3f8fb0bf	1.1225814
23	0x3f94d2d2	1.1626837
24	0x3f9a180b	1.2038587
25	0x3f9f621c	1.2451816
26	0x3fa47f89	1.2851421
27	0x3fa8d672	1.3190444
28	0x3fac02d9	1.3438369
29	0x3fade528	1.3585558
30	0x3fae753f	1.3629531
31	0x3fad9587	1.3561257
32	0x3fab4031	1.3378965
33	0x3fa79c61	1.3094598
34	0x3fa323e0	1.2745323
35	0x3f9ed214	1.2407861
36	0x3f9d11fc	1.2271113
37	0x3fa13c7b	1.2596582
38	0x3ea84fef	0.32873484
39	0x3e8fc7ef	0.28082225
40	0x3eae1204	0.3399812
41	0x3eda2e8f	0.42613646
42	0x3efcc02f	0.49365374
43	0x3f11b628	0.56918573
44	0x3f20bf67	0.62792057
45	0x3f2aaa70	0.66666317
46	0x3f31a696	0.69394815
47	0x3f36e1c2	0.7143823
48	0x3f399f49	0.72508675
49	0x3f38a997	0.72133774
50	0x3f31b541	0.69417197
51	0x3f29c3f8	0.6631465
52	0x3f219844	0.63122964
53	0x3f182fa8	0.5944772
54	0x3f0d96c4	0.55308175
55	0x3f01b849	0.5067182
56	0x3eeac720	0.45855045
57	0x3ed12fe1	0.4085684
58	0x3eb8a1aa	0.3606084
59	0x3ea8c1b6	0.3296029
60	0x3ea451be	0.32093614
61	0x3ea294b5	0.3175408
62	0x3e9f8142	0.31153303
63	0x3e99d9ce	0.30048984
64	0x3e933e09	0.28758267
65	0x3e904079	0.2817419
66	0x3e9aecdf	0.30258843
67	0x3ec2fb1f	0.38082215
68	0x3f0f3150	0.5593462
69	0x3f614e5c	0.8801019
70	0x3f1ce398	0.6128478
71	0x3f2b3a71	0.6688605
72	0x3f2647ad	0.6495312
73	0x3f250ca1	0.64472395
74	0x3f29ba51	0.6629992
75	0x3f319cc0	0.69379807
76	0x3f3a7e87	0.72849315
77	0x3f434017	0.7626967
78	0x3f4b0e54	0.7931874
79	0x3f513db4	0.81734776
80	0x3f5589b8	0.8341327
81	0x3f57c79c	0.84288955
82	0x3f57ec39	0.8434482
83	0x3f55f8df	0.8358287
84	0x3f52034f	0.820363
85	0x3f4c8d9a	0.79903567
86	0x3f460f35	0.77366954
87	0x3f3efac9	0.7460142
88	0x3f37c076	0.7177805
89	0x3f30b83a	0.6903111
90	0x3f2a442e	0.66510284
91	0x3f24dd0c	0.6439979
92	0x3f211e96	0.62937295
93	0x3f1f75d0	0.6228914
94	0x3f202343	0.62553805
95	0x3f2374c8	0.6385007
96	0x3f2991e5	0.6623824
97	0x3f321f54	0.6957905
98	0x3f3c33cb	0.7351653
99	0x3f449af8	0.76798964
100	0x3f493e09	0.78610283
101	0x3f52f047	0.82397884
102	0x3f0c87e1	0.54894835
103	0x3f43249c	0.76227736
104	0x3f7b4376	0.9814981
105	0x3f898c71	1.0745984
106	0x3f8ba05d	1.0908314
107	0x3f8915a2	1.0709727
108	0x3f85124b	1.0396208
109	0x3f81b545	1.0133444
110	0x3f7f26ad	0.9966839
111	0x3f7cec11	0.9879771
112	0x3f7c365d	0.9852045
113	0x3f7d39fa	0.9891659
114	0x3f8012aa	1.0005696
115	0x3f82bd70	1.0214062
116	0x3f867ca1	1.0506784
117	0x3f8ae30a	1.0850537
118	0x3f8fb0bf	1.1225814
119	0x3f94d2d2	1.1626837
120	0x3f9a180b	1.2038587
121	0x3f9f621c	1.2451816
122	0x3fa47f89	1.2851421
123	0x3fa8d672	1.3190444
124	0x3fac02d9	1.3438369
125	0x3fade528	1.3585558
126	0x3fae753f	1.3629531
127	0x3fad9587	1.3561257
128	0x3fab4031	1.3378965
129	0x3fa79c61	1.3094598
130	0x3fa323e0	1.2745323
131	0x3f9ed214	1.2407861
132	0x3f9d11fc	1.2271113
133	0x3fa13c7b	1.2596582
134	0x3ea84fef	0.32873484
135	0x3e8fc7ef	0.28082225
136	0x3eae1204	0.3399812
137	0x3eda2e8f	0.42613646
138	0x3efcc02f	0.49365374
139	0x3f11b628	0.56918573
140	0x3f20bf67	0.62792057
141	0x3f2aaa70	0.66666317
142	0x3f31a696	0.69394815
143	0x3f36e1c2	0.7143823
144	0x3f399f49	0.72508675
145	0x3f38a997	0.72133774
146	0x3f31b541	0.69417197
147	0x3f29c3f8	0.6631465
148	0x3f219844	0.63122964
149	0x3f182fa8	0.5944772
150	0x3f0d96c4	0.55308175
151	0x3f01b849	0.5067182
152	0x3eeac720	0.45855045
153	0x3ed12fe1	0.4085684
154	0x3eb8a1aa	0.3606084
155	0x3ea8c1b6	0.3296029
156	0x3ea451be	0.32093614
157	0x3ea294b5	0.3175408
158	0x3e9f8142	0.31153303
159	0x3e99d9ce	0.30048984
160	0x3e933e09	0.28758267
161	0x3e904079	0.2817419
162	0x3e9aecdf	0.30258843
163	0x3ec2fb1f	0.38082215
164	0x3f0f3150	0.5593462
165	0x3f614e5c	0.8801019
166	0xbf1ce398	-0.6128478
167	0xbf2b3a71	-0.6688605
168	0xbf2647ad	-0.6495312
169	0xbf250ca1	-0.64472395
170	0xbf29ba51	-0.6629992
171	0xbf319cc0	-0.69379807
172	0xbf3a7e87	-0.72849315
173	0xbf434017	-0.7626967
174	0xbf4b0e54	-0.7931874
175	0xbf513db4	-0.81734776
176	0xbf5589b8	-0.8341327
177	0xbf57c79c	-0.84288955
178	0xbf57ec39	-0.8434482
179	0xbf55f8df	-0.8358287
180	0xbf52034f	-0.820363
181	0xbf4c8d9a	-0.79903567
182	0xbf460f35	-0.77366954
183	0xbf3efac9	-0.7460142
184	0xbf37c076	-0.7177805
185	0xbf30b83a	-0.6903111
186	0xbf2a442e	-0.66510284
187	0xbf24dd0c	-0.6439979
188	0xbf211e96	-0.62937295
189	0xbf1f75d0	-0.6228914
190	0xbf202343	-0.62553805
191	0xbf2374c8	-0.6385007
192	0xbf2991e5	-0.6623824
193	0xbf321f54	-0.6957905
194	0xbf3c33cb	-0.7351653
195	0xbf449af8	-0.76798964
196	0xbf493e09	-0.78610283
197	0xbf52f047	-0.82397884
