training/gen2_architecture/old_logs/nn-medium.pth (torch, 111519 bytes, 10 tensors)

net.0.weight f4 [64, 25]
00000000: 529d e9bd e031 ce3c c8a2 b7bc 4c11 3bbc
00000010: 109a b4bc 014a 39bd c34d a2bc 0599 3dbd
00000020: 49ce ec3d 83d9 20bd 7880 b83d fb54 693d
00000030: 7edb c83d 9288 013e 38b8 973d 50ec 2a3d
00000040: 9b0f 01bd fcc5 a8bb a101 a73d 189c 78be
00000050: 58f1 be3f f5af 15bd a06f 143f 7ab4 a93c
00000060: ffd1 b0be 190f 803d d517 a73d deb4 153e
00000070: 9e2a 103e c250 5e3d e1b0 29bd 6bb1 d1bd
00000080: 1c75 c3bd 63b5 0bbf 02c8 e1bd 1980 9b3e
00000090: c9cc ed3e cd01 5b3e bc26 03bd 4472 053d
000000a0: 63b1 0c3e 7003 c8bd 51e0 6abc a037 2dbe
000000b0: 5fe1 2f3f 88a3 e13f b534 1e40 2ea8 47be
000000c0: 72cd 8f3d b964 e4bc 18db 3c3e 5d3a 563d
000000d0: fb54 0bbd c483 e4bc 6092 0abc f59e 78bc
000000e0: 2529 ff3c f7b1 833c 2113 283f 64c5 a6bf
000000f0: dca6 39bf 4a35 c3bc 4e33 7bbe cbcb eebd
00000100: d05c af3d 3409 1a3e ac67 c13c 11f3 7e3a
00000110: 41a3 1440 b49e c2be 4d17 123f 4704 c0bb
00000120: cc45 c23b df5a 7e3d f7e4 c63b bdf6 833c
00000130: 62c8 0fbd 125b 4ebc 55eb e0bc ad17 edbc
00000140: 0400 d63b 93e1 9b3b 0285 9a3c ded4 463e
00000150: a8ef 573e accb c43d 9175 993d 540e 413e
00000160: f990 793e d9ab e53d 8858 1d3f 9a43 563d
00000170: 0a1b f63d b363 9f3f c291 49bf 917c 063e
00000180: 0aad 873e f84b b8bb 8324 463c f624 e83c
00000190: 6a27 1abe 888b 75bd d36e 78bc 45cc 1f3d
000001a0: b4c5 623d d6e8 343d a6fe 453d 561e 763d
000001b0: 61bc 453f b723 533f 203c 82bc 9ae9 1dbf
000001c0: 88a4 1cbf 3104 e0be 315a 8dbe f858 40bd
000001d0: 8f3b 893e 3e97 dbbc 380d f53e 62cc 423e
000001e0: c2c6 d4bf 7a86 403e da12 e5b9 8860 49bc
000001f0: ff5c 673d 62fc c43c 6440 093d 62a4 813c
00000200: e9f8 cd3b 95d5 40bc 77d5 e7bc 120d ff3b
00000210: fa25 433d 0612 c1be f8d6 31be da46 87bd
00000220: 9fa2 debb 0fcc 543e 02c4 9b3e 4c0d e33d
00000230: 1876 b93c 971c 39bd 5155 b2bd 2187 48bf
00000240: dfc1 163d b6f4 63bf 17e4 643e cd11 903c
00000250: 44f6 8abb f5ee 293c 590c 11bb 8a05 b33c
00000260: df6d 8e3c 6fe0 aebb 6eaf 9bbb 1916 443c
00000270: 7789 343c 5e26 45bc 1181 4fbe 6e0a 09bf
00000280: d329 9fbe d5b8 7bbd d188 b53c 678a cd3d
00000290: 3adf 2f3e d960 8f3d 4f1a edbd 210a fd3a
000002a0: 8999 01bf 8412 62bf c034 213d 092c 2a3e
000002b0: c2cf f63d 3734 21bc 9267 dc3f fa6b 09be
000002c0: 0f86 27bd 6f6d cbbc bafa 193c b875 8e3d
000002d0: 9c09 e73d 86e7 9c3d c4a5 4fbc f091 bd3e
000002e0: 72ab a33e d9bf efbd 5bbf 0dbf bf58 40bf
000002f0: 0c86 02bf 9664 d53d e3b6 333e 5474 b93d
00000300: 15a0 6e3c 93d1 99bf db47 84be bb8c 3b3d
00000310: e2a6 843f 9149 a9bd 92ae 133d dc0b 1cbc
00000320: decd 233b 8304 eb3b 504b be3b acf1 bc3b
00000330: ab3b 5c3b 9922 4a3c 4505 143d eb17 243d
00000340: edb1 053c a182 edbd 8aa0 8bbe 4f04 e8be
00000350: 3b4c 08bf 6a43 eebe b5c6 84be c917 3abc
00000360: 4ab5 e5bb 9b34 0cbd 51f5 b4bf 54a2 1cbf
00000370: 47d2 a93e 91ad 40be f8ba 49bb 41e1 03bc
00000380: 11d3 923c 2aa4 0c41 79b5 6a3e c3f0 d83d
00000390: 0f83 2f3d 878d 6b3b b32a 8f3c 12be 9a3d
000003a0: 43dd 213e a2ca 1440 5371 86bc 1199 7ebe
000003b0: c216 66be cfd8 02be c37e 613d 7810 243d
000003c0: c4dd eebc 0162 3d3f 90c5 0bbd 8f05 dd3f
000003d0: 4b59 153f cc85 ae3e 0866 0cbf 30e1 003d
000003e0: 4cc6 d73b 6f97 43bc 02bc ad3e dd2b ce3d
000003f0: eb3e bbbb dbed b2bd 7241 acbd 358f 54bd
-0.114069596 0.025170267 -0.022416487 -0.011417698 -0.022046119 -0.04523659 -0.01981247 -0.04628851
0.11562783 -0.039269935 0.090088785 0.05696581 0.0980749 0.12649754 0.07408184 0.04172927
-0.031509023 -0.0051505547 0.081546076 -0.24278295 1.4917402 -0.03654476 0.57982826 0.02071594
-0.34535214 0.0625288 0.081588425 0.14619777 0.14078757 0.054276235 -0.04142845 -0.10238918
-0.09543821 -0.5457365 -0.110244766 0.30371168 0.464453 0.21387406 -0.03201936 0.032579675
0.13739543 -0.09766281 -0.014335708 -0.1691575 0.68703264 1.7628031 2.471967 -0.19497749
0.070216075 -0.02788006 0.18442953 0.052301753 -0.03401659 -0.027894862 -0.00845775 -0.015174617
0.031147549 0.016076071 0.6565419 -1.3028989 -0.7252023 -0.023829121 -0.2453129 -0.11659964
0.085626245 0.15042573 0.023609005 0.0009725551 2.3224642 -0.38011706 0.57066804 -0.005859885
0.0059287306 0.06209838 0.006069775 0.016108865 -0.03510321 -0.012594955 -0.027455965 -0.028941954
0.0065307636 0.004757115 0.018862251 0.1941714 0.21087515 0.0960916 0.07493127 0.18853122
0.24371709 0.11214418 0.6146321 0.052310564 0.12016876 1.2452301 -0.78738034 0.13133456
0.26499206 -0.0056242906 0.012093666 0.028337937 -0.15054098 -0.05994752 -0.015163141 0.039013166
0.055364326 0.044167362 0.048338555 0.060087524 0.7724057 0.8247637 -0.01589781 -0.6168457
-0.61188555 -0.43753198 -0.27607873 -0.046959847 0.26803252 -0.026805516 0.47861648 0.19023278
-1.6623156 0.18801299 -0.0004369233 -0.012291081 0.056485172 0.024046127 0.033508673 0.015825454
0.006285776 -0.011769672 -0.02830003 0.0077835405 0.04764364 -0.37709063 -0.1736716 -0.06605311
-0.0067942883 0.20780967 0.3042298 0.110865206 0.02263932 -0.04519328 -0.08707679 -0.7833119
0.036805984 -0.89045274 0.22352634 0.017586613 -0.004240783 0.010371913 -0.0022132604 0.021853227
0.017386375 -0.005336813 -0.0047511375 0.011968159 0.011019102 -0.012033073 -0.20264079 -0.5353154
-0.31086597 -0.061455566 0.022159966 0.10036164 0.17174998 0.07000894 -0.115772836 0.0019305387
-0.506249 -0.883095 0.039356947 0.1661836 0.120513454 -0.009839109 1.7219107 -0.13420096
-0.040899333 -0.024832455 0.009398157 0.06956047 0.1128113 0.07661347 -0.012673799 0.37025404
0.3196674 -0.11706514 -0.5537011 -0.75135416 -0.5098579 0.10419576 0.17550234 0.09055391
0.014564534 -1.2017082 -0.2583607 0.045788508 1.0363429 -0.08265985 0.036055155 -0.009524312
0.0024994533 0.0071721687 0.005807318 0.005766114 0.00336049 0.01233735 0.036137838 0.040061872
0.008160097 -0.11597181 -0.2727092 -0.45315787 -0.5324132 -0.46535808 -0.2593285 -0.01135821
-0.0070101367 -0.034229856 -1.4137365 -0.61185193 0.3316824 -0.1881621 -0.0030781608 -0.00804931
0.01792291 8.790079 0.22920789 0.10592797 0.042849597 0.0035942511 0.017476415 0.07555784
0.15807061 2.3248677 -0.01641146 -0.24863078 -0.22469619 -0.12778018 0.05505253 0.04005477
-0.02915848 0.7397767 -0.034123957 1.7267321 0.58339375 0.34086454 -0.5484319 0.031464756
0.006584918 -0.01193796 0.339325 0.1006696 -0.0057142875 -0.087367736 -0.0841092 -0.051894385

net.0.bias f4 [64]
00000000: e442 223c 7d2f 6f3f 2a43 b6be 85be 52bf
00000010: 3e99 66be 45ea b73d 5f2b 56bf c3de 26be
00000020: c756 cabe 72c1 1e3f aab2 053f b875 1a3e
00000030: d071 053f abba 3cbd e38e 913e 8631 f3be
00000040: 8224 753d 8fea d4be 664d f4be 9ed8 c6bd
00000050: 3912 b33e f602 223f 905a f2bd ae2a 91bc
00000060: 5b53 2c3e 80bc a33e 2e0a 903e fe1a 6d3e
00000070: 6b6b e2be af84 4bbf 4c78 8ebd 52f8 5c3c
00000080: 8da9 30be e1d9 023e 6a52 2fbe 3d6d b43e
00000090: cf8a 29bd fde9 00bf 6af3 263f fcfa da3e
000000a0: c8e7 0cc0 1980 afbe 744b f5bd 7ffd a03e
000000b0: e86b c8be a170 34bf 4e7d 3c3f 7dc0 f53d
000000c0: a32d 473f 3dc5 823f 8d49 48be d280 c93e
000000d0: b1b3 e13e 064e 0d3f a1c0 e2be 434a 383e
000000e0: bc30 b2bc ea8c 6abe 9a21 8ebe 1ec9 cc3e
000000f0: ec42 edbe 3d27 283f 8254 8abf b709 bb3e
0.009903643 0.93431836 -0.35598117 -0.8232196 -0.22519395 0.0898023 -0.8365993 -0.16295914
-0.3951933 0.62013924 0.52225745 0.15083969 0.5212679 -0.046076458 0.28429326 -0.4749872
0.05984927 -0.41585204 -0.477153 -0.09709285 0.3497484 0.6328577 -0.1183368 -0.017720547
0.16828673 0.31979752 0.28132766 0.23154828 -0.44222578 -0.79499334 -0.069565386 0.013486939
-0.17252178 0.12778427 -0.17121282 0.35239592 -0.041392144 -0.5035704 0.6521517 0.4276961
-2.2016468 -0.34277418 -0.11977282 0.31443402 -0.39144826 -0.7048436 0.736287 0.11999605
0.7780401 1.0216442 -0.19559307 0.39356095 0.44082406 0.5519718 -0.4428759 0.17997079
-0.021751754 -0.22905317 -0.2776001 0.3999719 -0.4634012 0.6568487 -1.080704 0.3653085

net.2.weight f4 [64, 64]
00000000: 730c 55be f952 22bd d4da 613e 6c87 e1be
00000010: e43a 83bf 32d3 fe3e 2adb c43e 11e7 a6be
00000020: c871 20be 9f66 f63d c36c ed3e ef36 a8be
00000030: e7a1 42be 2530 8abd 2c98 183e 09f3 02bd
00000040: 62bf e33d b952 bbbe 5ce9 1e3f 9a1c 223e
00000050: e839 e93d 97a3 65bb 073f 47be 1689 76bd
00000060: 09b6 12be d691 0f3d dcee 27be a285 acbf
00000070: c18a 8cbf 5dc5 26bd e9a9 ac3e c1bd 0b3e
00000080: ea62 383c d8c0 3d3f bb91 203d 4848 b03d
00000090: e9b7 fa3c 26e1 2f3f 8306 623e bb7e 16be
000000a0: a99f 1b3e 2d2c d8bd 7a9a 3b3d 9187 0cbe
000000b0: c43f b1bd 98b9 e3bd 74bc f73e ada7 ccbe
000000c0: 4c03 c0be 48f1 453f b3f0 7dbd 8b29 e2be
000000d0: 53ba fe3e 9bf4 ffbd a553 403e fcc3 863e
000000e0: 4b2b b03e a7b4 e1bd dc95 86be 278f f7bd
000000f0: d12a 943e 58ec 61be 3e3d 4b3d 220e 773e
00000100: 5dbb 12bd c3c6 d63d ebb2 bebd e19f e5bd
00000110: d60e 043e c5e7 963e 7f25 a83b c4f9 e23d
00000120: 348e fe3c 22fd 99bd e61e 80be b7c7 ce3d
00000130: 91c6 413d 0192 93bd c5f8 e83e 6900 95bb
00000140: 420c 5d3f 9ec8 0fbd 3642 a33d c71b 34be
00000150: 030c 933c 394b 84be cf44 843c a4b3 57bd
00000160: ec91 863d fe4b 213d ee36 19bc a6c0 de3c
00000170: 77c5 7e39 fb8d 24be ed5d d739 5a30 72be
00000180: 5afe 24bc fc4d 8a3c 8f83 a5be 59d6 633d
00000190: ba77 083c 4b26 1c3d 90a0 13bd dac0 2abd
000001a0: 6a42 ee3b 6989 50bd a354 e03b 4017 0ebe
000001b0: c8ec f7ba da7c a53d 0c05 c1bc ff10 863d
000001c0: cc13 353e f3ca d9be 2f0b a0be 5904 b5bd
000001d0: 4069 78be 9093 5f3c 9111 993d 4c59 e3bc
000001e0: e445 1dbe d76c a33c 3e0c 943d 259f 733d
000001f0: 1aea f1be 7ea4 463e 468f 4c3e 7bf7 173e
00000200: 4af9 47bd 31f9 08be a7fb b5bd aef6 01be
00000210: aa26 6ebe 5136 843e 1be2 233f 510e 693c
00000220: 1bd4 38bf 9d06 e73d 9b90 9f3f 961b 17bf
00000230: ec8e 8fbf e34b 2d3e c2f0 e43d c45d f23b
00000240: 15fb 2a3d 8ec0 fcbf 1194 133f 3422 89bc
00000250: a7b4 f43d 169f 0abd 158b 6ebe 5272 3fbe
00000260: da3a 6abe 6d27 9a3d 8a60 2fbe 4306 91bf
00000270: f0dc b13e 0b57 f7bd 9222 5f3f fb38 573e
00000280: a6a8 bbba 48f4 813f 8e3b 443d 69e9 a3bd
00000290: daad 053e 93d5 383f 8a96 9d3e fe1a 163d
000002a0: c3fd 613e c341 e9bd 6bfa e9bd c0aa a4be
000002b0: 3fa1 613f 98fc 683b 494d 7c3e 52a8 eb3e
000002c0: 6187 40be 39f4 3ebf 96d3 393d 2953 88be
000002d0: 2003 423f b5eb 6ebe 929e 9d3e f02d 1abe
000002e0: 045c 8a3f c8fd 5e3e 7b56 23bf 890a dcbd
000002f0: ae80 0e3f e1cf 61bd 1b3c a63e b967 9d3e
00000300: 24f3 463e 9024 1e3d a662 7b3d 34a3 8f3c
00000310: 6a28 163d 7bdd 2bbd 9288 a03d cb0c 6f3e
00000320: e5ae b7bd 3c60 54bd 800a 33be 9186 343f
00000330: d160 13be e9df 373f eaeb 1f3e 74cc bc3b
00000340: cf99 10bd d440 583e 9a7e 003e dd53 33bd
00000350: 3493 953e 38a8 83be c4ff 53bd 6c55 f53f
00000360: cbc3 8a3f 91e2 3a3f a625 14bf 04be d5be
00000370: 06c1 3abe 7fe2 5ebe 2938 713e 3b68 11be
00000380: 69a4 12bd 1a46 c5bd bc79 6ebc f10a bd3e
00000390: ec15 453f 74a4 b1be 619a 72be 5f27 a33e
000003a0: fc30 73bd a60f c2bd a776 c7be 2b19 06be
000003b0: 62d4 393e 1915 ed3e d15f b1bd 875c a83d
000003c0: ad6d 50bd e903 62bf bce1 fdbc 91d2 c1be
000003d0: 2f2a 31bf 92ea 59bd e5c1 643e 0a77 98bd
000003e0: 1382 483e 758e 1ebf 134e 4b3d 382f 743e
000003f0: 8189 9e3d 9de7 bfbe 0341 cf3e 842c 9bbe
-0.2080553 -0.03962991 0.22056133 -0.4404863 -1.0252347 0.49770504 0.3844846 -0.32598165
-0.15668404 0.12031292 0.4637204 -0.3285441 -0.19007073 -0.06747464 0.14901799 -0.031970058
0.11120488 -0.3658655 0.6207483 0.15831223 0.11387998 -0.0035040134 -0.19457637 -0.06018933
-0.14327253 0.03505119 -0.16399711 -1.3478281 -1.0979844 -0.040715564 0.3372338 0.13646604
0.011254052 0.7412238 0.03920148 0.086075366 0.030605273 0.68702924 0.22072797 -0.14696781
0.15197624 -0.10555301 0.045801617 -0.1372359 -0.086547405 -0.111193836 0.48385966 -0.39971676
-0.37502515 0.7732129 -0.061997127 -0.4417232 0.4975153 -0.12497827 0.18781908 0.263214
0.3440803 -0.11020785 -0.2628621 -0.12087851 0.28938916 -0.22062814 0.049618952 0.24126485
-0.035823215 0.104871295 -0.0931147 -0.11212135 0.12896284 0.294737 0.005131423 0.11082795
0.031073667 -0.075189844 -0.25023574 0.10096686 0.04730851 -0.072055824 0.45502296 -0.004547168
0.8634683 -0.035103433 0.07971613 -0.17588721 0.017950064 -0.2583864 0.016146092 -0.052661553
0.06570801 0.039379112 -0.009351475 0.027191471 0.00024296889 -0.16069786 0.00041077976 -0.23651257
-0.010070408 0.016882889 -0.32326934 0.05562434 0.008329326 0.038122457 -0.036041796 -0.041687824
0.0072711008 -0.050912295 0.006846027 -0.13876057 -0.0018915171 0.08080454 -0.023561977 0.065462105
0.17683333 -0.4253765 -0.31258532 -0.0883872 -0.242589 0.0136460215 0.07474054 -0.027752541
-0.15358692 0.01994936 0.072288975 0.059477944 -0.47248918 0.19398686 0.1997653 0.148405
-0.048821725 -0.13376309 -0.088858895 -0.12691757 -0.23256937 0.2582269 0.64016885 0.014224605
-0.7219865 0.11280558 1.2466005 -0.5902647 -1.1215491 0.1692348 0.111787334 0.0073964316
0.041743357 -1.9746263 0.57647806 -0.016739942 0.11948519 -0.033843122 -0.23295243 -0.18695953
-0.22874013 0.07527051 -0.1712667 -1.1330036 0.34738874 -0.12077149 0.87162125 0.2101783
-0.0014317229 1.0152674 0.04790836 -0.08003504 0.130546 0.7220089 0.30778915 0.036646836
0.22069459 -0.11389496 -0.114247166 -0.32161522 0.88136667 0.0035550948 0.24638857 0.46026856
-0.18801643 -0.74591404 0.0453678 -0.26625946 0.7578602 -0.23332103 0.30785042 -0.15056586
1.0809331 0.21776497 -0.63803834 -0.10744197 0.556651 -0.05512989 0.32467732 0.30743197
0.19428688 0.038609087 0.061373375 0.017533876 0.036659636 -0.041959267 0.07838549 0.23344724
-0.08968905 -0.05184959 -0.17484474 0.7051783 -0.14392401 0.71826035 0.15617338 0.0057616774
-0.035302933 0.2111848 0.12548295 -0.04378115 0.2921387 -0.25714278 -0.05175759 1.9166694
1.0841001 0.7300196 -0.57869947 -0.41746533 -0.18237695 -0.21766089 0.2355658 -0.14199917
-0.035801325 -0.096325114 -0.014555391 0.3692241 0.76986575 -0.3469578 -0.23691703 0.31865975
-0.059372887 -0.09475641 -0.38957712 -0.13095538 0.18147424 0.4630516 -0.08660854 0.08220773
-0.050885845 -0.88287216 -0.030991428 -0.37855962 -0.6920499 -0.05320222 0.2233959 -0.0744458
0.1958087 -0.6193612 0.049635004 0.23846138 0.077410705 -0.37481394 0.40479288 -0.303074

net.2.bias f4 [64]
00000000: 452a 8f3f 8ce7 a1bf 5158 303f 5c12 87be
00000010: 82ce 46bf 7f46 f3be 56d1 16bf 9063 a53f
00000020: e0b6 e93e 6191 873f cbd9 70bb 4799 ac3e
00000030: 6fef c4bf 2548 adbe a3bf 2a3e 6b7b cc3d
00000040: 609a 0b3e 9283 c7be fdb7 e6be 0472 583e
00000050: 5936 8e3f 5774 c03d 1471 80bf a014 4ebe
00000060: 5de4 1d3f 460b acbe de98 06c0 5180 11bf
00000070: 0822 1cbf cbf4 493f c01d 55be d1fb efbe
00000080: a194 ab3f f467 3abe 0561 5dbf 76e7 91be
00000090: ee08 903e 86c0 f9bd f07c 2bbf 4ac2 a7be
000000a0: 8b45 aebf bb3e 07bf 9536 0e3f 4b3d bc3e
000000b0: ea2b 93be d475 463d 2181 893c 7b12 15bf
000000c0: 19af c33f fba7 843d 1162 243e 1bfe 94bf
000000d0: 24f5 c13a f1d9 1e3e 4cb3 c3be c144 f63e
000000e0: 01e6 edbe 06c4 ba3f b567 913f a3e0 e5bd
000000f0: a516 893f 6f29 4dbf baa3 353e 7d48 42bf
1.1184775 -1.2648787 0.6888476 -0.26381195 -0.77658856 -0.47514722 -0.5891317 1.2921009
0.45647335 1.0591241 -0.0036750908 0.3371069 -1.5385569 -0.33844104 0.16674666 0.099844776
0.13633108 -0.38967568 -0.45062247 0.21137244 1.1110336 0.0939719 -1.0034509 -0.20125055
0.6167658 -0.3360235 -2.1030803 -0.5683642 -0.6098943 0.7888915 -0.2081213 -0.46871808
1.3404733 -0.18203717 -0.86476165 -0.28496903 0.28131813 -0.12194924 -0.66987514 -0.32765418
-1.3614973 -0.52830094 0.55552036 0.36765513 -0.2874444 0.048452213 0.016785206 -0.58231324
1.528781 0.06477352 0.16053034 -1.1640047 0.0014797789 0.15512826 -0.3822273 0.4809933
-0.46464542 1.4591072 1.1359774 -0.11224487 1.0710036 -0.8014135 0.17738238 -0.7589186

net.4.weight f4 [64, 64]
00000000: a636 143c 92ec cc3e 9340 5ebc e416 463b
00000010: 1539 a43c 7cd5 7f3d 27eb 2abb 18e4 253c
00000020: 499a 993d d684 803c b228 473d 372f c73d
00000030: 801d 4bbd 6726 3abd eafc 90bd a3ec 82bb
00000040: b499 e53c 0fea 793c b944 7a3e f87b 273c
00000050: 7dd1 6a3d 0de1 c33d b8ee 733d e2c9 0d3d
00000060: 3c15 e3bc 9f4c 92bd cc79 3dbc 47fa 60bd
00000070: 79e5 583e 4ebe 8f3d 7c6f 5d3c 32ab 753e
00000080: 2634 49bd b5b1 debd cf5f 1ebd bf9b e53b
00000090: 3802 44bc be44 48be 9607 8fbc 2530 2bbc
000000a0: e7ea 0e3d 8ae8 5a3e fe6b 523e baa8 013d
000000b0: f7a5 2f3c 987e b23d 69f7 d3bc 1461 9b3c
000000c0: 2552 993b 60a2 5dbf 81d0 cb3c be19 44ba
000000d0: 512c 663d 216f b83d 92e0 103d ba3b 623a
000000e0: ff80 bf3e 9da3 85ba 0ec9 aa3c 638e cebc
000000f0: 411f c13c 9e52 1f3d 91c2 e3bc 338d 933e
00000100: 8a34 833d 90b8 a73e 8994 7a3c 6108 0c3d
00000110: 894a 9e3d 1208 d03c 5ea1 b33b bef3 cdbd
00000120: da98 13ba 85af 0ebb d418 01bd 51ac 14bb
00000130: 5467 31be 753b 5fbc 3673 343f 1a08 ebbc
00000140: 14cd 47bc a4a8 233c a419 a43e 92e9 82bc
00000150: 7d51 e6bb b93a b03d bcba 45bd 6362 0cbc
00000160: 299f 80bc 38f6 9c3b bb73 88bd 3aba 31bb
00000170: ee67 95bd 5e90 323e f35a 1f3e fbdb 09be
00000180: 5a6c a33c b52b 813e 1f53 bd3c ab66 4f3d
00000190: 1b14 45bc 9079 b73c 0f3b c43d a24e 5abc
000001a0: 8361 323e d053 c23c 1c60 64be 4c5c 5ebd
000001b0: d916 b3bc 109d 093e b594 893d 45ba 0ebc
000001c0: e660 2c3c a508 81be df2a 193c 00b4 123a
000001d0: ef71 df3e 6e2e 413c 1745 703c fa3c bb3c
000001e0: b9ff 623e cc7e bb3b a076 c83b c10a 4f3e
000001f0: 32f9 78bc a20b d4bc 379a 21ba f09f 3c3e
00000200: c4f2 ec3d 5d57 8abe 0e39 85bd 91bf 743e
00000210: 07db 843d cdd5 943e b8f1 293d e5c0 83bd
00000220: ca72 debe b694 253e 7dac 093f b0b5 4bbe
00000230: 66f2 bebe 7b2f e0be 0f0b 493f 9666 cc3d
00000240: f94d 40be 5a9f f43e a260 bbbe c64b 7cbe
00000250: 7c56 9e3d 3b04 d0bb 3599 063e 3c7b df3e
00000260: 7766 203d a397 a5bd 0082 4e3d 238a acbe
00000270: 73f2 b43d f9f1 173d d8c2 4abe 317f ebbe
00000280: 3be1 72be ca7c 02be 2468 2bbf 0ddd 943e
00000290: e920 693d d0f2 b0be 52c5 813d eb1a 683e
000002a0: f297 e5bd 827c 683e 33b2 d9be 4d25 9cbe
000002b0: e5b5 cdbe 5727 5f3d 309d ebbd 4e19 823e
000002c0: 2e2f 3a3c f34e 6d3e 2f8c 403e 16e2 af3d
000002d0: 8dd9 3e3f f6d9 2a3f a3a7 7dbe e1b6 2b3f
000002e0: f782 b6be 47d4 cbbe 2e25 403e 0754 3b3e
000002f0: 271a 57be e666 b6be 0425 813d 9f17 413c
00000300: 0b72 16bd aa47 143e a33d cb3c 0f6e f3bc
00000310: 7dfd 973d cdb2 713d 40a5 eebc 4373 9abb
00000320: 46b8 d8bd df88 ff3b 4fe5 24be a2f1 9c3c
00000330: 53cc 373d 54dd c4bd 6c04 673e f955 c53b
00000340: 23f6 ddbb af4a 063c 8108 693d 67d1 5fbd
00000350: 90d9 ce3b b048 15bc d986 e23b 0a19 a23c
00000360: 3391 62bd 06fe 62bd d7a0 8dbc a4b4 a6bc
00000370: ed38 373d 7e59 d1bd 36e2 cf3c 8db0 9d3e
00000380: 25ae ea3d ffda abbe 0635 7a3a 0ed0 a9bb
00000390: b814 883d c2b4 dbbd bf86 d43c 1ae3 bc3c
000003a0: 7b23 f73c aca4 083e c9d8 ca3d 6068 fabc
000003b0: ba45 89bc 6b72 083e c973 f8bb 119c aa3a
000003c0: fa09 08bc c729 173f 5bbf 9c3c 43c5 243d
000003d0: 0530 103e 1dea 283d 2708 71bd a892 d7bc
000003e0: 96f4 da3c 88b0 1c3c b1e1 83bc 4e5a 083d
000003f0: 239c 62bd b3f6 6b3b e167 89bc 5e89 cebe
0.009046232 0.4002424 -0.0135652 0.0030226046 0.02004675 0.062459454 -0.0026080103 0.010125183
0.07500131 0.015688341 0.048622794 0.097258024 -0.04958868 -0.04544678 -0.070794895 -0.0039954945
0.028027393 0.015253558 0.24440278 0.010222428 0.05732869 0.095644094 0.05955383 0.03461636
-0.027720086 -0.071435206 -0.011564683 -0.054926183 0.21181287 0.070187196 0.0135153495 0.23991087
-0.049122 -0.10873739 -0.03866559 0.007007092 -0.01196342 -0.19557473 -0.017459672 -0.01044849
0.03489199 0.21377769 0.20549008 0.03165505 0.010720721 0.08715552 -0.02587481 0.018967189
0.004678982 -0.8657589 0.024879696 -0.00074806425 0.056194607 0.09005571 0.035370417 0.0008630116
0.37403104 -0.0010195855 0.020847823 -0.02521438 0.023574473 0.03889715 -0.027802737 0.28818664
0.064065054 0.32757998 0.015294203 0.03418768 0.0772906 0.025394473 0.005481883 -0.10056256
-0.00056303816 -0.0021772098 -0.03151782 -0.0022685716 -0.17324573 -0.0136250155 0.704883 -0.028690387
-0.0121948905 0.0099889375 0.32050812 -0.015980516 -0.007028757 0.086049505 -0.048273787 -0.008568379
-0.015700893 0.0047900937 -0.06662699 -0.0027119056 -0.07295214 0.17437884 0.15562038 -0.13462822
0.019949127 0.25228658 0.023110924 0.05063502 -0.012028719 0.022396833 0.09581577 -0.013324412
0.1742001 0.023721606 -0.22302288 -0.05428724 -0.02186148 0.13438821 0.06717817 -0.008711402
0.010521149 -0.25201908 0.0093486 0.000559628 0.43641612 0.011790855 0.01466491 0.022856224
0.22167863 0.0057219025 0.006117657 0.20218946 -0.015196132 -0.025884453 -0.00061646424 0.18420386
0.11569741 -0.27019778 -0.06505023 0.23901202 0.06487089 0.29069367 0.041490287 -0.06433276
-0.43446952 0.1617001 0.5377882 -0.19893527 -0.3729431 -0.43786225 0.785325 0.09980504
-0.18779744 0.47777826 -0.36597162 -0.2463828 0.07731339 -0.0063481606 0.13144381 0.43648708
0.039160218 -0.08085563 0.050416946 -0.3369914 0.08835306 0.037095997 -0.1980089 -0.45995477
-0.23718731 -0.12742916 -0.6695578 0.29074898 0.05691615 -0.3456025 0.06336464 0.22666518
-0.11210622 0.22703746 -0.42518768 -0.30497208 -0.40177837 0.054480877 -0.115045905 0.2540993
0.011363788 0.23174648 0.18803476 0.08588044 0.74550706 0.6673883 -0.2477098 0.67075926
-0.35646793 -0.39810392 0.18764183 0.18293773 -0.2100607 -0.3562538 0.06305888 0.011785417
-0.036729854 0.14480463 0.024809664 -0.029715566 0.07421396 0.05900841 -0.029131532 -0.0047134473
-0.10582022 0.0077982987 -0.161031 0.019158188 0.044872593 -0.096125275 0.2256028 0.0060222116
-0.0067737265 0.008196517 0.056892876 -0.05464306 0.0063125566 -0.009111568 0.0069130477 0.01978733
-0.055314254 -0.055418037 -0.017288608 -0.020349808 0.044732023 -0.102221474 0.02537642 0.3079876
0.11458997 -0.33565518 0.0009544644 -0.0051822728 0.06644577 -0.10727836 0.025943158 0.02305751
0.030168286 0.13344067 0.0990463 -0.030567348 -0.016756881 0.13324897 -0.007582162 0.0013016482
-0.00830316 0.5904812 0.019134214 0.040227186 0.14080818 0.041238893 -0.058845665 -0.026315048
0.026727956 0.009563573 -0.016098829 0.033289246 -0.055324685 0.0036005198 -0.016773166 -0.40339178

net.4.bias f4 [64]
00000000: bbc7 893e 3318 49bf 63c3 5bbd 3533 513c
00000010: 90ed d7be 8953 3f3f c329 2ebd 455e 093f
00000020: 7f7d 71bf 4c02 eb3e 45a8 15bf 3cca 9a3f
00000030: 2106 a3bf e66f afbe 88c4 42bf 4cb1 2a3f
00000040: acc3 043f 5fa7 b2be e4d3 9c3e 58d6 b43e
00000050: cfd8 663f 621f 643f ff68 2ebd 8787 ab3e
00000060: 735d d1be a82a 66bf 8661 003f b99f d4be
00000070: 5675 e6be b2b5 323e 07ee a73d 6085 9d3f
00000080: 952e 37bf f888 b2be c836 4ebf 61b3 32bf
00000090: bb5e 38bd 8f69 75bb f535 2f3e 1e96 393f
000000a0: b8aa dd3e 2bb7 37bf 83a8 a4bd b273 61be
000000b0: 65fb a0bf 01fc 86be 36cf 7e3d 1030 bdbf
000000c0: ce28 03bf 29b1 b23e fcf6 4c3e b4a1 803e
000000d0: 2694 4cbf 64fa 95be 426e c4be ad06 eebe
000000e0: 5de3 26bf b01a c5be c5fc 79be f986 343f
000000f0: 835f 96be b296 4cbe 0aab 87be 9bfb 18bf
0.26910195 -0.7855255 -0.053653132 0.012768556 -0.42173433 0.7473684 -0.042520296 0.5365947
-0.94332117 0.4590019 -0.58459884 1.2092967 -1.2736245 -0.3426506 -0.7608113 0.66676784
0.5186107 -0.3489332 0.3063041 0.3531978 0.90174574 0.89110386 -0.0425806 0.33501837
-0.4089161 -0.8990884 0.5014881 -0.4152811 -0.45011395 0.17452124 0.08199697 1.2306328
-0.71555454 -0.34870124 -0.8055234 -0.6980496 -0.045012217 -0.003744695 0.17110427 0.72494686
0.4329431 -0.7176387 -0.080399536 -0.2201679 -1.257672 -0.2636414 0.06220933 -1.4780293
-0.5123414 0.34900787 0.20016092 0.2512337 -0.79913557 -0.29292595 -0.3836537 -0.46489468
-0.6519068 -0.38496923 -0.2441283 0.7051845 -0.29369745 -0.1997936 -0.2649768 -0.5975892

net.6.weight f4 [64, 64]
00000000: 522b 673e f162 c33e 9d2d 51bc e16c 6c3e
00000010: 4e30 463e 1e0f 3dbf 31f7 b83e b392 44bf
00000020: 333b 0abf 73f3 c3be 9aaf 7c3e fd7e 983e
00000030: c303 de3e 5f99 1abe 141e babc 561f 0c3d
00000040: c334 1c3f 96b7 ad3e 59c8 82bf c7e5 edbe
00000050: 31a0 3dbe c0bf d33d ea1b 1bbe 479c 3bbf
00000060: b2c8 91be 471f 053f 0171 36be da51 c33e
00000070: 4312 dfbd 85a7 fcbe c0d9 f8be 052d 1d3f
00000080: 5977 d23e aafa a8bf bfac 573f 5363 19bf
00000090: 8008 543e a293 883e 7138 fb3d a133 bdbe
000000a0: bfd7 d43d d3fa 323e d2ae 1e3f 0f14 bfbd
000000b0: 2761 ffbd 8d2e ecbd 179d 873f 58c1 4dbd
000000c0: 41f1 033f 230a afbc bd97 a0be 9cd2 a0be
000000d0: 5059 1a3e 9a70 0c3d a602 193f b83c 0cbe
000000e0: 69e3 4cbf 722b d53e 618e 9d3e 3798 a83d
000000f0: f1b3 59be b9e8 61be c438 46bf 9b00 ee3d
00000100: 04b0 643f 3a77 ed3e 7bb9 283d 9c0d 19be
00000110: 21d8 893e 440f ab3d b443 123f 2e95 a6be
00000120: a6ea 783d a13b 8cbd 66f5 143f 74ee 93bd
00000130: b7ee a3be aad1 e3bb 615e 2a3e 22fc 093e
00000140: 6f2e 5ebd 7576 dcbd 8064 04bd 3df7 79bc
00000150: 6066 46bd 28ea 15be 5555 e63e 3635 3f3e
00000160: 3f3a 113c 3175 30bf 43f8 09be 713d b7bd
00000170: 2610 203d d541 5b3e 2689 b3be a5ac cabd
00000180: ec33 19be ec97 9e3d de4f f93d d4e4 db3d
00000190: c15f b9be 3eb1 993e eb1d 5cbc 2747 f13d
000001a0: e5dc efbc 20ab c2bd 62e1 e8bd 04b6 fcbc
000001b0: 1b61 d3be 2ae2 e0bc 8d04 0d3e 4c40 acbc
000001c0: fcb2 1c3c 4832 02bf 4140 313e 4ddc e93e
000001d0: 6bc3 9a3c 4e29 d6bd 42dc 88be b7ba 87be
000001e0: 2bc3 a83d dbf4 283f e142 c43c e231 8b3d
000001f0: f880 96bd 96be 443e e0dc 053f f91f 3b3e
00000200: e839 663e ad41 b6be 5afb ecbb 67a6 bfbe
00000210: 9f9d 05bf 7883 503e bdbf 25be 7750 123e
00000220: f98c 9f3e d65a 4bbd ed06 033f cd7d 81be
00000230: 4cb6 66be 93d8 633d 8354 903b d6bb 99be
00000240: 1692 a2be abb4 30be 5cc0 1a3e d874 f43e
00000250: 1be4 f1bd d793 093e a190 423e b020 ec3e
00000260: d965 143e 1653 07bf 1a12 cf3d f591 6ebe
00000270: c8e5 2d3d d67b c43d eace 423e 7b17 f4be
00000280: 27e9 8ebe 200c 023e 3925 a3be 5021 073e
00000290: 76d7 2e3d 9897 c3bd 13f8 afbd c8b2 5c3e
000002a0: 0d66 24bd 479b 85bd 476b ebbe 62d4 973d
000002b0: 89a8 923a 70fc 2a3e 516b 08bf 8a53 823d
000002c0: c86c 30be 0c8a c7bd 8219 20bd 9266 583e
000002d0: 9c26 a2bd 77b7 4abd 9746 cbbe bbe9 1b3e
000002e0: 6806 553f d1bd 65be cdfc 85be 49a6 82be
000002f0: ec45 b43d 2e99 053f 68a9 c7be 5209 cbbe
00000300: 63b7 2e3e f62c d03e b6d4 30be d237 1bbd
00000310: 210e e63e 00a5 69bf 925b aa3e 0dd0 92be
00000320: a8f2 5ebf 50fc c4be 1355 8a3c 413f d53e
00000330: 8306 ac3d 8673 27be 5021 e3bc 62cc 043f
00000340: fa6e 503f 5079 ec3e 7721 5d3c 56f4 f9be
00000350: 4757 8c3d 9698 473e 2d6f f8be ea02 2dbf
00000360: d129 22be 77dc da3e 9f8b 34be c963 843e
00000370: f17d c9bd 462d be3d 97ec 0fbf f697 2d3f
00000380: e931 0e3f 7222 593e b3db 2c3f ee10 dabe
00000390: ee32 1fbc e835 a03e fef0 e63d 5fd9 afbe
000003a0: e9ab 153d 9c9a c13d d3b3 2c3f d04b b3be
000003b0: 4894 a7bd d9db 80bd 23af 9c3f b08d a6bd
000003c0: 95bb d93e 7e67 d33e 0906 a9bd 8197 ddbe
000003d0: 0ff2 7d3d 4975 173e 958a 0e3f a2e7 e9be
000003e0: 66c7 41bf 2943 fd3d 4038 cf3e 3e9e ef3e
000003f0: 39e5 d1be ddc5 11be f3dc 4fbe f738 5bbf
0.22575119 0.38161424 -0.012767223 0.23088409 0.19354364 -0.7385119 0.36126092 -0.76786345
-0.5399658 -0.38271675 0.24676362 0.29784384 0.43362245 -0.15097569 -0.02271942 0.03420957
0.6101801 0.33929127 -1.0217391 -0.4646437 -0.1851814 0.10339308 -0.15147367 -0.73285335
-0.2847343 0.5200085 -0.17816545 0.38148385 -0.10892155 -0.49346557 -0.4860363 0.6139682
0.4110668 -1.3201497 0.84247965 -0.5991718 0.20706367 0.26675135 0.12266625 -0.36953452
0.10392713 0.17478494 0.61985505 -0.09329998 -0.12469702 -0.11532316 1.0594815 -0.050233215
0.5154 -0.021367138 -0.31365767 -0.31410682 0.15073133 0.034287073 0.59769666 -0.13695037
-0.800345 0.4163471 0.3077269 0.08232158 -0.21260048 -0.22061433 -0.7743037 0.11621209
0.8933108 0.46380025 0.041192513 -0.14946598 0.26922706 0.08352521 0.57134557 -0.3253569
0.060770653 -0.06847311 0.5818695 -0.07223216 -0.32018062 -0.006952484 0.16637565 0.13475087
-0.0542435 -0.107647814 -0.032322407 -0.0152567 -0.048437476 -0.14640105 0.44986978 0.18672642
0.008863985 -0.6892882 -0.1347361 -0.08947266 0.0390779 0.21411832 -0.35065573 -0.098962106
-0.14961213 0.077438205 0.121734366 0.10737005 -0.36205867 0.30018038 -0.013434867 0.11781149
-0.029280135 -0.09505296 -0.11371113 -0.03084851 -0.41285023 -0.027451593 0.13771267 -0.021026753
0.009564158 -0.50857973 0.17309667 0.4567589 0.01889201 -0.10457097 -0.26730543 -0.2650964
0.0824035 0.6599862 0.023957672 0.06796624 -0.073488176 0.19213328 0.52290154 0.18273915
0.22483027 -0.35596982 -0.007232112 -0.37431642 -0.52193636 0.20362651 -0.16186424 0.14288507
0.3116224 -0.049647175 0.5118244 -0.2529129 -0.22530478 0.055626463 0.004404606 -0.3002612
-0.3175208 -0.1725642 0.15112442 0.47745395 -0.11811086 0.13435303 0.19000484 0.4611869
0.14491977 -0.52861154 0.101108745 -0.23297866 0.042455465 0.09593932 0.19024244 -0.47674164
-0.27912256 0.12699938 -0.31864336 0.13196301 0.04268595 -0.095503986 -0.08592238 0.21552575
-0.040136386 -0.065237574 -0.45980284 0.07413556 0.0011189143 0.1669786 -0.5328875 0.0636359
-0.17228997 -0.09743127 -0.039086826 0.21132877 -0.079175204 -0.049491372 -0.39702293 0.1522588
0.832129 -0.2243569 -0.26169434 -0.2551749 0.08802399 0.5218686 -0.38996434 -0.39655548
0.17062144 0.40659302 -0.17268643 -0.03789503 0.44932655 -0.91267395 0.33272988 -0.28674355
-0.87089014 -0.3847375 0.01688627 0.4164982 0.083996795 -0.16352662 -0.027725846 0.51874363
0.81419337 0.46186304 0.013496748 -0.48819226 0.06852584 0.194918 -0.4852232 -0.6758257
-0.15836264 0.42746326 -0.17631386 0.2585738 -0.098384745 0.09285979 -0.5622038 0.6781
0.55544907 0.21204546 0.67522734 -0.4259104 -0.009716732 0.31291127 0.11276434 -0.34345528
0.0365409 0.094533175 0.6746189 -0.35018778 -0.08182579 -0.062919326 1.2240947 -0.081324935
0.42525926 0.41289896 -0.08253104 -0.4327965 0.061998423 0.14790834 0.5568021 -0.45684534
-0.7569488 0.123663254 0.40472603 0.46800417 -0.40995196 -0.14235635 -0.20299129 -0.85633796

net.6.bias f4 [64]
00000000: 9469 d8bd 22d9 fdbe ade6 773f 51ea 29bf
00000010: 364e 273f a793 533f 1d23 b9bf 6d62 8cbd
00000020: 3365 083f 9941 dfba d10a 2fbf 72a3 333f
00000030: d1ba 213e 4853 14bf de9f da3d 78d3 ccbe
00000040: 229a 28be 1a86 e0be ee14 98be d46a 203f
00000050: d5b6 debe 0cd2 88bf a6cc 45bf 3c71 aabe
00000060: db14 45bd c8d5 a23f fe06 47be f93b 3f3f
00000070: e88b 103f 59c2 d53e db0a 15be 6cb2 a33e
00000080: 5b87 473e 68ef d7be 279c 2bbe c951 c03e
00000090: eaa1 2e3f 6439 103e fc88 433c 6960 07bd
000000a0: f48b 933e 8f01 e5be 7421 e3bf babf 16bf
000000b0: 89ed 21bf ee06 bd3e ab8f 37be be9d 5f3f
000000c0: 42df 6cbe 64c9 5d3f 55b9 92be 8f86 49bf
000000d0: 8dac d1be b30b 08bf 9d7c 0e3f d529 6cbe
000000e0: da90 4abf 10cb 273e 795f 02be 7957 89bf
000000f0: 52ef 6e3f 6e41 8c3e 7338 7f3e 6bf2 073f
-0.105670124 -0.49579722 0.9683636 -0.66373163 0.65353715 0.82647175 -1.4463841 -0.06854711
0.5327942 -0.00170331 -0.6837588 0.7017127 0.15793921 -0.5793958 0.106750235 -0.40005088
-0.16465047 -0.4385231 -0.29703468 0.62663007 -0.43498865 -1.0689101 -0.77265394 -0.33289516
-0.048115592 1.2721491 -0.19436261 0.74700886 0.5646348 0.41749838 -0.14554922 0.31972063
0.19485228 -0.4217484 -0.16758786 0.37562397 0.6821581 0.14084393 0.011934515 -0.03305093
0.28817713 -0.44727752 -1.7744584 -0.588863 -0.63253075 0.3691935 -0.17925899 0.8735007
-0.23132041 0.8663542 -0.28657022 -0.78720945 -0.40951958 -0.5314285 0.55658895 -0.23062833
-0.79127276 0.16386056 -0.12731732 -1.072982 0.93333924 0.2739367 0.24923877 0.53104275

net.8.weight f4 [198, 64]
00000000: fe8a b03e 4723 4a3f bd04 28bf e743 503e
00000010: 492a a2c0 11a3 6d3f 47b1 4e3f 5d09 d7bf
00000020: c1c6 55ba 107c 83be d494 8c3f 3513 f8bf
00000030: 6dca 563f c83d 083f 9e65 08bf 08ae eebe
00000040: b90a bf3d 9414 31bf 5700 69bf ed66 61bf
00000050: 1696 db3d 4357 6240 f011 0d3f 1318 66bd
00000060: f425 6f3f 03b6 9abe c36f 413f e0cb 5e3e
00000070: 9b2c d13e 2a88 a2bb df50 a1be c714 c0be
00000080: f5e5 5a3e 9ddf 62be 59e1 5e3e 9e43 ee3e
00000090: 6742 c43d b0a0 0dbf 9cf2 6d3f ec03 cfbc
000000a0: c548 f5bc 9855 893f d5e8 e0bd 3c84 5b3e
000000b0: 09f3 8a3e 414d c4be 10bc 3d3e 5160 6e3e
000000c0: 97f9 d43e 261f 08be 7345 15be f650 593e
000000d0: d2ff d93c a71e b83c de71 70bc da52 94be
000000e0: af47 3a3f 8062 da3e 1062 8d3f f21f 513f
000000f0: 1d12 ea3e 05dd 0dbe d4d1 b9bf f70d ccbd
00000100: f057 7e3e d7ff 2e3d 18ef d93e 0379 0f3d
00000110: 5014 04bb 7cd9 49bf 2adf 3bbf 3a51 523f
00000120: d41c 183f debe 963d 8877 79bf 7a6c 463e
00000130: 9e08 ebbe 4ef0 143f 51e1 563d a614 163f
00000140: 3eb6 83bf 91d9 24bf 0e73 40bf b354 83bf
00000150: 9909 72bd a525 1cbc d078 593d deda 173f
00000160: e496 e7bf 526f 3bbe 497a a0bd ae0d c43b
00000170: 5ea7 a6bf c222 8ebd 2e7b 793d 992d a9be
00000180: 0a64 57bf db32 0f3f 8a4a 1cbc 847f 3fbf
00000190: 8930 e3bc 63eb 4fbc d9b5 c93e f67c 2ebe
000001a0: bf68 90be fa88 66be ecaf 363c 519d 1bbc
000001b0: 7698 f43d dd71 7abd c6ef 40bd d05f 8cbf
000001c0: 6b50 953e 60ae e63d 195c 633d 2111 3bbe
000001d0: 8d6b cdbf 8bea 3c3d b562 19bd db08 733f
000001e0: c25b 6e3c bfb3 19bd 846f d63e e3d5 f7bd
000001f0: 1185 f63d 5211 913c 85b6 893e 8cd2 243d
00000200: 50e8 a73c 29cc 133d b791 3cbc ffe8 4abe
00000210: 2b72 ed3b 4e62 a6bb 1b08 89bf c9f0 e53e
00000220: 9d3e 53bc 6b83 15bf 35aa fc3c 0d50 9a3e
00000230: 4ba4 2cbf 88d1 fd3c 223b 10bd e28f 4c3d
00000240: 7682 eabc 506a d7be 81be e33c d066 b5be
00000250: 4826 833e fdb3 46bc 818b 5d3e 7138 b63d
00000260: e635 55bf e2de acbc e4a8 debd 9984 d13c
00000270: cb73 2b3e 7be7 20be 0fa4 153e 6be9 993d
00000280: 8058 27be a545 553e 2e6e d8bd 0f86 b23e
00000290: 53f9 0d3d 60e6 a73e 9e9a ab3e 2c95 cc3e
000002a0: 3fe3 e53e 0faf c53d 6bc2 e43c d00d 323d
000002b0: dea4 17bf d949 0fbc 37a9 82bc 2df3 5fbe
000002c0: 9de3 443c df16 d5bd edbe 22bd 8120 d4bd
000002d0: 1b8b 43be bbf2 2bbd 1135 123d 3ab1 9d3d
000002e0: 01d9 a23c c27a 33bd 94ea 81bb d9c7 4dbe
000002f0: 6e37 f13d 2f83 9bbe a9de 273e e764 cb3c
00000300: 048d 02bf 8039 01be 42d4 0fc0 bb08 04bf
00000310: eee7 98bc 0139 d83f b7cc 6f3f 1ec7 213e
00000320: 8355 a7be d7f1 88be 4620 edbf bb91 143e
00000330: 012c 2d3e b354 9abf 6d32 a3bd 9417 f1be
00000340: ca7f 59bf efcd 623f fcc2 c73f 8fbe b9be
00000350: 8db2 3e3e 0a1f 07bb 89ad 7a3e 575a b0bf
00000360: 1874 2abf 4346 cbba dcd0 bebc ec61 80bb
00000370: da3b dd3f f106 e7be cd2d 1ebe 684e 2b3f
00000380: a991 e73f 12d7 8ebf adb1 b1be 8471 80bf
00000390: aaf4 17bd 158e 5c3e ccb2 3e3e 653a 3a3e
000003a0: 5c86 813c cc85 803f 8a24 c83f e795 b9bd
000003b0: 2fbe 37bf 34af 5bbe 4085 533d b58a 3440
000003c0: 278a 44bf 29eb 113d 9d6c 4cbc 476a 39be
000003d0: c39c bc3f 95ef 843e efa0 fcbe 3147 10c0
000003e0: 3042 ac3e 1ce0 983d 4a71 e2be 2a35 0cbe
000003f0: d537 133f 3a60 10bf e772 303f 45a2 ccbd
0.34481043 0.7896008 -0.6563223 0.20338403 -5.067662 0.92826945 0.80739254 -1.6799732
-0.0008154922 -0.2568059 1.0982919 -1.9380862 0.8390263 0.5321927 -0.53280056 -0.4661715
0.09328217 -0.69172025 -0.91016144 -0.8804768 0.10721986 3.536576 0.55105495 -0.056175303
0.93417287 -0.3021699 0.7556116 0.2175746 0.40854344 -0.0049600797 -0.31507012 -0.37515852
0.21376784 -0.22155614 0.21765651 0.46535963 0.09582978 -0.55323315 0.9294832 -0.025270425
-0.029941926 1.0729246 -0.10981909 0.21437162 0.27138546 -0.3834019 0.18528771 0.2327893
0.41596672 -0.13293132 -0.14577274 0.2122229 0.026611242 0.022475554 -0.014675586 -0.2896946
0.7276563 0.42653275 1.1045551 0.8168937 0.45716944 -0.13853844 -1.451716 -0.09963601
0.24838233 0.042724457 0.42565227 0.035027515 -0.0020153709 -0.7884748 -0.73387396 0.8215519
0.5941899 0.07360624 -0.97448015 0.19377318 -0.45905012 0.58179176 0.052460972 0.58625257
-1.0289991 -0.6439448 -0.7517556 -1.0260223 -0.059091184 -0.0095304595 0.05309373 0.5931834
-1.8092923 -0.18304184 -0.07835824 0.005983076 -1.3019826 -0.06940223 0.06090849 -0.330426
-0.8413702 0.55936974 -0.009539256 -0.7480395 -0.027733104 -0.012690398 0.3939655 -0.17039856
-0.28204915 -0.2251319 0.0111503415 -0.009497956 0.11943142 -0.061143745 -0.047103666 -1.096674
0.29162917 0.11263728 0.055507753 -0.18268253 -1.6048447 0.046122115 -0.03744765 0.9493539
0.014548244 -0.037524935 0.41881955 -0.121013425 0.12037099 0.017708454 0.26897064 0.040239856
0.020496517 0.036083374 -0.0115093505 -0.19815443 0.007246276 -0.005077637 -1.0705599 0.44910267
-0.012893346 -0.5840365 0.03084288 0.301392 -0.6743819 0.030983701 -0.035212643 0.049941905
-0.028626662 -0.42073298 0.0278008 -0.35430002 0.25615144 -0.0121278735 0.21635248 0.08897484
-0.8328537 -0.021102373 -0.10872057 0.025575923 0.1674339 -0.15713303 0.14613365 0.07515224
-0.16342354 0.20827349 -0.1056789 0.34867904 0.034661602 0.3279295 0.335164 0.3995756
0.44899938 0.096525304 0.027924737 0.043470204 -0.5923594 -0.008745634 -0.015949829 -0.21870108
0.012017158 -0.10404753 -0.039732862 -0.10357762 -0.19096033 -0.041979533 0.03569514 0.07699819
0.019878866 -0.043818243 -0.0039647315 -0.20095767 0.117781505 -0.30373523 0.16393532 0.024828387
-0.5099642 -0.12619591 -2.2473302 -0.5157582 -0.01866528 1.6892396 0.93671745 0.15798613
-0.32682428 -0.2674701 -1.8525474 0.14508717 0.16911317 -1.2057098 -0.07968602 -0.470883
-0.84960616 0.8859548 1.560638 -0.36278197 0.18622799 -0.0020617866 0.24480261 -1.377757
-0.66583395 -0.001550861 -0.023292951 -0.003917923 1.728389 -0.45122483 -0.15447159 0.66916513
1.8091327 -1.1159384 -0.34705868 -1.0034642 -0.037098564 0.21538575 0.18622893 0.18186338
0.015811138 1.0040832 1.5636151 -0.09061795 -0.7177457 -0.21453553 0.05164075 2.820966
-0.76773304 0.035624657 -0.012477067 -0.18106948 1.473534 0.25964037 -0.49341533 -2.2543452
0.33644247 0.074646205 -0.44227058 -0.13692155 0.5750707 -0.5639683 0.6892533 -0.09991888

net.8.bias f4 [198]
00000000: c084 0abe 3418 0200 b81d 293e 8d55 0100
00000010: 860d 27be 8d2b 19be cd54 0b3f 38b3 f63c
00000020: 0212 5b3e e787 ad3e 6742 db3e 682d f93e
00000030: 3abe 063f df0d 0b3f 15a7 093f 7fc0 073f
00000040: 29fd 063f a504 063f 3fb3 023f aa6a 003f
00000050: 4041 003f 5e1f 023f 452e 063f ff46 0b3f
00000060: dfc8 103f a793 163f 7751 1c3f 8fd5 213f
00000070: ab67 273f 70b2 2d3f 9785 333f 9d02 383f
00000080: 588f 3a3f e311 3b3f b391 393f 6d71 353f
00000090: a8b3 2d3f b947 223f c26d b33e 829b cd3e
000000a0: 07c8 9c3e 02e9 6b3e 805a 183e 2058 dd3d
000000b0: 1085 c23d de55 cb3d 8eaa 093e 79af 0f3e
000000c0: b289 093e a6ec 093e dd9e 2f3e 9249 5e3e
000000d0: e574 763e 304f 803e ab55 873e aeaf 963e
000000e0: 724d a93e 1aad be3e 554b cf3e 8896 d33e
000000f0: 7589 c23e 9e54 a93e d625 953e 8944 843e
00000100: 3015 753e 301a 723e 31b4 853e 1a96 a13e
00000110: cead be3e 4427 d03e a5a3 393e 875a 6a3e
00000120: 5edd 8d3e b153 9f3e 8df0 ab3e 3d9e b63e
00000130: 1b6f c03e 01dc c83e ca65 d03e 1a0f d83e
00000140: 92d8 df3e 6798 e73e a724 ef3e c997 f63e
00000150: 0380 fd3e 179d 013f 55b2 033f c200 053f
00000160: 10c3 053f 1413 063f a6ed 053f 8411 053f
00000170: 7e6a 033f 13cc 003f e589 fa3e 6dd5 f23e
00000180: 35ab eb3e 7b38 e53e c0e3 de3e b1b2 d93e
00000190: 38da d63e f7eb e03e cd54 0b3f 38b3 f63c
000001a0: 0212 5b3e e787 ad3e 6742 db3e 682d f93e
000001b0: 3abe 063f df0d 0b3f 15a7 093f 7fc0 073f
000001c0: 29fd 063f a504 063f 3fb3 023f aa6a 003f
000001d0: 4041 003f 5e1f 023f 452e 063f ff46 0b3f
000001e0: dfc8 103f a793 163f 7751 1c3f 8fd5 213f
000001f0: ab67 273f 70b2 2d3f 9785 333f 9d02 383f
00000200: 588f 3a3f e311 3b3f b391 393f 6d71 353f
00000210: a8b3 2d3f b947 223f c26d b33e 829b cd3e
00000220: 07c8 9c3e 02e9 6b3e 805a 183e 2058 dd3d
00000230: 1085 c23d de55 cb3d 8eaa 093e 79af 0f3e
00000240: b289 093e a6ec 093e dd9e 2f3e 9249 5e3e
00000250: e574 763e 304f 803e ab55 873e aeaf 963e
00000260: 724d a93e 1aad be3e 554b cf3e 8896 d33e
00000270: 7589 c23e 9e54 a93e d625 953e 8944 843e
00000280: 3015 753e 301a 723e 31b4 853e 1a96 a13e
00000290: cead be3e 4427 d03e a5a3 39be 875a 6abe
000002a0: 5edd 8dbe b153 9fbe 8df0 abbe 3d9e b6be
000002b0: 1b6f c0be 01dc c8be ca65 d0be 1a0f d8be
000002c0: 92d8 dfbe 6798 e7be a724 efbe c997 f6be
000002d0: 0380 fdbe 179d 01bf 55b2 03bf c200 05bf
000002e0: 10c3 05bf 1413 06bf a6ed 05bf 8411 05bf
000002f0: 7e6a 03bf 13cc 00bf e589 fabe 6dd5 f2be
00000300: 35ab ebbe 7b38 e5be c0e3 debe b1b2 d9be
00000310: 38da d6be f7eb e0be
-0.13527203 1.92353e-40 0.16515243 1.22525e-40 -0.16313753 -0.1495802 0.5442627 0.030114755
0.21393588 0.33892748 0.42824098 0.48667455 0.5263401 0.5431804 0.5377057 0.530281
0.5273004 0.52350837 0.5105476 0.50162756 0.50099564 0.5082911 0.5241435 0.54405206
0.56556505 0.5881905 0.61061805 0.6321649 0.6539256 0.678504 0.70125717 0.7187899
0.72874975 0.7307417 0.72487944 0.708762 0.6785226 0.6339069 0.35044676 0.40157706
0.3062136 0.23038104 0.14878273 0.10807824 0.09498036 0.09928487 0.13443968 0.14031781
0.13431433 0.1346918 0.17150445 0.21707752 0.24068029 0.25060415 0.26432547 0.29430908
0.330669 0.3724144 0.4048716 0.41325784 0.37995496 0.3307237 0.2913043 0.25833538
0.23933864 0.23642802 0.26114038 0.3155983 0.37241977 0.40654957 0.18128832 0.22886096
0.27707952 0.3111854 0.33581963 0.356676 0.37584767 0.3923035 0.4070266 0.42199022
0.43719918 0.4523346 0.4670765 0.48162678 0.49511728 0.50630325 0.5144399 0.5195428
0.52250767 0.5237286 0.5231575 0.5197985 0.5133437 0.5031139 0.4893333 0.47428456
0.46029058 0.44769654 0.43533134 0.42519143 0.41963363 0.43930027 0.5442627 0.030114755
0.21393588 0.33892748 0.42824098 0.48667455 0.5263401 0.5431804 0.5377057 0.530281
0.5273004 0.52350837 0.5105476 0.50162756 0.50099564 0.5082911 0.5241435 0.54405206
0.56556505 0.5881905 0.61061805 0.6321649 0.6539256 0.678504 0.70125717 0.7187899
0.72874975 0.7307417 0.72487944 0.708762 0.6785226 0.6339069 0.35044676 0.40157706
0.3062136 0.23038104 0.14878273 0.10807824 0.09498036 0.09928487 0.13443968 0.14031781
0.13431433 0.1346918 0.17150445 0.21707752 0.24068029 0.25060415 0.26432547 0.29430908
0.330669 0.3724144 0.4048716 0.41325784 0.37995496 0.3307237 0.2913043 0.25833538
0.23933864 0.23642802 0.26114038 0.3155983 0.37241977 0.40654957 -0.18128832 -0.22886096
-0.27707952 -0.3111854 -0.33581963 -0.356676 -0.37584767 -0.3923035 -0.4070266 -0.42199022
-0.43719918 -0.4523346 -0.4670765 -0.48162678 -0.49511728 -0.50630325 -0.5144399 -0.5195428
-0.52250767 -0.5237286 -0.5231575 -0.5197985 -0.5133437 -0.5031139 -0.4893333 -0.47428456
-0.46029058 -0.44769654 -0.43533134 -0.42519143 -0.41963363 -0.43930027
