training/gen1_architecture/nn-xxsmall.pth (torch, 5297 bytes, 4 tensors)

net.0.weight f4 [32, 21]
0	0xbed583ea	-0.41702205
1	0xbbd5bc67	-0.0065227035
2	0xbeab623a	-0.33473378
3	0x3a3a5e00	0.0007109344
4	0x3d8fdb2a	0.07024224
5	0x3d0310ba	0.031998374
6	0x3d05dfb4	0.032684043
7	0xbce10f53	-0.027473127
8	0xbe032232	-0.12806013
9	0xbe798fd7	-0.24371277
10	0xbeb1fe9d	-0.34764567
11	0x3d5fa738	0.05460283
12	0x3da56ffe	0.080780014
13	0x3d59db9c	0.05318795
14	0xbc5b47d2	-0.0133838225
15	0xbd14f3b8	-0.03636524
16	0xbc25ac6f	-0.010111912
17	0x3b3dd1c0	0.0028964132
18	0x3cc35c26	0.02384765
19	0x3d5a8523	0.053349625
20	0xbe135508	-0.14387906
21	0x4029371e	2.643989
22	0x3fb7e427	1.4366502
23	0x3f9896eb	1.1921057
24	0xbfd78af4	-1.683928
25	0xbfb6d89e	-1.4284856
26	0xbecbb185	-0.39783874
27	0xbd24b3f9	-0.040210698
28	0x3cf6a0b7	0.030105932
29	0x3cdf34c7	0.027246846
30	0x3d046236	0.032320224
31	0x3d715239	0.058916304
32	0x3d313c00	0.04327011
33	0xbd6fc370	-0.058535993
34	0xbb74cc62	-0.0037353267
35	0x3c4e95a8	0.012608923
36	0x3cc693a2	0.024240319
37	0x3c98e73a	0.018664945
38	0x3c2a0d69	0.010379174
39	0x3cba721a	0.022759486
40	0xbf2b0519	-0.66804653
41	0x3bd3f5a1	0.00646849
42	0xc00ef6ae	-2.2338061
43	0x3f70e812	0.9410411
44	0x3ef08eb1	0.46983865
45	0xbe00672d	-0.12539358
46	0x3d43ef88	0.047835857
47	0x3d1fcbf8	0.03901288
48	0x3cdf96dc	0.027293615
49	0xbc40e561	-0.011773438
50	0xbd255435	-0.04036351
51	0xbd49238e	-0.049106173
52	0xbd690e5e	-0.056898467
53	0x3fe68625	1.8009688
54	0x3f585056	0.8449758
55	0x3e510c9d	0.20414968
56	0x3d551242	0.052019365
57	0x3c68c579	0.014207237
58	0x3bbde269	0.0057948125
59	0xbb7f11bc	-0.0038920483
60	0xbc26b7ce	-0.010175658
61	0x3ef8d55f	0.4860029
62	0x3b5bc352	0.0033533168
63	0x3c82fb18	0.015988871
64	0x3eba14f0	0.363441
65	0xbf926dc7	-1.1439751
66	0x3d96ca57	0.07362812
67	0x3e61e169	0.22058643
68	0x3e427d32	0.1899307
69	0x3dc478e9	0.09593374
70	0x3b30fb3c	0.0027005216
71	0xbd012bd8	-0.031535953
72	0xbc84d192	-0.016213212
73	0x3c8d283e	0.017231103
74	0xbd48184a	-0.04885129
75	0xbd570127	-0.052491333
76	0x3b2b41e6	0.0026131808
77	0x3cfa37b0	0.030544132
78	0x3ce4fa0c	0.027951263
79	0x3d09a5de	0.03360545
80	0x3c58fcac	0.013243835
81	0x3bda5fbd	0.006664245
82	0x3d1bd048	0.03804043
83	0xbc4a7676	-0.012357345
84	0x3ebb7469	0.3661225
85	0x3f3b6820	0.7320576
86	0xbf338b62	-0.70134556
87	0x3e5a9722	0.21346715
88	0x3dbb12fb	0.091344796
89	0x3b5e057e	0.0033877785
90	0x3ca3f674	0.020014979
91	0x3cc0c16b	0.023529729
92	0x3a12097a	0.000557087
93	0xbd0b9eb6	-0.034086905
94	0xbe0cecbf	-0.13762186
95	0x3da24be1	0.07924629
96	0x3d9ac8cd	0.07557831
97	0x3c5c9977	0.013464323
98	0xbd19bd49	-0.037534032
99	0xbc3a64ad	-0.011376542
100	0xbc2dbfe0	-0.010604829
101	0xbd830d54	-0.063990265
102	0xbd858e46	-0.06521277
103	0x3dae33ae	0.08505951
104	0xba873875	-0.0010316508
105	0x3be3ffcd	0.006957984
106	0x3f568939	0.83803135
107	0x3f087a13	0.5331127
108	0xbdf3fde9	-0.11913664
109	0xbeafe4d1	-0.3435426
110	0x3e199637	0.14998709
111	0x3e51f991	0.20505358
112	0x3c7d49aa	0.015459457
113	0xbdf25fe3	-0.11834695
114	0xbd5d2d27	-0.05399814
115	0x3cac5ee0	0.021041334
116	0xbf220a71	-0.6329718
117	0x3be86b6f	0.007092885
118	0x3e2f1219	0.17096747
119	0x3d551e9e	0.052031152
120	0xbd26b033	-0.04069538
121	0xbd4992f6	-0.04921242
122	0x3c95135c	0.018197708
123	0x3cfe42e5	0.031037757
124	0xbe8a921a	-0.27064592
125	0x3a86d877	0.00102879
126	0x3f6649b4	0.8995621
127	0xbf92bfab	-1.1464742
128	0x3f9b2ef3	1.2123703
129	0x3f8de363	1.1085018
130	0xbf08579f	-0.532587
131	0xbf45be63	-0.7724363
132	0xbf000259	-0.5000358
133	0xbe7203cd	-0.23634262
134	0xbdbd6562	-0.09247853
135	0xbcf5c694	-0.030001916
136	0xbc99b833	-0.01876459
137	0xbd6a3b0d	-0.05718522
138	0xbd4eeaf9	-0.050517056
139	0xbc269f25	-0.010169779
140	0x3d05e028	0.032684475
141	0x3cf831db	0.03029721
142	0x3cfccb97	0.030858798
143	0x3d124898	0.035713762
144	0xbcd2ff7f	-0.025756596
145	0x3d91a14c	0.07110843
146	0xbc846d39	-0.016165363
147	0x3edb0536	0.42777413
148	0x3f76ce44	0.96408486
149	0xbf5f1b7a	-0.871513
150	0x3f2aefb8	0.6677203
151	0x3e0a8975	0.13528998
152	0xbee8918d	-0.45423546
153	0xbed6653d	-0.41874114
154	0xbd9d96e8	-0.07694799
155	0x3e23e014	0.16003448
156	0x3e1ac451	0.15113951
157	0xbda37943	-0.07982113
158	0xbeecc9ea	-0.46247798
159	0xbdbe7c4e	-0.09301053
160	0x3c647440	0.013943732
161	0x3caf6a77	0.021413071
162	0x3d855f1d	0.06512282
163	0x3d0c8c36	0.034313403
164	0xbca85d24	-0.020552225
165	0xbc8f722c	-0.017510496
166	0x3ddb29f7	0.107013635
167	0xbbfa88e7	-0.0076457146
168	0x3f708085	0.93946105
169	0x3f52541e	0.821596
170	0xbedb8940	-0.4287815
171	0xbdb38520	-0.08765626
172	0xbdc13f3e	-0.094358906
173	0xbcfc7280	-0.030816317
174	0xbd07f224	-0.033189908
175	0xbd6d0477	-0.057865586
176	0xbd614e00	-0.055006027
177	0xbb7f8c8a	-0.003899368
178	0x3d090b5e	0.033458106
179	0xbd7074a0	-0.058704972
180	0xbd1128a4	-0.03543915
181	0xbca2d990	-0.019879133
182	0x3bc9f631	0.0061633815
183	0x3d203cb5	0.039120395
184	0x3d9236bd	0.07139347
185	0x3d926fd5	0.071502365
186	0x3d864c44	0.06557515
187	0xbd68d39f	-0.056842443
188	0xbcdf6aa6	-0.027272534
189	0xbee64a60	-0.4497862
190	0xbeaf0d80	-0.34189987
191	0x3df0f3d6	0.11765258
192	0xbca4e3c4	-0.020128138
193	0xbcc34160	-0.023834884
194	0x3cda3c40	0.026640058
195	0xbd502edb	-0.050825935
196	0xbd9d3d57	-0.07677715
197	0xbdc45923	-0.09587314
198	0xbe26a014	-0.16272002
199	0xbe451527	-0.1924635
200	0x3dc5b322	0.096533075
201	0x3cc4d5d0	0.024027735
202	0xbc8ffeac	-0.017577492
203	0x3d9df585	0.07712845
204	0x3d749307	0.05971053
205	0x3cef957b	0.029246083
206	0x3d7baa78	0.06144187
207	0xbba1f3ff	-0.0049424167
208	0x3c98812e	0.018616285
209	0xc015b54f	-2.3391912
210	0x400fb0d3	2.2451675
211	0xbf7bb9ec	-0.9833057
212	0xbe335c30	-0.17515635
213	0x3d3727b0	0.044715583
214	0xbdb683c7	-0.08911853
215	0xbcacf77a	-0.0211141
216	0x393b3487	0.00017853278
217	0xbc2a79cb	-0.010405014
218	0xbcaaaa19	-0.020833062
219	0xbb406e9d	-0.0029362806
220	0x3cfcd677	0.030863984
221	0xbf297262	-0.6619016
222	0xbf50c6f0	-0.81553555
223	0xbeee1989	-0.46503857
224	0xbe9ca41f	-0.30593964
225	0xbe2d636d	-0.16932459
226	0xbd48b1ea	-0.048997797
227	0x3c83b314	0.016076602
228	0xbcab136f	-0.02088329
229	0xbe9c3eb9	-0.30516604
230	0xbd0e3269	-0.034716044
231	0xbf22f37c	-0.6365278
232	0x3d1ab26c	0.037767813
233	0x3f0173b9	0.50567204
234	0x3d280a5d	0.04102551
235	0x3db7283d	0.08943222
236	0x3daf1697	0.085492305
237	0x3bb3b1e8	0.0054838546
238	0xbb9a1eb4	-0.004703367
239	0x3d1088a2	0.035286553
240	0x3d08559a	0.03328476
241	0xbb9c7071	-0.0047741462
242	0x3e0ee95d	0.13956209
243	0x3e8632ab	0.26210532
244	0x3d352646	0.044225954
245	0xbe876821	-0.26446632
246	0xbef94b58	-0.48690295
247	0xbee569e2	-0.44807345
248	0xbe2cda44	-0.16880137
249	0x3d2a713a	0.041611888
250	0x3dc1b4d5	0.09458319
251	0x3d8490c6	0.06472926
252	0x3f93e7aa	1.1555073
253	0x3ee87ad3	0.45406207
254	0xbfd5ffd4	-1.6718698
255	0xbe581f55	-0.21105702

net.0.bias f4 [32]
0	0x3f6927f9	0.9107662
1	0x3f498f1d	0.78734
2	0xbe87553c	-0.26432216
3	0xbf419c40	-0.75629044
4	0x3f41040b	0.75396794
5	0xbfaabb7d	-1.3338467
6	0x3f44063c	0.7657201
7	0x3cc5039a	0.024049569
8	0xbf4cda39	-0.8002048
9	0xc001a848	-2.025896
10	0xbf86bf15	-1.0527064
11	0x3f0acba4	0.5421698
12	0xbfcbc90a	-1.5920727
13	0x3fe13f01	1.7597352
14	0x3e85dce9	0.26145104
15	0xbf758c8e	-0.95917594
16	0x3da6b435	0.081398405
17	0x3facf74f	1.3512973
18	0xbe67a3a0	-0.22621012
19	0xbef32f25	-0.47496906
20	0xbf93a3e3	-1.1534389
21	0x3eb28e7b	0.3487433
22	0x3db1acc9	0.08675534
23	0xbf1e46eb	-0.6182696
24	0xbfae4aaf	-1.3616542
25	0x3eb6ae58	0.3567989
26	0xc01ca834	-2.4477663
27	0x3e075ef9	0.13219823
28	0x3ffc9f0b	1.9736036
29	0xbd3dad6e	-0.046307974
30	0xbfa2b214	-1.2710595
31	0xbf086b67	-0.5328888

net.2.weight f4 [6, 32]
0	0xbf3f549b	-0.7473847
1	0xbe5edd92	-0.2176421
2	0xbea994be	-0.33121294
3	0xbf641ec4	-0.89109445
4	0xbd9e8a0e	-0.077411756
5	0xbdf19978	-0.1179685
6	0x3e90ce34	0.2828232
7	0x3dfd6b9e	0.12374042
8	0x3e4f6870	0.20254683
9	0x3ebd6fe2	0.36999422
10	0xbe48c74b	-0.19607274
11	0xbe98370d	-0.297295
12	0x3e968859	0.294009
13	0x3ef12bf3	0.47103843
14	0xbf428db8	-0.75997496
15	0x3f161e21	0.58639723
16	0x3f268110	0.65040684
17	0xbe9e2b89	-0.3089259
18	0xbeadabe4	-0.33920205
19	0xbc764d34	-0.015033055
20	0xbee140fb	-0.4399489
21	0xbeaf36fc	-0.34221637
22	0xbe431fe0	-0.19055128
23	0x3df2c229	0.11853439
24	0x3ed81e41	0.42210582
25	0x3ec06898	0.375798
26	0x3f63be95	0.8896268
27	0xbdb42b28	-0.08797294
28	0xbf3e7d51	-0.7440997
29	0x3f91113e	1.1333387
30	0xbda701d6	-0.08154647
31	0x3ebd2fd7	0.3695056
32	0xbf47be40	-0.78024673
33	0xbfe503ba	-1.7891762
34	0x3f8a685d	1.0813099
35	0xc006173c	-2.095168
36	0x3e6141b8	0.21997726
37	0x3f86e27d	1.0537869
38	0x3f2725c2	0.6529199
39	0x3f20091c	0.625139
40	0x3fbd54d6	1.4791515
41	0xbd4245a7	-0.047429707
42	0x3f0f3419	0.5593887
43	0x3ea061e9	0.313247
44	0xbfcc198a	-1.5945294
45	0x3fff90a6	1.9966018
46	0x3f87e825	1.061772
47	0x3feb0517	1.8360928
48	0xbfd5e9ad	-1.6711937
49	0xbf45b044	-0.77222085
50	0xbf227586	-0.63460577
51	0x3f08dec7	0.5346493
52	0xbff0406b	-1.8769659
53	0x3ed93b87	0.42428228
54	0xbf62cb0d	-0.8859108
55	0x3f82e6df	1.0226706
56	0x3cbab888	0.02279307
57	0xbf3b7f3c	-0.7324102
58	0x3f9a10ea	1.2036412
59	0xbf6c77c8	-0.9237027
60	0x3f4d8c11	0.8029185
61	0xbfb59fa1	-1.418934
62	0x3fef04d9	1.8673354
63	0x3cb3f8e2	0.021969263
64	0x4032cef5	2.7938817
65	0xbf30a976	-0.69008577
66	0xbf85c55f	-1.0450858
67	0x3fb98e51	1.4496557
68	0x3fcd7c25	1.6053511
69	0xbe224e68	-0.15850222
70	0x3f673716	0.9031843
71	0xbf21b4c6	-0.63166463
72	0xbf32a793	-0.6978695
73	0xbfd3371f	-1.6501197
74	0xbf3442c2	-0.70414364
75	0x3f949c8c	1.1610274
76	0xbf360697	-0.71103805
77	0x3f8c4882	1.0959628
78	0x3e5f0175	0.217779
79	0x3fa2dc7a	1.2723534
80	0x3f2ba3a9	0.670466
81	0xbda1b5e7	-0.07896023
82	0xbf23ccb8	-0.6398425
83	0x3f252788	0.64513445
84	0xbf0cc9d3	-0.5499546
85	0x3fb4d210	1.4126606
86	0x3e21b6e1	0.15792419
87	0xbdbae321	-0.09125353
88	0xbfb69edd	-1.4267231
89	0xbfd53d86	-1.66594
90	0xbe76d135	-0.24103244
91	0xbc064b9e	-0.0081967395
92	0x3f8ba37c	1.0909266
93	0xbf88af89	-1.0678569
94	0x3f684854	0.90735364
95	0xc01a78e5	-2.4136288
96	0xbe33e76a	-0.17568746
97	0x3fc7ee95	1.5619684
98	0xc00f34ae	-2.2375903
99	0x3da2ac9c	0.07943079
100	0xbf01ce88	-0.50705767
101	0x3ebc6dab	0.3680242
102	0xbec81e4f	-0.39085624
103	0xbe01af65	-0.12664564
104	0x3f7ddde5	0.9916671
105	0xbe2de300	-0.16981125
106	0xbe9665c9	-0.2937453
107	0xbd8c6509	-0.068552084
108	0x3eb35ab5	0.3503014
109	0xbe25c307	-0.16187678
110	0x3cf22a70	0.029561251
111	0xbf3b6a07	-0.7320866
112	0x3fddf222	1.7339518
113	0x3de187e6	0.11012249
114	0x3e5a67d4	0.2132867
115	0xbe1a509f	-0.15069817
116	0x3fa1ec8a	1.2650311
117	0x3da24332	0.07922973
118	0xbed4a687	-0.415333
119	0x3ec4bb73	0.38424262
120	0x3e043e79	0.12914456
121	0xbdbc047b	-0.09180542
122	0xbee6d905	-0.45087448
123	0xbc5dcbb0	-0.013537332
124	0xbeae6dbd	-0.340681
125	0xbe81fab8	-0.25386596
126	0xbec20d32	-0.37900692
127	0xbf64b56d	-0.89339334
128	0x3d6b4060	0.05743444
129	0xbdbb11ae	-0.091342315
130	0x3efd9e67	0.49534914
131	0x3ee742de	0.45168203
132	0xbd83767b	-0.06419083
133	0xbe045ee2	-0.1292682
134	0x3d2323ab	0.039828938
135	0xbd62cc84	-0.055370823
136	0x3ceb1ff7	0.028701765
137	0xbd6670a6	-0.056259774
138	0x3ef2d31d	0.47426692
139	0x3e590671	0.21193863
140	0xbe1a8219	-0.15088691
141	0x3e15d4de	0.14631984
142	0xbe0e0c92	-0.13871983
143	0xbd475638	-0.04866621
144	0xbea561b8	-0.32301116
145	0x3e1579ba	0.14597216
146	0xbe0019ee	-0.12509891
147	0xbce9f752	-0.028560314
148	0xbe347617	-0.17623173
149	0xbe672640	-0.22573185
150	0x3dd0b27d	0.10190294
151	0xbe23083b	-0.15921108
152	0xbe57b950	-0.21066785
153	0x3e0ff7f0	0.14059424
154	0x3df9caa7	0.12196856
155	0x3de21ca8	0.11040622
156	0x3e30c132	0.17261198
157	0x3e5f331c	0.2179684
158	0xbd93740d	-0.07199869
159	0xbea5b031	-0.32360986
160	0x3d920294	0.07129398
161	0x3db0595b	0.08610793
162	0x3d9f8c84	0.07790473
163	0x3e2309c7	0.15921699
164	0x3f28ae8f	0.65891355
165	0xbd92f937	-0.0717644
166	0x3e695ba8	0.2278887
167	0xbe0af1e6	-0.1356884
168	0xbd98eb17	-0.07466715
169	0x3db9fbfd	0.09081266
170	0x3da63eaa	0.08117421
171	0xbb8c42ee	-0.0042804396
172	0x3e809889	0.25116375
173	0xbeb96805	-0.36212173
174	0xbd386d75	-0.04502626
175	0x3d25ddb1	0.040494625
176	0x3c97beef	0.018523661
177	0x3e8acc45	0.2710897
178	0xbe2ebc5d	-0.17064042
179	0xbf106297	-0.56400436
180	0x3ce85a52	0.02836338
181	0xbe0b9d39	-0.13634194
182	0x3e94aba7	0.2903721
183	0xbd3ab6bd	-0.04558443
184	0x3c95f1e9	0.018303828
185	0x3e5d789f	0.21628045
186	0x3effc18c	0.49952352
187	0x3f252536	0.64509904
188	0x3c555397	0.013020418
189	0x3e7d7c64	0.24754483
190	0xbd657ec9	-0.056029115
191	0xbc5a7a8b	-0.013334881

net.2.bias f4 [6]
0	0x0000c68e	7.1228e-41
1	0x3fdbe282	1.71785
2	0x80004308	-2.4046e-41
3	0x4004c452	2.0744824
4	0x3e2943f4	0.16529828
5	0x3e2943f4	0.16529828
