training/gen1_architecture/nn-xxlarge.pth (torch, 821675 bytes, 10 tensors)

net.0.weight f4 [256, 21]
00000000: eac1 9b3e f548 d5bd 08f1 753d e0c1 903d
00000010: 8a08 443d 104a 793d 5ccf 703d f3ca 17bc
00000020: c2e2 8dbd ecd3 edbb e890 f0ba eea6 0bbd
00000030: 6c8e f9bb 8eb7 c83c ec08 a43d 6660 72bb
00000040: 578a a6bd 865a a6bd 44ca eebc 3faa 81bd
00000050: bed9 88bc 4220 68be 3920 a93c bfc3 2b3f
00000060: 0110 e53c ed39 8f3d ec82 b13d cf8a 003c
00000070: 11d0 91bc 3f2d f3bc 43fe 783c 5255 b3bc
00000080: 15a9 803d 622b df3d 7607 023e 4a34 ed3d
00000090: a639 9d3d 5810 303d acee 923c f933 de3d
000000a0: 78ee 403d d723 36bc d8f5 ff3d a203 88bc
000000b0: bd86 063e fc67 493e 1809 d83d 0c55 73bd
000000c0: 10cd c1be 796f 98be 47b5 ad3d 22b2 3b3e
000000d0: 0c29 f03d 5fdb 2dbd 1e83 74bd daf0 d5bc
000000e0: a5ba deba f01f 03bc e26a 0fbc 8ef6 fe3b
000000f0: ed1c 99bb 7c8e 313c 96fc 04be 9bea 19b7
00000100: 3088 8138 f1be 3238 f85b 5338 cd20 7137
00000110: 31b6 67b8 a306 8538 0589 00b8 b213 72b8
00000120: 9f75 8f39 5e80 beb8 d664 29b7 15ed 14b7
00000130: bd8a 1638 3b80 38b8 f525 7cb8 856d 01b8
00000140: 61c6 7038 0a0f 14b8 404f dab6 0452 b1b8
00000150: 676c 2537 1bf3 84b8 3782 1ab8 6d51 17b8
00000160: fff0 bfb7 795e 8838 b75d 9eb8 f759 8638
00000170: 1137 5038 0905 86b9 c3dc b338 381a 4fb6
00000180: 7b28 4136 37f0 beb7 d8ff bc37 606f 6138
00000190: 0118 4838 ff82 86b8 9c5c 0038 0012 2c37
000001a0: c217 ca38 6bb3 2ebd dcf8 1ebd 1594 21be
000001b0: 72bc 00be d20e 233e 6854 443e d2d4 0e3d
000001c0: 90ca 123c 2734 44ba 2623 eebc 2a78 1fbd
000001d0: e5f0 c7bc 641f d238 6f0d 803c 6576 883b
000001e0: 5f36 a5ba 79c1 69bc 10b4 26bc 53d3 223b
000001f0: bd75 19bd 83c2 cbbd c9f2 a3bd aa1c 56bd
00000200: f948 283e 4eee cdbc 4ecb 533e 011c 3f3c
00000210: 4fc9 5ebe c2af edbd 6783 9c3c 7bf4 a3bc
00000220: 93fe 83bd 3d91 63bc cecd 96bc 3590 bcbc
00000230: 2faf a2bc a065 023d 382e 8db9 6979 a0bd
00000240: e00e da3c db0c 393d 3b3a 1abd 1dc3 25be
00000250: 7986 d83d 4f3e 23bd 6b89 b0bd a332 6bbd
00000260: 082f 43bd 2e1a cfbb c9da ce3a 6f0d d53b
00000270: abb6 1b3c 67b1 06bb 0c31 003e a2ef cd3d
00000280: c9e7 073e dcef b43d 8c94 d8bd c5bb cabe
00000290: e1f3 fdbe 79d3 053e 1a82 003d e300 8ebb
000002a0: b77e 9037 f0bf 9fb8 b975 98b7 c90b 1238
000002b0: 17cd 99b8 545f 15b7 0f0c 3837 0ba3 af36
000002c0: eaee 70b7 8192 97b8 a947 0737 c478 41b8
000002d0: 68d4 8637 8023 74b7 9697 0d38 c3be 77b7
000002e0: 8797 e6b5 3380 ce38 25a6 04b7 484f 8237
000002f0: 93d5 93b5 c546 763d 342a 42bd 9cce 993e
00000300: 871b 103e 4d66 dd3d 5854 0a3c 2e34 42be
00000310: e7f9 61be f23e abbd 52fc 1f3e 8b5f d53d
00000320: a851 2a3d 1854 1c3d ffbc cbbb 9f7f 9cbd
00000330: 5068 0fbe 6c45 90bd 5a71 ca3d d5d9 1a3d
00000340: 4e99 543d ba7c 85bc ed7f f73c a8d1 9bbd
00000350: f61c 65be 8424 18bd 0b64 813e 6196 033d
00000360: 0c7b 3dbe 87f0 b2bd 2a10 973d 26e8 7c3d
00000370: 8620 f3bc fd1a e3bc 2109 113c 694b c13a
00000380: 9ca8 af3b a136 d23c 98f4 b53c aa54 413c
00000390: 091a b1bc 86b2 da3c 1707 bd39 9c84 52be
000003a0: 5b14 8dbc 15ec 9f3d 3d06 babd a2a0 64bd
000003b0: 2a30 09bd 0735 663c 5a0a 893d efee 973d
000003c0: d6eb 8f3d 4033 76bc 7e4b af3b e682 413d
000003d0: 5a67 393d d608 bc3c 9d64 eb3c 1cce e33c
000003e0: 6ffe 193d abab 0d3d ba12 87bb 7962 093d
000003f0: a1cb 413e 0bfc d73b 14c9 0dbe 5ba8 1f3e
0.30421382 -0.10414306 0.06004432 0.07068229 0.047859706 0.060861647 0.058791503 -0.009264695
-0.06928016 -0.007257929 -0.0018353732 -0.034094743 -0.007615855 0.024501588 0.08009514 -0.0036983727
-0.08131855 -0.08122735 -0.029149182 -0.063313 -0.01670539 -0.22668555 0.020645248 0.6709556
0.027961733 0.0699347 0.086675495 0.007845595 -0.01779941 -0.029684661 0.0151973395 -0.02189127
0.0628225 0.108969465 0.12698159 0.11582239 0.07677011 0.042984337 0.017936073 0.10849757
0.04710242 -0.011116943 0.12498063 -0.016603295 0.13137336 0.19668573 0.105486095 -0.05940728
-0.37851763 -0.29772547 0.084818415 0.18329671 0.11726579 -0.042445537 -0.059695356 -0.026115824
-0.001699288 -0.00800322 -0.00875351 0.0077808565 -0.0046726377 0.010837194 -0.12986979 -9.174134e-06
6.176566e-05 4.2616335e-05 5.0391973e-05 1.4372356e-05 -5.524437e-05 6.3431704e-05 -3.0645188e-05 -5.771564e-05
0.0002736272 -9.083816e-05 -1.0096663e-05 -8.876687e-06 3.5891997e-05 -4.3988442e-05 -6.0116832e-05 -3.0857995e-05
5.7405214e-05 -3.5299956e-05 -6.506132e-06 -8.455294e-05 9.860006e-06 -6.3395324e-05 -3.6837733e-05 -3.607704e-05
-2.2881197e-05 6.502582e-05 -7.551483e-05 6.406375e-05 4.964235e-05 -0.00025562223 8.576505e-05 -3.0860665e-06
2.8782804e-06 -2.2761624e-05 2.2530483e-05 5.3747906e-05 4.770607e-05 -6.414018e-05 3.0603827e-05 1.025619e-05
9.636536e-05 -0.042651575 -0.03881155 -0.15779145 -0.12571886 0.15923622 0.19172823 0.03487093
0.0089594275 -0.0007484578 -0.029069494 -0.038932957 -0.02440686 0.00010019427 0.015631406 0.0041645044
-0.0012604705 -0.014267319 -0.010174766 0.0024845197 -0.0374658 -0.099492095 -0.08005292 -0.05227343
0.16434087 -0.025138047 0.20683023 0.0116643915 -0.2175648 -0.11605789 0.019105626 -0.020014038
-0.064450406 -0.013889608 -0.018408682 -0.023017982 -0.019858925 0.0318352 -0.0002692805 -0.07835657
0.026618421 0.045178276 -0.03765319 -0.16187711 0.105725236 -0.039854344 -0.086199604 -0.057421338
-0.047652274 -0.0063202595 0.0015781756 0.0065018455 0.009504001 -0.0020552517 0.1251871 0.10055472
0.13272013 0.08834812 -0.10575208 -0.39596382 -0.49600127 0.13068952 0.031374075 -0.004333602
1.7225144e-05 -7.617462e-05 -1.817463e-05 3.482009e-05 -7.3338095e-05 -8.903287e-06 1.0970062e-05 5.234387e-06
-1.4360741e-05 -7.2275296e-05 8.063312e-06 -4.6127258e-05 1.6072954e-05 -1.4551799e-05 3.3758195e-05 -1.4766762e-05
-1.7180436e-06 9.8467244e-05 -7.906497e-06 1.5534126e-05 -1.1014512e-06 0.060126085 -0.04740353 0.30040443
0.14073001 0.10810528 0.008442961 -0.18965217 -0.22067986 -0.08361615 0.15623596 0.10418614
0.04158178 0.038166136 -0.0062175984 -0.07641529 -0.14004636 -0.07044491 0.09884901 0.037805397
0.051904015 -0.016294826 0.030212367 -0.07608348 -0.22374329 -0.0371442 0.2527164 0.032125834
-0.1850397 -0.08737283 0.0737613 0.06174483 -0.029678594 -0.02772283 0.008852274 0.0014747205
0.005360676 0.025660815 0.022211358 0.011799971 -0.02161886 0.026696455 0.00036054172 -0.20558399
-0.01722162 0.07808701 -0.09083221 -0.055817254 -0.0334932 0.014050729 0.066914275 0.0741862
0.07027404 -0.015026867 0.0053495755 0.047243975 0.04526458 0.022953432 0.0287345 0.027808242
0.037596162 0.034587543 -0.0041221054 0.033541176 0.18925335 0.006591325 -0.13846236 0.15591566

net.0.bias f4 [256]
00000000: 24a3 b83e 1a83 163e d5a3 95be e385 5d38
00000010: ae9d 56b8 be60 1f3e 8d06 38be 58bf 4e3e
00000020: dac3 f6b4 481d b83e 91ee f73d 2d56 1cbe
00000030: 2398 39bd 8f49 21bd e299 06bd 963a 9dbe
00000040: cba5 24bd 7e47 123e 1d1d b23e 1a50 a4bd
00000050: 4e66 15be 9e76 123e e50a 67bd c12f ebbd
00000060: 2a5f 353e 7e58 973e 69a8 1f3d 6f6c 51bd
00000070: e794 dabd e532 86b7 323d 3cbe 9caf 9b3c
00000080: ea6a e63b 5a05 8cbe a76b 33b8 1db6 6b3d
00000090: ea5a febc b172 033e 042f 0d3e a3c4 8e3e
000000a0: 5f91 7ebd 98df 0536 86a7 5b3e efdb 97bd
000000b0: 1621 f2bd f2c3 913c 81a2 963d 779f 1bbb
000000c0: 82e5 d33d 4d75 83bd 28e6 933e e172 4b3e
000000d0: 4436 e73d b556 23be 39d1 0d3e b8d7 1dbe
000000e0: 4ab3 c2bd 2e38 74be 3fb6 a13d 5df3 fe3b
000000f0: ae8e 1fbe 7f98 493e 5d7e fa3d bcff d1bc
00000100: 4dde a83e 4464 813d 7e5e 8637 f1d7 0cbd
00000110: 8ade 023d b91d 0abe 6e7c 30bc 6544 c2bd
00000120: 7ece f4bd 5ea4 03be 9e5c a6be 9535 153e
00000130: eae7 e3bd da83 2dbe 1860 953d 7306 06bf
00000140: 15ee 1fb8 1881 24be 9022 27be 8764 313d
00000150: 20b3 0f3f 2021 01bc e00b 51b7 b779 5d3c
00000160: 5e08 0dbe 0464 173e dc59 4638 de38 c1bc
00000170: 3b78 083f 207f e03d 2629 2d3e 6e03 37be
00000180: 6b30 53bd 332c c23d 159f 42bd e4bb 33be
00000190: 71b6 4b3c 6ff6 31bd da59 15be 3459 343d
000001a0: e1eb a9bd 5016 253e ac0f f1bd ee3b e03e
000001b0: b127 583d f6d4 083e a85d 92b7 ef65 603e
000001c0: c119 97be 5c0f 393d f5a8 6638 f986 b1bd
000001d0: 6bf8 cdbe f0f5 7b3d 79a1 063e e655 e9bd
000001e0: 9b82 3a3e 13e2 cc3d aba7 a03b 92f5 aa3e
000001f0: 2d2f f4bd 47d6 2fbe e2b3 363e d543 d4bd
00000200: a1a2 adbe e52e bc3e 6048 983e 0c30 c93d
00000210: 79d5 2a3e e76a a23d 82d2 d3bd e30b 713d
00000220: 8058 4dbd c142 85be 239d f0bd 0b36 ab3c
00000230: b1a8 5f3d 104e c037 0a80 0b3e 4a86 9c3e
00000240: 3f3c a6be fb5f 93bd 9af1 6e38 fc4b 06be
00000250: 40dd 8f3d 715a b93b c7b6 71be 3a12 f23d
00000260: ebdb ae3d 61f4 c1bd bef0 5b3e dea6 07be
00000270: ae0b 753c eaa3 e2bd 967f 623e e1e9 103e
00000280: 6b9b 18be dcbd 76bb 3d16 80bd 784d 1d3d
00000290: 5edc ed37 14c8 4ebe 3aa3 6bbe 9383 753b
000002a0: 7a84 2dbe 6f0c 33be d327 953e a034 25be
000002b0: 606d 5b3c b018 43bb 7a0a 993e 9ed8 67be
000002c0: 889e d93d 7a5e 1e3e 9f6f 3b38 370b 86bd
000002d0: 06e8 d43e 5e3a d6be b801 0c3e 114c fcbd
000002e0: bcfd 68bd 276d d9bd ecd1 823e 2197 05be
000002f0: 8b5c a6be 127b e93e 433f 813e c4a8 59be
00000300: 1c13 903e 2793 81be 8440 543e 75f7 8e3d
00000310: 69d2 013e 8c32 973e ded3 05be 58f4 0dbe
00000320: 9683 a13c cbd2 7bbe 9a01 07bf 8b1c 04be
00000330: 4a59 ebbd 7250 8eb7 1264 ef3c 8941 e93e
00000340: c562 6bbe efd8 99be 35b8 8d3d 2297 343d
00000350: f2b2 0cbb f97e e63d 9243 08be cf0c 443e
00000360: 8555 eb3d ab28 543e 53bf 08be dda2 893e
00000370: 06a1 e235 a424 d537 4512 af3d 19e4 3038
00000380: d514 4cbd 17a0 703d 4742 6a3d 649e feb7
00000390: ad21 dabe f385 1338 a18e 87bd cf01 c83e
000003a0: 9ed8 4cbe 4a97 a73d 330d 09be 777d a7bc
000003b0: 5534 173b fb78 8b3e a6d5 50bd c596 55be
000003c0: ee92 97bd a490 03bf 2d86 893b c908 13be
000003d0: 1329 67be e0d9 08be e0b8 273d afdf bebd
000003e0: 7c14 4b38 c391 9d3e 07ef 3e3d 5b4a 0c3e
000003f0: 9fe8 adbe 56ca b4be e67c 9638 c55c a63e
0.36061966 0.14698449 -0.29226556 5.2815198e-05 -5.1168427e-05 0.15564248 -0.17971249 0.2019018
-4.5963571e-07 0.3595984 0.1210605 -0.15267248 -0.045311105 -0.03937679 -0.032861598 -0.3070876
-0.040197175 0.14285085 0.34787837 -0.08023091 -0.14589807 0.14303061 -0.056406874 -0.11483718
0.17712083 0.29559702 0.038978968 -0.0511288 -0.10672932 -1.5997744e-05 -0.18382719 0.019004636
0.007031788 -0.27347833 -4.2777185e-05 0.057546724 -0.03104921 0.1283672 0.13787466 0.27884397
-0.062150355 1.9948693e-06 0.21450624 -0.07414996 -0.11822717 0.01779363 0.07355214 -0.0023746172
0.103465095 -0.06418858 0.28886533 0.19868042 0.11289647 -0.15951045 0.13849343 -0.15414321
-0.09506853 -0.23849556 0.07896089 0.007780476 -0.15581772 0.19687079 0.12231133 -0.025634639
0.32982102 0.06317952 1.6018046e-05 -0.034385625 0.03195051 -0.13487901 -0.010771854 -0.094857015
-0.11953448 -0.1285567 -0.32492536 0.14571221 -0.111282185 -0.16944829 0.07293719 -0.5235359
-3.8130285e-05 -0.1606487 -0.16321778 0.04330876 0.561327 -0.007881433 -1.2460136e-05 0.013517789
-0.13772723 0.14784247 4.7290567e-05 -0.023586687 0.5330846 0.10961747 0.16910228 -0.17872402
-0.051559847 0.094810866 -0.047514994 -0.17552143 0.012433634 -0.043447908 -0.14585057 0.044030383
-0.082969435 0.16121793 -0.11770567 0.43795723 0.052772228 0.13362488 -1.7448168e-05 0.21913885
-0.29511836 0.045180663 5.4993627e-05 -0.08668322 -0.4022859 0.06151384 0.13147534 -0.11393337
0.18213885 0.10004058 0.0049028 0.3339048 -0.119230606 -0.17171584 0.17842057 -0.103645004
-0.33913139 0.36754528 0.29742718 0.09823617 0.16682996 0.07930546 -0.103428856 0.058849227
-0.05013323 -0.26027492 -0.117487215 0.020899793 0.054604236 2.2924534e-05 0.13623062 0.30571204
-0.3246784 -0.07196041 5.696863e-05 -0.13114923 0.07024622 0.0056565334 -0.2360488 0.11819883
0.0853804 -0.0947044 0.21478555 -0.13247249 0.014956398 -0.110664204 0.22118983 0.14151718
-0.14903037 -0.0037649786 -0.062542416 0.038403958 2.8355218e-05 -0.20193511 -0.23011485 0.0037462458
-0.16945067 -0.17485212 0.29131946 -0.16133356 0.013392776 -0.0029769354 0.29890805 -0.22641227
0.106259406 0.15465727 4.468823e-05 -0.06545108 0.4158327 -0.41841406 0.1367253 -0.12319196
-0.056882605 -0.10616522 0.25550783 -0.13045932 -0.3249248 0.45601708 0.25243577 -0.21255785
0.2813958 -0.2530758 0.20727736 0.069807924 0.12677921 0.29530752 -0.13069102 -0.13862741
0.019716065 -0.2459213 -0.5273682 -0.12901513 -0.1149164 -1.696518e-05 0.029222522 0.45557812
-0.22986896 -0.3004832 0.069199 0.044089444 -0.0021468964 0.11254687 -0.13307026 0.19145511
0.11490921 0.20718639 -0.13354234 0.26882067 1.6885176e-06 2.540864e-05 0.085484065 4.2174102e-05
-0.049824554 0.058746424 0.057192113 -3.0352916e-05 -0.42603818 3.517228e-05 -0.06619001 0.3906388
-0.20004508 0.08183153 -0.13383941 -0.020445568 0.0023071964 0.27240738 -0.050985 -0.20858295
-0.074010715 -0.5139258 0.004196903 -0.1435882 -0.22574262 -0.13364363 0.040947795 -0.09320008
4.841805e-05 0.3077527 0.046614673 0.1370024 -0.33966538 -0.3531062 7.1758215e-05 0.32492653

net.2.weight f4 [256, 256]
00000000: 1d9d e73d fafa f83d c888 f4bd f1a7 b737
00000010: 9fd4 29b6 449d b63c 28d2 7cbd 01cd ab3a
00000020: 38ac 1738 68a8 a43d 1ecb 87bd 86ea f4bc
00000030: 3604 843c b43a 0fbc 65dc 05be 952e ab3b
00000040: beb7 5ebd f0e7 cf3d b79e 34bd 1dfc f03a
00000050: e681 ee3c 4e3f 04bd b0ab 483a d7c1 c63b
00000060: b69c 3f3d 4efb d43d 5234 043c 5caa 04bc
00000070: 5a7e 99bd b4b7 85b8 9da7 17bd 692f 45bd
00000080: f93a 1b3d 4df0 8dbd c57b 89b8 c788 9c3b
00000090: ec91 e5bd 9131 c6bb dec9 87bd 30da 8fbb
000000a0: 3eb0 82bd 417c 1937 889d bc3c b210 3fbc
000000b0: f6f5 833d 4e39 fc3c 327c 483c a212 463d
000000c0: cf77 533c 76fd 99bc e26f da3d a959 9d3d
000000d0: 83f6 d53c 0af8 74bd f447 b43c 0e86 9bbc
000000e0: 71da 49bc 672a 9eba a788 ba3c f117 09bc
000000f0: 92c0 6c3c 9ebd 0bbd b5cb 193d 611f 823c
00000100: 5e50 9e3d 65b8 703c 288f 24b8 0a58 cfbc
00000110: e417 593d ba61 96bd 8166 f5bb e13e be3b
00000120: 8db3 61bc 9f3b 55bb 6ace b7bd 5989 463d
00000130: 0725 3bbc 875f 85bc 0379 9c3b 72dd 02be
00000140: e7f5 35b8 0b31 87bd 5757 15bd e3e1 52bc
00000150: 9914 7c3e 8d43 2f3d 541c 60b7 5801 4ebd
00000160: 630c 9ebc 6784 953d 978a 2a37 dcd4 9b3d
00000170: 7e83 bf3d db6e 69bc 39c0 bdbd ee4a ddbc
00000180: 1852 29ba 25d5 9a3c 8e60 12bd 160f 77bd
00000190: 9973 5dbd ae47 67bd 7c55 8ebc 71d3 3d3c
000001a0: 7d8f 31bd e024 393d f8e3 8abc 25ac f83d
000001b0: 63d1 03bc 326a 2ebc 615d 66b7 9c32 313d
000001c0: 6bf0 283d 7c61 84bb ef9e 5237 7da1 193d
000001d0: 3fc1 19be 2e57 cc3d 3657 81bb 9812 4fbc
000001e0: 9c32 213d e75e 543d d9dd 913c 0a78 863b
000001f0: b4ba b03c 9cec c3bb 7652 08bc a7d2 8bbd
00000200: a23c eabd 5899 133e 8592 243d 3215 b83c
00000210: 488a 2c3d 669a 0e3c 2abf 4b3d cc42 763b
00000220: 30a4 d2bc 8acd a3bd 7681 e0bc 62dc e83c
00000230: 178f e43b 1a13 e0b7 06c3 193d 1f03 893d
00000240: 445b 86bd 1423 163c 062d b837 b24b 14bd
00000250: 9d7e 443b 5823 76bc 1578 943d ca92 b33c
00000260: b258 b13c 3a97 863c e5ec b33c f833 a73b
00000270: 8d5d 313c c440 283d 0bac 5a3c 57ae 2a3d
00000280: d0ed de3a 6414 523d 6ac4 123c 2af6 323d
00000290: e734 2c37 9845 8fbc 21ca e6bd ce5d 413b
000002a0: de0c ee3c d496 d9bd e628 50bd b447 993d
000002b0: 58a1 113d 6010 b3bb f3d6 4d3c 47d0 dbbc
000002c0: ef8b 373c d12d 343c a0bc 6cb8 5890 f53b
000002d0: 3d46 623c cdf2 4cbd 4511 493d 99c1 08bd
000002e0: 0334 503d 4b4d 77bc 5e27 e63d 53b5 c03b
000002f0: 4dce b7bd a2fa 163e bab7 613d 7383 a7bd
00000300: 8422 8c3d f17a d2bb 3e58 2b3d 9d35 8d3d
00000310: 44e7 7d3d 484a 333d 80b4 76bb 0832 873d
00000320: 2b77 e03c 3c7c 48bd 5832 61be 1981 9cbc
00000330: c879 56bc de39 36b8 1691 953d dfac 093e
00000340: 4cd2 adbc 06e7 0fbe f47e e83c 532b 923d
00000350: 41e3 223d 74e3 0e3d ad09 1fbb eeae c33d
00000360: ea34 383c 0db2 c03d abdd b1bc 48b1 0c3e
00000370: a7e3 35b7 e577 2638 81e1 82bd c73b b2b7
00000380: 1ffe ffbc 30c4 303c 2485 0f3a 5c59 3ab8
00000390: 2783 55be 552a 0438 e8a7 ddbb d1dc 193e
000003a0: cbfd 253c 0940 683d dd27 0fbd f84f 43bd
000003b0: 0aef 0a3c 748b 143d 8f3a 5c3a 3e8c 80bd
000003c0: fa1f 27bd 6f41 61be b394 f7bc eb14 8c3a
000003d0: ed6e 1b3c fa46 2f3b 3887 85bd 5080 883c
000003e0: 0ec7 c2b6 3e01 893c 1f4c 9abd a5b0 b23c
000003f0: be67 03bd 467e a2b8 4bc7 17b7 5cce b73d
0.11309264 0.12157245 -0.119401515 2.1893504e-05 -2.5306724e-06 0.022291787 -0.061723858 0.001310736
3.6161597e-05 0.080399334 -0.066305384 -0.029896986 0.01611529 -0.008742023 -0.13072355 0.005224059
-0.05437445 0.101516604 -0.044096675 0.0018385682 0.029114675 -0.032286935 0.0007654978 0.006065588
0.04678031 0.10399495 0.008069115 -0.008097257 -0.07494803 -6.3761516e-05 -0.037025083 -0.048140917
0.037898038 -0.06930599 -6.555723e-05 0.0047770473 -0.11209473 -0.0060483892 -0.066303 -0.0043900236
-0.06381272 9.148441e-06 0.023024336 -0.011661695 0.06443398 0.030789044 0.012236642 0.048357613
0.012906983 -0.018797617 0.10665871 0.07683117 0.026118523 -0.05980686 0.022006966 -0.01898482
-0.012320147 -0.001206708 0.022770239 -0.0083675245 0.014450209 -0.03411638 0.037547786 0.015884103
0.077301726 0.014692401 -3.923397e-05 -0.025310535 0.0530013 -0.073428586 -0.007489026 0.0058058356
-0.013775718 -0.0032536758 -0.08974917 0.04847083 -0.011422402 -0.016280903 0.004775168 -0.12779787
-4.3382777e-05 -0.06601151 -0.036460247 -0.012871238 0.24617232 0.04278903 -1.3358036e-05 -0.05029425
-0.019293016 0.07300644 1.0165058e-05 0.07608959 0.09351252 -0.014247621 -0.09265179 -0.027013268
-0.00064590713 0.018900463 -0.035736613 -0.06031712 -0.05406532 -0.056464843 -0.017374747 0.011586056
-0.04334973 0.045201182 -0.016954407 0.12142209 -0.008045527 -0.010645436 -1.373081e-05 0.043261155
0.041244905 -0.0040399414 1.255398e-05 0.037507523 -0.15015124 0.09977566 -0.003947164 -0.01263871
0.039354905 0.05184832 0.01780598 0.0041036652 0.021573402 -0.005979134 -0.0083204415 -0.06827288
-0.11437346 0.14413965 0.040178794 0.022471044 0.042124063 0.008703804 0.049742855 0.0037576435
-0.025713056 -0.07998188 -0.027405482 0.0284254 0.0069750655 -2.6711776e-05 0.037539504 0.066900484
-0.06560376 0.009163637 2.1955475e-05 -0.036205 0.0029982694 -0.015023075 0.07249466 0.02192058
0.021648739 0.016429532 0.021963546 0.0051026307 0.010825527 0.04107739 0.013346682 0.04167017
0.001700813 0.051288977 0.008957962 0.04369179 1.0264316e-05 -0.01748924 -0.11269022 0.0029505375
0.02905887 -0.10624471 -0.050820254 0.074843794 0.03555426 -0.0054645985 0.012563455 -0.026832713
0.011202796 0.010997252 -5.6442455e-05 0.0074940138 0.013810691 -0.05003624 0.049088735 -0.033387754
0.050830852 -0.015094112 0.112379774 0.0058809905 -0.089748956 0.14744046 0.055106856 -0.08179369
0.06842521 -0.006423347 0.0418322 0.068949915 0.06198813 0.043772012 -0.0037644207 0.066013396
0.027400574 -0.048946604 -0.21991861 -0.019104527 -0.013090558 -4.3446074e-05 0.073030636 0.13444851
-0.021218441 -0.14052972 0.028380848 0.0713717 0.039767507 0.034884885 -0.0024267242 0.095548496
0.011243084 0.094089605 -0.021712145 0.13739502 -1.0841445e-05 3.9689145e-05 -0.06390668 -2.124709e-05
-0.031249104 0.010788962 0.00054748566 -4.4429078e-05 -0.20850812 3.1510677e-05 -0.0067644008 0.15025641
0.01013131 0.056701694 -0.034950126 -0.047683686 0.008479843 0.036265805 0.000840106 -0.06276749
-0.04080198 -0.21997617 -0.030222273 0.0010687386 0.009486896 0.0026745186 -0.065199316 0.016662747
-5.8048236e-06 0.016724225 -0.0753405 0.021812746 -0.032081358 -7.748282e-05 -9.046703e-06 0.08974907

net.2.bias f4 [256]
00000000: 621e 153e 480d c7bd 3f45 0c37 3e4d 1037
00000010: ca71 11b7 1c82 33be f62d 1fbd 7cac 0ab7
00000020: 41a0 0cb7 ec4e 0bb7 a6b7 0937 5a63 0cb7
00000030: fe42 f6bb d558 14be ce39 a4bd d058 14be
00000040: cbe6 36be 69ef 0bb7 e26b 6f3d 783f cfbb
00000050: 036c 0c37 f75c 0c37 f9b4 bd3c 3133 303c
00000060: d058 14be bade 013d 4f2c 0b37 4211 0e37
00000070: d0da 2d3d a41b c63d 80ee 09b7 6569 0cb7
00000080: 19c3 033d 7a95 0c37 e075 f73c dce6 0937
00000090: 3cc9 0b37 ffed 1237 4836 ec3d f54d bebd
000000a0: 6570 e5b6 7ded 0a37 8710 0c37 6aa3 0c37
000000b0: fd67 c03b 58ae 26bb c1a9 8ebc b190 93bd
000000c0: ffbc 9d3b fa34 0e3d d458 14be dbbb a3bd
000000d0: 4e92 09bd ea03 683d 2f37 68bb 3eea 0a37
000000e0: 1928 0c37 8338 5fbc 5ea1 4dbd bb66 e13c
000000f0: 9b69 ecbc fcdb 11be c220 cc3b f049 76bb
00000100: f87e 0cb7 8775 0b37 0e4a 1137 5f42 79bc
00000110: 1014 123c 92b0 65bd 899b 83bd b60e 783d
00000120: ff70 0cb7 61ec 81bd 866f eebc 2766 0cb7
00000130: 6e5f 0cb7 483f 2cbd a9c0 0b37 eaba 11b7
00000140: 3bad 0ab7 1507 543c 1790 463d 653f fc3c
00000150: 4eb7 d73d 9467 0c37 5525 a13c 023c 52bd
00000160: 6bc1 01bd d797 0c37 bb62 563e 58c9 08bd
00000170: a27c 0b37 8875 f8bd 669b 703d d358 14be
00000180: 2cca 033d 1370 04bd a5fa 5abe 0f40 ffb6
00000190: 57fe fe38 c21f 1237 c3d5 9cbd e6d4 383c
000001a0: 2d2e 0bb7 9e5d 0cb7 b2ee 0bb7 9fa5 0a37
000001b0: f814 5ebd 3387 0b37 3ae6 da3c c9da 0bb7
000001c0: b2bb 9ebd c3c7 083e 47e9 24bd d758 143e
000001d0: 463d 0c37 76ad 0b37 3d31 0cb7 9055 0c37
000001e0: f284 c23d ddcb 0bb7 d158 143e 7aa5 683d
000001f0: d458 143e 567f 0cb7 394a 793d 415a 1137
00000200: 047d 0cb7 62ce 94bc 8132 4b3c ff24 1e3e
00000210: cb33 04bc 2a62 42bb 10c9 463d 4a2d b9bc
00000220: e4ab 1137 daf2 e33d 685f 0937 fc99 323d
00000230: fd44 0c37 7766 12b7 83c4 f9bb 692b 913b
00000240: 45e5 84bd 217d 0c37 0692 6c3d 6e3d 0b37
00000250: 6a57 0c37 f799 12b7 122d 0cb7 34e3 fa3c
00000260: 0321 0cb7 7622 d4bc d458 14be 77e0 69bd
00000270: 3f26 bfbc b904 0c3d e4db 0b37 cdbb 16bd
00000280: cbc7 8ebd 290b 0137 b367 0c37 5622 e33c
00000290: 1fe2 1137 8187 14bd d827 95bd 3bec 09b7
000002a0: 6980 42bd 6a57 91bd 2d01 ecbc 4eff 0bb7
000002b0: fa55 813d db5b 90bb 5e1b ea3b c743 033d
000002c0: 99f7 f63c 8bc7 d53c fc36 813d 7833 65bd
000002d0: d158 143e 0405 9ebc bc41 dc3a 51ee 0f37
000002e0: dabe fb3d 5119 9cbd e635 48bc 1a7c 4fbd
000002f0: 9c21 e8bc b3e5 0b37 c048 0cb7 d258 14be
00000300: 1da1 0c37 6f58 0cb7 4f36 893d 661e 6cbc
00000310: c933 1037 cf83 27be 9e1c 0ab7 d658 14be
00000320: 2606 a9bd e0ad 183d 17c0 d93d d1f9 adbd
00000330: d058 143e d358 14be fa1c 90bd 1510 1cbd
00000340: 9dd6 0ab7 5c43 21bc db4a f13c b8d4 0bb7
00000350: d3cc b03c a7c7 fabc 212e 0cb7 8d86 0cb7
00000360: 6a3a 0c37 3ab8 bf3d 8657 07bd 76e2 1037
00000370: 0654 0b37 3661 9e3c 1118 283d 5624 a1bd
00000380: bb93 1d3c e66b f43c 5ca0 af3d f619 cb3a
00000390: 3b2a e2bd 584a 0c37 69c5 b4bc 2c1d 91bc
000003a0: 5b76 83bd a89f 0537 ec83 0c37 151b 0cb7
000003b0: 3b90 0ab7 2478 35bc e46b a53c c449 0c37
000003c0: 0f6a e6bc 565d 0c37 c948 97bd 404d 29bb
000003d0: 2a46 1237 e0be ebbc 7d7d 0237 c318 93bc
000003e0: 6c28 3fbd 16e2 2b3d a67b 0cb7 c224 0cb7
000003f0: 7bfd c4bc 67ad 53bd ef7c 0cb7 4e22 0cb7
0.14562371 -0.0971933 8.360773e-06 8.601053e-06 -8.669167e-06 -0.17530102 -0.03886219 -8.265601e-06
-8.381962e-06 -8.303421e-06 8.208595e-06 -8.367782e-06 -0.0075153103 -0.14487012 -0.08018838 -0.14487004
-0.17861478 -8.340788e-06 0.058452494 -0.0063247047 8.369799e-06 8.366295e-06 0.023157584 0.0107543925
-0.14487004 0.03170655 8.295362e-06 8.467878e-06 0.042445004 0.09673241 -8.221366e-06 -8.369189e-06
0.03216848 8.379453e-06 0.030207574 8.2195875e-06 8.331899e-06 8.757691e-06 0.11533791 -0.09292213
-6.8378163e-06 8.2807355e-06 8.348498e-06 8.382698e-06 0.0058717714 -0.0025433507 -0.01741493 -0.07205332
0.00481379 0.03471849 -0.1448701 -0.07994815 -0.033586793 0.056644358 -0.0035433283 8.27998e-06
8.353986e-06 -0.013624313 -0.05020272 0.027514806 -0.02885895 -0.14244074 0.006229491 -0.0037580691
-8.3742125e-06 8.31241e-06 8.659916e-06 -0.015213578 0.008915916 -0.056076594 -0.0642615 0.060560904
-8.370959e-06 -0.06343914 -0.029105913 -8.3684345e-06 -8.366869e-06 -0.042052537 8.329903e-06 -8.686193e-06
-8.265774e-06 0.012941142 0.04847726 0.030791948 0.105330095 8.368766e-06 0.019671122 -0.05132676
-0.0316786 8.380003e-06 0.209361 -0.03339514 8.314064e-06 -0.12131792 0.05874195 -0.14487009
0.032175228 -0.032333445 -0.21384676 -7.6070496e-06 0.00012159038 8.709672e-06 -0.07657959 0.011281228
-8.295797e-06 -8.366447e-06 -8.340621e-06 8.264003e-06 -0.054219216 8.316524e-06 0.026721109 -8.3359855e-06
-0.07750644 0.13357453 -0.040261533 0.14487015 8.358917e-06 8.325433e-06 -8.356114e-06 8.364572e-06
0.094980136 -8.332511e-06 0.14487006 0.056798436 0.1448701 -8.374298e-06 0.0608618 8.663687e-06
-8.373758e-06 -0.018164817 0.012402178 0.154438 -0.008068989 -0.002966056 0.048531592 -0.022604603
8.682695e-06 0.11130305 8.18805e-06 0.043603882 8.360713e-06 -8.726135e-06 -0.007622303 0.0044302237
-0.06489042 8.373784e-06 0.057756446 8.299348e-06 8.365003e-06 -8.738126e-06 -8.355144e-06 0.030625917
-8.352336e-06 -0.025895339 -0.1448701 -0.057098832 -0.023333667 0.03418419 8.336243e-06 -0.036800195
-0.06971701 7.691598e-06 8.368795e-06 0.027726334 8.695321e-06 -0.03626204 -0.0728299 -8.220838e-06
-0.047485743 -0.07096751 -0.028809154 -8.344488e-06 0.06315227 -0.0044054813 0.0071443757 0.03204706
0.03014736 0.026096126 0.063093156 -0.055957288 0.14487006 -0.019289501 0.0016804258 8.578952e-06
0.122922614 -0.07622016 -0.012219882 -0.05065546 -0.028336339 8.338527e-06 -8.361589e-06 -0.14487007
8.382162e-06 -8.36524e-06 0.06699812 -0.014411544 8.595126e-06 -0.16358875 -8.232104e-06 -0.14487013
-0.08253126 0.037275195 0.10632341 -0.08494914 0.14487004 -0.14487009 -0.07036777 -0.038101275
-8.2754095e-06 -0.00984272 0.02945464 -8.334573e-06 0.021582043 -0.03061278 -8.3553905e-06 -8.375978e-06
8.358251e-06 0.0936131 -0.033042453 8.635796e-06 8.304609e-06 0.019333463 0.041038577 -0.07868259
0.009617741 0.029836606 0.08575508 0.0015495408 -0.11043211 8.36196e-06 -0.022066789 -0.017714106
-0.06419059 7.964591e-06 8.375366e-06 -8.350956e-06 -8.259022e-06 -0.011076007 0.020193048 8.361825e-06
-0.028126745 8.366382e-06 -0.073869295 -0.0025833398 8.7186145e-06 -0.02877754 7.777821e-06 -0.017956143
-0.04666941 0.04196366 -8.373439e-06 -8.353209e-06 -0.02404665 -0.05167904 -8.373739e-06 -8.352637e-06

net.4.weight f4 [256, 256]
00000000: d9a3 a1ba 9584 6e3c 0f7b f4b6 bd57 09b7
00000010: 067a 0037 9c09 e53a 397e 7c3b d3d2 f136
00000020: 5a13 f536 f6aa f236 eee3 f0b6 f244 f836
00000030: b1e5 c33b 9707 4f3d 19eb 723c 9207 4f3d
00000040: 3140 c23b 83d3 f336 8ccf 98bc 43e4 c33a
00000050: 82be f4b6 e8a5 f4b6 42f0 793b 4d71 8ebb
00000060: 9207 4f3d 15c7 72bb 4178 f2b6 addd f9b6
00000070: 2214 ccbb 01df a8ba d719 f136 5ebc f436
00000080: 24ab eebb 8202 f5b6 7c1c 6dbb 4e12 f1b6
00000090: 6381 f3b6 eadb 03b7 7cb5 383c 3a77 903c
000000a0: 5391 2437 8b23 f2b6 421f f4b6 1517 f5b6
000000b0: fc1c bd39 9e13 be3b 2b5f 87bb de8f 613c
000000c0: 573a cebb 13e6 9fbc 9307 4f3d 2939 ae3b
000000d0: 41f8 2f3a 0edc 04bc 989f 86bc 131f f2b6
000000e0: 9644 f4b6 6751 00bc edd4 ac3b 311a 02bc
000000f0: 1504 363b 285d 9d3c 00a3 9c3c 689f 433c
00000100: c0dd f436 4ce7 f2b6 5408 00b7 f7fd 03bb
00000110: 2bb0 17bb a849 1e3c d4e0 653c 1dc1 7ebb
00000120: 15c6 f436 e2cd c63c 74be 08bb 8bb6 f436
00000130: d6a8 f436 6630 823b 937b f3b6 8400 0137
00000140: 9ed3 f136 670b 05bb e08c 0bbb be76 633c
00000150: 7eee f1bc 3fb9 f4b6 f6f3 4ebc 25bc 5b3c
00000160: 0d01 45bc 2802 f5b6 7789 f8bc 291a 2f3c
00000170: c8f7 f2b6 6fc6 e53c feaa ddbb 9007 4f3d
00000180: 4e51 59bc ac1c 4b3c ea23 003d ca45 0737
00000190: 9efa 3cba 549f 01b7 6220 ee3b cd75 fc3b
000001a0: c67a f236 2bbe f436 6bd2 f336 82ca f1b6
000001b0: c971 373c 5b05 f3b6 9ce3 3fbc 27a4 f336
000001c0: 4673 ba3c c701 7abc 6daa 253c 9b07 4fbd
000001d0: 066d f4b6 164a f3b6 bd56 f436 71ae f4b6
000001e0: d85d bdbc b173 f336 9807 4fbd b841 eeba
000001f0: 8f07 4fbd 46e3 f436 7041 10bd 5624 00b7
00000200: 36da f436 7eb0 60bc 3632 b23b 366b 07bc
00000210: 5209 893b 695b fa3b 5a99 b3bb ee17 8dbc
00000220: aab8 00b7 74b6 1d3c 2b57 f2b6 15eb c6bb
00000230: 777a f4b6 2843 0237 9074 5dbc 0ea2 dcba
00000240: c0ad 673c 76dd f4b6 c101 81bc d790 f2b6
00000250: e99b f4b6 39de 0237 124f f436 306a 6dbb
00000260: 9937 f436 b32a 9e3c 9807 4f3d 3a10 823c
00000270: 753f 483b 379c 64bc 5fad f3b6 a31d 6f3c
00000280: d2a1 043d 8f35 13b7 0db8 f4b6 c831 c73b
00000290: 0d5f 01b7 3f5c 983b 09c2 ba3c dc0d f136
000002a0: 3ca6 3c3b 8e09 3a3c 5bc6 c33b dcfa f336
000002b0: 434c cfbb 6db0 b139 8ea9 86bb 42ac a3bc
000002c0: 6c7c 6cbb af70 9f3a c8cd 05bb 7e4c ad3a
000002d0: 9707 4fbd 0c46 e33b 8058 b43b ab1c 0bb7
000002e0: 6d69 adbc 7d0b 963c 9ebe 493a 2b89 2e3c
000002f0: 0646 763b 43c2 f3b6 4181 f436 9407 4f3d
00000300: cd13 f5b6 00b4 f436 46dd 3ebc b7f9 e83b
00000310: 9311 01b7 ebe8 d63c f845 f136 9507 4f3d
00000320: 5d7b 053c f4ca 04bc d4e1 2fbb fe98 4fbc
00000330: 9607 4fbd 9307 4f3d f3cd 1b3d 49a8 433b
00000340: d705 f236 a5ca f83b 6096 433b e09a f336
00000350: 4786 52bb 29d0 f53b eb50 f436 62f9 f436
00000360: 6767 f4b6 9d89 92bb 5410 4ebb fc24 0ab7
00000370: a2b2 f2b6 6669 b6b8 8578 2b3b e085 ba3b
00000380: 2489 cfbb 944b 13bc d256 b0bc 154d 4e3b
00000390: a43e 813c 6b48 f4b6 7f0f 263c baac 0a3c
000003a0: 0ef2 2fbb 8a4d eeb6 53e8 f4b6 d12b f436
000003b0: f0b1 f136 8906 7bba 5c8f bbbb a083 f4b6
000003c0: cd36 08bc d5bd f4b6 8251 b13b 6d5c 1fbd
000003d0: 6ffb 01b7 e3a9 8f3c b86b 07b7 0421 9ebb
000003e0: 21e7 943b 95e7 a7bc 36dc f436 b23e f436
000003f0: 0313 033b e5dc 4c3c 3fdd f436 aa43 f436
-0.0012332156 0.014557977 -7.2860926e-06 -8.1862645e-06 7.657805e-06 0.0017474177 0.0038527383 7.206903e-06
7.303822e-06 7.2320645e-06 -7.179092e-06 7.3990022e-06 0.005978309 0.050544348 0.014826559 0.05054433
0.0059280624 7.2665875e-06 -0.018653654 0.0014945347 -7.2939447e-06 -7.2910807e-06 0.003813759 -0.0043470026
0.05054433 -0.0037044932 -7.2261614e-06 -7.4465847e-06 -0.006227986 -0.0012883843 7.185368e-06 7.2936955e-06
-0.007283585 -7.301861e-06 -0.0036180308 -7.1844906e-06 -7.257027e-06 -7.859411e-06 0.011273738 0.017634977
9.808998e-06 -7.2162998e-06 -7.2754056e-06 -7.304256e-06 0.00036070484 0.0058006784 -0.004131218 0.013767211
-0.0062935757 -0.019518888 0.050544333 0.0053168726 0.0006712713 -0.008109106 -0.016433522 -7.2157795e-06
-7.279751e-06 -0.007831908 0.005274406 -0.007940815 0.002777343 0.01920946 0.019120693 0.011939861
7.2975818e-06 -7.2390885e-06 -7.631334e-06 -0.0020140389 -0.0023145776 0.009661116 0.014030654 -0.0038872429
7.2948264e-06 0.024268094 -0.0020865472 7.2930175e-06 7.2914218e-06 0.0039730547 -7.2563503e-06 7.689119e-06
7.206995e-06 -0.0020300986 -0.0021293685 0.013883291 -0.029532667 -7.293332e-06 -0.012631407 0.013411556
-0.012024176 -7.30182e-06 -0.030338986 0.010687389 -7.2410076e-06 0.028048722 -0.0067647686 0.05054432
-0.013264013 0.012396973 0.03128425 8.062876e-06 -0.0007208976 -7.726096e-06 0.007267044 0.0077044726
7.2264547e-06 7.293905e-06 7.26646e-06 -7.2059347e-06 0.011196562 -7.242588e-06 -0.011711981 7.261074e-06
0.022760045 -0.015259213 0.010111433 -0.050544363 -7.2844587e-06 -7.250589e-06 7.2818643e-06 -7.2920743e-06
-0.023116037 7.2554326e-06 -0.05054435 -0.0018177545 -0.050544318 7.298225e-06 -0.035218656 -7.637855e-06
7.2971698e-06 -0.013713954 0.0054381145 -0.008265307 0.0041820193 0.0076402915 -0.0054809274 -0.017223325
-7.67239e-06 0.00962602 -7.2223097e-06 -0.0060705044 -7.2860234e-06 7.76424e-06 -0.01351656 -0.0016832964
0.014140546 -7.297548e-06 -0.015747907 -7.2290236e-06 -7.289917e-06 7.800344e-06 7.2809717e-06 -0.0036226623
7.278239e-06 0.01930747 0.05054435 0.015876878 0.0030555401 -0.01395326 -7.2621474e-06 0.014594468
0.032380886 -8.774353e-06 -7.293193e-06 0.0060789324 -7.71113e-06 0.0046496685 0.022797601 7.183973e-06
0.0028785607 0.011354817 0.0059745735 7.271168e-06 -0.00632623 0.00033891518 -0.004109568 -0.0199796
-0.0036084903 0.001216432 -0.0020416845 0.0013221649 -0.050544348 0.0069358405 0.005503714 -8.29172e-06
-0.021168435 0.018316025 0.00076959457 0.010652821 0.0037578358 -7.2645794e-06 7.286814e-06 0.050544336
-7.303874e-06 7.2927214e-06 -0.011649435 0.0071098465 -7.693091e-06 0.02623411 7.190505e-06 0.05054434
0.008147088 -0.008105028 -0.0026837485 -0.0126707535 -0.050544344 0.050544333 0.038038205 0.0029854944
7.212842e-06 0.0075925165 0.002984427 7.259994e-06 -0.0032123493 0.0075016213 7.2811868e-06 7.3007986e-06
-7.2838043e-06 -0.004471971 -0.0031442838 -8.234052e-06 -7.2329576e-06 -8.698068e-05 0.0026164365 0.0056922287
-0.006333487 -0.008990187 -0.021525774 0.003147905 0.01577694 -7.280197e-06 0.0101355305 0.008464033
-0.0026847157 -7.1019795e-06 -7.2988128e-06 7.2768676e-06 7.2030743e-06 -0.0009575864 -0.005723877 -7.28709e-06
-0.008313847 -7.293866e-06 0.005411328 -0.038906503 -7.747541e-06 0.017537063 -8.071707e-06 -0.004825713
0.0045441543 -0.02049617 7.2974026e-06 7.2790654e-06 0.0020000346 0.012503837 7.297523e-06 7.279644e-06

net.4.bias f4 [256]
00000000: e3ee c2bd 51d8 903c 49bf 56bc df92 4ebd
00000010: 61dd 813d 6ce0 fcba 7025 7f3c e32e 4d3d
00000020: 8cae 8d3c c14d 17be f1e5 903c 1cda 29bd
00000030: 1f4b 813c b828 85bc fbbf 0e3d 545a 253d
00000040: 2fc2 e63b 0462 8bba 4a24 94bc e076 813c
00000050: 4a28 7abc 0354 8e3c 87ff 7dbc 0408 c6bc
00000060: 5e22 85bc a110 79bd 0368 8fbc 8540 8e3c
00000070: 6894 023e 3748 813c 4ad8 863c 6aa9 c13b
00000080: a1a5 d23b 6042 86bc 683b 25bd 857b 9f3c
00000090: 709f 513e 1f65 8938 017b 97bd 53ce 0dbc
000000a0: 11a8 183d db85 3b3d ffd6 343d 9186 a1bc
000000b0: 029c 02bc a364 1f3d e54f a6bd 564f c3bb
000000c0: b41c 863c 0296 013d ccd5 19bd ac85 6b3d
000000d0: ed4a 10bd 5fcf 83bc dd36 823c 9c03 c33d
000000e0: f01a c33d c18b 92bd 98d5 7dbc 94ad 913c
000000f0: 63f4 c23d fc2b 26bc 05a2 873c 0ff1 97bc
00000100: 25c0 8fbd 2e81 463a f055 c93d e614 77bb
00000110: 413e 9cbd 9cde 90bc 2049 983c b94a 8e3c
00000120: 44aa 98bc 6769 f6bc 319b ce3c 51ee 8fbc
00000130: 9341 393c 83ce ddbc cd19 87bc 560a c33d
00000140: d375 5b3c 4b8f 173c 6066 763c 5333 393d
00000150: a6b3 903c e7db 8bbc 1013 273c b591 8b39
00000160: 82c4 86bc c91c 133d 031b 85bc cb9a dcbc
00000170: d3d3 653b 9759 90bc 4f63 fa3c ebe1 833c
00000180: 6242 86bc 7af5 8dbc b6fd 65bd 0785 8e3c
00000190: 3a99 8f3c 5f2a 3c3d 7b64 8dbd e67c 4a3d
000001a0: e81f a7bd 3df9 ae3c 6935 4fbd 2ee1 583b
000001b0: ba40 713d d22a 42b8 257f 96bc 5db2 12bb
000001c0: 79f9 bc3c ffe3 903c d1e6 81bd f65d c1bb
000001d0: 34de 8fbc c517 c3bd 3c65 96bc 1f78 17bc
000001e0: 8219 c3bd c5e6 8b3d e514 c33d 01e4 86bc
000001f0: 96b0 b33d 6718 87bc 7877 8a3c 82b4 7eba
00000200: b310 c33d 64e6 86bc 08a5 8b3c 9881 a23c
00000210: 214f 9ebd a5d9 e63c 4522 53bc 503c 43bb
00000220: a859 8ebc 0f0d bebd da12 d2bb a354 78bd
00000230: d5c9 5f3d cf91 99bc 55d6 8e3c 025f 903c
00000240: f31f 05bd acd8 90bc 7d86 24bc 47ed 5cbd
00000250: ef8f 8ebc 4b49 313c 6c50 833c aa48 013c
00000260: 16bd 8f3c 4570 a1bd f95f 9abc beab 88bc
00000270: b481 c53c d79f c3bd 4a67 42bc ae2d 7b3b
00000280: 8a1a 1bbe a44d 8fbc f8e7 8bbc 3bdb 5dbb
00000290: c9d9 90bc 949a 94bc 443c 8f3c d346 8f3c
000002a0: 4a89 813c 6ec8 b33c ab4a 323d 53d8 90bc
000002b0: 5993 883c 2e6b 4bbc b344 90bc 57ee 34bb
000002c0: 55b6 71bc 6b5c 88bc 5edc 8b3c 10aa 83bc
000002d0: 6ec3 81bc 3916 35bc d8cd 733c 2604 6a3c
000002e0: a010 85bd b279 42bc cc96 33ba 08c1 97bc
000002f0: 5838 903c 8f5f 893c 91d3 893d 289b 76bd
00000300: 1b02 ad3c f668 8e3c c9c5 9dbc 81a6 823c
00000310: 5e14 833c 0ef0 903c ed8f 86bc 6104 89bd
00000320: f10f 833c e62f 7bbc 70c4 503d a84b 81bc
00000330: 479d 71ba 8b92 90bc 0a31 e13c e07f a93b
00000340: 6f0a d1bc 537c 873c dae3 90bc 5229 983c
00000350: 57b5 993b a3e0 0fbc f491 82bc 11f0 113d
00000360: 57a9 08bd 45b1 51bc 6a15 8a3c 86cd 0c3c
00000370: b894 a53c 18fb 82bc a0cd 903c 5915 8bbc
00000380: 915d 2c3c 0327 223d acb1 8cbc 8a04 ef3b
00000390: f9b8 453c f13d 38bc 03d4 ee3c 0b7f 33bd
000003a0: e881 8abc 30e7 8d3c 1398 9cbc 903c d13b
000003b0: 5760 86ba efbb 9c3d 9f74 1f3d 7812 593c
000003c0: 8008 b63c 6d89 823c be15 87bc 1907 89bc
000003d0: f8ce a2bc 5774 81bc 9972 bfbc d821 853c
000003e0: 392c b23d 7710 c33d 0fd9 95bc 4c3d 003d
000003f0: 969f 1f3d 77e9 893c 8c9a 88bc ad03 a2bc
-0.0951822 0.017681273 -0.013107129 -0.050433036 0.06341053 -0.0019292957 0.015572891 0.050093543
0.017295144 -0.14775755 0.01768777 -0.04146777 0.01578289 -0.016254768 0.034851056 0.040369347
0.0070421915 -0.0010634069 -0.01808371 0.015803754 -0.015268395 0.017374044 -0.015502817 -0.024173744
-0.01625174 -0.060806874 -0.017505651 0.01736475 0.12751925 0.015781505 0.016460557 0.0059100883
0.006428436 -0.016389072 -0.040339857 0.019468078 0.20470977 6.551504e-05 -0.07396508 -0.008655149
0.037269656 0.04578195 0.04415035 -0.019717487 -0.0079717655 0.038914334 -0.081207074 -0.0059603853
0.016371109 0.0316372 -0.03755741 0.057500526 -0.035227705 -0.016090093 0.015895301 0.09522173
0.09526622 -0.07155562 -0.015492819 0.017782964 0.09519269 -0.010142323 0.01655675 -0.018547563
-0.070190705 0.000757235 0.098308444 -0.0037701665 -0.076290615 -0.017684273 0.018589556 0.017369615
-0.018635876 -0.030079557 0.025220485 -0.017569693 0.011307138 -0.027076012 -0.016491795 0.09523456
0.013394791 0.009250472 0.015039057 0.045214962 0.017663788 -0.017072631 0.010197416 0.00026620706
-0.016451124 0.035916124 -0.016248232 -0.02692928 0.0035068884 -0.017620845 0.030564932 0.016098937
-0.016389076 -0.017328966 -0.05615016 0.017397417 0.017529119 0.045938846 -0.06903931 0.04943552
-0.081603825 0.02135908 -0.050588045 0.0033093202 0.05889962 -4.6293084e-05 -0.018371174 -0.0022384145
0.023068177 0.017686842 -0.06342853 -0.0059010936 -0.01756201 -0.09526018 -0.01835882 -0.009244948
-0.095263496 0.06831125 0.0952547 -0.016466143 0.087739155 -0.016491128 0.01690267 -0.0009716229
0.095246695 -0.01646728 0.017046466 0.019837186 -0.077299364 0.028179953 -0.012886588 -0.0029790588
-0.017376736 -0.092798345 -0.0064109387 -0.06062759 0.05463584 -0.018746285 0.017436186 0.017623428
-0.032501172 -0.017681442 -0.01004183 -0.053937223 -0.017402617 0.010820697 0.01602956 0.00789086
0.017546218 -0.07882742 -0.018844591 -0.016683456 0.024109699 -0.095519714 -0.011865446 0.0038326788
-0.15146843 -0.017493077 -0.017078385 -0.0033852595 -0.017681973 -0.018140115 0.017484792 0.017489826
0.015812535 0.021946158 0.04352824 -0.017681276 0.016671823 -0.01241569 -0.017610883 -0.0027607882
-0.014752944 -0.01664563 0.017072853 -0.016072303 -0.015840258 -0.011052662 0.01488062 0.014283216
-0.064973116 -0.011869835 -0.00068507786 -0.018524662 0.017604992 0.016769199 0.06729806 -0.060206562
0.021119168 0.017384034 -0.01925935 0.015948536 0.016000923 0.017692592 -0.016426051 -0.06690288
0.015998812 -0.015331244 0.050968587 -0.015783146 -0.00092168566 -0.017648002 0.027489204 0.0051727146
-0.02551767 0.016538775 -0.017686773 0.01857439 0.004690807 -0.008781585 -0.015938736 0.035629336
-0.03336462 -0.012798612 0.016855914 0.0085939225 0.020212516 -0.015988871 0.017676175 -0.016977953
0.010520355 0.039587986 -0.017174564 0.0072942423 0.012068027 -0.011245237 0.02915383 -0.04382233
-0.016907647 0.017322153 -0.019115483 0.0063853934 -0.00102521 0.07653033 0.038929578 0.013249032
0.02222085 0.01593467 -0.01648986 -0.016727017 -0.019874081 -0.015802545 -0.023370074 0.01625149
0.08699841 0.09524625 -0.018291978 0.031308457 0.038970552 0.016834958 -0.016675256 -0.019777143

net.6.weight f4 [256, 256]
00000000: 611f 1bbd 8a39 153b 650b 213c ebda 433c
00000010: 841b 6d3d b29c 9d3b 06a1 e63b 996a 0dbd
00000020: 21a5 0f3b c982 6dbd a358 153b cd5e f0bc
00000030: 4e2e 193b 82ce 06bb fcd8 83bc 7da8 21bd
00000040: 7f6a 6fbb f8a3 3fbc 8da9 1bbb 1ebf 203b
00000050: 5e14 d8bd efb7 103b 410f afbd f34c 07bd
00000060: 27c9 06bb 4a8b 23bc ef94 12bb bf95 103b
00000070: ccd5 d4bc 611d 153b fd4a 073b 5618 81bb
00000080: d9e1 5f3d 3fe4 06bb d436 143c 4a8b 22bb
00000090: 1ea6 e33c cf87 6bbc 63f7 15bc 5705 afbc
000000a0: 7e3a c03c 6cf2 7e3c 909e 673d 93f7 e33c
000000b0: a5c0 dcbb c671 5b3d bdae 13bc 8fdf a2bd
000000c0: e803 073b 2344 793d eeb0 71bc e5f0 283d
000000d0: ad30 023c 9ca4 0cbc 566e 0b3b 566d 1b3d
000000e0: a4c6 1b3d 8d52 26bd 4d19 1abd 3acf 163b
000000f0: ef34 1b3d 5da0 363b 2bca 073b 6ba6 23bb
00000100: 8529 833c c943 ae3b c650 f03d 6fbf b9bd
00000110: 1f86 d53c 2447 15bb 0d5d 243b 92a8 103b
00000120: 5d27 25bb 98fa cc3c 0f08 c43d 408d 13bb
00000130: fd81 1fbb d0fb 5a3d 4266 07bb 1a86 1b3d
00000140: 25cc 87bc 28b8 47bb 3f0b 4fbc 45f6 94bb
00000150: e9f5 143b 3b9c 93bb ec06 17bd ba54 13bd
00000160: 17b9 d3bb 83c2 003d 4fd6 06bb 314e 87bd
00000170: ac57 bf3b 444a 14bb f2b8 15bc 0fa2 073b
00000180: 43e4 06bb 9910 10bb a90d 7bbd aff3 6fbd
00000190: c7f4 123b 1f7f 653d 4b2c 493d 1c3d 4f3b
000001a0: 231c debd fc67 35bd f48b 3b3c 3720 b6bd
000001b0: 9bf7 e33c 22be 87bc 8b8d 20bb 6057 b7bb
000001c0: 2568 d03c 5953 153b b0e2 e9bd e22b 813b
000001d0: f86e 13bb e4ba 1bbd 6f57 20bb 9ce9 d5bc
000001e0: 8ec0 1bbd 019c 8ebd 50b1 1b3d 8038 07bb
000001f0: 9728 5b3d 5e66 07bb e75a 853b 4e7e 25bd
00000200: e29b 1b3d e137 07bb e302 4a3c 6cfd 6cbd
00000210: 3733 f5bc 5543 583d e809 9ebc 40b6 ae3b
00000220: 09c1 10bb a2f9 7fbc 6d0a 7a3b 7d16 1fbc
00000230: 3943 053c e129 27bb c28e 113b f08f 4f3c
00000240: 42d1 63bc 173a 15bb 092f 2ebd ab7e 873a
00000250: 460a 7ebb d345 29bb c69b 083b 81a3 60bb
00000260: f635 133b aa1d 07bd 661f e33c 6193 72bb
00000270: c4ca d43c 905c 43bd acd2 6d3d 40bf e13c
00000280: 63e1 abbd 6766 12bb 57a6 94bb f47b bebb
00000290: 913c 15bb ee9f 1cbb 3048 123b 3a58 123b
000002a0: 8f25 103b a4bc c43c fb1f 5bbc 9a3a 15bb
000002b0: fca0 083b 6fb5 fdbb 432a 14bb f3ec faba
000002c0: ccee efbb 8d67 08bb c191 933b d53f 3ebb
000002d0: 7153 0ebb f0a2 243b 6b6e 113c ada7 bfbc
000002e0: 9fc5 403c c60f f3bb ffce 0e3d 1334 23bb
000002f0: d70e 143b b266 093b 578a 43bd d01c 793d
00000300: 48bc 19bd c7da 103b c5a3 30bb 39fd 093b
00000310: 1b9a 083b da65 153b 13c5 5abb 74d5 513c
00000320: 0ade 083b 915a b2bd 1a9c 80bc e2eb 12bb
00000330: 14d0 bd3b 64bb 14bb af11 a8bc e2f3 5bbc
00000340: 4656 da39 59a9 073b 3a53 15bb 091c 243b
00000350: 9214 5abd 404e 153d 702d 0abb 67a0 673d
00000360: 6e9b 6f3c 7e94 123d 6318 c43b d6ec 53bb
00000370: e66a 093d 8c35 09bb e723 153b 52d9 bcbb
00000380: 3c69 dbbb e1c9 6cbd 6b07 0ebb dd5d 6c3d
00000390: 2ea4 bd3d bb98 c7bc e5c1 713c 76b6 b7bc
000003a0: d667 85bb b9f3 0f3b 5afd 05bd 1aa7 003d
000003b0: d5c8 833c b73b 83bd 3685 b03b 4890 f53b
000003c0: 0de0 37bd 0435 0a3b 3f62 07bb 80f1 76bb
000003d0: 41ce 9b3c f79b 11bb db7b 4e3c f850 4c3b
000003e0: 7f1e 75bd c39a 1b3d b431 1fbb 42fd 16bd
000003f0: db30 38bd ae14 813b f648 71bb 1746 60bd
-0.037871722 0.0022769892 0.009829377 0.01195405 0.05788757 0.0048099393 0.0070382385 -0.034525488
0.0021918493 -0.057986055 0.0022788427 -0.02934208 0.0023373547 -0.0020569866 -0.016094677 -0.039467324
-0.0036531982 -0.011696808 -0.0023752183 0.0024527977 -0.1055076 0.002208229 -0.08547831 -0.03303237
-0.0020566673 -0.00998194 -0.0022366603 0.0022061912 -0.025980853 0.0022753107 0.0020644062 -0.0039396686
0.054658744 -0.0020582823 0.009046275 -0.002480226 0.027789172 -0.014375641 -0.00915322 -0.02136485
0.023465391 0.015560728 0.0565477 0.027828014 -0.006736832 0.0535753 -0.009013829 -0.07952797
0.0020601694 0.060855996 -0.014751656 0.04124536 0.0079461755 -0.008584168 0.0021275482 0.037946068
0.038031235 -0.04060607 -0.037621785 0.00230117 0.03789228 0.002786658 0.0020719867 -0.002497102
0.016011009 0.005318139 0.11734156 -0.09069716 0.02606493 -0.0022777999 0.0025079877 0.0022073132
-0.0025200464 0.025021836 0.095718496 -0.0022514611 -0.0024338954 0.053462803 -0.0020660316 0.037969686
-0.016576836 -0.0030474756 -0.012636959 -0.004545959 0.0022729582 -0.004504708 -0.036871836 -0.035969473
-0.0064612734 0.0314355 -0.0020574515 -0.06606711 0.0058393087 -0.0022627274 -0.009138333 0.002069596
-0.0020582832 -0.002198255 -0.061292324 -0.058582004 0.002242373 0.056029435 0.049114507 0.0031622117
-0.108452104 -0.04428862 0.011446942 -0.08892863 0.027828028 -0.016570155 -0.0024498429 -0.0055951327
0.025440285 0.0022785275 -0.1142019 0.003941999 -0.0022496562 -0.03802003 -0.0024466177 -0.02611237
-0.03802543 -0.06963349 0.038010895 -0.0020633042 0.053505506 -0.002066038 0.0040696743 -0.040403657
0.03799046 -0.0020632672 0.01232979 -0.05785887 -0.029931648 0.052798588 -0.019291833 0.0053317845
-0.0022087714 -0.015623482 0.0038153187 -0.0097099515 0.008133703 -0.002550714 0.0022210334 0.012668595
-0.013904871 -0.002277022 -0.042525325 0.0010337433 -0.0038763448 -0.0025828972 0.0020844801 -0.0034277143
0.0022462583 -0.032987274 0.027724933 -0.0037014114 0.025975592 -0.047695696 0.05806224 0.027557015
-0.083925985 -0.0022338869 -0.004536431 -0.005813116 -0.0022771696 -0.0023899036 0.002232086 0.002233042
0.0021995043 0.024015732 -0.013374324 -0.0022770525 0.0020847907 -0.007742576 -0.0022608198 -0.0019144103
-0.007322168 -0.0020813674 0.004503459 -0.0029029746 -0.0021717215 0.0025121532 0.008876423 -0.023395384
0.011765867 -0.007417652 0.034865376 -0.0024902865 0.0022591853 0.0020965752 -0.047739353 0.060818493
-0.037533075 0.0022103058 -0.0026953083 0.0021055473 0.0020843807 0.0022796304 -0.0033381626 0.012807239
0.0020884299 -0.087086804 -0.015699435 -0.002241843 0.005792627 -0.0022694701 -0.020516245 -0.013424845
0.0004164448 0.0020700304 -0.0022785203 0.0025041124 -0.053242274 0.03645158 -0.0021084212 0.056549456
0.01462446 0.035786144 0.0059843524 -0.003233721 0.033549212 -0.0020936457 0.0022756995 -0.0057632113
-0.0066958945 -0.057809714 -0.0021671902 0.057706703 0.092598304 -0.02436482 0.014755701 -0.022425871
-0.004071216 0.0021965338 -0.032712318 0.03140936 0.016086975 -0.06407874 0.0053869737 0.0074940063
-0.044891406 0.0021088729 -0.0020657924 -0.0037680566 0.019019248 -0.0022218206 0.012602772 0.003117619
-0.059843536 0.03798939 -0.00242911 -0.03686262 -0.044968467 0.003939233 -0.003681717 -0.054754343
