training/gen2_architecture/nn-small.pth (torch, 94233 bytes, 8 tensors)

net.0.weight f4 [64, 25]
00000000: c942 56be 6dd2 febd 7df4 d0bd e729 24bc
00000010: c099 e83d d111 2bbd 59e6 a6be 23ec 44bf
00000020: 0840 313e 33c5 0f3d 95f1 c63d bfa3 253d
00000030: e1b4 a33d 1a05 0a3e c31a fb3c 10b0 2dbe
00000040: b5ee 46bd 8440 503e 701a 45bf db63 c9be
00000050: c95a 80bf 7749 8e3e 987c 2cbc 61b5 43bd
00000060: 5068 92bb f3e2 12be b33c 143e baaf b93e
00000070: 0471 d23d 9a10 27bd 4f3a fbbc a38e 233d
00000080: 8f06 d7bc 59f9 07bf 3b6b dabd d606 d83c
00000090: f986 263e 8253 6e3e 878d 823d 6dec 8bbe
000000a0: cfe0 86be 468b 0ebe e603 f139 f9a2 3ebf
000000b0: a201 09bf 6db7 d13d c043 9a3f d763 81bd
000000c0: 9374 24bd 18f2 d63c 64be 90bf 538c 5340
000000d0: 9c08 0940 5146 4b3f bb39 f83e 7bba 7d3e
000000e0: f39e dbbd f7e9 05be 894b ee3d 2b8f 0f3e
000000f0: 49ad a53d e39e a93d 5a98 873c d872 8fbd
00000100: 329d b1bd ca23 a7bd 3f61 f43e e8a0 5dbb
00000110: f368 83c0 58a5 f73d 2941 ce3e 7107 883c
00000120: 7364 fbbc e40d 1d3e d943 72bd 62d5 a2c0
00000130: 4209 f4bf 2df2 0f3f c5c5 ac3e 4a38 99bc
00000140: b861 e1bc 1be9 b33d 4c78 d13d cf44 9b3d
00000150: a205 0ebe cc84 d8bd 0766 e03c 3f11 e13d
00000160: f74e 463c 2e7a 04be 2e50 1ebd 930e cabf
00000170: de14 b73a d95f f03e d6a0 2a3e 00b9 78be
00000180: f0db f8be 8366 1dbc 5f86 b73c 74af dc3c
00000190: 1b4b ab3e a48e bc3f ec07 e03f a58c 663f
000001a0: 6b34 86be 876e 5fbf af75 2cbf b615 5fbe
000001b0: bf78 3fbe ec70 06bb 9911 ddbd 55ff 4bbe
000001c0: a9ba e7bc f87c 0f3e 0db9 173d fb3e b0bd
000001d0: 2f5b 2e3e 8a2c e4bc 0c89 3040 4163 7bbe
000001e0: 009b 793f 2431 253f dee4 19be 6250 0fbe
000001f0: f46b 2e3d 7691 9fbf f630 b73e 58db 8c3f
00000200: 4fdf 8d3e 251a 26be b266 7a3c 0266 343d
00000210: d751 d1bd 026e 773f 4477 e33e 2ae0 f13d
00000220: 977b 8a3b 31af a5bd b014 cd3c aa85 753e
00000230: e004 553e 28a1 bc3d 8e6f e53b 4f82 47bf
00000240: 363a a6be 08eb 2d3f f5fc e63f 2e68 b4be
00000250: 4a45 913d 7abe fbbd 9047 9bbf d9fe cdbe
00000260: dc37 e33e f6d6 843d c546 6fbe 655f 833c
00000270: dd14 eb3d e9d9 7c3d b44b 4c3e 8c76 013e
00000280: 1933 2cbe c2a2 3dbe 1d45 803d 09c2 583e
00000290: 22ee c03d d308 08be c3bd 6abe 28c6 93bb
000002a0: 378b 0dc0 d834 abbe 8567 47bf 8262 d8bf
000002b0: 373b b6bd 4b65 d43e 148b 5fbd e8d7 2dbf
000002c0: edf0 aabf ae8c 4bbf 87be d33e 4404 273f
000002d0: 2d34 6d3e 858f 233d 1807 523c ac5b cc3d
000002e0: cbac 1bbe d5f5 20be 587c 43bd 2c33 203e
000002f0: d21d 593e 385d 053e 2728 4fbc c8d4 9cbe
00000300: 1572 623d f1b6 94be 089f 683f 9a20 213f
00000310: 5942 5140 e393 27bf 1298 0ebd 70b6 133d
00000320: 45d6 853e f849 6e3e 88c0 7fbd 4f30 6ebe
00000330: 6da2 a6be 7c70 b4be 3bd5 84be 2ad8 5cbe
00000340: fd33 c6bd 5cbf a63b 8a75 0c3d c34e aeba
00000350: f345 a2bb 5bf2 383d 8322 ba3c 39f9 efbd
00000360: cf5c b23d ca8b 63bd 1d1d 663d 1d08 a23e
00000370: 0663 cfbe 9acb 47be a1c1 003c 1e4f a63c
00000380: 5d44 efbb 316e b23c 6eec 24bc f420 c23b
00000390: 050b 493b cbe8 92bc 8e7d b8bc 0407 dfbc
000003a0: 23da d6bd 707f 583c 583f 4b3d c729 3f3d
000003b0: 845c 6b3c 32f0 b2bc 7720 3ebb a59d 0c3d
000003c0: 87e6 c13b 9621 4a3c 9eeb 2a41 2932 b7bd
000003d0: ab7f 343e 6f99 013e 00ad aa3c 80b7 143a
000003e0: 732b 42bc 1524 553b bca7 8f3d 227d c1bd
000003f0: 31b2 19be 92cc 91bd a830 b4bc a663 9ebc
-0.20923914 -0.12442479 -0.102028824 -0.010019756 0.113574505 -0.041765038 -0.32597616 -0.76922816
0.17309582 0.035100173 0.09714047 0.040439364 0.07993484 0.13478509 0.03065241 -0.16961694
-0.048567493 0.20337111 -0.76993465 -0.39333996 -1.0027705 0.27790424 -0.010527752 -0.0477804
-0.0044680014 -0.14344387 0.1447628 0.3626688 0.10275462 -0.040787317 -0.030667452 0.03993095
-0.026248245 -0.5311485 -0.10664984 0.026370447 0.16262425 0.23274043 0.063746504 -0.27328816
-0.2634339 -0.13920316 0.00045970007 -0.74467427 -0.53518116 0.10240064 1.2051926 -0.06317871
-0.040150236 0.026238486 -1.1308103 3.3054397 2.1411505 0.7940417 0.48481545 0.24778168
-0.107236765 -0.13077532 0.11635501 0.14019458 0.08089692 0.08282258 0.01655214 -0.070043266
-0.08672561 -0.08161123 0.47730443 -0.0033817831 -4.106561 0.12092084 0.40284088 0.01660511
-0.030687546 0.1533733 -0.059146736 -5.0885477 -1.9065325 0.56228906 0.33744636 -0.018703599
-0.027512416 0.08784696 0.10228023 0.075814836 -0.13869336 -0.10572204 0.0273924 0.109896176
0.012103788 -0.12937233 -0.038650684 -1.5785698 0.0013968011 0.46948126 0.16662917 -0.24289322
-0.486053 -0.00960696 0.02240294 0.026939131 0.33455738 1.473103 1.7502418 0.90058357
-0.26211867 -0.87278026 -0.6736707 -0.21785626 -0.18698405 -0.0020514084 -0.10794372 -0.1992162
-0.028287249 0.14012516 0.037041713 -0.086057626 0.17026971 -0.02785327 2.7583647 -0.24549581
0.97502136 0.6452811 -0.15028712 -0.13995507 0.04258342 -1.2466266 0.35779542 1.1004438
0.27709433 -0.16220911 0.0152832735 0.044042595 -0.10220688 0.96652234 0.4442693 0.11810334
0.004226159 -0.08090056 0.025034279 0.2397677 0.20802641 0.092104256 0.0070018237 -0.7793321
-0.32466286 0.67936754 1.8045946 -0.35235733 0.07093294 -0.1229219 -1.2131214 -0.40233496
0.44378555 0.06486313 -0.2336684 0.016036699 0.11478589 0.061731253 0.19950753 0.12642878
-0.16816367 -0.18519118 0.06263182 0.21167769 0.0942042 -0.13284616 -0.22923951 -0.004509706
-2.211622 -0.33438754 -0.77892333 -1.6905062 -0.08898013 0.4148353 -0.054575995 -0.6790757
-1.3354775 -0.79511535 0.41356298 0.65240884 0.23164435 0.039931793 0.012819074 0.099784225
-0.15202634 -0.15718777 -0.047726005 0.1564452 0.21202782 0.13023841 -0.01264385 -0.3063109
0.05528458 -0.29045823 0.9086766 0.6294037 3.2696745 -0.6546003 -0.034812994 0.036062658
0.26140037 0.23270404 -0.06243947 -0.23260616 -0.32545796 -0.3524207 -0.25943932 -0.21566835
-0.09677885 0.00508873 0.03429178 -0.0013298619 -0.0049521863 0.045153003 0.022721535 -0.11717457
0.08709108 -0.055553235 0.05618011 0.31646815 -0.40505236 -0.19511262 0.007858665 0.020301398
-0.0073018507 0.021781059 -0.010066135 0.0059243385 0.0030676734 -0.01793327 -0.022520807 -0.027225025
-0.10490825 0.013213977 0.049620956 0.0466707 0.014365319 -0.02184305 -0.002901105 0.03433003
0.0059173736 0.012337109 10.682524 -0.08945114 0.17626826 0.12656187 0.020834446 0.00056730956
-0.011851179 0.0032522727 0.07014415 -0.09447695 -0.15009381 -0.07119097 -0.021995857 -0.019334625

net.0.bias f4 [64]
00000000: ff3d 02bf 8954 26bf 90c0 013f 1c10 2c3e
00000010: d067 863d 55cb 00bd 8f2e 0abf b5d0 833f
00000020: 6fb8 ef3b 48b2 32bd df29 b5be c58c c83d
00000030: cb15 1c3f 513b 2bbd 8345 ed3e 939d e13e
00000040: 3670 2b3e 4588 ff3e 6fd6 3cbf 9383 e9bc
00000050: 0d63 5e3c 8319 0f3f 3914 a3c0 4bf8 543f
00000060: f7e6 79be 6526 50bf 5bbd e33e 6b45 15bf
00000070: 7287 3d3e 7978 943d c9f8 e3be db58 2dbe
00000080: d520 a93e f100 86bf e4c7 a53e 2167 1bbf
00000090: 1826 bbbe 156b b23e e020 933d b458 78bf
000000a0: 7285 89be 52d8 15bf f86a 87bf 0cf5 90bd
000000b0: 0bec 193f 6e8e 6b3f 0177 613f 3ad6 0f3f
000000c0: 4eb9 ac3e fcec 25be 0d8a 003e 28b1 04bf
000000d0: 3f29 343e 863f c33e 791a 27bf 6b93 16bf
000000e0: f933 6b3f cd26 a23f 2ced e23e 926e f83f
000000f0: db1f 9bbe b2e2 acbe df8b 3fbf 24cf 023f
-0.5087585 -0.6497274 0.5068445 0.1680302 0.065627694 -0.031443913 -0.5397729 1.0298067
0.0073156874 -0.043627053 -0.35383508 0.09792475 0.60970753 -0.041804615 0.46342096 0.44065532
0.16742024 0.49908653 -0.737647 -0.028505122 0.01357342 0.558983 -5.0962186 0.83191365
-0.24404512 -0.81308585 0.44480404 -0.5830905 0.185087 0.07249541 -0.44525746 -0.16928427
0.3303286 -1.0469037 0.32379067 -0.6070424 -0.365525 0.34847322 0.07184005 -0.9701035
-0.26859623 -0.58533204 -1.0579519 -0.07077989 0.601258 0.92014205 0.8807221 0.5618626
0.33735126 -0.16203684 0.12552662 -0.5183282 0.17593859 0.38134402 -0.6527477 -0.5881869
0.9187618 1.2668091 0.44321573 1.9408743 -0.3029774 -0.33766705 -0.748228 0.5109732

net.2.weight f4 [64, 64]
00000000: aad7 2cbe e404 48bd 8c66 7fbe 83d9 e63d
00000010: ebb9 323e cbbc 2a3c 7c03 2c3d abfa c73c
00000020: 0990 3abe 107a 0dbc 2a6b 623d 669a 103e
00000030: 2f57 96bb 9e3e 37bd ffef 55be 65c4 d2ba
00000040: 11d4 6cbe 5206 00be 95a0 b93d 80fb b63e
00000050: a2fa 23bd f22f 1e3a 09d8 b7bc 99f6 a1be
00000060: 5422 073d 6b12 9a3c c653 ddbd daec ac3d
00000070: db1a a4bc 3ac2 e0bd 617e 62bd 7604 9bbd
00000080: 880f d3bd c16e a2bd df78 2b3f 0841 90bd
00000090: f1c6 8f3c 3d0c 903d 9058 893d 2fc8 bbbd
000000a0: a6e6 df3c 1a73 34be e098 063c 7647 dc3c
000000b0: c9ab e03d dce4 fbbd 7d4c 3a3d 9bd2 f9b9
000000c0: 093c 72bd 2cee 433c 42b9 a8bc 503d fdbd
000000d0: 37f5 dc3a ae7b b3bb e352 c03c b5fe 4e3d
000000e0: d3c6 a1bd 54a1 3ebc 5b2c 98bd 8384 07bc
000000f0: 67f6 a0bc 33a3 d2bd 68d0 b53c 44f2 7b3e
00000100: 07a2 723e 8784 013f 8ec2 ce3f f18d d7bd
00000110: ada6 d1bd 4c61 65be 1e5e 453f 9256 a4be
00000120: a7e6 493f b18a b9ba 4c9b 24be 4f5e 903d
00000130: 927d edba db20 3a3f 272c 46be 3049 a83c
00000140: 52ae 903e f9c6 fe3e f5f9 de3e dfc8 e1be
00000150: 0d09 f9bf 20f4 2f3e a181 94bd 06b1 7b3f
00000160: d624 813e cff9 5c3e 02b3 e5be acb5 32be
00000170: 46c4 99bf 284e 7abe d43d 01bf 8946 ae3e
00000180: b60f 4b3e ab91 443f 5270 0c3f aefc 1ebf
00000190: e3fd 14bf 39f6 173f 92b9 f9bd 907d 763f
000001a0: 6a22 31bd 5f96 16be cf56 21bf ed08 183c
000001b0: 8549 96bc 4dfa 913e 5966 4d3f bd52 5f3e
000001c0: 4b9d bc3d 7c70 8fbe 2e6d b93e 70c6 66be
000001d0: d688 97bd f6b4 ae3e b228 02be e236 ccbd
000001e0: fbc0 8abe 49d0 b1be 9ffe 48bf d448 0c3d
000001f0: c796 54bd d021 c5bd daca 2e3e 5926 20be
00000200: 68f7 dfbe 4881 1abe 449f e6bd a671 1e3d
00000210: d006 d6bd bee0 de3c 33ea e8bc d140 3b3d
00000220: 0d33 bbbe 3767 8e3d 0afd fdbd 85ab ffbc
00000230: 5500 853c fe36 88bd 3960 de3d a0af 383c
00000240: 1b7d 67be 4725 3dbd c510 8f3e 16a5 123e
00000250: c1c5 a7bc 5cbe 31bc 036d a5bc f9b7 27bf
00000260: eb8c 513d 8189 d03d 6096 d43d 122c 06bd
00000270: 08b0 7d3c 7cd0 48bd 3c37 b9be c1c1 903e
00000280: 281f 8fbd 1993 a6bd 0638 a6be a6be a7bd
00000290: 4007 00bc 8cf2 f13c 03d4 4a3e 564b 20bd
000002a0: 3ad9 d7bc f776 b93a 5f7e 4dbc aa4e 2bbd
000002b0: 8287 8abd e0cb 4a3d 1678 96bb 01fd 0cbe
000002c0: ba0b 83bd 3a35 1f3c 2d3b 363d 58cb 9ebc
000002d0: 2ed0 963d 951d 09be 6650 543e df36 2c3e
000002e0: 13dc 993d dce3 babb f1d8 eabd e420 86bc
000002f0: 2a45 e63a e801 1e3b 7c3c e73b ac41 56be
00000300: 2a0c 0e3f 01d2 d8bb 7bd5 e13f d757 98bd
00000310: a4eb 8abf 499f 13bf 6ee2 05c0 801d 893e
00000320: 9920 0c3d 24e8 adbd 689b bdbe 4c11 6dbf
00000330: 304f c3be f880 e0be 08e2 f83f 4f01 7ebc
00000340: 144a e83e de1d 803f 2605 9c3f b11f 8cbd
00000350: 4732 1540 b540 a6bb 339c 8e3e c56a cebe
00000360: 3e9b 5cbe d1d2 d53e 8f28 e7be affd d23d
00000370: a371 193f 0ad8 bcbb b453 6c40 2552 a5bf
00000380: 0523 f33e cdb3 a13f c61e 62bf 6a29 61bf
00000390: d7c1 3340 49e2 1f3e 0c6a 1abf f650 2240
000003a0: 7fd9 6abe 8174 33bc a781 433e d0df 03bf
000003b0: b653 493d 9b02 05bf 1949 bdbf ff35 d9bd
000003c0: 5646 5d3e 4122 cabf 48cc c93e d647 3d3f
000003d0: faeb 8ebe 5639 d23e a2fc d1be 6e39 5fbd
000003e0: 1496 92be ab0f 4dbd 9107 833e 8b24 8f3e
000003f0: 2a01 1ebe 846d 6440 3f34 053d 4ef2 93bf
-0.16879144 -0.04883279 -0.24941462 0.11271956 0.17453735 0.010420988 0.04199551 0.02441152
-0.18219008 -0.008635059 0.05527798 0.14121398 -0.00458803 -0.04473745 -0.20892332 -0.0016080259
-0.23127772 -0.12502411 0.09063832 0.35738754 -0.040033944 0.0006034366 -0.02244188 -0.31633452
0.032991722 0.01880761 -0.10806994 0.08443613 -0.020032337 -0.10974546 -0.055296306 -0.0756921
-0.10305697 -0.07931281 0.6698131 -0.07043654 0.017550917 0.07033584 0.06706345 -0.09169041
0.027331661 -0.17622033 0.008215159 0.026889544 0.109702654 -0.12299511 0.0454831 -0.00047649894
-0.059139285 0.01195864 -0.02059615 -0.1236521 0.0016857748 -0.0054773903 0.023477023 0.050535876
-0.07899251 -0.011635143 -0.07430335 -0.008271339 -0.019648744 -0.10285034 0.022194102 0.24604136
0.23694621 0.50592846 1.6153123 -0.1052512 -0.10236869 -0.22400397 0.77096736 -0.32097298
0.7886757 -0.0014155713 -0.16074866 0.07049238 -0.0018119088 0.72706383 -0.1935278 0.020542711
0.28257996 0.4976118 0.43550077 -0.44098565 -1.9455887 0.1718297 -0.07251287 0.9831699
0.25223416 0.2157967 -0.44863135 -0.17452115 -1.2013023 -0.24443877 -0.5048497 0.3403819
0.19830212 0.7678477 0.5485889 -0.6210431 -0.581999 0.5936008 -0.12193598 0.96285343
-0.04324571 -0.147058 -0.63023084 0.009279472 -0.018345604 0.28511277 0.80234295 0.21808906
0.09209689 -0.28015506 0.3621611 -0.22536635 -0.07399146 0.34122437 -0.12710837 -0.099714056
-0.27100357 -0.3472922 -0.7851352 0.03424914 -0.051901605 -0.0962559 0.17069569 -0.15639628
-0.43743443 -0.1508838 -0.11260846 0.038682602 -0.10450518 0.027206775 -0.028431987 0.04571611
-0.36562386 0.069532804 -0.12401779 -0.031209717 0.01623551 -0.06651114 0.10858197 0.011272341
-0.22606318 -0.04617813 0.27942482 0.14320788 -0.020480039 -0.010848608 -0.020193582 -0.65515095
0.05115978 0.10182477 0.10380244 -0.032756872 0.015483864 -0.04902695 -0.36174953 0.28272822
-0.069883645 -0.081335254 -0.32464617 -0.0819066 -0.007814229 0.0295346 0.19807439 -0.039134346
-0.026348699 0.0014149834 -0.012542336 -0.041823067 -0.06764127 0.049510837 -0.004591952 -0.13768388
-0.06398721 0.00971728 0.04449003 -0.019384071 0.07363926 -0.13390191 0.20733795 0.16817807
0.07512679 -0.0057034325 -0.114671595 -0.016373105 0.001756822 0.0024110023 0.007056771 -0.2092349
0.5548731 -0.0066168313 1.7643274 -0.07438629 -1.0853162 -0.57664925 -2.0919452 0.2678032
0.034210775 -0.08491543 -0.37032628 -0.9260452 -0.38146353 -0.43848395 1.9443979 -0.015503242
0.45369017 1.0009115 1.2189071 -0.06841982 2.3311937 -0.0050736316 0.27853546 -0.40315834
-0.21543595 0.41762403 -0.4514813 0.103022926 0.5993902 -0.0057630586 3.6926088 -1.2915694
0.47487655 1.2632996 -0.88328207 -0.8795382 2.808706 0.15613665 -0.60318065 2.5361915
-0.2293453 -0.01095307 0.19092427 -0.51513386 0.0491521 -0.519571 -1.4787933 -0.10606002
0.21608862 -1.5791703 0.39413667 0.7393774 -0.2791441 0.4105937 -0.41013056 -0.05449813
-0.28630126 -0.05006377 0.2559171 0.27957568 -0.15430132 3.5691843 0.03252053 -1.155832

net.2.bias f4 [64]
00000000: d8c2 533e 2a73 6c3f 0f8b d03d cf45 f6be
00000010: 37d3 343f 7d11 083d 7174 1b3f cbba 733f
00000020: c81c 30bf 3212 2d3f f04a a6bf 7038 513f
00000030: 518f b53e 8059 773f 3407 6dbe 4de5 053f
00000040: 1975 f13f 3b4e 4cbf 9945 62be f64d 28bf
00000050: 2afb bebe 4e2e 59bf 8ad7 cdbf 6948 97bf
00000060: b4d9 4ebe bbdb 10bf dbfb 0ebd 7366 fc3e
00000070: fcd6 153f 15e7 4ebf fcb0 a5be 14d7 6fbf
00000080: 54f9 77bf 5b5b 0abf 3e03 83bf a051 143f
00000090: d858 98bf f2da ad3e 895b 11be 937d d13e
000000a0: 5dce 5cbf 2bbc 823e 6b38 50be 0e03 f73f
000000b0: a57b c83e ff9d 003e e343 54bf 52bb 8c3f
000000c0: 91c9 d6be c031 c53f 8d07 2d3e d9ee ce3f
000000d0: 03d0 a73f fe98 10bf 92dd 1440 aff4 37bf
000000e0: e5f5 863f 27d6 5cbf a698 b93e ab2f 3bbf
000000f0: eff5 6d3f 24ed dfbe 1474 333e f24f 6abe
0.20679796 0.92363226 0.10182773 -0.48100135 0.7063479 0.033219803 0.6072455 0.952069
-0.68793917 0.6760589 -1.2991619 0.8172674 0.35460904 0.9662094 -0.23147279 0.5230301
1.886386 -0.7980687 -0.22096862 -0.6574396 -0.37300998 -0.8483628 -1.6081402 -1.1818973
-0.20200235 -0.5658528 -0.034908157 0.49296913 0.58531165 -0.80821353 -0.3236159 -0.9368756
-0.9686482 -0.5404565 -1.0235364 0.5793705 -1.1902113 0.33956105 -0.14195074 0.40916118
-0.86252385 0.25534186 -0.20334022 1.9297807 0.39156833 0.1256027 -0.82916087 1.0994666
-0.41950658 1.5405807 0.16897412 1.616664 1.3110355 -0.5648345 2.3260236 -0.7185773
1.0543791 -0.8626427 0.36249274 -0.7311961 0.9295339 -0.4373561 0.17524749 -0.22882059

net.4.weight f4 [64, 64]
00000000: 1295 2dbd 6368 b6be a053 88bd bcad 953b
00000010: ed1b be3e 20f7 aa3d c33d 00bd 348f 06be
00000020: 9c20 bebd c3e0 2fbd 8873 323e 8c67 c3be
00000030: 7943 aebd 0099 b5bc 900e fe3c f4f1 2fbf
00000040: e094 b5be 3599 d63c ff14 91be a885 633e
00000050: f88a d8be 01d4 2fbd 35c9 dd3c 3fac 953e
00000060: 0f7b f83c 68bc 0dbe a7f9 bebe 138d bb3d
00000070: c46b 3d3e db09 67bd f253 68bd 50b8 4c3e
00000080: 8402 103e 8c81 22bd 4ac1 3abd 52d3 65be
00000090: 462a 42be 66ea 2c39 0ae9 66be 5336 df3d
000000a0: cd3a 66be e988 c13c bb62 dcbf d2b3 19be
000000b0: 6539 453e d8bf e7bc a0da 543e 5502 07bd
000000c0: 3e2b 84bd 0d68 30bd 6b48 073e 4980 fbbd
000000d0: 0180 f0bd 2110 853d 853a 523c 36dd 08be
000000e0: f1da 203e 3b65 c9bc 667c 31bd 21ff 86be
000000f0: f9f9 e83d 307c 263e 7d9c cc3c 33ed 05bc
00000100: 23ea 63be 8aa4 32bd 8afe 0dbf 3dd7 3539
00000110: 8049 82be 659a ac3c 3656 25bc 626d a9be
00000120: 386b 6f3e e5ab c7bc 61f4 bebe b16b 073d
00000130: 31b2 bf3e 1dac 573d 83c0 86be bbe0 943e
00000140: ebb0 b93d 9305 93bd 8cca 1c3e 306a b1bd
00000150: 8f37 4a3c 7fba 85be be3f 363d 9665 32bf
00000160: daed e73c e09b 8abe d20f 983d d065 a73d
00000170: 0e15 10bd 8dfe 2cbe 9b8b 7fbe e165 28bd
00000180: 1d6f 82bd 0bec 57be 1ed5 bfbc 9c97 8bbd
00000190: 89ce ad3d 4192 103e d14b 863d 450d 633d
000001a0: 2a50 01be d56f 38bb 20cf 563f 2b03 e53e
000001b0: 394e b1bd c7c2 19bd 3715 32bc aedb bfbc
000001c0: a081 bb3d c019 233c 0d37 a8be dda0 15be
000001d0: 2346 f0be a8b5 3bbe 6ba6 4abd d3c8 d23c
000001e0: 85e3 b1be 7850 5a3e 7d7b f93e 9f92 f7bc
000001f0: b761 a8be 3b59 34be 86f1 e03d d1ff 37be
00000200: 22f3 aabd e3e4 37bd 6c45 f93d 8a2c 87bc
00000210: d078 083e 96e2 023f 8701 44bd 3914 623d
00000220: b416 24bd 9979 fb3c 909b 8f3e 5439 a2be
00000230: 6304 143d 7363 50bc de31 9db6 629a 763e
00000240: cb62 853c 94f2 5d3e 185e 8fbe b6a0 333c
00000250: 5181 2e3e 7686 aebe b64a 66bd b359 dd3a
00000260: b42f 7ebd d0e3 383e afeb 133d 7516 243d
00000270: ba79 573d c7f1 3fbc ab0e 24be e728 f83d
00000280: 7d1d 453f 34d9 8fbe 806c 8f39 5ce8 21bd
00000290: f170 45be d789 d23c fdc8 74bc 2cd6 c43d
000002a0: 8f3e c2bd cf4f cabc 5a8f 003e 8191 3dbe
000002b0: b49f d3bd 5283 be3c a666 d13c 6809 af3c
000002c0: 656c 4ebd a8a9 50bd 82eb bbbc 8f1c e83e
000002d0: c70c b7bc 505b 2ebc 7d8e 063c 1806 1c3d
000002e0: c24f 043e 12fb 36bd d511 8d3d 72df 06bd
000002f0: 2c0e 293f 2232 17bb d0e0 bb39 8727 d1bc
00000300: cd2c 053d 3c1c a13f 292e 5f3d 4c76 183d
00000310: b9b5 7dbf 4df9 15be 45b7 683d 6086 b2bd
00000320: d63f e73e b8c7 e13d 9c47 99be 0fa3 5c3f
00000330: 9d6a 0a3f 12db 313d c7ba 11be 982a 913f
00000340: f287 593c 3383 acbe b450 0d3f 4f10 27bf
00000350: d8cc 2cbc 2fc6 f73d bf0d ab3d 8ee3 14bf
00000360: cd49 0bbb 5f42 92ba 1cc4 cc3f 98c1 debc
00000370: 6af7 aabf 0bd5 203e 03fd b2bd 4e2f 4ebe
00000380: 6591 8bbd 1754 4b3e 62fd cd3d 6333 d23e
00000390: 61c6 dc3e 006f 3d3e 737f 403e 2558 6fbe
000003a0: 9792 343f 9f73 42be 737b b23f 6dc4 893f
000003b0: a532 16bf a8a5 fe3d c7f7 9ebf a138 b03c
000003c0: 0050 863a 76cb 56bd 3ea4 cf3d e20d a23f
000003d0: 87c4 ac3f 36c8 363e ea74 d0bd 4963 95be
000003e0: 12ef 3a3f de87 46bf 7b18 31bf 6f56 ca3f
000003f0: 24f5 79bf 43a9 1fbf 46fb e1be 4ea2 c53e
-0.042378493 -0.35626516 -0.06656575 0.00456783 0.3713068 0.083479166 -0.0313089 -0.13140565
-0.092835635 -0.04293896 0.17426884 -0.38164937 -0.08508963 -0.022167683 0.031012803 -0.68728566
-0.35465145 0.026196102 -0.2833633 0.22218955 -0.42293525 -0.042926792 0.027073482 0.29232976
0.030332116 -0.13841403 -0.37299845 0.09157767 0.1849814 -0.056405883 -0.05672068 0.19992185
0.1406346 -0.039674327 -0.04559449 -0.22443894 -0.18961439 0.00016490518 -0.22549835 0.108990334
-0.22483368 0.023624854 -1.721763 -0.15010002 0.19260176 -0.02828972 0.20786524 -0.03296121
-0.0645356 -0.04306798 0.13211219 -0.12280328 -0.11743165 0.06497217 0.012831335 -0.13365635
0.1570852 -0.024584403 -0.043331526 -0.26366523 0.113758035 0.16258311 0.024976963 -0.0081742285
-0.22257285 -0.043613948 -0.5546652 0.00017341688 -0.254467 0.021069715 -0.010091355 -0.33091265
0.23380744 -0.024373958 -0.3729582 0.033061687 0.37440637 0.052654374 -0.2631875 0.29077706
0.090669475 -0.071787976 0.1531164 -0.08662832 0.012342348 -0.26118848 0.044494383 -0.6968626
0.028311659 -0.27072048 0.074248925 0.08173716 -0.03517633 -0.16893978 -0.24955599 -0.041112784
-0.063688494 -0.21086137 -0.023417052 -0.068160266 0.08486659 0.14118291 0.065574296 0.055432577
-0.12628236 -0.002814283 0.839098 0.4472898 -0.08657498 -0.03753927 -0.010869316 -0.023420181
0.091555834 0.00995487 -0.328545 -0.14612146 -0.4692851 -0.18331015 -0.049475115 0.025730526
-0.34743896 0.21319759 0.48727027 -0.030221282 -0.3288705 -0.17612164 0.10983567 -0.1796868
-0.08347155 -0.044896018 0.12171444 -0.01650073 0.13327336 0.5112699 -0.04785302 0.055195067
-0.040060714 0.03069763 0.28048372 -0.31684363 0.036136996 -0.012719023 -4.68477e-06 0.2408233
0.01628246 0.21674567 -0.28001475 0.010963609 0.17041518 -0.3408696 -0.056223594 0.0016887694
-0.062057212 0.18055654 0.036113437 0.04006048 0.052606322 -0.011715359 -0.1602122 0.121171765
0.7699812 -0.280954 0.00027355924 -0.039528236 -0.19281365 0.025700493 -0.014940497 0.096111625
-0.09484588 -0.024696259 0.12554684 -0.18512537 -0.10333195 0.023255978 0.025561642 0.02136679
-0.05039634 -0.050943047 -0.022939447 0.45334288 -0.02234496 -0.010641888 0.008212683 0.03809175
0.1292105 -0.044673033 0.06888167 -0.032927938 0.6603725 -0.0023070653 0.00035834918 -0.025531543
0.03251343 1.2586741 0.05448738 0.03722219 -0.9910541 -0.14645882 0.056815404 -0.08717036
0.4516589 0.110244215 -0.29937446 0.8618631 0.5406893 0.043421812 -0.14231406 1.1341124
0.013277041 -0.33693847 0.5520127 -0.6525926 -0.010546885 0.120983474 0.08352231 -0.5815972
-0.0021253705 -0.0011158696 1.5997348 -0.027191922 -1.3356755 0.1570627 -0.087396644 -0.20135233
-0.06814841 0.19856296 0.100580946 0.4105483 0.431201 0.18499374 0.18798618 -0.23373468
0.7053618 -0.18989418 1.3943924 1.0763069 -0.5867103 0.1243394 -1.2419366 0.021511378
0.001024723 -0.05244013 0.101387486 1.2660487 1.3497475 0.17849812 -0.101785496 -0.2917731
0.7302104 -0.77551067 -0.6917798 1.5807627 -0.9763968 -0.6236765 -0.4413702 0.3860039

net.4.bias f4 [64]
00000000: 3bb8 25bf 15f0 283e 3ff0 12bf 1ffb 9d3f
00000010: ddac 4a3e 5d38 59bf ff73 163f b539 723f
00000020: e2c0 0bbf c957 a5be ab8e 123f a48d 753f
00000030: ea02 49be 9092 89bf 69e4 efbe 12de a1bf
00000040: 3f5a 503f bf50 a23f e184 83bf 9bc3 f3be
00000050: a879 0abf 8993 693f d1fb c93e eb7c 69bf
00000060: 182e 9a3f 91c7 1e3e 4e1e e43d 555d 75bf
00000070: 1317 3840 401c 62bf 3a79 ba3e 599d 54bd
00000080: 9491 5f3f ca8b 1a3d a99b ad3f 05e3 ab3e
00000090: 94cd b6bf b189 e5be 21ab 08bd baeb acbe
000000a0: 4824 59bf 26dc 823e 0883 763f f8e3 c13f
000000b0: f10c af3e 1454 c93e 5cbe 513f c613 9c3e
000000c0: 6663 3c3d ff21 023f 1055 663f 86f9 65bf
000000d0: 3e43 713f a44f 1dbf 8ba3 823f 1da7 d13e
000000e0: e9cf 6abf 1694 833f f2b7 513f 235d 90be
000000f0: 94f4 5e3f 0301 293f 7366 ed3e b235 f73e
-0.6473424 0.16497834 -0.57397836 1.2342261 0.19792505 -0.8485163 0.58770746 0.94619304
-0.5459119 -0.32293537 0.57248944 0.9591925 -0.19630018 -1.0747852 -0.4685395 -1.2645895
0.81387705 1.2680892 -1.0274926 -0.47610173 -0.5409188 0.91240746 0.39449933 -0.91206235
1.2045317 0.15505816 0.11138593 -0.9584554 2.8764083 -0.88324356 0.36420614 -0.05190787
0.8733151 0.03773097 1.3563129 0.3357164 -1.4281487 -0.44831613 -0.033366326 -0.33773595
-0.84820986 0.25558585 0.9629369 1.5147696 0.3418956 0.3932196 0.8193109 0.30483836
0.04599323 0.50833124 0.89973545 -0.8983387 0.9424323 -0.61449647 1.0206159 0.4094781
-0.91723496 1.0279567 0.81921303 -0.28196058 0.87091947 0.6601717 0.46367225 0.48283154

net.6.weight f4 [198, 64]
00000000: 640d e1be f2c7 37bf 56d2 133f e035 d1ba
00000010: 1c1a 99bf e984 a93e 3c8e 1e3f 81b1 a5bf
00000020: 17af 6fbf 2a38 983f 5078 e6bf 840f d1bd
00000030: c58d c1bd a67c cf3e 2ade 0b3e 2b51 ffbe
00000040: ffa8 9c3e 0055 86bf b315 c1bb 5b78 903e
00000050: e9a0 fd3d a5bd fc3e 6a66 e73d 1d3e bfbc
00000060: 4cff dfbe 11a6 b93e 2c25 64bf c460 dcbd
00000070: 9d93 b4bf 61f8 8540 18d5 f13e 7df1 57be
00000080: 4b58 99bf db36 033e aec7 9dbe 2a7e 783f
00000090: 60de 02bf 2bb3 c1c0 d690 82bf 5803 60bc
000000a0: 8b73 0c3e 6f6a 70c0 100d a0be b07c 4fbf
000000b0: f65f acbf 760d 67be ed81 e7be 4ac5 6cbe
000000c0: b939 043f 0af5 773c 10f1 263d f16f 3fbe
000000d0: 7e32 4d3e f66a 183f 9155 3dc0 5589 843e
000000e0: 4931 893e a482 93be 45d5 2d3b 457f a63d
000000f0: e044 cfbe 6dee 13bc 6eb2 643c 63d3 8dbc
00000100: e7ed 3cbe a2a9 153b d8c3 28bf f0e2 043d
00000110: 512f dfbd c569 893f a666 2f3f 8c06 78be
00000120: 6306 fabe 3c11 393f 00c2 6abf bb5f be3c
00000130: e4cd fa3c 2715 983e a42c 61bf 7cb3 84bf
00000140: 5c62 933e ac5c aebd be62 c43e fdfd 9abe
00000150: 133e 933e b551 823d bbc2 25be 120e 043f
00000160: fb44 c83c 525f 1e3f de93 cb3d fad3 27bd
00000170: f977 d3bf 7cc3 fa3d b963 1abf 631d 30bf
00000180: 1e9e c33d f7f5 573f b7e3 963f 5cb6 ccbd
00000190: 52de 073e aa05 093b cb66 6cbf aaa4 b53d
000001a0: f57e 543f 09b7 f0bb 709e fd3e c3e1 913e
000001b0: 190c e93d bb9d 9bbc 1752 4abd 0b9d 103d
000001c0: 8c19 80bf fa19 6f3e 29bf 0d3d ea00 fb3e
000001d0: 5f61 99bf 4aa9 24bf 3401 ca3c 0596 263f
000001e0: 1358 e2be 8c7b 133e 1f2c dcbe 0539 eb3b
000001f0: b8ec c3be 8494 dc3d 7cb9 18bf da89 fbbd
00000200: 6634 7e3c 03ba 8ebe 1fa7 cdbe 01b3 953d
00000210: 9329 963e 5d73 d83e feef 23bd e0cc 4a3d
00000220: c239 993e 9896 f7be 0d0e 4fbe e3de b0bd
00000230: bd8f 26be fef3 5e3d 05e3 42bd f8ba 9a3c
00000240: c760 3bbd 83dd 4f3e a562 afbd 21f0 193d
00000250: 9f74 8ebe 4db6 ec3c e1e4 d1bd 8de5 8d3e
00000260: b68e 2bbd 4b95 053b 8e36 1c3e 377c 6abd
00000270: cf3a 1f3f 3753 c6bd 9ead 67bd 0454 81bc
00000280: fa24 933e ba87 823d 0e68 23bd b106 cdbe
00000290: 7c0d 28bf 13a8 a03a d39c ff3e 34f9 973e
000002a0: e0fc 44bd f054 d6bc 3e31 603e d010 933d
000002b0: 1d73 9bbe d61e af3d c5ae efbe c8fd 89bd
000002c0: ea62 bb3e 8d81 203d 1e0e abbd 7abe f83d
000002d0: 54b2 2dbe 834b 3cbd d443 0cbc 7a84 a0be
000002e0: 3462 f63d 6a43 c2be ee0b 493e 3b54 99bc
000002f0: bf19 c93f 6c58 603d 6676 67bd bfc1 8f3e
00000300: 0d47 ae3d 6bec 2c3f 67f2 8f3e 4d78 113d
00000310: 0c50 a53e 60bf cbbf c081 74bf 9ba9 0dbe
00000320: b721 673f a4cf 363f 13f4 18c0 8876 883e
00000330: 70b0 ef3d ff2b e2be c095 d03f 7bca aebf
00000340: c9a2 9d3e 7fc1 dbbc a4e6 63bf 3458 b8bf
00000350: f4c7 6b3e 0b8d 9ebd a5fd 62bd 55a1 61bf
00000360: ebca 2cbe 638a 79bf 383b a3be 0c82 e8bd
00000370: b6f3 0140 afbd ac3d 0c4c bd3f fef4 ae3f
00000380: 0102 74be 6c79 ddbf 205f c6bf 9b5c 2ebe
00000390: c212 50bd cd3c 65bb a7dd 8bbf cf4b f2be
000003a0: a7d5 a73f 5636 eb3d 3b6f a8bf 9b66 06be
000003b0: 74e0 b23d 518e c53e 7f90 4bbf eb6d 0bbc
000003c0: 73f9 91bf aaef cfbe 3b77 08be 2f25 aebf
000003d0: 866e 6140 85ef 0640 631a 60bc 0d35 7a3f
000003e0: f297 8d3f 5d14 573e 4182 9d3f 184e 99bc
000003f0: 709b 923d 49a6 83bf 7608 a43f ac37 2d3f
-0.4395553 -0.7178947 0.5774282 -0.001596149 -1.1961093 0.33109215 0.6193578 -1.2944795
-0.9362654 1.189214 -1.8005466 -0.102080375 -0.094508685 0.40524787 0.13658968 -0.49866614
0.30597684 -1.049469 -0.0058924793 0.28216824 0.12384207 0.49363437 0.11298831 -0.023345048
-0.43749464 0.3625951 -0.8911922 -0.10760644 -1.4107548 4.1865697 0.4723289 -0.21088214
-1.198007 0.12813894 -0.30816406 0.9706751 -0.5112057 -6.053121 -1.020045 -0.013672672
0.13715951 -3.7564962 -0.31259966 -0.81049633 -1.3466785 -0.22563729 -0.45216313 -0.23122135
0.5165058 0.015134105 0.04075724 -0.18695046 0.20038792 0.5953821 -2.9583476 0.25886026
0.26795414 -0.28810608 0.0026524824 0.081297435 -0.40482235 -0.009029013 0.013958557 -0.017312711
-0.18450128 0.0022836705 -0.65923834 0.032442987 -0.10897697 1.0735403 0.68516004 -0.24221247
-0.48832998 0.7229192 -0.9170227 0.023239007 0.030615754 0.29703638 -0.8795874 -1.0367274
0.2878598 -0.085137695 0.38356584 -0.30271903 0.28758296 0.06363241 -0.16187565 0.5158397
0.024446955 0.618642 0.09940313 -0.04097364 -1.6520988 0.12244317 -0.60308415 -0.6879484
0.09551643 0.8435969 1.1788243 -0.0999572 0.13268402 0.0020907917 -0.9234435 0.08869298
0.8300622 -0.0073460382 0.4953494 0.28492555 0.113792606 -0.01899611 -0.049394693 0.035306018
-1.0007796 0.23349753 0.034606133 0.49024135 -1.198284 -0.64320815 0.024658777 0.6507266
-0.4420782 0.14402598 -0.43002412 0.007178428 -0.3826654 0.107705146 -0.59658027 -0.122821525
0.015515422 -0.2787629 -0.40166566 0.07309533 0.29328594 0.42275515 -0.040023796 0.04951179
0.29926878 -0.4835708 -0.20220204 -0.08636262 -0.1626577 0.054431908 -0.047579784 0.018887982
-0.04574659 0.20299344 -0.08563737 0.03758252 -0.2782335 0.028895522 -0.10248733 0.27714196
-0.041884147 0.0020383175 0.15255186 -0.057247367 0.6219911 -0.09683841 -0.05656206 -0.015787132
0.28739148 0.06373544 -0.039894156 -0.40044168 -0.65645576 0.0012257121 0.49924335 0.29682314
-0.048092723 -0.026163548 0.21893784 0.07180941 -0.30361262 0.08550803 -0.46813026 -0.06737858
0.36598903 0.03918605 -0.08352302 0.121457055 -0.16962558 -0.04597045 -0.008561093 -0.31351072
0.120304495 -0.37942058 0.19633457 -0.018716922 1.5710982 0.054771826 -0.056509398 0.28077504
0.085096456 0.67548245 0.28114626 0.03551512 0.32287633 -1.5917778 -0.9551048 -0.1383423
0.9028582 0.71410584 -2.389897 0.26652932 0.11703575 -0.4417419 1.62957 -1.3655542
0.30788258 -0.026825665 -0.89023805 -1.4401917 0.23025495 -0.077417456 -0.055417676 -0.881368
-0.16874282 -0.97476786 -0.31881118 -0.113529295 2.0305 0.08434617 1.4788833 1.3668516
-0.2382889 -1.730268 -1.549778 -0.17027514 -0.05079914 -0.0034978867 -1.0927018 -0.47323462
1.3112077 0.11484973 -1.3158945 -0.13125078 0.08734217 0.3858514 -0.7951736 -0.008510093
-1.1404251 -0.40612537 -0.13326733 -1.3605098 3.5223708 2.108369 -0.013678166 0.977372
1.1061995 0.21003862 1.2305375 -0.018713996 0.071585536 -1.0285121 1.2815082 0.67663074

net.6.bias f4 [198]
00000000: 42aa 88bf df97 0100 1074 15bf bbc0 0380
00000010: 4588 f5be a11c f3be 9164 0d3f 6d44 cd3c
00000020: 4071 523e fa1d c83e 2731 f23e a894 fa3e
00000030: 179b fe3e e32f 023f cb65 053f f9e6 083f
00000040: 3e6c 0c3f 9915 103f 8e7c 133f 5ab5 163f
00000050: 2b62 1a3f 2f33 1e3f 7fe6 213f 5633 263f
00000060: f2a9 2b3f 76fa 313f c27e 383f 7450 3e3f
00000070: 3e75 433f f526 483f fd3d 4c3f c32b 4f3f
00000080: 1a9b 503f df11 513f 8016 513f 2826 513f
00000090: fec7 513f 534a 553f 5c22 fd3e 36a3 1f3e
000000a0: a82b 27bc 4d6e 47bd 0d70 133d 695a 573e
000000b0: 54fb 8c3e 9dea 983e 017d a43e 26d6 ab3e
000000c0: 16a6 a43e 2580 963e d87c 953e 694c 933e
000000d0: f3ad 8d3e fab9 823e dd2c 573e 3268 2d3e
000000e0: a9d9 1e3e 9ee3 0d3e 06c1 e73d a061 b73d
000000f0: 9ef6 903d 95eb 5b3d 9391 0c3d fc3c 3f3c
00000100: 0204 38bc 5c0f eabc 246a 13bd bb41 03bd
00000110: a1b3 30bc 0f75 223d c414 b23e c59f c73e
00000120: 5d35 e03e 4879 fc3e 9ce2 083f dc4f 103f
00000130: cdd6 153f d42c 1a3f c8d6 1d3f 6a5f 213f
00000140: e50a 253f 70d5 283f c26a 2c3f 905f 2f3f
00000150: 5a2d 313f 507a 313f c71b 303f da1f 2d3f
00000160: 5df9 283f 8b20 243f d442 1f3f b1ea 1a3f
00000170: 1ac8 173f 623f 163f a15f 163f d80c 183f
00000180: 66ed 1a3f b99f 1e3f a49a 223f 6343 263f
00000190: 22be 283f a0da 2b3f 9164 0d3f 6d44 cd3c
000001a0: 4071 523e fa1d c83e 2731 f23e a894 fa3e
000001b0: 179b fe3e e32f 023f cb65 053f f9e6 083f
000001c0: 3e6c 0c3f 9915 103f 8e7c 133f 5ab5 163f
000001d0: 2b62 1a3f 2f33 1e3f 7fe6 213f 5633 263f
000001e0: f2a9 2b3f 76fa 313f c27e 383f 7450 3e3f
000001f0: 3e75 433f f526 483f fd3d 4c3f c32b 4f3f
00000200: 1a9b 503f df11 513f 8016 513f 2826 513f
00000210: fec7 513f 534a 553f 5c22 fd3e 36a3 1f3e
00000220: a82b 27bc 4d6e 47bd 0d70 133d 695a 573e
00000230: 54fb 8c3e 9dea 983e 017d a43e 26d6 ab3e
00000240: 16a6 a43e 2580 963e d87c 953e 694c 933e
00000250: f3ad 8d3e fab9 823e dd2c 573e 3268 2d3e
00000260: a9d9 1e3e 9ee3 0d3e 06c1 e73d a061 b73d
00000270: 9ef6 903d 95eb 5b3d 9391 0c3d fc3c 3f3c
00000280: 0204 38bc 5c0f eabc 246a 13bd bb41 03bd
00000290: a1b3 30bc 0f75 223d c414 b2be c59f c7be
000002a0: 5d35 e0be 4879 fcbe 9ce2 08bf dc4f 10bf
000002b0: cdd6 15bf d42c 1abf c8d6 1dbf 6a5f 21bf
000002c0: e50a 25bf 70d5 28bf c26a 2cbf 905f 2fbf
000002d0: 5a2d 31bf 507a 31bf c71b 30bf da1f 2dbf
000002e0: 5df9 28bf 8b20 24bf d442 1fbf b1ea 1abf
000002f0: 1ac8 17bf 623f 16bf a15f 16bf d80c 18bf
00000300: 66ed 1abf b99f 1ebf a49a 22bf 6343 26bf
00000310: 22be 28bf a0da 2bbf
-1.0676959 1.46317e-40 -0.5838022 -3.44645e-40 -0.47955528 -0.4748278 0.5523158 0.025057042
0.20551014 0.3908537 0.47303125 0.4894154 0.497277 0.5085432 0.5210845 0.53477436
0.54852664 0.56282955 0.5761193 0.5887047 0.6030604 0.6179685 0.63242334 0.6492208
0.6705619 0.695228 0.7206842 0.7434151 0.7635077 0.78184444 0.79782087 0.8092615
0.81486666 0.81667894 0.8167496 0.81698847 0.8194579 0.83316535 0.49440277 0.15589604
-0.01020328 -0.048689175 0.03599553 0.21030582 0.27535498 0.29866496 0.3212662 0.3356182
0.32157964 0.29394642 0.2919681 0.28769234 0.27671775 0.25532514 0.21013208 0.16934279
0.15512718 0.1385636 0.11316113 0.08954167 0.070782885 0.053691465 0.034318518 0.011672255
-0.011231424 -0.028571777 -0.035989895 -0.032045107 -0.010785014 0.039662417 0.34781468 0.38989082
0.43790713 0.4931128 0.5347078 0.56371856 0.58530885 0.6022465 0.61655855 0.63036215
0.6446975 0.6595068 0.673504 0.6850519 0.69209826 0.6932726 0.68792385 0.67626727
0.660055 0.64112157 0.62211347 0.6051436 0.59289706 0.58690464 0.5873967 0.593946
0.6051849 0.6196247 0.6351721 0.64946574 0.6591512 0.6713047 0.5523158 0.025057042
0.20551014 0.3908537 0.47303125 0.4894154 0.497277 0.5085432 0.5210845 0.53477436
0.54852664 0.56282955 0.5761193 0.5887047 0.6030604 0.6179685 0.63242334 0.6492208
0.6705619 0.695228 0.7206842 0.7434151 0.7635077 0.78184444 0.79782087 0.8092615
0.81486666 0.81667894 0.8167496 0.81698847 0.8194579 0.83316535 0.49440277 0.15589604
-0.01020328 -0.048689175 0.03599553 0.21030582 0.27535498 0.29866496 0.3212662 0.3356182
0.32157964 0.29394642 0.2919681 0.28769234 0.27671775 0.25532514 0.21013208 0.16934279
0.15512718 0.1385636 0.11316113 0.08954167 0.070782885 0.053691465 0.034318518 0.011672255
-0.011231424 -0.028571777 -0.035989895 -0.032045107 -0.010785014 0.039662417 -0.34781468 -0.38989082
-0.43790713 -0.4931128 -0.5347078 -0.56371856 -0.58530885 -0.6022465 -0.61655855 -0.63036215
-0.6446975 -0.6595068 -0.673504 -0.6850519 -0.69209826 -0.6932726 -0.68792385 -0.67626727
-0.660055 -0.64112157 -0.62211347 -0.6051436 -0.59289706 -0.58690464 -0.5873967 -0.593946
-0.6051849 -0.6196247 -0.6351721 -0.64946574 -0.6591512 -0.6713047
