training/gen2_architecture/nn-xxsmall.pth (torch, 166699 bytes, 18 tensors)

net.0.weight f4 [48, 25]
-3.7761738 -0.9646678 -0.23713495 0.17683958 0.36269656 0.27060828 0.048770227 -0.05191715
3.3676212 0.87535506 0.2639625 -0.17935921 -0.43370488 -0.37421924 -0.16524334 -0.022461956
-0.05334991 0.078232735 -0.6663189 0.7796378 -1.3079205 0.3929772 0.013437763 0.014994353
0.028509745 -0.26029673 -0.53623027 -0.62444174 -0.52536863 -0.5409522 -0.46012825 -0.123267815
0.32997474 0.090726204 0.39226288 0.054145847 -0.13796376 0.033837333 0.22131133 0.17508201
0.023250777 0.0034609223 0.060321193 0.094629705 2.9007924 -2.9807708 4.778815 -2.4678693
0.3187607 0.1942042 -2.2865143 1.2160994 4.689755 3.3329341 0.3527119 -1.012059
-0.6478455 -0.019867618 0.76294905 0.41296265 -0.025588317 -0.20161825 -0.18854648 -0.08699294
0.0060405172 0.1350876 -0.38490862 -0.015396022 0.2706212 0.38709864 -4.093433 -0.37349096
0.060494978 0.4419969 -0.060882863 -0.2526993 -0.12460284 -0.045938384 0.14660259 0.15131946
-0.1609545 -0.79916006 -2.0211978 -0.035307795 0.05345318 0.36941093 0.30719823 0.077272095
-0.031112103 0.025574194 -0.03741329 -0.06862351 0.5132653 -1.401428 0.08520717 0.9332421
0.36117524 0.019570673 0.113444634 0.026423097 -1.0930547 -7.842689 -3.4562275 -1.1585974
-0.14233969 0.11371339 0.158907 0.28756404 -1.243543 -0.11161526 -0.1486951 -0.16113399
-0.08018377 0.03770326 0.13844323 0.15226951 -2.7104497 -0.06848306 7.3013744 0.29622674
-4.238216 -1.7778996 0.47512585 0.05741219 0.09150581 1.0337001 0.77743995 0.14629838
-0.48459792 -0.5829363 -0.17869553 0.2464186 0.2707833 -2.075941 -1.4102011 -0.4235868
0.45435148 0.7951548 0.65712106 0.26660123 -0.12868477 -0.2658151 -0.020644508 -3.5225403
-0.65392154 2.5097044 2.379123 0.3446059 -0.010286909 -0.0561783 -1.3713963 -1.5427139
-1.4213685 -1.3177875 -0.75983125 -0.03871083 0.35104322 0.16616762 0.28979328 -0.047631245
0.26588896 0.26235566 0.100673094 -0.04425229 -0.09467834 -0.058602523 -0.49690244 0.030506117
-5.176734 1.6236423 -4.656582 -0.49490368 0.09889032 -0.12147623 0.06075947 -0.6911591
0.12845878 0.1271452 0.0294318 -0.042599346 -0.009438226 0.0812224 0.08761942 0.8949468
1.6916596 2.554637 2.2537453 1.21145 0.095986865 -0.49854732 -0.47179034 0.20285362
0.101667315 6.432303 0.5689553 1.0007099 -2.0116913 0.21050471 -0.024887148 -1.6684132
1.0929815 0.5411359 -0.19584122 -0.43253905 -0.41002512 -0.21086255 0.05205248 0.1609367
1.4272325 0.93287903 0.35129428 0.27317196 0.35509962 0.20724033 -0.047177646 -0.09598043
0.7088319 0.04863393 3.61683 1.3232111 0.9023138 0.64887047 -0.017902689 0.047841262
0.2057356 3.637983 2.5611846 0.99842596 0.15317233 -0.0420317 0.2988567 0.6802762
0.61563313 -2.9618053 -1.4075751 -1.036099 -1.1729959 -1.0736675 -0.5685276 -0.13308442
-0.1950917 0.41874337 -0.018929701 -0.083313696 0.18203297 -0.07284593 0.0017534627 -0.053733114
0.0051733865 -0.1338968 0.5897103 0.13282676 -0.8704243 -0.69778985 -0.11801915 0.123704664
00000000: d5ac 71c0 78f4 76bf 81d3 72be 6f15 353e
00000010: 5db3 b93e 2b8d 8a3e 4ac3 473d 14a7 54bd
00000020: 1b87 5740 4517 603f 1826 873e f1a9 37be
00000030: 910e debe aa99 bfbe 8d35 29be 2302 b8bc
00000040: 6f85 5abd 7c38 a03d e093 2abf 5896 473f
00000050: f069 a7bf 4f34 c93e 102a 5c3c e0aa 753c
00000060: 458d e93c 9d45 85be 6346 09bf 6adb 1fbf
00000070: 8f7e 06bf d87b 0abf ee95 ebbe d673 fcbd
00000080: 73f2 a83e a9ce b93d aed6 c83e 09c8 5d3d
00000090: 5f46 0dbe 0499 0a3d 709f 623e b348 333e
000000a0: 6a78 be3c a4d0 623b 5b13 773d 38cd c13d
000000b0: 95a6 3940 f3c4 3ec0 0dec 9840 92f1 1dc0
000000c0: 9a34 a33e 77dd 463e 4056 12c0 25a9 9b3f
000000d0: 7912 9640 cb4e 5540 a796 b43e 268b 81bf
000000e0: 34d9 25bf 6ac1 a2bc a150 433f d76f d33e
000000f0: 979e d1bc 0475 4ebe 5412 41be 5b29 b2bd
00000100: 88ef c53b 6754 0a3e be12 c5be 993f 7cbc
00000110: dd8e 8a3e cb31 c63e 67fd 82c0 353a bfbe
00000120: 95c9 773d 6b4d e23e 4f60 79bd cd61 81be
00000130: c62f ffbd e329 3cbd fd1e 163e 7df3 1a3e
00000140: 42d1 24be c195 4cbf 4e5b 01c0 e89e 10bd
00000150: b9f1 5a3d 6e23 bd3e 1649 9d3e d540 9e3d
00000160: cfde febc f980 d13c ae3e 19bd 7c8a 8cbd
00000170: 5b65 033f fe61 b3bf 1981 ae3d f4e8 6e3f
00000180: f6eb b83e ad52 a03c a955 e83d 4075 d83c
00000190: 37e9 8bbf 4ff7 fac0 d532 5dc0 eb4c 94bf
000001a0: 7fc1 11be 91e2 e83d 84b8 223e 983b 933e
000001b0: 6b2c 9fbf 8b96 e4bd 8743 18be 4f00 25be
000001c0: 6337 a4bd bc6e 1a3d 10c4 0d3e 8aec 1b3e
000001d0: 0278 2dc0 d940 8cbd dca4 e940 08ab 973e
000001e0: 779f 87c0 3792 e3bf b243 f33e 0b29 6b3d
000001f0: 6667 bb3d 4950 843f 4e06 473f 3ecf 153e
00000200: 381d f8be 503b 15bf f6fb 36be 2855 7c3e
00000210: 1ca4 8a3e 38dc 04c0 7881 b4bf 5ee0 d8be
00000220: c2a0 e83e 448f 4b3f 1639 283f f57f 883e
00000230: f1c5 03be eb18 88be ac1e a9bc 4d71 61c0
00000240: 6767 27bf ff9e 2040 8d43 1840 2f70 b03e
00000250: 6c8a 28bc 381b 66bd ea89 afbf a677 c5bf
00000260: 67ef b5bf 43ad a8bf 4d84 42bf 3f8f 1ebd
00000270: f0bb b33e d827 2a3e c95f 943e fb18 43bd
00000280: 9922 883e 7b53 863e b22d ce3d e441 35bd
00000290: b8e6 c1bd 3309 70bd ff69 febe f7e7 f93c
000002a0: cea7 a5c0 83d3 cf3f b802 95c0 0464 fdbe
000002b0: 0287 ca3d 88c8 f8bd ecde 783d ceef 30bf
000002c0: b38a 033e 5a32 023e f51a f13c a77c 2ebd
000002d0: caa2 1abc ee57 a63d cf71 b33d 3c1b 653f
000002e0: 4d88 d83f 2c7f 2340 5d3d 1040 cb10 9b3f
000002f0: c394 c43d 9841 ffbe 818e f1be dcb8 4f3e
00000300: f436 d03d 6dd5 cd40 0ea7 113f 4317 803f
00000310: 8dbf 00c0 8c8e 573e 22e0 cbbc 908e d5bf
00000320: d1e6 8b3f e287 0a3f 9a8a 48be c275 ddbe
00000330: d0ee d1be 5aec 57be fb34 553d 97cc 243e
00000340: 8eaf b63f 29d1 6e3f d8dc b33e 32dd 8b3e
00000350: 9ecf b53e cf36 543e 593d 41bd 6391 c4bd
00000360: 0276 353f 5f34 473d 257a 6740 fb5e a93f
00000370: 0afe 663f 601c 263f a9a8 92bc 33f5 433d
00000380: 5aac 523e b7d4 6840 73ea 2340 d898 7f3f
00000390: 35d9 1c3e 6f29 2cbd bf03 993e 9526 2e3f
000003a0: 229a 1d3f 388e 3dc0 6c2b b4bf e49e 84bf
000003b0: bb24 96bf f06d 89bf 068b 11bf 4847 08be
000003c0: 1ec6 47be 8865 d63e 7612 9bbc 5fa0 aabd
000003d0: da66 3a3e 3f30 95bd 72d4 e53a 4117 5cbd
000003e0: 8385 a93b 3e1c 09be 41f7 163f bd03 083e
000003f0: 20d4 5ebf 5ba2 32bf 06b4 f1bd df58 fd3d

net.0.bias f4 [48]
0.471844 1.3277782 -2.1711972 0.25461257 -1.5794729 0.59785396 -0.3677556 1.2457073
1.2340431 0.23853348 0.56181896 0.71005315 -0.15626444 0.19396324 0.9157566 -0.078261726
-0.4645901 -0.284021 0.020770013 2.1399443 -0.16819863 1.0098257 -1.085239 0.123785265
-1.4364121 -0.50137126 0.731183 0.7992594 -0.6307628 0.8022118 1.279795 0.2777703
-1.5169315 -0.5191693 0.001411007 -0.51281124 -0.29863524 0.96604216 0.38326985 2.3695655
0.42832378 0.91636664 2.1665819 -1.5758204 -0.1151283 -3.0870242 -0.09243946 -0.6639452
00000000: 8995 f13e a3f4 a93f e5f4 0ac0 945c 823e
00000010: 2b2c cabf f50c 193f 764a bcbe 5673 9f3f
00000020: 20f5 9d3f 1f42 743e 5ed3 0f3f 0bc6 353f
00000030: c903 20be 4d9e 463e 066f 6a3f af47 a0bd
00000040: c1de edbe 336b 91be e025 aa3c d9f4 0840
00000050: 433c 2cbe f841 813f 1de9 8abf 2183 fd3d
00000060: 5adc b7bf de59 00bf cf2e 3b3f 449c 4c3f
00000070: ac79 21bf c15d 4d3f 53d0 a33f e937 8e3e
00000080: d02a c2bf 47e8 04bf 8af1 b83a 9947 03bf
00000090: b8e6 98be 8a4e 773f f23b c43e f6a6 1740
000000a0: 414d db3e 0197 6a3f 47a9 0a40 7cb4 c9bf
000000b0: 63c8 ebbd ce91 45c0 e650 bdbd 50f8 29bf

net.2.weight f4 [48, 48]
-0.05414579 -0.08635589 -0.16030662 -0.1434899 -0.12167731 0.015111407 -0.2798982 -0.7330359
0.49651897 -0.16783834 0.446548 0.920789 -0.8146936 -0.07803973 0.4136245 0.23058769
0.06873512 -0.24189131 -0.7162675 -0.520656 -0.44107014 -0.02442487 0.47917992 0.054231927
-1.5367335 0.5361879 0.4187176 -0.17146306 -0.35063168 -0.054376297 0.95109963 0.64148146
-0.091876775 -1.0101209 0.048186574 -0.16531332 -0.21934691 -0.3704688 -0.20330986 0.15387875
0.55978537 -0.0061787823 -0.52327424 -0.15439494 -0.14076886 0.124066725 -0.086290434 -1.0852565
-0.13434246 -0.9250333 0.059562556 -0.098458365 0.16185889 -1.3435825 0.27910572 0.25025558
-0.12460305 -0.13430646 0.23712946 -0.1930188 -0.33302155 -0.08658579 -0.34199467 0.42851382
-0.12455569 -0.40586132 -0.25485736 0.17105715 0.10529904 0.51880914 -1.1810555 -0.272358
1.757465 -0.40043283 2.7825785 -0.21092863 -0.64177686 0.62795055 0.19059832 -0.2866798
-0.43176413 0.29681617 0.06626993 -0.5661338 -2.62071 1.7706263 -0.15785329 -1.8781586
-0.11623855 -0.3000202 0.2751554 0.7772222 0.008713805 0.2754005 1.129432 -0.053592555
0.2765206 0.20949207 -0.053544007 0.42410362 -0.2860526 0.12162779 0.19151995 0.008888194
-0.1911131 -0.1344557 -0.16833036 0.33277422 -0.6538103 -0.15327352 0.047270168 0.64951426
-0.18803307 -0.14033888 0.02767874 -0.3239446 0.049163297 0.24799283 -0.14522631 -0.20218495
-1.3965713 0.05037225 -0.067679256 -0.15451081 -0.38792366 0.19469818 0.42072508 -0.18109712
0.035304304 -0.27235815 0.038129233 0.27537727 -0.037134428 0.12165373 0.17976522 -0.043456983
-0.2514486 -0.09947926 -0.34253028 0.070403576 -0.04308773 -0.3128979 -0.2793625 0.20218146
-0.080824055 0.38248715 -0.72125345 0.04534912 0.0067079295 0.35542047 0.0045151273 0.08145017
-0.5683575 0.09167377 0.06841163 -0.18417272 1.1421565 0.10295327 1.1095144 -0.2626684
-0.12304921 0.11100211 -0.22901496 -0.22796954 0.56622565 0.43099347 0.43028834 -0.27771804
0.8798069 0.17197442 -0.49251443 -0.21747631 0.97481716 0.26154536 -2.1042125 0.15893257
-0.048689358 0.38406828 -0.05746873 -0.23717286 -0.2530145 0.053973243 0.70485634 0.5278464
-0.16127364 -0.13070892 -0.2332563 -0.2717653 0.026577903 -0.44247043 -0.8219933 1.1530676
-0.04324925 0.87673134 0.079403214 0.4996612 -0.0133529175 1.4153328 -0.23709361 0.49320027
-1.079622 0.16478094 0.9684756 -0.02563637 0.47195372 -0.052551612 0.2700545 -0.047106326
0.137537 0.042971138 0.08311658 -0.6281909 0.1309351 -0.16217746 0.6306182 -0.051259264
-0.34278762 -0.3642006 -1.5385969 -0.24445851 0.75089145 -0.09125902 0.01331738 0.045037247
-0.20933123 -0.12247533 -0.07969516 0.24731666 1.2916079 -0.6170401 0.113113865 1.3997111
-1.0592281 0.33650804 0.21306829 -0.359515 0.18624386 -0.33899108 0.07374679 0.43814304
-0.44586483 0.4022545 -0.0066534276 -0.9029646 -0.20460057 -0.22459479 -0.19964302 0.10174376
0.32806578 0.34055004 0.99470407 0.97009057 -0.78241867 0.2641791 1.444036 -0.27379823
00000000: fac7 5dbd 5bdb b0bd 6b27 24be 04ef 12be
00000010: f431 f9bd d695 773c d14e 8fbe 3ea8 3bbf
00000020: bc37 fe3e d0dd 2bbe f1a1 e43e d4b8 6b3f
00000030: c38f 50bf 4bd3 9fbd 97c6 d33e 2e1f 6c3e
00000040: 00c5 8c3d 5bb2 77be 4f5d 37bf b649 05bf
00000050: f2d3 e1be aa16 c8bc 1257 f53e 4c22 5e3d
00000060: afb3 c4bf 9c43 093f 2762 d63e 0394 2fbe
00000070: ff85 b3be aeb9 5ebd 447b 733f 2138 243f
00000080: e429 bcbd a44b 81bf 495f 453d e547 29be
00000090: 7a9c 60be 16ae bdbe 7630 50be 6492 1d3e
000000a0: 184e 0f3f 6277 cabb 4df5 05bf b519 1ebe
000000b0: b625 10be b216 fe3d 0ab9 b0bd afe9 8abf
000000c0: 1291 09be fbce 6cbf def7 733d 8aa4 c9bd
000000d0: 56be 253e 83fa abbf f2e6 8e3e 8021 803e
000000e0: e22f ffbd a287 09be 11d2 723e b8a6 45be
000000f0: cd81 aabe e453 b1bd ed19 afbe 2a66 db3e
00000100: 0e17 ffbd 0ecd cfbe aa7c 82be 9b29 2f3e
00000110: 06a7 d73d add0 043f d42c 97bf 8272 8bbe
00000120: 9df4 e03f 8805 cdbe c415 3240 adfd 57be
00000130: 7d4b 24bf 5ec1 203f 352c 433e b2c7 92be
00000140: 3010 ddbe 4af8 973e 87b8 873d 25ee 10bf
00000150: b6b9 27c0 e2a3 e23f 4ba4 21be 8067 f0bf
00000160: 7a0e eebd 3f9c 99be 2be1 8c3e 09f8 463f
00000170: 59c4 0e3c 4b01 8d3e 3a91 903f de83 5bbd
00000180: 1c94 8d3e 1785 563e f650 5bbd 1c24 d93e
00000190: 7d75 92be fe17 f93d ce1d 443e ca9f 113c
000001a0: 27b3 43be c1ae 09be cb5e 2cbe 6261 aa3e
000001b0: 1d60 27bf bcf3 1cbe 5d9e 413d 9146 263f
000001c0: be8b 40be ffb4 0fbe 86be e23c 11dc a5be
000001d0: 745f 493d d5f1 7d3e 35b6 14be 9209 4fbe
000001e0: d9c2 b2bf 2253 4e3d 6c9b 8abd 1538 1ebe
000001f0: ee9d c6be f65e 473e 4769 d73e 8671 39be
00000200: 3f9b 103d 8772 8bbe 662d 1c3d 40fe 8c3e
00000210: 451a 18bd 9725 f93d 6014 383e f3ff 31bd
00000220: dfbd 80be c8bb cbbd 2160 afbe c02f 903d
00000230: c27c 30bd 2734 a0be 9a08 8fbe a808 4f3e
00000240: 1587 a5bd 5bd5 c33e 11a4 38bf 00c0 393d
00000250: 31ce db3b acf9 b53e a2f3 933b 59cf a63d
00000260: e17f 11bf 75bf bb3d 661b 8c3d c697 3cbe
00000270: 2f32 923f 2ad9 d23d 9104 8e3f 797c 86be
00000280: 3901 fcbd 1355 e33d e682 6abe d970 69be
00000290: 2af4 103f 2dab dc3e c14e dc3e 0f31 8ebe
000002a0: 063b 613f 101a 303e da2a fcbe 1cb2 5ebe
000002b0: 9e8d 793f 46e9 853e 6bab 06c0 38bf 223e
000002c0: 7e6e 47bd 99a4 c43e 5564 6bbd 71dd 72be
000002d0: 1e8b 81be 0c13 5d3d 7771 343f f120 073f
000002e0: eb24 25be 8fd8 05be bdda 6ebe d224 8bbe
000002f0: e7b9 d93c 7c8b e2be 276e 52bf b897 933f
00000300: 2026 31bd 7771 603f 279e a23d 98d3 ff3e
00000310: 32c6 5abc a029 b53f abc8 72be bf84 fc3e
00000320: 0e31 8abf 56bc 283e 04ee 773f 5d03 d2bc
00000330: eba3 f13e 5c40 57bd 9544 8a3e 90f2 40bd
00000340: 80d6 0c3e 8102 303d 0739 aa3d 1ed1 20bf
00000350: da13 063e d911 26be 3270 213f 3cf5 51bd
00000360: dc81 afbe 8078 babe bef0 c4bf 5553 7abe
00000370: 6c3a 403f 02e6 babd 2431 5a3c fa78 383d
00000380: ed5a 56be 59d4 fabd 3737 a3bd 9440 7d3e
00000390: 6853 a53f 57f6 1dbf 3ea8 e73d bc29 b33f
000003a0: c994 87bf c84a ac3e 932e 5a3e 5a12 b8be
000003b0: b6b6 3e3e 3d90 adbe 8f08 973d 4954 e03e
000003c0: 6548 e4be 4df4 cd3e ff04 dabb b028 67bf
000003d0: d082 51be 2dfc 65be 386f 4cbe 085f d03d
000003e0: 3df8 a73e 935c ae3e eda4 7e3f db57 783f
000003f0: 974c 48bf 7c42 873e 2cd6 b83f 482f 8cbe

net.2.bias f4 [48]
-1.2458414 0.9456046 -0.40047535 0.058975004 0.2752906 -0.31179026 1.1534369 0.14140816
-0.35714424 -0.47629046 -0.31052864 -0.65724653 -0.6569288 -0.82386833 0.19553815 -0.83280915
0.2132214 0.07732107 -0.23340337 0.85091543 0.48042962 1.4373533 0.3804265 -0.20887563
0.37730962 -1.0817711 0.44544446 0.081483565 0.42160487 -0.859017 0.07012784 0.25701338
-0.27864838 0.86477983 -0.18429695 -0.31623864 -0.30035535 -0.21694772 0.07436513 -0.8299554
0.16049671 0.34724298 1.0548369 1.6778026 0.14336613 -0.86542535 0.026160136 -0.1864728
00000000: bb77 9fbf 2513 723f 1b0b cdbe c68f 713d
00000010: e4f2 8c3e f9a2 9fbe d2a3 933f 4dcd 103e
00000020: 9cdb b6be 58dc f3be 9cfd 9ebe 4f41 28bf
00000030: 7c2c 28bf 09e9 52bf 273b 483e fb32 55bf
00000040: b656 5a3e 825a 9e3d 4b01 6fbe 98d5 593f
00000050: dffa f53e 31fb b73f 43c7 c23e 7ee3 55be
00000060: ba2e c13e 7a77 8abf 4c11 e43e dbe0 a63d
00000070: 98dc d73e 8ae8 5bbf 2f9f 8f3d 4297 833e
00000080: 00ab 8ebe 3662 5d3f 57b8 3cbe 08ea a1be
00000090: 2dc8 99be 8b27 5ebe bf4c 983d f577 54bf
000000a0: 4059 243e d5c9 b13e e504 873f 3cc2 d63f
000000b0: 92ce 123e 848c 5dbf c84d d63c baf2 3ebe

net.4.weight f4 [198, 48]
0.2142442 0.15032443 -0.06482553 0.047142375 0.029941496 0.8402881 -0.42976388 -1.0260005
3.5598903 -0.18394439 1.6270258 -1.0630854 0.04482296 -0.23165794 -0.062780194 -1.7063439
0.49793673 0.28665215 0.08938177 0.84961206 -0.6909489 0.07780374 0.23202033 -0.28418297
-0.6599863 -1.4493663 1.0123513 -0.17254898 0.7057353 0.044869095 1.0330228 -0.27517024
-0.77160424 0.04100373 -0.6092556 -2.551258 -0.14706047 -0.12333503 -0.57031494 0.22848612
-0.32549363 0.46296924 -2.2269492 -0.078437954 -1.2761387 -0.44851035 -0.19520167 0.060380615
-0.39474252 0.006792978 -0.2687283 -0.22798525 0.51326585 0.12137825 0.0052201613 -0.07373776
-0.22591077 -0.42985085 0.6101575 0.011611257 -0.06356664 0.37102202 -0.5062132 -0.06124973
-0.6141428 0.62331605 -0.52042484 0.6764909 0.6392293 -0.032192107 -0.23255175 0.03651065
-0.29336798 -0.98041767 0.81238335 0.028488329 0.3521437 -0.71801025 0.078570805 -0.30598134
0.13888922 -0.114142716 0.7713777 0.031214127 0.20262004 0.028380875 -0.5688442 -0.049425613
-0.2979835 -0.01748277 0.093582496 0.9677063 0.12716654 -0.2742801 -0.42452246 0.5004408
-0.12969965 0.102155946 0.27450112 0.22470395 -0.11981534 -0.06571368 0.17153528 0.13612784
-0.010843986 -0.15800838 -0.4786764 0.12558703 -0.111829184 0.078952044 0.09631093 0.14105482
-0.0282179 0.009882949 0.15939404 0.045437206 0.16637054 -0.12937398 -0.15876523 0.010667764
0.24171647 0.4683459 -0.37216753 -0.0466448 -0.19557662 0.0029800467 0.058129404 0.43199128
0.33942598 0.093030825 0.29386246 -0.0045120115 0.13169268 0.15489036 -0.13842885 -0.18873912
0.14225948 -0.12992135 0.01700287 -0.13866982 0.118152365 -0.13428578 0.077748954 -0.20634092
0.5762927 -0.056749698 0.9362221 -0.279683 -0.96173793 0.28726962 0.32455418 0.08319152
0.5775177 1.0569472 0.90780014 0.0060721207 0.17432621 -0.85178274 1.05885 0.070934646
0.8936426 -1.573904 0.04839122 -1.3757495 -0.44303417 0.013573734 -0.2299263 0.33678555
-0.04777827 -0.26175597 -0.08402107 -0.04811962 -0.2788599 0.17795548 0.14013067 -0.66012704
-0.032187164 0.14430483 -0.51863045 -0.051279865 -0.19365855 -0.020022279 1.6188991 -0.023510195
0.40328327 -0.3325739 0.9644237 0.89327693 -0.15224582 0.90547824 0.82445574 0.0527752
0.054487396 -7.0578826e-05 0.008148379 -0.0075882412 -0.021024356 0.0074897497 -0.016374977 -0.03295074
-0.010954376 0.0071097137 -0.0036146233 3.754094e-05 0.028380964 -0.02097914 0.044485595 -0.41865286
0.05231862 -0.0052304594 0.06763686 -0.06484238 0.042829767 0.002143676 0.030600958 0.026460323
-0.022578675 0.035508066 -0.040039115 -0.017377773 -0.0037297586 -0.014174964 0.023451744 0.031341307
0.01202472 0.021512922 -0.08284129 0.006390711 -0.017744374 -0.005309411 0.12857535 -0.009997055
0.015907738 -0.039634835 -0.16939025 -0.0023597158 -0.04289808 0.0651056 0.0023270755 -0.011005029
-0.03474641 -0.64922154 0.010749493 0.011466209 0.0747819 -0.028304351 -0.014160123 -0.0050001037
0.013111739 0.008488891 0.009053531 -0.006983397 0.08461806 0.027570015 -0.035134543 0.006580204
00000000: d562 5b3e a6ee 193e 3fc3 84bd 5d18 413d
00000010: de47 f53c 1f1d 573f 030a dcbe fc53 83bf
00000020: 3ed5 6340 eb5b 3cbe 6242 d03f 2f13 88bf
00000030: 4898 373d bd37 6dbe e792 80bd 7a69 dabf
00000040: 90f1 fe3e 12c4 923e ca0d b73d 2d80 593f
00000050: 07e2 30bf 9157 9f3d bd96 6d3e 6e80 91be
00000060: ddf4 28bf d684 b9bf ba94 813f aeb0 30be
00000070: 12ab 343f a8c8 373d 173a 843f 1de3 8cbe
00000080: db87 45bf 87f3 273d 2df8 1bbf d047 23c0
00000090: 0597 16be 1497 fcbd 2900 12bf 44f8 693e
000000a0: 1aa7 a6be 4e0a ed3e 5686 0ec0 14a4 a0bd
000000b0: 8358 a3bf 26a3 e5be f2e2 47be aa51 773d
000000c0: b11b cabe a197 de3b c196 89be f774 69be
000000d0: 6465 033f 2995 f83d e30d ab3b d303 97bd
000000e0: 2755 67be 6915 dcbe 4833 1c3f 243d 3e3c
000000f0: 3a2f 82bd 99f6 bd3e 3097 01bf ffe0 7abd
00000100: 7638 1dbf a491 1f3f 903a 05bf 822e 2d3f
00000110: 88a4 233f dfdb 03bd 0c22 6ebe 318c 153d
00000120: 5434 96be a7fc 7abf 5bf8 4f3f 5b60 e93c
00000130: 2e4c b43e 85cf 37bf bbe9 a03d 96a9 9cbe
00000140: fa38 0e3e a8c3 e9bd 0279 453f c5b4 ff3c
00000150: a17b 4f3e 027f e83c c69f 11bf 8372 4abd
00000160: 4b91 98be 0738 8fbc 2ea8 bf3d 9abb 773f
00000170: f237 023e 716e 8cbe 025b d9be e31c 003f
00000180: fccf 04be 2337 d13d 698b 8c3e cb18 663e
00000190: bf61 f5bd e594 86bd f2a6 2f3e 1965 0b3e
000001a0: f9aa 31bc f3cc 21be 1315 f5be e399 003e
000001b0: b306 e5bd 9cb1 a13d aa3e c53d ad70 103e
000001c0: 3a29 e7bc 18ec 213c 3138 233e 5d1c 3a3d
000001d0: 0a5d 2a3e 9d7a 04be 5a93 22be d8c7 2e3c
000001e0: 8684 773e 09cb ef3e be8c bebe 9e0e 3fbd
000001f0: 3d45 48be e34c 433b 1919 6e3d f62d dd3e
00000200: 3ec9 ad3e f286 be3d 2475 963e 7fd9 93bb
00000210: 72da 063e 949b 1e3e 4bc0 0dbe d444 41be
00000220: 78ac 113e 1a0a 05be 9a49 8b3c 76ff 0dbe
00000230: def9 f13d 3682 09be d83a 9f3d 094b 53be
00000240: eb87 133f 5f72 68bd 40ac 6f3f 9c32 8fbe
00000250: 7534 76bf 0115 933e f72b a63e 5160 aa3d
00000260: 33d8 133f 0c4a 873f 9765 683f a4f8 c63b
00000270: 9282 323e 6f0e 5abf 6688 873f 2f46 913d
00000280: c3c5 643f b075 c9bf df35 463d 8f18 b0bf
00000290: 60d5 e2be 5e64 5e3c cd71 6bbe 286f ac3e
000002a0: 26b3 43bd e104 86be 3d13 acbd 1419 45bd
000002b0: bac6 8ebe f639 363e 6a7e 0f3e 16fe 28bf
000002c0: b0d6 03bd a5c4 133e f7c4 04bf d60a 52bd
000002d0: 6d4e 46be c305 a4bc 1638 cf3f 7498 c0bc
000002e0: 257b ce3e 2047 aabe 79e4 763f ccad 643f
000002f0: 54e6 1bbe 6ccd 673f 880f 533f cf2a 583d
00000300: 2d2e 5f3d b803 94b8 c780 053c c8a6 f8bb
00000310: 453b acbc 936c f53b d124 86bc 5bf7 06bd
00000320: fc79 33bc 9af8 e83b 51e3 6cbb 4775 1d38
00000330: 327f e83c 72dc abbc 8736 363d ab59 d6be
00000340: 0d4c 563d 4664 abbb 3285 8a3d 15cc 84bd
00000350: 446e 2f3d ea7c 0c3b dcae fa3c 52c3 d83c
00000360: eaf6 b8bc e870 113d 0e00 24bd d55b 8ebc
00000370: f76e 74bb 1c3e 68bc df1d c03c be5f 003d
00000380: 5503 453c de3b b03c b2a8 a9bd 2b69 d13b
00000390: a65c 91bc 91fa adbb 42a9 033e b0ca 23bc
000003a0: f250 823c 2358 22bd a374 2dbe 76a5 1abb
000003b0: e6b5 2fbd 1656 853d d981 183b 704e 34bc
000003c0: 4052 0ebd 6233 26bf a41e 303c c4dc 3b3c
000003d0: 4127 993d 87de e7bc dcff 67bc e9d7 a3bb
000003e0: 9fd2 563c fd14 0b3c 4355 143c fbd4 e4bb
000003f0: 3c4c ad3d 83da e13c 3de9 0fbd c09e d73b

net.4.bias f4 [198]
0.020254515 1.98896e-40 0.022433463 -4.8967e-41 0.600024 0.6066115 0.09163486 -0.023509506
0.043059196 0.11298579 0.15248339 0.16813314 0.15988313 0.13159782 0.09129241 0.044867765
-0.0020124412 -0.04595261 -0.0850765 -0.11860439 -0.14365277 -0.15878284 -0.1634126 -0.15726048
-0.14297694 -0.122611254 -0.09570804 -0.06398366 -0.03011546 0.0013605511 0.027518867 0.048279554
0.062218893 0.06812418 0.06140881 0.038254976 -0.009899185 -0.049620096 0.5008727 0.35100678
0.21052586 0.12155325 0.07065488 0.027628595 -0.022707315 -0.08775129 -0.15166505 -0.20451227
-0.23569284 -0.23815715 -0.21344876 -0.17383641 -0.12671466 -0.07429415 -0.022406777 0.027677359
0.07386496 0.10905614 0.121556215 0.12348949 0.13203128 0.16125746 0.21372755 0.28441578
0.36306077 0.43773398 0.49097762 0.50106573 0.43507743 0.34591 0.6354941 0.20461872
0.23469107 0.31517234 0.38413194 0.43917185 0.49018186 0.5448521 0.6050679 0.667387
0.7268275 0.77784204 0.815773 0.8376941 0.8436643 0.8349674 0.81453264 0.7862242
0.7544258 0.72272015 0.6932259 0.6686111 0.65114516 0.6409932 0.63770163 0.6404736
0.6499887 0.66653264 0.6938757 0.741803 0.8138624 0.89006394 0.09163486 -0.023509506
0.043059196 0.11298579 0.15248339 0.16813314 0.15988313 0.13159782 0.09129241 0.044867765
-0.0020124412 -0.04595261 -0.0850765 -0.11860439 -0.14365277 -0.15878284 -0.1634126 -0.15726048
-0.14297694 -0.122611254 -0.09570804 -0.06398366 -0.03011546 0.0013605511 0.027518867 0.048279554
0.062218893 0.06812418 0.06140881 0.038254976 -0.009899185 -0.049620096 0.5008727 0.35100678
0.21052586 0.12155325 0.07065488 0.027628595 -0.022707315 -0.08775129 -0.15166505 -0.20451227
-0.23569284 -0.23815715 -0.21344876 -0.17383641 -0.12671466 -0.07429415 -0.022406777 0.027677359
0.07386496 0.10905614 0.121556215 0.12348949 0.13203128 0.16125746 0.21372755 0.28441578
0.36306077 0.43773398 0.49097762 0.50106573 0.43507743 0.34591 -0.6354941 -0.20461872
-0.23469107 -0.31517234 -0.38413194 -0.43917185 -0.49018186 -0.5448521 -0.6050679 -0.667387
-0.7268275 -0.77784204 -0.815773 -0.8376941 -0.8436643 -0.8349674 -0.81453264 -0.7862242
-0.7544258 -0.72272015 -0.6932259 -0.6686111 -0.65114516 -0.6409932 -0.63770163 -0.6404736
-0.6499887 -0.66653264 -0.6938757 -0.741803 -0.8138624 -0.89006394
00000000: ccec a53c 712a 0200 62c6 b73c 8088 0080
00000010: 2c9b 193f e44a 1b3f 0fab bb3d 0297 c0bc
00000020: d75e 303d 1865 e73d 9b24 1c3e 182b 2c3e
00000030: 67b8 233e 94c1 063e 84f7 ba3d 43c7 373d
00000040: 29e3 03bb ce38 3cbd 973c aebd dce6 f2bd
00000050: b619 13be f897 22be a255 27be e408 21be
00000060: 8c68 12be 9c1b fbbd 9402 c4bd dd09 83bd
00000070: b2b4 f6bc 8554 b23a 3f6f e13c c8c0 453d
00000080: 3dd9 7e3d b184 8b3d ce87 7b3d 40b1 1c3d
00000090: 3130 22bc 713e 4bbd 3139 003f 29b7 b33e
000000a0: 1794 573e e9f0 f83d 81b3 903d 5d55 e23c
000000b0: b104 babc f3b6 b3bd 154e 1bbe aa6b 51be
000000c0: 7759 71be 78df 73be 5092 5abe 2c02 32be
000000d0: 7dc1 01be 8827 98bd 6b8e b7bc a1bb e23c
000000e0: 8346 973d d358 df3d 77f2 f83d 0fe8 fc3d
000000f0: 3533 073e ad20 253e 65db 5a3e f29e 913e
00000100: 1ae3 b93e ab1e e03e 6b61 fb3e d845 003f
00000110: 78c2 de3e 1e1b b13e beaf 223f 9287 513e
00000120: db52 703e 455e a13e f1ac c43e 22db e03e
00000130: 1ef9 fa3e 6d7b 0b3f bbe5 1a3f e0d9 2a3f
00000140: 5e11 3a3f a820 473f 80d6 503f 1f73 563f
00000150: 62fa 573f 6cc0 553f 3685 503f fd45 493f
00000160: 0d22 413f 3004 393f 4177 313f 192a 2b3f
00000170: 73b1 263f 2118 243f 6a40 233f 14f6 233f
00000180: a965 263f e2a1 2a3f d6a1 313f cde6 3d3f
00000190: 4959 503f 3bdb 633f 0fab bb3d 0297 c0bc
000001a0: d75e 303d 1865 e73d 9b24 1c3e 182b 2c3e
000001b0: 67b8 233e 94c1 063e 84f7 ba3d 43c7 373d
000001c0: 29e3 03bb ce38 3cbd 973c aebd dce6 f2bd
000001d0: b619 13be f897 22be a255 27be e408 21be
000001e0: 8c68 12be 9c1b fbbd 9402 c4bd dd09 83bd
000001f0: b2b4 f6bc 8554 b23a 3f6f e13c c8c0 453d
00000200: 3dd9 7e3d b184 8b3d ce87 7b3d 40b1 1c3d
00000210: 3130 22bc 713e 4bbd 3139 003f 29b7 b33e
00000220: 1794 573e e9f0 f83d 81b3 903d 5d55 e23c
00000230: b104 babc f3b6 b3bd 154e 1bbe aa6b 51be
00000240: 7759 71be 78df 73be 5092 5abe 2c02 32be
00000250: 7dc1 01be 8827 98bd 6b8e b7bc a1bb e23c
00000260: 8346 973d d358 df3d 77f2 f83d 0fe8 fc3d
00000270: 3533 073e ad20 253e 65db 5a3e f29e 913e
00000280: 1ae3 b93e ab1e e03e 6b61 fb3e d845 003f
00000290: 78c2 de3e 1e1b b13e beaf 22bf 9287 51be
000002a0: db52 70be 455e a1be f1ac c4be 22db e0be
000002b0: 1ef9 fabe 6d7b 0bbf bbe5 1abf e0d9 2abf
000002c0: 5e11 3abf a820 47bf 80d6 50bf 1f73 56bf
000002d0: 62fa 57bf 6cc0 55bf 3685 50bf fd45 49bf
000002e0: 0d22 41bf 3004 39bf 4177 31bf 192a 2bbf
000002f0: 73b1 26bf 2118 24bf 6a40 23bf 14f6 23bf
00000300: a965 26bf e2a1 2abf d6a1 31bf cde6 3dbf
00000310: 4959 50bf 3bdb 63bf

exp_avg f4 [48, 25]
-0.00521257 -0.0050211884 -0.0006822982 -0.0006742317 -0.00284995 -0.0027896848 -0.0028848916 -0.008286744
-4.299819e-05 -0.003992028 0.012475849 -0.00933847 0.018441927 -0.006610618 0.0086874375 -0.0012071631
0.023234716 -0.0053435564 -0.0070710904 -0.033452272 -0.0026852982 -0.0034496668 0.00374018 -0.02651956
-0.036553796 0.0049513355 0.0031262832 0.0053086 0.0015802528 0.0052570603 0.004426169 0.0046436507
0.0040851175 -0.004047238 -0.0021902258 -0.006457009 -0.00031737337 -0.0065681622 -0.0007071302 -0.0050242683
-0.0018772831 -0.0006390624 0.0031475078 0.008155657 0.022185955 0.0014936329 0.008482371 0.008859482
0.023057817 0.022254689 -0.002436575 -0.0021785435 -0.0023136272 -0.00034484646 -0.0031970125 0.00289222
-0.0045046145 0.006246669 0.0034411473 0.0033945343 0.006587004 0.0021170487 0.008743385 0.002513191
0.008370344 0.0063062594 0.002703113 0.0138876 -0.003985068 -0.009548416 -0.00044386982 -0.010348639
-0.00084509334 -0.0116306 -0.01235586 -0.004422166 -0.0012269905 -0.013269721 0.0070787556 -0.016154004
0.012950767 -0.0044051 0.007405643 0.013448993 0.01714145 0.0020043682 0.020658268 -0.0038710644
0.013640264 0.006220466 0.014110492 -0.02832131 -0.0153702535 0.008876908 -0.040071636 -0.0017899529
0.007784979 -0.08174001 -0.045950722 -0.02910247 -0.008341478 -0.0065251766 -0.010579903 0.00028076713
-0.012562132 -0.0049052425 -0.0060660737 -0.0022496455 0.004168028 0.0023152512 0.012282128 -0.004167315
0.018553456 -0.0055392473 0.010883116 -0.00076558965 0.013587323 -0.006914139 -0.026524821 -0.054354742
-0.003961254 -0.036949534 -0.019578641 -0.053940747 -0.04632657 0.006980017 0.0068607293 0.008244862
0.005293162 0.006524951 0.0065378193 0.0070678033 0.004916647 -0.004797811 -0.0027759355 -0.004512195
9.3645125e-05 -0.0064176 0.0005425127 -0.0035847945 -0.00032600862 0.0002793974 6.88508e-06 0.016218172
0.028662913 0.0021403125 0.03258179 0.012230357 0.023948736 0.02519205 0.0008849046 -0.00082072086
0.0030235376 -0.0042139925 0.002385887 -0.0034631996 0.0037055318 0.001979444 -3.7165966e-05 0.0012787267
0.0016468472 0.0033528544 0.0027077133 0.004693667 -0.00075982814 0.0042880117 0.0032228744 -0.0022095111
0.00033215422 0.01968787 0.00034005154 0.0044211186 0.00026208247 0.013223264 0.017266434 -0.0032004951
0.0018254804 -0.01106732 0.011104165 -0.014431924 0.00886832 -0.0046794713 0.005537356 0.002852122
0.0034863872 0.004358834 0.003944822 0.0036716235 0.003909154 0.005174598 0.0107024405 -0.00589757
0.004537657 -0.0037399794 -0.015220455 -0.00029355256 -0.0022938955 0.033597484 -0.016589021 -0.019373152
0.0007965836 -0.002253129 -0.0049964967 -0.013552636 0.0040244902 -0.015160418 -0.0057193516 -0.013182267
-0.0025824409 -0.002945568 -0.014971936 -0.0031575398 -0.0073670344 -0.02203523 -0.0027007367 -0.02876949
-0.0115205785 0.0109921 0.012695008 0.016711889 0.0009966685 -0.0243305 -0.054927632 0.03416295
0.007344488 0.0049275025 0.00749456 0.0038958322 0.0057847253 0.0033075921 0.003055117 -0.0008145327
0.0030353733 -0.010612486 -0.01151709 -0.0081383195 -0.015521802 -0.00038227456 -0.023496708 -0.0011785605
-0.021154435 0.0059931055 0.022096183 -0.00095850596 0.041300017 0.0027146565 0.004534006 0.03644606
0.039386794 0.029740768 -0.0019264371 -0.0028066856 -0.004977146 -0.0076077534 -0.003599565 -0.0091711385
00000000: 35ce aabb c888 a4bb 42dc 32ba ecbe 30ba
00000010: 3ac6 3abb 25d3 36bb 7310 3dbb 20c5 07bc
00000020: f458 34b8 8fcf 82bb 8167 4c3c 6200 19bc
00000030: 8613 973c e29d d8bb c155 0e3c ac39 9eba
00000040: bb56 be3c 0019 afbb 9bb4 e7bb 4005 09bd
00000050: d4fb 2fbb ce13 62bb cf1d 753b 8c3f d9bc
00000060: 6fb9 15bd d03e a23b 54e2 4c3b c4f3 ad3b
00000070: 7c20 cf3a 6b43 ac3b 6609 913b c429 983b
00000080: 73dc 853b b19e 84bb e489 0fbb 5195 d3bb
00000090: 2265 a6b9 bd39 d7bb b45e 39ba 9ea2 a4bb
000000a0: 2b0f f6ba c086 27ba 6b46 4e3b 4e9f 053c
000000b0: 52bf b53c 01c6 c33a a5f9 0a3c 5c27 113c
000000c0: bfe3 bc3c 774f b63c f2ae 1fbb e5c5 0ebb
000000d0: 39a0 17bb 82cc b4b9 f884 51bb 668b 3d3b
000000e0: 729b 93bb dcb0 cc3b df84 613b d676 5e3b
000000f0: cbd7 d73b 2fbe 0a3b 6a40 0f3c 59b4 243b
00000100: c423 093c bda4 ce3b b626 313b d188 633c
00000110: 2c95 82bb f670 1cbc 33b7 e8b9 578d 29bc
00000120: 4189 5dba 468e 3ebc 3c70 4abc d1e7 90bb
00000130: f8d2 a0ba 3e69 59bc e8f4 e73b 6755 84bc
00000140: 742f 543c a858 90bb 09ab f23b 2a59 5c3c
00000150: 3a6c 8c3c b85b 033b 873b a93c afb1 7dbb
00000160: 6a7b 5f3c 0dd5 cb3b b12f 673c 1802 e8bc
00000170: 84d3 7bbc 7370 113c 2822 24bd da9c eaba
00000180: 2319 ff3b 4e67 a7bd d336 3cbd 4e68 eebc
00000190: b2aa 08bc 26d1 d5bb 5457 2dbc ed33 9339
000001a0: 67d1 4dbc 28bc a0bb eac5 c6bb ca6e 13bb
000001b0: f493 883b 78bb 173b fb3a 493c f98d 88bb
000001c0: 6bfd 973c 9382 b5bb 194f 323c dab1 48ba
000001d0: 5d9d 5e3c 0090 e2bb 954a d9bc 14a3 5ebd
000001e0: 68cd 81bb 6558 17bd 6363 a0bc f9f0 5cbd
000001f0: eec0 3dbd a0b8 e43b f8cf e03b 7515 073c
00000200: 4372 ad3b 42cf d53b 343b d63b 0899 e73b
00000210: d31b a13b f536 9dbb 78ec 35bb 09db 93bb
00000220: 5863 c438 bb4a d2bb 6937 0e3a dfee 6abb
00000230: 23ec aab9 167c 9239 6306 e736 f9db 843c
00000240: 7cce ea3c 7c44 0c3b 7c74 053d d661 483c
00000250: 2430 c43c 8f5f ce3c f1f8 673a a525 57ba
00000260: 8b26 463b 8815 8abb 8b5c 1c3b d9f6 62bb
00000270: 82d8 723b 8fb9 013b a7e2 1bb8 f39a a73a
00000280: 06db d73a 90bb 5b3b e473 313b 55cd 993b
00000290: 342f 47ba 7382 8c3b dc36 533b 72cd 10bb
000002a0: fc24 ae39 7548 a13c f248 b239 08df 903b
000002b0: 1d68 8939 64a6 583c 5672 8d3c 66bf 51bb
000002c0: f544 ef3a b453 35bc 3eee 353c e073 6cbc
000002d0: 6e4c 113c 4056 99bb b572 b53b abea 3a3b
000002e0: df7b 643b 8dd4 8e3b 9143 813b 9f9f 703b
000002f0: 5c18 803b ad8f a93b 4a59 2f3c 6740 c1bb
00000300: a0b0 943b 711a 75bb 375f 79bc f5e7 99b9
00000310: 2e55 16bb 849d 093d b3e5 87bc 72b4 9ebc
00000320: d2d1 503a 3ba9 13bb a7b9 a3bb e00b 5ebc
00000330: dfdf 833b 6763 78bc 6669 bbbb 6ffa 57bc
00000340: 2b3e 29bb 6e0a 41bb da4c 75bc baee 4ebb
00000350: 2a67 f1bb 3a83 b4bc d8fe 30bb fead ebbc
00000360: cfc0 3cbc 3618 343c b9fe 4f3c 5fe7 883c
00000370: a5a2 823a c250 c7bc ccfb 60bd 73ee 0b3d
00000380: 08aa f03b e376 a13b ed94 f53b 3851 7f3b
00000390: cb8d bd3b 30c4 583b 5c38 483b 5d86 55ba
000003a0: 1ded 463b fedf 2dbc 2db2 3cbc 9656 05bc
000003b0: 284f 7ebc 066c c8b9 2b7c c0bc ee79 9aba
000003c0: 114c adbc d061 c43b 0e03 b53c 3f44 7bba
000003d0: 352a 293d 61e8 313b 0092 943b 7748 153d
000003e0: 0c54 213d e9a2 f33c 8180 fcba 5ff0 37bb
000003f0: 5417 a3bb 764a f9bb aee6 6bbb 8b42 16bc

exp_avg_sq f4 [48, 25]
0.00016088759 0.0005792117 0.0011404766 0.001306606 0.0016141532 0.001325791 0.0007348644 0.0010430512
0.00019150543 0.00066156994 0.0012359592 0.0013452636 0.0016457279 0.0013899643 0.0007929612 0.0011649823
0.0042425687 0.00090301636 0.003004304 0.006560691 2.6164438e-05 0.004700891 0.009904944 0.006529174
0.0066376207 0.0001207982 0.00019657872 0.0002481188 0.00036603448 0.00033035135 0.00041429626 0.00017718688
0.00030493457 0.000119566525 0.00020154721 0.00025537898 0.0003739159 0.00035203676 0.00043370732 0.0001956031
0.00032517535 0.0005390912 0.0006578273 0.00057506026 0.0024564574 6.3087214e-06 0.001247469 0.0026071894
0.0022577194 0.0022583425 0.0003692112 0.00063213345 0.0008086204 0.001064093 0.0008721738 0.0012573026
0.0005725094 0.0010373357 0.00027896673 0.00032837113 0.0003235001 0.00058815593 0.000540119 0.0007304126
0.0003079216 0.000553383 0.0009098837 0.002172 0.00047913514 0.0038583716 6.423577e-06 0.001582042
0.0051427055 0.003473958 0.0034245432 0.0007188288 0.0015153472 0.002498962 0.0030662562 0.0036334128
0.0028640646 0.001521805 0.0019704688 0.0009654705 0.00217619 0.0032419432 0.0039862413 0.003941904
0.0042601936 0.002255356 0.0036068382 0.008165118 0.0039627366 0.004832408 0.01583579 3.8972383e-05
0.014729075 0.022097928 0.014948562 0.015361025 0.00032068437 0.0003073736 0.00038697018 0.0005966179
0.0007256173 0.00059667474 0.00029147242 0.00041333633 0.00039798635 0.0006151758 0.0011078201 0.000993845
0.0011925714 0.0011292383 0.00066112156 0.000958374 0.0014865407 0.0014168669 0.0017939361 0.008375343
3.401062e-05 0.0028178727 0.009867907 0.0078031663 0.0075374083 0.00016667064 0.00025917494 0.00029256238
0.00044203986 0.00038497552 0.0005342354 0.00024489695 0.00041982072 0.00014870023 0.00020884603 0.0002564362
0.0003604864 0.00035629357 0.00045372898 0.00022000131 0.00037576133 0.00045828905 0.0011186518 0.00039891858
0.0026182577 7.5717558e-06 0.001828509 0.0037642773 0.0023305172 0.0023954439 0.0002781941 0.0003905794
0.0005431419 0.0007649356 0.000849991 0.00087577075 0.00041780458 0.00068465056 0.0003189634 0.00053536677
0.00088509225 0.0009344085 0.001101858 0.0010971398 0.0006317327 0.0009364547 0.0015700147 0.0019078031
0.0007377335 0.008057671 1.1321602e-05 0.004262719 0.010249495 0.006704315 0.0072660004 0.00025537531
0.00041772364 0.0005678266 0.00074552087 0.00074060145 0.00084630476 0.00035860488 0.0006207883 0.00028230215
0.0004783153 0.00058945146 0.0008809538 0.00079194957 0.0011301289 0.0004831268 0.00097181 0.0012313052
0.0012949208 0.0008485404 0.0060401615 1.2735243e-05 0.0027230117 0.007288541 0.005343141 0.005946529
0.0010107469 0.0021900767 0.0037285092 0.0041728118 0.0047802925 0.0043656905 0.0022645225 0.0033016372
0.0010188604 0.0022739328 0.003257443 0.004544317 0.0043049213 0.00494981 0.0021959313 0.0041512228
0.010390599 0.0048097735 0.007969624 0.021721102 3.7247897e-05 0.008963746 0.026843281 0.019764794
0.022266353 0.00039317601 0.00074372697 0.00097465067 0.0014493117 0.0013640175 0.0015428851 0.0006747582
0.0011035068 0.0004057961 0.00077439647 0.0010971689 0.0014150199 0.0014108297 0.001500793 0.0007346722
0.0011834089 0.002454353 0.0024814964 0.0019597937 0.010282681 3.3631197e-05 0.0065475916 0.015490464
0.009375062 0.009480053 0.0012622386 0.001758551 0.0020977503 0.0029302798 0.0028227342 0.003614304
00000000: efb3 2839 3dd6 173a 0b7c 953a 6c42 ab3a
00000010: fe91 d33a 2ac6 ad3a eaa3 403a feb6 883a
00000020: d9ce 4839 356d 2d3a e9ff a13a 8e53 b03a
00000030: 77b5 d73a 762f b63a bade 4f3a 52b2 983a
00000040: 3f05 8b3b 67b8 6c3a dbe3 443b 11fb d63b
00000050: b47b db37 ef09 9a3b 5948 223c aef2 d53b
00000060: 6680 d93b 0a55 fd38 b320 4e39 f115 8239
00000070: 51e8 bf39 0233 ad39 e735 d939 3ecb 3939
00000080: a0df 9f39 cabf fa38 6b56 5339 63e4 8539
00000090: 240a c439 9391 b839 3663 e339 cf1a 4d39
000000a0: 4c7c aa39 cc51 0d3a 0b72 2c3a a4bf 163a
000000b0: 84fc 203b 81af d336 1d82 a33a 61dd 2a3b
000000c0: 3ff6 133b b300 143b b092 c139 c2b5 253a
000000d0: 99f9 533a 0979 8b3a 98a2 643a 13cc a43a
000000e0: 7514 163a 36f7 873a 4842 9239 3a29 ac39
000000f0: 739b a939 7a2e 1a3a c696 0d3a 2979 3f3a
00000100: 8a70 a139 e810 113a 4385 6e3a 1d58 0e3b
00000110: 6e34 fb39 bcdc 7c3b 1b8a d736 855c cf3a
00000120: 2484 a83b 58ab 633b 4d6e 603b c96f 3c3a
00000130: 9d9e c63a a0c5 233b 3ef3 483b 8d1e 6e3b
00000140: 08b3 3b3b 4d77 c73a fb22 013b a117 7d3a
00000150: 699e 0e3b c876 543b 049f 823b 162b 813b
00000160: 1899 8b3b 98ce 133b b460 6c3b fdc6 053c
00000170: d8d9 813b 2d59 9e3b 0fba 813c 4776 2338
00000180: 3852 713c b706 b53c d0ea 743c cfac 7b3c
00000190: 8721 a839 fc26 a139 42e2 ca39 5966 1c3a
000001a0: 5a37 3e3a 2a6a 1c3a c4d0 9839 10b5 d839
000001b0: d3a8 d039 c043 213a 4634 913a e843 823a
000001c0: 0e50 9c3a f302 943a 1e4f 2d3a 643b 7b3a
000001d0: 07d8 c23a 2ab6 b93a 8222 eb3a bc38 093c
000001e0: a0a6 0e38 0fac 383b 00ad 213c b4b1 ff3b
000001f0: 5dfc f63b 4fc4 2e39 dfe1 8739 0f63 9939
00000200: 96c1 e739 8ad6 c939 ee0b 0c3a 8365 8039
00000210: 621b dc39 6aec 1b39 aefd 5a39 4972 8639
00000220: aaff bc39 eacc ba39 79e2 ed39 27b0 6639
00000230: d501 c539 8446 f039 ba9f 923a f225 d139
00000240: 1397 2b3b e310 fe36 95aa ef3a 18b2 763b
00000250: 97bb 183b e1fc 1c3b 94da 9139 aec6 cc39
00000260: a361 0e3a f685 483a eed1 5e3a fb93 653a
00000270: c80c db39 1f7a 333a 8b3a a739 db57 0c3a
00000280: 8905 683a 18f3 743a 386c 903a e7cd 8f3a
00000290: dd9a 253a 697c 753a f4c8 cd3a 400f fa3a
000002a0: 7564 413a 5204 043c e9f1 3d37 47ae 8b3b
000002b0: 7fed 273c dfaf db3b a117 ee3b e5e3 8539
000002c0: eb01 db39 33da 143a 0f6f 433a ec24 423a
000002d0: 8dda 5d3a 2203 bc39 66bc 223a f401 9439
000002e0: 65c6 fa39 6b85 1a3a cfef 663a d69a 4f3a
000002f0: d520 943a 2e4c fd39 11c1 7e3a bf63 a13a
00000300: 55ba a93a 9570 5e3a 8cec c53b 74a9 5537
00000310: 8e74 323b b7d4 ee3b 8415 af3b 1adb c23b
00000320: 0a7b 843a 6487 0f3b 015a 743b 15bc 883b
00000330: 00a4 9c3b 110e 8f3b 6268 143b 4860 583b
00000340: 488b 853a 4306 153b d37a 553b 7ee8 943b
00000350: 4c10 8d3b 0432 a23b 9de9 0f3b fb06 883b
00000360: 553d 2a3c 4e9b 9d3b 0793 023c 74f0 b13c
00000370: a03a 1c38 addc 123c 71e6 db3c c7e9 a13c
00000380: ed67 b63c 3123 ce39 acf6 423a b37f 7f3a
00000390: d5f6 bd3a d5c8 b23a a23a ca3a 42e2 303a
000003a0: 8ba3 903a 08c1 d439 de00 4b3a e1ce 8f3a
000003b0: 3078 b93a 97eb b83a 42b6 c43a 0497 403a
000003c0: 9d1c 9b3a 36d9 203b 9aa0 223b e26f 003b
000003d0: b178 283c 390f 0d38 2e8d d63b b7cb 7d3c
000003e0: dc99 193c 3952 1b3c b371 a53a 2e7f e63a
000003f0: 697a 093b f009 403b 9ffd 383b f5dd 6c3b

exp_avg f4 [48]
-0.034828324 0.022952002 -0.009785712 -0.040993143 -0.05637824 0.029757947 0.019869337 -0.015361659
0.017194377 0.042691715 -0.0001406396 -0.054095287 0.048754 0.0071814167 0.023803152 -0.046378434
-0.0017682802 0.002578945 0.020585002 -0.01844593 -0.02601248 0.018965216 -0.0001733681 -0.016568331
-6.884078e-05 0.011258889 -0.024417633 0.0014695494 0.080731444 0.028935542 -0.11605649 0.010754841
0.02535391 -0.0448083 0.01067963 0.0034274985 -0.0051757274 0.0018208579 0.065719426 0.024780955
0.0073053804 -0.0054201237 -0.032801047 -0.0144547345 -0.06250987 0.0048781307 -0.01292421 0.029632434
00000000: 25a8 0ebd d605 bc3c 4054 20bc 6de8 27bd
00000010: dfec 66bd f0c6 f33c 05c5 a23c 78af 7bbc
00000020: 39db 8c3c 82dd 2e3d a878 13b9 0593 5dbd
00000030: 46b2 473d 1752 eb3b d4fe c23c 50f7 3dbd
00000040: a3c5 e7ba 8403 293b e1a1 a83c eb1b 97bc
00000050: 2018 d5bc f15c 9b3c 25ca 35b9 4fba 87bc
00000060: 9d5e 90b8 3477 383c 7d07 c8bc e59d c03a
00000070: 8756 a53d 3b0a ed3c 06af edbd 1335 303c
00000080: 01b3 cf3c e888 37bd 9df9 2e3c e29f 603b
00000090: 2699 a9bb daa9 ee3a e897 863d 6e01 cb3c
000000a0: f961 ef3b 4b9b b1bb 645a 06bd 8dd3 6cbc
000000b0: 2d05 80bd bad8 9f3b 11c0 53bc b8bf f23c

exp_avg_sq f4 [48]
0.0069162757 0.0025515498 0.0039834697 0.016442997 0.008858145 0.0027240235 0.008247357 0.006261345
0.022385001 0.010764974 0.030311754 0.022236917 0.017670846 0.0013194492 0.014524325 0.011629176
0.008292091 0.008842053 0.00659797 0.034530703 0.025899448 0.026346521 0.0013267848 0.007883667
9.430724e-05 0.001957348 0.009752268 0.02276618 0.03267923 0.008242176 0.086197354 0.01206965
0.0054976875 0.017230675 0.0006919852 0.0052722446 0.00442433 0.024374573 0.06730132 0.0187359
0.006814782 0.0069817435 0.038482133 0.0022884728 0.021549925 0.008600295 0.0046527153 0.009666225
00000000: eda1 e23b e737 273b c487 823b 77b3 863c
00000010: c121 113c 8885 323b ec1f 073c f82b cd3b
00000020: c060 b73c 935f 303c 5b50 f83c 322a b63c
00000030: 73c2 903c 5ef1 ac3a 6ff7 6d3c 4d88 3e3c
00000040: 8ddb 073c 42de 103c c933 d83b 1170 0d3d
00000050: 142b d43c a9d4 d73c 83e7 ad3a 7f2a 013c
00000060: d0c6 c538 da46 003b fac7 1f3c 2480 ba3c
00000070: a8da 053d 310a 073c 3d88 b03d c8bf 453c
00000080: f225 b43b 5827 8d3c 5766 353a cbc2 ac3b
00000090: f8f9 903b 2fad c73c 46d5 893d 087c 993c
000000a0: 894e df3b 1cc7 e43b 719f 1d3d 34fa 153b
000000b0: 7889 b03c 40e8 0c3c ce75 983b 165f 1e3c

exp_avg f4 [48, 48]
0.000397221 -0.04294405 0.0063497256 -0.009203593 -0.0059452914 -0.0069990004 -0.022374075 -0.017487999
-0.00748391 -0.036530748 -0.0036812895 -0.057610396 0.0026342506 0.0023626073 -0.0316402 -0.0063385875
-0.0010610534 -0.0017397468 -0.0074935337 -0.02674345 -0.020821042 -0.030636974 -0.0004177667 -0.0018953576
0.00012487228 -0.00034014112 -0.0135519765 -0.012932091 0.0033137046 -0.024840493 -0.027596356 -0.027412593
-0.021732548 0.0013108065 0.0011459461 -0.046697702 -0.024896072 -0.008751142 -0.011012642 -0.011401245
2.4335757e-05 -0.004884506 -0.04732055 -0.048391644 0.00046153608 -0.033384405 -0.00059216033 0.0005068144
-0.0037187776 -0.019914543 0.0037771184 -0.0014330389 -0.0035186629 0.010561645 -0.0015404129 0.010523343
-0.0005210624 0.0069821267 4.8627026e-05 -0.0017185248 0.0021767484 -0.001895979 -0.006727715 0.001614258
-0.00940735 0.0016855174 -0.003333038 0.002653151 -0.0024769641 -0.00075503305 0.0018552988 -0.009992533
1.8722798e-05 -0.0035472547 -0.0050172764 -0.0100145815 0.005851601 -0.0051957467 -0.009992699 0.00010624548
-0.0035011116 -0.00036630215 -0.0012467948 -0.0029884947 -0.002426618 -0.0034906443 0.0039578867 0.0028529789
-0.0033635467 0.0026192297 -0.01462188 -0.0068742484 -0.0083910525 -0.003985185 0.0016140705 0.003674587
-0.0129564805 0.004018109 0.012089674 -0.004389335 -0.003408064 0.008525451 -0.030713545 -0.0034385603
-0.021384766 0.034681506 -0.0060454104 -0.046295512 0.0028783092 -0.0008679104 -0.0122688655 0.01567742
-0.00861995 0.008888713 -0.00021871827 -0.014811047 -0.044727474 -0.016417695 0.0113029955 0.020042086
0.0007581038 0.008906956 0.0074780304 -0.012382358 0.0068225143 0.036207426 -0.04083483 0.01821011
0.020141765 0.002415922 -0.010458433 -0.020936884 0.004672068 0.014307699 -0.017614363 -0.014204982
0.007904476 -0.009867308 -0.0184257 -0.0060680723 -0.00033420837 -0.001909153 0.029493779 0.0012543831
-0.0009858045 0.09614568 0.00421975 -0.0017820507 0.0011793014 0.02382335 -0.0013274257 0.00414626
0.05948927 0.059307538 0.044683512 0.015462608 0.0001341434 -0.0021305096 0.0006592686 0.03612608
0.009971153 0.029056773 0.0035783509 0.029132666 -0.0026723626 0.06545688 0.00046930762 0.04475983
-9.0918846e-05 0.0066488003 0.05379046 0.057934146 0.010594495 0.060983434 0.009612885 -0.00043634663
0.034722723 -0.0030403205 0.0012749804 0.0058066524 0.031188572 0.09244082 0.018158685 0.09705187
0.031580888 0.02916056 0.12085053 0.00031262983 0.001276823 -0.0014601917 0.03427097 0.03224992
0.009440463 0.095093 -0.016348137 0.013567575 -0.016803253 0.012878603 0.032172114 -0.0071847816
-0.021867227 -0.0152863925 -0.0058849975 0.056038447 -0.008263729 0.0015949162 0.006636878 -0.003429215
0.034166917 -0.05032053 0.020059494 0.005372638 0.0382468 -0.041397814 -0.008698861 0.027939616
-0.00061479124 0.0006754137 -0.041561566 -0.02400937 -0.012813761 -0.022904282 0.062761426 -0.01744556
0.0071334788 -0.0046573826 0.0042702523 0.031914778 -0.033159085 0.023479868 0.003753964 0.010236845
0.019256461 -0.024107795 0.009344309 0.006815599 0.04203326 0.009306316 9.316789e-05 0.0060308916
0.003297363 0.023153689 -0.0043448545 -0.0008447676 -0.004461249 -0.01385497 0.0013381791 -0.005099309
-0.008763808 -0.01579136 -0.005002483 -0.0014677346 -0.00052071415 0.0027281593 0.0028681573 -0.0043858723
00000000: 1a42 d039 1ae6 2fbd 5c11 d03b abca 16bc
00000010: b8d0 c2bb df57 e5bb d649 b7bc fe42 8fbc
00000020: 963b f5bb 44a1 15bd ca41 71bb e1f8 6bbd
00000030: 64a3 2c3b f9d5 1a3b 2899 01bd edb3 cfbb
00000040: 0b13 8bba 3708 e4ba 518c f5bb 1415 dbbc
00000050: e490 aabc 64fa fabc b307 dbb9 a66d f8ba
00000060: 26f0 0239 f854 b2b9 1c09 5ebc 1fe1 53bc
00000070: bd2a 593b 4a7e cbbc c111 e2bc 6090 e0bc
00000080: 7508 b2bc 5ecf ab3a 9233 963a 1746 3fbd
00000090: d9f2 cbbc f360 0fbc 5e6e 34bc 4acc 3abc
000000a0: a424 cc37 350e a0bb 31d3 41bd 5136 46bd
000000b0: 53fa f139 16be 08bd 353b 1bba bddb 043a
000000c0: bcb6 73bb d323 a3bc 8889 773b ced4 bbba
000000d0: 5e99 66bb c00a 2d3c aee7 c9ba 1a6a 2c3c
000000e0: e897 08ba 53ca e43b dff4 4b38 2040 e1ba
000000f0: c7a7 0e3b 8082 f8ba 2a74 dcbb 8395 d33a
00000100: 4921 1abc 94ec dc3a 196f 5abb 7de0 2d3b
00000110: 9054 22bb 69ed 45ba 7f2d f33a b9b7 23bc
00000120: e70e 9d37 0f79 68bb f767 a4bb 3314 24bc
00000130: c9be bf3b 1541 aabb 6bb8 23bc 1cd0 de38
00000140: e872 65bb 3e0c c0b9 7e6b a3ba 9fda 43bb
00000150: e507 1fbb 4bc3 64bb 29b1 813b 0bf9 3a3b
00000160: f36e 5cbb 62a7 2b3b 9c90 6fbc 6041 e1bb
00000170: a07a 09bc 2896 82bb 388f d33a 57d1 703b
00000180: 6b47 54bc 57aa 833b c513 463c 69d4 8fbb
00000190: d359 5fbb 55ae 0b3c f99a fbbc 7859 61bb
000001a0: 1b2f afbc 320e 0e3d 9418 c6bb 5da0 3dbd
000001b0: 04a2 3c3b 7b84 63ba 5a03 49bc ef6d 803c
000001c0: b13a 0dbc f7a1 113c bd57 65b9 09aa 72bc
000001d0: 2834 37bd 677e 86bc 3330 393c 4d2f a43c
000001e0: 7cbb 463a 7bee 113c 440a f53b 60df 4abc
000001f0: 668f df3b 3d4e 143d 6c42 27bd 5e2d 953c
00000200: 5800 a53c 7254 1e3b d959 2bbc d483 abbc
00000210: 2618 993b d76a 6a3c ff4b 90bc 03bc 68bc
00000220: c681 013c 7daa 21bc 7ef1 96bc aed6 c6bb
00000230: b038 afb9 8b3c faba f09c f13c 1d6a a43a
00000240: 1c36 81ba 07e8 c43d d445 8a3b b393 e9ba
00000250: ca92 9a3a 3029 c33c 04fd adba 5add 873b
00000260: 05ab 733d 76ec 723d 0f06 373d e156 7d3c
00000270: d8a8 0c39 05a0 0bbb c4d2 2c3a f1f8 133d
00000280: 0c5e 233c 7808 ee3c c482 6a3b a1a7 ee3c
00000290: ce22 2fbb 420e 863d 670d f639 1556 373d
000002a0: afab beb8 2ede d93b 6353 5c3d 5b4c 6d3d
000002b0: 8894 2d3c c4c9 793d 5d7f 1d3c 74c5 e4b9
000002c0: 6a39 0e3d 1d40 47bb 3e1d a73a bb45 be3b
000002d0: 2d7f ff3c 9d51 bd3d 86c1 943c 21c3 c63d
000002e0: f65a 013d 20e2 ee3c 7c80 f73d 77e8 a339
000002f0: 125b a73a e763 bfba b75f 0c3d 7e18 043d
00000300: 2cac 1a3c 1ec0 c23d 87ec 85bc 894a 5e3c
00000310: faa6 89bc c700 533c e8c6 033d 516e ebbb
00000320: e622 b3bc c773 7abc f0d6 c0bb 9288 653d
00000330: 9764 07bc 820c d13a 2b7a d93b aebc 60bb
00000340: 9cf2 0b3d e61c 4ebd cf53 a43c f40c b03b
00000350: ada8 1c3d c190 29bd ab85 0ebc 9fe1 e43c
00000360: f129 21ba 3f0e 313a 763c 2abd 4caf c4bc
00000370: cff0 51bc c3a1 bbbc 1089 803d fee9 8ebc
00000380: f5bf e93b f59c 98bb 79ed 8b3b 12b9 023d
00000390: d2d1 07bd da58 c03c 1105 763b 71b8 273c
000003a0: babf 9d3c b67d c5bc df18 193c 6355 df3b
000003b0: 112b 2c3d 8579 183c 2163 c338 c99e c53b
000003c0: 9218 583b ceac bd3c 485f 8ebb 6573 5dba
000003d0: ab2f 92bb f5ff 62bc d765 af3a 1b18 a7bb
000003e0: 1396 0fbc e25c 81bc deeb a3bb 0061 c0ba
000003f0: 8980 08ba ebca 323b b2f7 3b3b 5db7 8fbb
