training/gen2_architecture/nn-xsmall.pth (torch, 197129 bytes, 24 tensors)

net.0.weight f4 [48, 25]
00000000: ddee 0abe 0932 953d 8961 c43d f5d3 3b3b
00000010: 28b6 8fbd 9a58 23bd 52de a13d a8cf 663e
00000020: 35e5 c13e 7aa3 de3e aa1a 00bf c268 1fbf
00000030: f5f0 11bf 0aca 7abf 4430 adbf aa28 14bf
00000040: 2158 543e ac7e 47be 7db0 f33e f635 3c3f
00000050: 06cb 55bf 5db9 993c 4277 233c ecdb 0abd
00000060: 3a40 5bbd 9f56 323f 5d67 e83e 698c 893e
00000070: aa9a 6e3e 41cd 173e c9e5 16bc b29a e1bd
00000080: 601b 793d 968e 44c0 02f2 573f 0e14 d2bf
00000090: 39a9 03bd 2494 1bbe 17f3 a1be e6a7 83bd
000000a0: dd36 da3d 20ee 4940 3811 cd3c f5f8 e13d
000000b0: 34b0 183f 04fb ebbe 6c18 07c0 c4ca 923e
000000c0: f4d9 ffbd 5e64 193b f54b f03d fa64 c7bc
000000d0: 6a7c 38bd a9f5 d4bb 0b95 123d cb39 bcbb
000000e0: e483 c3bd 6eaa 3dbf 099a 193e a6c2 943e
000000f0: 800b 8f3e ce2f 7c3e 5349 e33e 7886 103f
00000100: dc20 bb3d 42b4 febf 9991 2e3d a4c0 0d3f
00000110: 570d 193f b9d7 063f 093e 13c0 ab4f da3c
00000120: 243d 1e3b e91e bc3c f31e 123d e96d b83b
00000130: c0c7 f93d fd59 813d 356c c6ba 9885 223d
00000140: 77ed be3d e51e ac3d 51fa 4c3d c936 fcbd
00000150: 3ffd 47bd 9f81 a0bd 77c6 43bd 0d0d ddbd
00000160: c579 2cbe bd6e 96bd b97e 503e 4395 31bc
00000170: cff0 8dc1 642e 573d 508e ef3e 683e 77bd
00000180: 9ace 573e 7d55 883c 7b4a f5bc 165b 3e38
00000190: 0c88 3e3f 6363 87bd e172 a2be a536 34be
000001a0: 05db 153d a161 c43d 5663 8b3d 8461 043d
000001b0: fa4c 46c0 7fb8 023e 8a6f 2940 ab37 1640
000001c0: a367 5f3f a94c ebbd ab63 88be 11ed 21be
000001d0: 0118 12bf c9cf 48bd 11f0 31c0 2993 a13e
000001e0: fc29 d1bf fc00 db3c f8cf 3e3c 3cfa 8c3d
000001f0: 58e2 eebd 2774 293f b5cb cebd 81d2 42be
00000200: 11b1 fbbd 497a 09be 44cf 47be 65d7 2dbe
00000210: c0da c0bd 779a cfbf b790 6e3f 921e ea3f
00000220: b60a 2cbf a8b0 e3bf de74 71bf 8fdf 16be
00000230: 091b 983d 5959 8bbe 8267 843c 80be 1940
00000240: 311c 8b3f 1d49 9dbf 5b04 ca3f a754 0ebe
00000250: a63a 9bbb 8b4c ebbd 57a6 c640 ee8c 513f
00000260: 1031 593f b1a4 563e 84f7 24be fb3d febd
00000270: 5ace 213e 680a 103f bf3a 4140 c58c 8ebe
00000280: 968b 173b d4ba 253e 965d d03d 16f9 bdbd
00000290: 0bcf 02be 4d5f 213e 997b 033f 8bae 5d3c
000002a0: 0b5d ce3f 23b6 1a3f a019 37bf 271a 13bf
000002b0: f139 143e c2c8 303d 72b8 503c f5cb 1dbf
000002c0: 9b88 66be 8696 4ebe b118 cdbd 708b 153d
000002d0: 7b76 c13d 723c 5d3d cce6 0abd d21a 9c3e
000002e0: 9877 1d3f bf86 213f 37b1 333f bbfe 343f
000002f0: a9c8 043f c5ac 1f3e 97b7 97be a393 1d3d
00000300: d225 f93d 36da 8540 f347 cb3f 3639 19be
00000310: a4ca a83f bd1a 27ba e833 9abc 68eb 4c3d
00000320: 1133 f4be e911 383f 4383 083f 5883 2d3e
00000330: eb4a ed3d faa8 813e a832 883e 1254 153e
00000340: 286e 0fc0 d8bb d0bd 097b 32be 3649 66be
00000350: 66ca 97be 6d19 5abe 365f 0a3d b84a 053e
00000360: 28b5 56bd 28c7 15bd f3c3 e4bf 4427 b53f
00000370: 1b30 a03f 4d28 fa3e c04a 92be a4b9 92bc
00000380: 2641 673b aae1 023f 14f0 153e 1bc5 2c3c
00000390: 730d 923d 7eaa cc3d 0638 803d 9941 b3bd
000003a0: 80e0 8bbe c88e f73e cf78 2d3f 70ab f53d
000003b0: 747e d7be 9e87 9abe 660d 103d a053 9d3e
000003c0: 69e3 5a3f 5456 aa3e 86f5 193e 4a1c c33f
000003d0: bd0d f23e 21b5 de3e c9fd 1640 72b9 81bd
000003e0: e225 523d d58e d0bd b68f 8fbe 71ab 8dbe
000003f0: 29a9 58bd 54fc a6bc f2c4 cdbc 4ca6 6f3d
-0.13567682 0.07284934 0.09588916 0.0028660272 -0.070171654 -0.03987942 0.07903732 0.22540152
0.37870184 0.43484098 -0.50040686 -0.6226922 -0.57008296 -0.9796454 -1.3530354 -0.5787455
0.20736744 -0.19481915 0.47595587 0.7351984 -0.83512914 0.018765146 0.009977164 -0.03390114
-0.053528048 0.69663423 0.4539136 0.26864937 0.23301187 0.14824392 -0.0092100585 -0.11015834
0.060817122 -3.0712028 0.8435365 -1.641237 -0.032143805 -0.1519323 -0.31630775 -0.064285085
0.106549956 3.155159 0.025032625 0.11033813 0.59643865 -0.46089947 -2.1108656 0.28670323
-0.12492743 0.002340577 0.11733238 -0.024340142 -0.045040525 -0.0064990115 0.03578667 -0.005744194
-0.095466405 -0.7408818 0.15000166 0.29054755 0.2793846 0.24627611 0.4439188 0.56455183
0.09137127 -1.989876 0.04261932 0.5537207 0.5978598 0.52672917 -2.3006613 0.026649317
0.002414533 0.022963958 0.035674047 0.0056283367 0.121963024 0.06315992 -0.0015138449 0.039678186
0.093226366 0.0840433 0.050043408 -0.12315137 -0.0488255 -0.07837223 -0.047796693 -0.10793505
-0.16843326 -0.073453404 0.20360841 -0.010838809 -17.742582 0.052534476 0.46788263 -0.06036225
0.21074906 0.016642326 -0.029942742 4.538436e-05 0.7442634 -0.066107534 -0.3172827 -0.1759897
0.036585826 0.09588934 0.06806056 0.03231956 -3.0984483 0.12765692 2.6474328 2.3471477
0.8726751 -0.11489231 -0.2663854 -0.1581309 -0.5706788 -0.049026284 -2.7802775 0.31557587
-1.6340938 0.026733868 0.011646263 0.06883666 -0.116642654 0.6619286 -0.10097448 -0.19025613
-0.12289632 -0.13425554 -0.1951266 -0.16976698 -0.09416723 -1.6219014 0.9318957 1.8290579
-0.67203844 -1.7788286 -0.9431895 -0.14733718 0.074270315 -0.27216604 0.016162638 2.4022522
1.0867978 -1.2287937 1.5782579 -0.1389948 -0.004737216 -0.11489209 6.207805 0.81855667
0.8484049 0.20961262 -0.16110045 -0.124141656 0.15801373 0.5626588 3.0192106 -0.27841774
0.0023123971 0.1618455 0.101741 -0.09276025 -0.12774293 0.1575901 0.5136047 0.013530384
1.6122144 0.6043417 -0.71523476 -0.5746178 0.14475228 0.043160208 0.012739288 -0.6163934
-0.22513048 -0.20174608 -0.10014475 0.03650993 0.094464265 0.054012723 -0.03391151 0.30489212
0.6151061 0.6309623 0.70192283 0.7070119 0.51868683 0.1559325 -0.29632255 0.038470875
0.12165417 4.182887 1.5881332 -0.1496323 1.3186841 -0.0006374529 -0.018823579 0.05002919
-0.4769521 0.7190233 0.5332529 0.16944635 0.11586555 0.2532423 0.26601148 0.14582852
-2.2410984 -0.10192078 -0.17429747 -0.22488865 -0.29646605 -0.21298762 0.033782206 0.13016784
-0.052418858 -0.036566883 -1.7872299 1.4152608 1.2514681 0.48858872 -0.28572655 -0.017910786
0.0035286634 0.51125586 0.14642364 0.0105450405 0.071314715 0.09993456 0.062606856 -0.08752746
-0.27319717 0.4835112 0.67762464 0.1199559 -0.42088664 -0.30181593 0.035169028 0.30727863
0.8550325 0.33268988 0.15035066 1.5243008 0.47276106 0.43497565 2.3592398 -0.06334199
0.05130566 -0.10183493 -0.2803933 -0.27669862 -0.0528957 -0.020383991 -0.025118325 0.058508202

net.0.bias f4 [48]
00000000: 7db7 043f 1a98 c13e 305a b9be 4b84 2a3f
00000010: 05bf 043e 57d9 2a3f b70d c23e b4f0 b13f
00000020: 875b c13f 15cd e93e 3e45 8e3e 5521 b63f
00000030: d3eb ac3e 814b 44bf a9a2 c03d 6d8a 593d
00000040: cd3a 2cbf 9925 0a3e 46ec 063e 8c25 c33f
00000050: 3f27 1d3f 94a0 e43e 2ffb d5be 8880 a7be
00000060: aed3 093e 6b81 1dbf 9823 cb3e 8ef7 0140
00000070: 90a4 883e 5ab8 8dbe c252 19bf 8363 873d
00000080: 3ae1 7a3f 199c f73f 5d99 433e f698 ce3d
00000090: 5cca d93e 17d0 8f3e 28cc b9be 02c4 173f
000000a0: b443 c2bf e261 f63e 5a91 4d3f 2269 3c3d
000000b0: 6e9e 4a3e 619c a43e 3000 2bbf cbe1 a13f
0.5184248 0.37811357 -0.3620162 0.66608113 0.12963493 0.66737884 0.3790109 1.3901582
1.5106057 0.45664278 0.27787203 1.4228922 0.3377367 -0.7667771 0.09406025 0.05311053
-0.6727722 0.13490905 0.13176069 1.5245833 0.6138801 0.4465376 -0.417932 -0.3271525
0.13459656 -0.615256 0.39675593 2.0307345 0.2668805 -0.27679712 -0.59891903 0.06610777
0.9799992 1.9344512 0.19101472 0.10087769 0.425372 0.28088447 -0.3628857 0.5928346
-1.5176911 0.48121554 0.80299914 0.0459987 0.19786999 0.32150558 -0.6679716 1.2647032

net.2.weight f4 [48, 48]
00000000: b9e5 adbe 53d0 6ebd 232f 39bd 6e3b 4c3d
00000010: 7303 0c3f 13db a2be df1f cebe 3ca9 4abf
00000020: 5439 0abf f2c1 333c 1980 f63d 37a0 62bd
00000030: ed51 743e 8596 7dbe b918 96be 8f50 483e
00000040: d68f 5c3f 8c40 fe3e b228 16be 7092 133f
00000050: c42e c2be cb88 063e 2c2b 66be 85bb c9be
00000060: a7d4 8fbe 497e a4bf bac7 723f c323 c6be
00000070: 6139 94bf 53cb 063d 3336 1dbf 1a9c 733e
00000080: 6857 833e 54b9 203e 497f 403e ed97 1d3e
00000090: 2317 0abf 415d 37be a232 773f 2c1a 413e
000000a0: 846f c93e ad7f 6b3d 46ac d4be a453 1bbf
000000b0: d3ce 5d3f fc1f 503e 4fc9 a1be bba6 0e3f
000000c0: cc07 15bd c0c2 9e3b 771c 43bd 05b4 ef3d
000000d0: 69cb 28be 7f4e 89bc 02ff 873e 2056 913d
000000e0: 59bc 903e 2fd1 5a3e ef87 453e 8683 333c
000000f0: 9dae 903b 9c70 f43c ddf5 6bbd a870 93be
00000100: 8297 95bc 3635 253c 4ffd 043e f9ba 273e
00000110: f198 253c 12c2 cd3d 5b1c 293e c2cb ab3d
00000120: 2f7d f7bd 9667 943d 6f61 41be 2174 87be
00000130: 53a1 423d fb5f 47bd 7a60 7dbd 0c3b 833c
00000140: 563e 123f ba60 14bf 516a 98bd 39d3 c7be
00000150: 1dcf 0dbd 904c bcbd 3154 3abd ac4f e1bd
00000160: 8c0b 313e 4af9 2fbe f27d d13c 982a 673d
00000170: 97fb fd3c f03b 663d ba76 b7bd 6de0 d33e
00000180: 5e50 e13e 8e11 1d3e 1367 a83c e9ed 523c
00000190: a062 983f 5626 0d3e 0e3d ea3e 2f80 053e
000001a0: 34cc fa3e 0f43 183f 9c84 a2bf 454a ee3c
000001b0: a653 e53e 5a2d 993e 473a ccbe 6ebf 193e
000001c0: 8880 dcbd 0e6f d43d 0e41 8b3f 5e15 d83e
000001d0: 5c0e e23e 9869 3abf 32e4 703f 36f3 8e3e
000001e0: d5d1 fdbd acef 183d 3130 2ebe 9743 4dbf
000001f0: 7f75 db3e 24b1 a23f 2cd4 71be 960d 79bf
00000200: d7a0 993f 408f 95bf 53bb f33e e2b9 a5bc
00000210: dbaa 9d3f df66 103f eb50 163e ef65 00bf
00000220: 7dc5 93bf f197 ce3e 381d 2b3f f14d acbf
00000230: 4af3 41bf 0098 1abe dbdd 23bf c6b9 103e
00000240: aa4c 4ebf eb7c babc 3855 4fbe 7353 61bd
00000250: d981 8f3e 75cc 00bd 5e40 ab39 f919 073f
00000260: 9a89 343f 80b2 a93d 98d6 5b3e 0fef 073c
00000270: 5a7b e2bc de50 38be e626 9cbd cbd8 02bd
00000280: bf97 93be d8c4 703d 62de 30be dd8e 993e
00000290: cf67 d8be 7f4b c93e 2d08 b9bd 2d55 a7bd
000002a0: d0be 6f3f bb3b e0bc 0e68 a53e 5692 23be
000002b0: d39a 563e 8eeb 6a3c 3b2e 16bf a3e6 82be
000002c0: 6fe7 303d 5cfe bd3d 04a8 32be 459f b1bb
000002d0: e399 803e f278 b83d 4b55 bebd 8071 5cbd
000002e0: 1392 e13c dd83 7b3e fa3d bd3c ff1f 23bc
000002f0: 1c05 0c3c 342d 8ebe 10d4 383e 5fa9 fbbe
00000300: 00bd 103f 6412 cf3e cc15 ca3e fade d7bd
00000310: 0947 d7be ad1f 98be 1810 2b3f 1292 203f
00000320: 6190 8f3f 0abc e33d ba3b b4bf 0e98 473d
00000330: 7829 2ebf 813a c8be c8f9 7ebf c366 0cbf
00000340: 68a9 8b3e 08a6 b9be 6fad e83e f475 0e3f
00000350: 516b c4be f6b0 88be ad1e b43f 7532 a63f
00000360: 0038 8abf 1256 6d3f a717 e9be c629 cdbf
00000370: 78d9 1ebf 64dc 09bf 1099 a73e 79cd d13f
00000380: d6f1 083f f55a e2be e36c 8d3d c1c9 253f
00000390: db49 433f 5ecf e7bf b6de e9bf ba8e adbf
000003a0: 625b 9abf b2e5 e23f 7275 c03f b72a bbbe
000003b0: 20fa 4ebf f0b4 f0bf e5e5 80be b023 ba3d
000003c0: c195 d73e c8e1 28bd f481 d03d eef6 a83c
000003d0: 2703 dc3e 9c5d 98bf be28 083d c6f8 413f
000003e0: 8777 5fbe ae14 55bf 7aef a1be b0c3 ea3c
000003f0: ce76 5c3f 0b8b 86bd 4649 123f df49 8e3e
-0.33964327 -0.058304142 -0.04521097 0.049861364 0.54692763 -0.31807765 -0.4025869 -0.7916448
-0.53993726 0.010971533 0.120361514 -0.055328574 0.23859377 -0.2476445 -0.29315737 0.1956198
0.86156976 0.4965862 -0.14663962 0.5764532 -0.37926304 0.1313812 -0.22477406 -0.3940088
-0.28091928 -1.2851039 0.9483601 -0.3869916 -1.1580011 0.03290875 -0.61410826 0.23790017
0.25652623 0.15695697 0.18798555 0.15389986 -0.53941554 -0.17906667 0.96561635 0.1885764
0.39342892 0.057494808 -0.41537684 -0.606745 0.86643714 0.20324701 -0.315989 0.5572316
-0.03638439 0.0048449934 -0.047634568 0.11704258 -0.16483845 -0.016761063 0.26561743 0.07096505
0.28268698 0.2136886 0.19290136 0.010956651 0.004415347 0.029838853 -0.05760752 -0.28796887
-0.018260721 0.010083487 0.12987255 0.16379918 0.010107265 0.100467816 0.16514723 0.08388473
-0.12084424 0.0724632 -0.18884824 -0.26455787 0.047517132 -0.04867552 -0.061859585 0.016019367
0.5712637 -0.57960093 -0.07442153 -0.39028338 -0.034621347 -0.09194291 -0.045490447 -0.11001524
0.17289561 -0.1718494 0.02557275 0.056437105 0.031003756 0.056209505 -0.08958192 0.4138216
0.44006628 0.15338728 0.020556962 0.012874105 1.1905098 0.13784155 0.45749706 0.1303718
0.4898392 0.59477323 -1.2696719 0.029088149 0.4479038 0.29917413 -0.39888212 0.15014431
-0.10766703 0.103727445 1.0879228 0.42203802 0.4415158 -0.72817373 0.940982 0.2791993
-0.12393538 0.037337944 -0.17010571 -0.8018126 0.4286308 1.2710309 -0.23616093 -0.97286355
1.200221 -1.1684341 0.47603855 -0.020230237 1.2317766 0.5640697 0.14679305 -0.5015554
-1.1544644 0.40350297 0.6684146 -1.3461286 -0.75761855 -0.15097046 -0.640104 0.14133367
-0.8058573 -0.022764644 -0.20247352 -0.055011224 0.28028753 -0.031444985 0.0003266362 0.52774006
0.70522463 0.08285999 0.2146858 0.008296742 -0.02764671 -0.17999598 -0.07624607 -0.03194503
-0.2882671 0.058781475 -0.17272332 0.2999181 -0.422667 0.3931541 -0.090347625 -0.08170543
0.9365053 -0.027372232 0.3230595 -0.15973791 0.20957498 0.014338387 -0.5866429 -0.25566587
0.043189462 0.09277031 -0.17446905 -0.0054205977 0.25117406 0.090074435 -0.09293612 -0.05381918
0.027535474 0.2456202 0.023100842 -0.009956359 0.00854614 -0.27768862 0.18049645 -0.49152657
0.5653839 0.40443718 0.39469755 -0.10540576 -0.42046383 -0.29711667 0.6682143 0.62722886
1.1215936 0.1111985 -1.4080727 0.048728995 -0.68032026 -0.39107135 -0.99599886 -0.548443
0.27277684 -0.36259484 0.4544482 0.5564873 -0.38363126 -0.2669751 1.4071862 1.2984148
-1.079834 0.9270946 -0.45525858 -1.6028373 -0.6205058 -0.53851914 0.32733965 1.639083
0.5349401 -0.4421002 0.06905534 0.6476098 0.7628457 -1.8110158 -1.8271091 -1.3559182
-1.2059138 1.7726347 1.5035841 -0.36556026 -0.8085041 -1.8805218 -0.25175396 0.09088838
0.4210644 -0.041230947 0.101810366 0.020625558 0.42971155 -1.1903567 0.03324198 0.75770223
-0.2182294 -0.8323468 -0.3162802 0.028657764 0.8611878 -0.06569489 0.57143056 0.27790734

net.2.bias f4 [48]
00000000: 7303 2a3c c83f 6dbf e264 83bc 4704 6d3f
00000010: 53c5 f4bd 2548 2ebe 1b9d e13d 0582 8b3d
00000020: 0436 203d cc2d eb3e 40d3 2d3c 00de 34be
00000030: 6041 b1be 4a05 203f 34ec a1bd 7e44 9abf
00000040: 9391 f3bc 8a64 513e d12a 84be d452 2bbd
00000050: d5bf 20bc ccff 593c 425c 5e3e 9d39 eabe
00000060: c731 2a3f 57e2 c7bd d0fa b8be 8e75 343e
00000070: bb1e cf3e e06d 3cbf 8561 08bf ebab 85be
00000080: 8cf9 87be edd8 c6bc 228d a2be 3437 0ebf
00000090: 339f 153e 0ee9 6cbd b654 223f 27fa 1abe
000000a0: dc97 dcbd 4dcc 4a3d a72e ae3e 7047 b83d
000000b0: d03e 093f ae49 c13e d9d0 f53d 5b88 d5be
0.010376799 -0.9267545 -0.016039316 0.9258465 -0.11951699 -0.17019708 0.110162936 0.06811909
0.039114013 0.45933378 0.010609448 -0.17662811 -0.3462019 0.6250807 -0.0790638 -1.2052152
-0.029732501 0.20448509 -0.25813916 -0.041827038 -0.009811361 0.013305616 0.21714881 -0.4574708
0.66482204 -0.09759968 -0.36128855 0.17622969 0.40453133 -0.73605156 -0.53273803 -0.26107726
-0.26557577 -0.02427336 -0.317483 -0.55552983 0.14611511 -0.057839446 0.6341051 -0.15134488
-0.107711524 0.049511243 0.34019968 0.089980006 0.5361147 0.37751526 0.12002725 -0.41705593

net.4.weight f4 [48, 48]
00000000: 8a5f 6ebe 23ed 153e b4ee 05bd 029d a4bd
00000010: 0b03 e33e 7183 c53d e558 453f 436b 5b3f
00000020: 5a1f 8d3e 61c9 dd3e e698 0e3a 362f 563e
00000030: 23c4 03be 6c7d ab3e 7f38 e63e 540b 8dbe
00000040: 2fb1 dfbd b823 81be f70e 61bf f275 f9be
00000050: 8591 ee3f fa99 4ebd f08d a5bd 0b89 81be
00000060: 143a 28bf 6064 52be e657 d93f 7cf7 68be
00000070: d1e4 91be e3b7 55be 1835 f83b 6452 1ebe
00000080: 2dc9 fc3e c5ef b73e 8400 1e3e b442 abbe
00000090: 57d8 843d 6e81 a7be c38a 2dbe 240e 38bf
000000a0: 4767 1fbf 8e49 debd 5978 913d 8ff8 563c
000000b0: d445 9a3c 8f9f 013e 93a4 33bf 71ae 1dbf
000000c0: 0775 b53e fd97 bb3d 9bd9 833e d4d9 8f3e
000000d0: 3e04 f93e 9f63 58bd 6b03 03bf b79e 07bf
000000e0: e08e 9ebe 9853 f0be 9987 ee3d 8cd4 d6ba
000000f0: 740e 1fbf 1109 143d 32bd 8fbe b509 383e
00000100: db8b 32be 74dd 50be 696d 27be 5c6f 31be
00000110: 591c ffbe 7315 aa3e ee3a 24bd a387 a53d
00000120: a053 e23e f798 4cbd 9cf6 82bd 7a05 d43e
00000130: 9bda 313c 7bf2 07be 5674 17bf 854d d9bc
00000140: c4c7 0fbf 9227 c1bd c945 84be 4816 88bd
00000150: 5f92 d6bd 62ad abbe 38f8 6f3c 95a2 df3e
00000160: 6390 933e 8c77 473e ba56 c0be 3b33 023d
00000170: 6aa6 5cbc 937b 1b3e 04b7 943d 526a 083f
00000180: b359 aebd a0b1 60bf ad65 643d b131 ec3d
00000190: a516 523d a1e1 c63c a82f 94ba 77d9 fe3d
000001a0: 7615 63bc c29b 5a3e d35d 363d 7b24 c13d
000001b0: 1b96 4abe a9d3 95bd ea9d bc3c 9f6d 2b39
000001c0: e747 d0bd 5fed 30be 5092 95bd b7c2 42be
000001d0: c105 553d 8af4 17be 450e 3abd 120d 2dbe
000001e0: bd2a b73d 8b21 dabc 9c9a d03d ce5e 90be
000001f0: e6ab 5ebc 4580 8b3d 663c b43d 4cde 973d
00000200: ff2d 3abd f852 1d3e 24ce 38bd 4432 0dbc
00000210: 039f 8abe 74b8 edbe b501 58be a569 083e
00000220: bdc5 48be 8ce3 9cbc c95f ddbc 4557 0ebc
00000230: 9f97 ce3d 671d 4d3d 8577 a03c 7a7c 1d3e
00000240: 0a1f 27be 6eb9 0c3f 7094 91be 0101 47bf
00000250: 9e46 5abf 01cb 47be 9845 f2bd f8f1 11be
00000260: 5ceb 54be 17f6 c83d 2a12 67bd 4c7c ecbe
00000270: 8653 2fbd 46e3 43bf 1b24 863c f573 013d
00000280: 2a7c c6be 3e06 6d3e 7983 6d3f a156 913e
00000290: 893b 043f 31b6 a63d a12c 3ebe c46a 46bc
000002a0: 8731 453f db46 e738 7afd 44be 3f32 b9bc
000002b0: 62df 9b3e d00a 833f 92dd 85bc e64e c83d
000002c0: b389 95be ec0e fe3d 554e 753d 1016 023f
000002d0: 722c 2c3e f80c 8f3e fdf6 01bf d720 9ebe
000002e0: f06e fb3d 390a 303e da85 64bc af70 a73b
000002f0: 1fd5 f7be 5ee7 afbe 0686 26be 0d77 813e
00000300: 1d5c 8abf 4a61 273e 08ad a4be 0050 493e
00000310: 4f61 643f dfbd e83e 8a27 533f 3e67 093f
00000320: 1da3 163e 14cb 163f 329c 423d de51 2b3e
00000330: e994 12be 386f 303e 3083 ef3e a277 acbd
00000340: ab6b a7be 2a0c 75bd 5959 40bf ca4c 1abe
00000350: d256 533f ba0e 87be e23b 2e3e 599f c9bd
00000360: d9b9 bebe 2e25 8a3c 8e93 af3f e84e efbe
00000370: 2f88 8dbe 3374 ae3c a1e4 26be 418a 1f3d
00000380: 7c8b 873d 0b0b 1ebd b945 6e3e a1c1 823d
00000390: 6048 1b3e 1168 183e a627 0e3e eff3 e1be
000003a0: 8b8a 8bbe 4272 aabe 2099 e9be 8e84 2bbd
000003b0: e100 e13d e1f8 bfbe edef 78bf 496d 633f
000003c0: 4c1a b13f 755b e7be df88 55bf 991b 8fbf
000003d0: c336 953f 07ab 66bf b096 6e3f a558 f9bd
000003e0: 3f6b bebe 2143 16be 4f22 03be 0843 22be
000003f0: 1173 ae3e bcb9 c7be 51b3 33bf 5a70 013e
-0.23278633 0.14641242 -0.03269835 -0.08037759 0.4433826 0.09644211 0.7708877 0.85710543
0.27562982 0.43317702 0.0005439654 0.20916447 -0.12867789 0.33494127 0.44964978 -0.27547705
-0.10922467 -0.25222564 -0.8791346 -0.48722798 1.8638159 -0.050439812 -0.08083713 -0.25299868
-0.6571362 -0.20546103 1.697995 -0.22750658 -0.28494886 -0.20870928 0.0075746886 -0.15461117
0.49372235 0.35925117 0.15429884 -0.33449328 0.06486576 -0.32715935 -0.16947465 -0.71896577
-0.62266964 -0.10853873 0.071030326 0.013120784 0.018832125 0.12658523 -0.70172995 -0.615943
0.35440847 0.09159849 0.25751957 0.28095877 0.4863605 -0.05282938 -0.5117709 -0.52976555
-0.3096838 -0.46938777 0.11646957 -0.0016390248 -0.6213143 0.03614146 -0.28074032 0.17972453
-0.17436163 -0.20396978 -0.1635033 -0.17327636 -0.49826315 0.3321949 -0.040095262 0.08082511
0.44204426 -0.049950566 -0.06394693 0.41410428 0.010855342 -0.13276093 -0.5916189 -0.026526222
-0.56164193 -0.094313756 -0.25834492 -0.06644875 -0.10477137 -0.33530718 0.014646582 0.43678728
0.28821096 0.19479197 -0.37566167 0.03178714 -0.013467411 0.15183859 0.0726147 0.5328723
-0.085132025 -0.87771034 0.055761028 0.115329154 0.051291127 0.02427751 -0.0011305707 0.12443822
-0.013860097 0.2134848 0.04452307 0.09430786 -0.19783823 -0.073157616 0.023024518 0.00016348668
-0.10169964 -0.1727805 -0.073032975 -0.1901959 0.05200744 -0.14839378 -0.045423765 -0.16899517
0.089436986 -0.026627323 0.101857394 -0.2819733 -0.0135907885 0.06811575 0.088005826 0.07415447
-0.04545402 0.15363681 -0.045118466 -0.008617941 -0.2707444 -0.4642979 -0.21094401 0.1332155
-0.19606681 -0.019151472 -0.027023213 -0.008687799 0.10087513 0.05007687 0.019588241 0.15379515
-0.16320434 0.54970443 -0.2843356 -0.77735907 -0.85264003 -0.19511034 -0.1182968 -0.1425246
-0.20792907 0.09812563 -0.056413807 -0.4618858 -0.042804264 -0.76518667 0.016374638 0.031604726
-0.38766605 0.23146912 0.92778736 0.28386405 0.51653343 0.08140219 -0.18571712 -0.012110416
0.770287 0.00011028136 -0.19237319 -0.022606967 0.30443865 1.0237675 -0.016341005 0.09780674
-0.2920662 0.1240519 0.059889156 0.50814915 0.1681383 0.27939582 -0.507675 -0.3088443
0.12277019 0.171914 -0.013947928 0.0051098685 -0.48404786 -0.34356207 -0.16262063 0.2528614
-1.0809361 0.16345707 -0.32163262 0.19659424 0.8921098 0.4545736 0.82482207 0.5367316
0.1471066 0.5890362 0.04751224 0.16730449 -0.14314617 0.17229927 0.46779776 -0.08421256
-0.32699332 -0.059826054 -0.75136334 -0.15068355 0.8255435 -0.26378423 0.17015031 -0.09844846
-0.37251166 0.016863432 1.3716905 -0.46739888 -0.27642962 0.021295642 -0.16298153 0.03895021
0.066184014 -0.03858475 0.23268785 0.06384588 0.15164328 0.14883448 0.13882312 -0.4413142
-0.27254137 -0.33290297 -0.45624638 -0.04187446 0.10986496 -0.37494567 -0.972411 0.8883863
1.383615 -0.45186964 -0.83411974 -1.1180297 1.1657337 -0.90104717 0.9319868 -0.12175111
-0.37191197 -0.14674045 -0.12806056 -0.15845883 0.34072164 -0.39008892 -0.7019549 0.12640515

net.4.bias f4 [48]
00000000: 4c82 cd3e 5333 d0be f1b0 983f fd2e c23e
00000010: d9fc 2cbf c8a9 3e3e 04b9 f53d 404b 7c3e
00000020: dc7d d3be 21aa 58bf fe51 8abe 7b77 583f
00000030: 5a7a 243f 94bb 9ebf 06a7 6cbf 0b43 03bf
00000040: e573 ba3e af6b c0bc 6f17 d43f e505 97be
00000050: 1e4b 063f a1a2 83bf ab11 bebe 8524 843f
00000060: f6ec 8cbe b421 443f fbf2 c13c cd5d 4cbc
00000070: 8fc9 a1bd 5c26 503f 4afb c6be 74e6 eb3f
00000080: 9e84 e43e a9eb e5be b568 bf3f b990 abbe
00000090: 9946 643d e007 62bc 6456 293a 11bd cfbe
000000a0: 9734 53bf 6896 2cbe 3951 943e a86a fd3d
000000b0: e3b0 32bd 81a0 d53f 5476 273e 797e 773e
0.4013847 -0.40664157 1.1928998 0.37926474 -0.67573315 0.18619454 0.119981796 0.2463808
-0.4130696 -0.84634596 -0.2701568 0.8455731 0.64249194 -1.2400994 -0.9244236 -0.51274174
0.36416546 -0.023488848 1.6569651 -0.29496685 0.5245837 -1.0284005 -0.37122855 1.0323645
-0.27524537 0.76613927 0.023675432 -0.012473536 -0.078997724 0.8130853 -0.38863593 1.8429704
0.4463243 -0.44906357 1.4953829 -0.33508852 0.05573139 -0.013795823 0.00064597116 -0.40573934
-0.8250212 -0.1685425 0.28968218 0.12373859 -0.043625724 1.6689607 0.16353732 0.24169339

net.6.weight f4 [198, 48]
00000000: 2216 22be 4e5a 5cbf 4a70 72bd c30a e0be
00000010: 4e7d f9be b26b 393f 3372 e4be 61a4 38be
00000020: f6c9 9a3e 8034 b93f a186 373e 5df7 44be
00000030: 54f3 b2be 8b1e 08bf e28c 823f 800e aebe
00000040: c197 ad3e 5f6d 3a3f a91c 84bf 9635 2f3e
00000050: d5dc 853f b8b8 adbe 499a aebe ad36 913e
00000060: ff18 c63e 5438 353e 28d0 383f 9595 b53f
00000070: 8e4f 2640 b92d 08be 9f96 c5bd e8be 5d40
00000080: c66e 9fbe e456 153e 59bf 85ba 81c2 2b3f
00000090: 82dc 17bd 6ce4 96be 3e68 c5be 0456 4fc0
000000a0: 42d9 5b3d 90f9 203f 1abe 3cbf 2cc3 24bd
000000b0: a95a 3e3f ba13 2fbe d15b 93bc 8a8d f6bf
000000c0: 3eb1 dcbd c9b1 8ebe 6079 e3be f90f 15be
000000d0: 8bdd bc3d 1588 65bf bcf8 e1be 5cea fe3d
000000e0: 5a83 83be 189e 0fbe c006 083e 4320 b0bd
000000f0: 149e 5abd cd20 0d3f d89d 4ebe c1db 973e
00000100: 0fc3 aebe 0310 ecbe 82ad 2e3d e9cd 253d
00000110: 9489 95bc 8f8f ccbc 366e 7b3f f10b 7a3d
00000120: b06d 5b3f ccd1 4cbd 919a 97be e2e8 27bd
00000130: 315c 95bd 2a3f 81be 5ce6 853e 16fb 88be
00000140: 2078 30bc 2474 d2bc 8144 093d 1f5d 87be
00000150: 4319 b23e a946 ddbd 5671 513c ef63 29be
00000160: 2fe3 a93e 3afe 9bbc 2ee5 f93e 9489 1bbd
00000170: f233 4fbf c6e9 6f3d a319 9c3b 757a 0b3d
00000180: afb6 393e f74e 33be ecca 073e 2adc b5bc
00000190: 607f 6a3e f37a 4cbe f818 0a3e 9898 1b3e
000001a0: 1cbb ebbd beae 2cbe 1b86 cbbd 3126 86bc
000001b0: 1456 26bc 6f3b 1d3e 0415 8ebe 44ab 07be
000001c0: 79ff c0bd 31f1 57be 78a5 703d 29ad e13d
000001d0: 4f0d 9c3e e5bb 043d 84b7 a33e f97b d43c
000001e0: 85ae c23d f2a8 6abc dc4a d9bd 96b2 7dbe
000001f0: 8a74 b1bc 81d5 773d b655 863b 3695 e83a
00000200: a2f4 69bd dc1d 293e 8242 77bd 334a 163e
00000210: af6b 783d b90c 8dbd a230 1f3c dad4 843b
00000220: ff0f 83bc 71f3 30bc a645 adbe faa8 983d
00000230: ba16 c2be 0423 85bc de2a 173b 8cb5 6b3e
00000240: 4ccd 08be 1c95 ebbb 9aaf 823f 0e53 683d
00000250: 59e6 44bd c070 ca3f 10b6 6dbd 4474 d23e
00000260: 2a02 313f 41f1 103e b646 923c 8ab6 e0be
00000270: 9eef 1d3c 0676 69bf c255 cebe a9d5 a33e
00000280: 4987 893e ebc9 df3e 9944 5b3d fb33 78bd
00000290: a25d ebbd 2d89 46be 716c 1dbe cb2c 56be
000002a0: c0ec b8bf 308e b43e 79c1 3c3f f754 cc3d
000002b0: cadc f13d ccc8 613f ea3f 9c3e 6a58 253f
000002c0: ffba d93c 1908 8d3e 6477 81bd 91af cb3f
000002d0: d3be 54bf fdfe 41be f250 0bbe c4ea b23e
000002e0: d2c9 8cbe 553c 83bd fd19 5cbe 5088 5b3d
000002f0: cc7b 01bf 02ab a6bc c5c4 963d 1bfd 6ebd
00000300: fc64 f2b9 4e66 3abb 2a80 de3c 261c 3a3b
00000310: ac3e d2bb 1dc6 f93c b999 ef3b 9be7 573b
00000320: 6f26 993e d8e7 e7bb df3a 73bc 2193 153c
00000330: bb1c 0b3e 2026 e1bc 4330 79bb 3c2e 893b
00000340: d389 12bb f806 f83b 99fc 93bc f01e 4ebb
00000350: e05a 8f3b a381 d53d 499a 69bb 5bec 983b
00000360: 7454 e33a 898c 06bc 5f47 b93c b206 0d3a
00000370: 8c30 333c 11af 393b 93b9 8abc 1d49 ba3c
00000380: 268e 5d3b b94f cabb e437 ce3a 80a7 5bba
00000390: dcf5 4ebc 7b7e a83b 23d5 09bd 17a6 113b
000003a0: 8ba4 393b f403 433d 2000 2c3d 3f02 01bb
000003b0: 15af 393b 0f8a 1fbc 5fd6 fdbc f8e5 53ba
000003c0: 0e0e 3d3d 23b1 953d e146 1fbd 1c79 5fbd
000003d0: a7f4 5cbb ffc9 6abe e269 95bd 8644 bd3c
000003e0: 6845 533c ecd1 e1bd aa2d 643d 158c 91bc
000003f0: 406b c53b a91e 243d 729b 19bd a3f4 4d3c
-0.15828755 -0.86075294 -0.05918912 -0.4375821 -0.48728412 0.72429955 -0.44618377 -0.18031456
0.3023221 1.4469147 0.1792245 -0.19234987 -0.3495127 -0.53171605 1.0199244 -0.33995438
0.33904842 0.7282314 -1.0321246 0.17110285 1.0458018 -0.33929992 -0.34102085 0.28362027
0.38690946 0.17697269 0.7219262 1.4186274 2.5986056 -0.13298692 -0.09647869 3.464777
-0.311392 0.14583927 -0.0010204121 0.67093664 -0.037075527 -0.29471147 -0.38556093 -3.239625
0.05367399 0.628808 -0.7372757 -0.040225193 0.74357086 -0.17097369 -0.017988117 -1.9261944
-0.10775994 -0.27870014 -0.4442854 -0.14556874 0.092219435 -0.8966077 -0.44135082 0.12447044
-0.2568615 -0.14025152 0.13283825 -0.085999034 -0.05337341 0.55128175 -0.201774 0.29659846
-0.34133193 -0.46105966 0.04264594 0.040479574 -0.018254079 -0.024970798 0.98215044 0.061046544
0.85714245 -0.050004765 -0.29610112 -0.04099358 -0.07292975 -0.25243503 0.26152313 -0.26754063
-0.0107708275 -0.025690146 0.033512596 -0.26438233 0.34784898 -0.10804493 0.012783369 -0.16542028
0.3318114 -0.019042123 0.48807663 -0.037973 -0.8093864 0.058572553 0.0047637983 0.03405233
0.18136095 -0.17510591 0.13261002 -0.022199709 0.22900152 -0.19968776 0.13486087 0.15194929
-0.11510298 -0.16863534 -0.09937688 -0.016375633 -0.010152359 0.15354703 -0.2775041 -0.13248926
-0.094237275 -0.21088101 0.058751553 0.11019356 0.30478904 0.032405753 0.3197595 0.025938021
0.09505943 -0.014322506 -0.106099814 -0.24775156 -0.021662015 0.060506348 0.004099573 0.0017744664
-0.057118066 0.16515297 -0.06036616 0.14676742 0.06064957 -0.06887192 0.009716185 0.004053694
-0.015998838 -0.010800228 -0.338422 0.07454105 -0.37907964 -0.016252048 0.0023066322 0.23018473
-0.13359565 -0.007189406 1.0209839 0.056719832 -0.04807124 1.5815659 -0.058034956 0.4110433
0.6914393 0.14154531 0.017855983 -0.43889266 0.009639649 -0.91195714 -0.40299803 0.31998947
0.26861027 0.4370874 0.053532217 -0.060596447 -0.114924684 -0.19388266 -0.15373398 -0.20915525
-1.444725 0.3526473 0.73732716 0.09977143 0.1180969 0.88197017 0.30517513 0.64588034
0.026578424 0.2754524 -0.063216 1.5912954 -0.83103675 -0.18944927 -0.13605097 0.34944737
-0.27497727 -0.06407992 -0.21494289 0.053596795 -0.50579524 -0.020345215 0.073617496 -0.05834685
-0.00046233076 -0.0028442326 0.027160723 0.0028398125 -0.0064161625 0.030489976 0.0073120263 0.0032944444
0.29912135 -0.0070771985 -0.014845579 0.009129317 0.13585179 -0.027484 -0.003802315 0.00418642
-0.0022359982 0.00756919 -0.018064784 -0.0031451546 0.004374847 0.10425117 -0.003564494 0.0046668476
0.0017343895 -0.008212217 0.02261704 0.0005379721 0.010936867 0.0028333107 -0.016934192 0.022739941
0.003380665 -0.0061740545 0.001573321 -0.00083791465 -0.01263186 0.005142031 -0.03365053 0.0022224241
0.0028326835 0.047611192 0.041992307 -0.0019685177 0.0028333117 -0.009737506 -0.03098601 -0.0008083279
0.04615598 0.07309177 -0.038885955 -0.05455886 -0.003371516 -0.22928618 -0.07295586 0.023103964
0.012894966 -0.110263675 0.05570761 -0.017766992 0.006024748 0.040068302 -0.03750176 0.012570533

net.6.bias f4 [198]
00000000: ca83 2f3f 10aa 0080 1d72 06be 9539 0100
00000010: a7fc 013f 958b 013f ba84 9b3c 644f 1fbe
00000020: 7a42 27bd 3263 1fbd e7c2 a8bd 7d56 f5bd
00000030: 0dc3 16be 410c 2cbe 9a02 3abe 3374 3fbe
00000040: 330e 3bbe b78b 2cbe ad70 14be 49df e5bd
00000050: d71a 95bd 2a4e f8bc d5bf 3a3c 3387 493d
00000060: 2bda a43d cdeb d33d e5a4 f03d 45e4 fb3d
00000070: 1e5d f83d 6d9a e83d 10e1 cc3d 86b0 a43d
00000080: 9792 5a3d 98d4 8b3c dab7 efbc d0d7 a9bd
00000090: 4d4d 08be 6a86 19be 77c6 9f3e 8f75 9bbe
000000a0: 3890 d2be 793c 9fbe 6dd5 12be 4890 b0bc
000000b0: 4fbf 703d 55be ef3d b1fe 223e 4c78 383e
000000c0: 03a5 343e 294c 293e 79b8 2f3e 65f7 453e
000000d0: edc1 5d3e ff92 6e3e d541 723e 2464 683e
000000e0: 8f16 513e b835 353e 41ad 233e 630d 1b3e
000000f0: 513d 113e 8720 ff3d c9df c93d 0856 793d
00000100: 2c71 283c 6e8b 61bd f932 0dbe b1ac 72be
00000110: e23d abbe d8cb c5be af73 273f 9777 543e
00000120: 4c34 833e 45ca b63e a7a4 e03e bf73 013f
00000130: 5a5d 113f dc2f 213f 79de 303f 8c71 3f3f
00000140: 12b1 4b3f 2ed6 543f 0178 5a3f 20df 5c3f
00000150: ab8c 5c3f d33c 5a3f d0c1 563f 5dde 523f
00000160: a349 4f3f d880 4c3f 1abf 4a3f 6809 4a3f
00000170: 663d 4a3f eb2e 4b3f 03fa 4c3f b7cd 4f3f
00000180: 46fa 533f 6531 5a3f e6bb 623f 32d8 6c3f
00000190: 5757 753f 96e3 773f ba84 9b3c 644f 1fbe
000001a0: 7a42 27bd 3263 1fbd e7c2 a8bd 7d56 f5bd
000001b0: 0dc3 16be 410c 2cbe 9a02 3abe 3374 3fbe
000001c0: 330e 3bbe b78b 2cbe ad70 14be 49df e5bd
000001d0: d71a 95bd 2a4e f8bc d5bf 3a3c 3387 493d
000001e0: 2bda a43d cdeb d33d e5a4 f03d 45e4 fb3d
000001f0: 1e5d f83d 6d9a e83d 10e1 cc3d 86b0 a43d
00000200: 9792 5a3d 98d4 8b3c dab7 efbc d0d7 a9bd
00000210: 4d4d 08be 6a86 19be 77c6 9f3e 8f75 9bbe
00000220: 3890 d2be 793c 9fbe 6dd5 12be 4890 b0bc
00000230: 4fbf 703d 55be ef3d b1fe 223e 4c78 383e
00000240: 03a5 343e 294c 293e 79b8 2f3e 65f7 453e
00000250: edc1 5d3e ff92 6e3e d541 723e 2464 683e
00000260: 8f16 513e b835 353e 41ad 233e 630d 1b3e
00000270: 513d 113e 8720 ff3d c9df c93d 0856 793d
00000280: 2c71 283c 6e8b 61bd f932 0dbe b1ac 72be
00000290: e23d abbe d8cb c5be af73 27bf 9777 54be
000002a0: 4c34 83be 45ca b6be a7a4 e0be bf73 01bf
000002b0: 5a5d 11bf dc2f 21bf 79de 30bf 8c71 3fbf
000002c0: 12b1 4bbf 2ed6 54bf 0178 5abf 20df 5cbf
000002d0: ab8c 5cbf d33c 5abf d0c1 56bf 5dde 52bf
000002e0: a349 4fbf d880 4cbf 1abf 4abf 6809 4abf
000002f0: 663d 4abf eb2e 4bbf 03fa 4cbf b7cd 4fbf
00000300: 46fa 53bf 6531 5abf e6bb 62bf 32d8 6cbf
00000310: 5757 75bf 96e3 77bf
0.6856047 -6.1007e-41 -0.13129468 1.12492e-40 0.5077614 0.5060361 0.018984187 -0.15557629
-0.04083488 -0.03891296 -0.082403 -0.11979387 -0.14722843 -0.1680155 -0.18165055 -0.1869667
-0.18267135 -0.16850172 -0.14496107 -0.11224229 -0.0728051 -0.030310709 0.011398275 0.0492012
0.08049425 0.1034771 0.11750201 0.12299398 0.12127136 0.113575794 0.10003865 0.08041482
0.053362455 0.017069146 -0.029262472 -0.08293116 -0.13310738 -0.14992681 0.31206104 -0.30363128
-0.41125655 -0.31100824 -0.14339228 -0.021553174 0.058776196 0.11706225 0.1591747 0.1801464
0.17641072 0.16532959 0.17160214 0.19332655 0.21656008 0.23298262 0.23657925 0.2269445
0.20418762 0.17696273 0.1598406 0.15141825 0.14183547 0.12457376 0.09857137 0.06087306
0.0102808885 -0.05506461 -0.13788976 -0.23698689 -0.3344565 -0.38632083 0.65410894 0.20748745
0.25625837 0.35701194 0.4387562 0.5056724 0.5678307 0.6296365 0.69089466 0.74782634
0.7956706 0.8313931 0.8533936 0.8627796 0.8615214 0.8524906 0.83889484 0.8237055
0.80971736 0.798841 0.7919785 0.789206 0.78999937 0.79368466 0.8006899 0.8117327
0.8280376 0.8523162 0.8856796 0.9251739 0.95836395 0.96831644 0.018984187 -0.15557629
-0.04083488 -0.03891296 -0.082403 -0.11979387 -0.14722843 -0.1680155 -0.18165055 -0.1869667
-0.18267135 -0.16850172 -0.14496107 -0.11224229 -0.0728051 -0.030310709 0.011398275 0.0492012
0.08049425 0.1034771 0.11750201 0.12299398 0.12127136 0.113575794 0.10003865 0.08041482
0.053362455 0.017069146 -0.029262472 -0.08293116 -0.13310738 -0.14992681 0.31206104 -0.30363128
-0.41125655 -0.31100824 -0.14339228 -0.021553174 0.058776196 0.11706225 0.1591747 0.1801464
0.17641072 0.16532959 0.17160214 0.19332655 0.21656008 0.23298262 0.23657925 0.2269445
0.20418762 0.17696273 0.1598406 0.15141825 0.14183547 0.12457376 0.09857137 0.06087306
0.0102808885 -0.05506461 -0.13788976 -0.23698689 -0.3344565 -0.38632083 -0.65410894 -0.20748745
-0.25625837 -0.35701194 -0.4387562 -0.5056724 -0.5678307 -0.6296365 -0.69089466 -0.74782634
-0.7956706 -0.8313931 -0.8533936 -0.8627796 -0.8615214 -0.8524906 -0.83889484 -0.8237055
-0.80971736 -0.798841 -0.7919785 -0.789206 -0.78999937 -0.79368466 -0.8006899 -0.8117327
-0.8280376 -0.8523162 -0.8856796 -0.9251739 -0.95836395 -0.96831644

exp_avg f4 [48, 25]
00000000: 92fb 8bbb 7a8a febb 36ce 49ba 9a4e 2fbc
00000010: bc8e c2bb 6ae4 3abc 4fba 40bc 0eb4 4cbc
00000020: 62bb 653b 417e 7339 bff8 253b 20dc 733b
00000030: 419a 7bba a663 833b bbae f7ba a3f6 323c
00000040: 8afc 823b 3121 9abc f6cf 673b 6c02 aabc
00000050: 0c34 ebb9 212c 38bc 7173 82bd cadd 10bd
00000060: 4507 c0bb 2700 52b6 3f02 0abb 1932 313a
00000070: 093f 493a 8e82 4dbb 6939 90ba 75ea 183b
00000080: fd3c 0abb 7d60 38ba a5ce 8f3a 9d51 61bb
00000090: 0f05 f33b 36c7 a9bb a169 073c 21d6 3bbb
000000a0: ee4a 4c3b 761c 46b9 3b14 a4bb 9ed8 a339
000000b0: d95d bcba 01fc b939 1e68 7dbb a6dc 8ebb
000000c0: dcf0 153c bb78 e9bb bcd5 04bb 9ed8 bbbb
000000d0: ca52 3a3b 7d6b eabb 5b9b 103b f21c a1bb
000000e0: 06a4 aaba 333c 2fbb 63ad 4d39 4fd8 52ba
000000f0: bc33 3639 b00f 3e3a 70d9 efb9 edca 713a
00000100: b4a4 f0ba 2c39 573b 91fd 9c3b 96f2 19bc
00000110: 91fa 47bb 5a8a aabc 524a e1b9 052e 663a
00000120: a3fd 2cbb fa78 bfbc aa24 50bc 2ed2 2c3d
00000130: 70d6 563d 474e b53d a6d2 023d 3ba3 0b3e
00000140: 30f5 8a3c f5c9 fa3d cb0a e53c 81e6 61bc
00000150: 7844 523b 5d1c b3bb ef45 443d 7683 19bd
00000160: 2edb 3f3d 5317 4dbc 97aa 5f3c 1a59 993c
00000170: 61d9 3db9 1368 cdbd a557 0c3e 5134 ea3a
00000180: 5860 e53d 25b0 18be 6a0b 6a3e 71b5 953d
00000190: 61af 6cbb 9299 44bc d92e 923c 5326 6cbc
000001a0: 162e 8c3c 1215 0dbc f0f2 8b3c 32e4 f03b
000001b0: 73fc ef38 4bdf 513b 8e49 c23b ec86 b23c
000001c0: 5ccf bebb 0ab5 033d f91b b3ba 1582 de3c
000001d0: f9cf fd3c 7af0 5bbc 9f36 063b a2a2 abbc
000001e0: 4cc5 5b3a be11 633d 1e71 ecbc 6674 8bbc
000001f0: e0ad 8bbc c8ab 14bc 8c56 23bc 6284 b8bb
00000200: a479 70bc 5a4b 983a 39b5 51bc 013d cabb
00000210: 63a9 27bc 2fcc 263c 1ac3 313c b261 363c
00000220: 5920 ba3b acb2 6e3c 0f11 743a 576f 4c3c
00000230: 2d3a 0d3c 4aa8 653a b2cf febb e954 1a3c
00000240: 0255 1cbd a21d 35bb 28a7 c7bc 0d51 63bc
00000250: f280 16bd 6605 efbc 8515 8cbb 022c 35bc
00000260: 15d4 cf3b 1d3f f9bb c5fd 9eb9 dc8c b5bb
00000270: 8bd0 843b ceed 8abb 1887 1eb8 7bc1 9fb9
00000280: aff5 a13b d804 da3b 3bc2 c93b b859 4f3c
00000290: 4a32 ce3a 0960 453c d68d 7a3c b1e9 cdbc
000002a0: 25c9 a73a 21ee f5bc ba2c bab8 b404 bfba
000002b0: 4cb3 053d 17cd 3fbc cc6f 17bd e4f0 533b
000002c0: 0dfb be3b 208e 0d3c 7c32 053c 51df 383c
000002d0: 98e7 893c 1e16 763c fc4f 763c 9ea6 ef39
000002e0: d5dd 9a3b 5acc 263c c94a abba 68d3 9d3c
000002f0: dddf 83b7 6d5a c13c 6b11 bf3b d3be c53b
00000300: 6491 08bc d79d 743c 77b3 aabb c4bd f1b9
00000310: fab8 01bd e21e 693d 424c e03c 9919 10bd
00000320: efdc 12bc c4ca 96bc 1222 babb e54d b4bc
00000330: 172e 1dbc 337e febc f2c5 9cbb 316d c6bc
00000340: b83f 2b3a 7f20 2338 633a a43b 3da3 d53b
00000350: 4bfa 973a 1818 b73c 4302 55bc 36d0 d93c
00000360: 4a3c ad3c 765c 8ebc ef83 623c 2556 02bd
00000370: ce88 a73a 44c6 363d 6c7f e03c 9b00 31bd
00000380: 7a9f 8dbc 39c1 a73a 43e5 c93b 9b52 a3bb
00000390: b565 293b d4e2 1e3b 1402 0dbb 59e3 b33b
000003a0: 66ec debb e341 4f3b 5103 0f3c 070c 33bb
000003b0: 7f9a 643c 7938 17bc 7985 5a3c 76ac 17bb
000003c0: 1394 fc3b c3f1 42bc f536 02bb e6d5 22bc
000003d0: 0eb9 763c 4c50 213a e033 473c ee99 263c
000003e0: 5853 793c 9894 153c e052 81ba a1fe a43b
000003f0: ed6d d9bb 1fd8 443c cb1c 4abc 65a7 323c
-0.004271933 -0.0077679725 -0.00076982693 -0.010699892 -0.0059374254 -0.011406997 -0.011763169 -0.0124941
0.0035054316 0.00023221319 0.0025325266 0.0037210062 -0.0009597876 0.0040096818 -0.0018896678 0.010923061
0.00399739 -0.018814655 0.0035371757 -0.020753108 -0.0004486147 -0.01124099 -0.06369675 -0.035367765
-0.0058602416 -3.1292527e-06 -0.0021058468 0.00067594793 0.00076769345 -0.0031358334 -0.0011003438 0.0023333107
-0.002109348 -0.0007033421 0.0010971619 -0.003438092 0.0074163745 -0.0051812185 0.00826493 -0.0028661566
0.0031172591 -0.00018893354 -0.0050072945 0.00031251175 -0.001437123 0.00035473707 -0.0038666795 -0.0043597994
0.009151664 -0.007124988 -0.0020268997 -0.00573261 0.0028430694 -0.007153927 0.0022065255 -0.0049167806
-0.0013018853 -0.0026738762 0.00019614915 -0.0008043097 0.00017376145 0.00072502624 -0.00045747636 0.00092236587
-0.0018359632 0.0032840474 0.0047909697 -0.009396216 -0.003051434 -0.020817924 -0.00042970717 0.0008780661
-0.0026396296 -0.023373116 -0.012704054 0.04219263 0.052450597 0.08852821 0.03193917 0.13636486
0.016962618 0.122455515 0.027959248 -0.013787867 0.0032084268 -0.0054660277 0.047918256 -0.037478887
0.046839885 -0.012517768 0.013651512 0.018719245 -0.00018105425 -0.10029616 0.13705309 0.0017868375
0.11200017 -0.14910944 0.22855917 0.07309998 -0.0036115276 -0.011999505 0.017844604 -0.014413434
0.01711182 -0.008610981 0.017083615 0.0073514218 0.000114434304 0.0032023962 0.0059291786 0.021792851
-0.005823059 0.032155074 -0.0013664953 0.027161637 0.030982958 -0.013424033 0.0020479334 -0.020951573
0.00083835865 0.055436842 -0.028862532 -0.017023277 -0.017050683 -0.009074159 -0.009969365 -0.0056310156
-0.014677439 0.0011619136 -0.0127995545 -0.006171823 -0.010233256 0.010180517 0.0108497385 0.011131691
0.0056801257 0.014568966 0.0009310403 0.012477717 0.008619827 0.0008760734 -0.007776224 0.009419658
-0.038167007 -0.002763607 -0.024371698 -0.0138743045 -0.036744066 -0.029177379 -0.0042750263 -0.011057856
0.006342421 -0.0076064006 -0.0003032518 -0.0055404734 0.0040531806 -0.0042397743 -3.779595e-05 -0.00030470997
0.004942618 0.0066534095 0.0061571873 0.012655668 0.001573154 0.012046822 0.015292605 -0.025135847
0.0012801035 -0.030020775 -8.877502e-05 -0.0014573545 0.032641694 -0.011706612 -0.036971852 0.0032339627
0.0058282674 0.008639842 0.008129712 0.0112837115 0.016834065 0.015019922 0.015033718 0.00045709772
0.0047261515 0.010180557 -0.0013068552 0.019265845 -1.5720661e-05 0.023602689 0.005830934 0.006034711
-0.008335445 0.01493021 -0.005209382 -0.00046108488 -0.031670548 0.056914218 0.027380113 -0.03518066
-0.0089638075 -0.018407233 -0.005680331 -0.0220098 -0.009593508 -0.031066036 -0.004784339 -0.024221988
0.0006532627 3.8892493e-05 0.005011843 0.0065197037 0.0011594979 0.022350356 -0.0130010275 0.02658854
0.021146912 -0.017378073 0.013825401 -0.031820435 0.001278186 0.044622675 0.02740451 -0.043213468
-0.017287958 0.0012798674 0.0061613633 -0.0049842126 0.0025847976 0.0024244087 -0.0021516131 0.0054897484
-0.0068030832 0.0031624965 0.008728818 -0.0027320401 0.01395285 -0.009229773 0.013337486 -0.0023143566
0.0077080815 -0.011898461 -0.0019869183 -0.009938693 0.015058769 0.0006153628 0.012158364 0.010168536
0.015217625 0.009129666 -0.0009866618 0.005035237 -0.0066354186 0.012014418 -0.012335966 0.010904168

exp_avg_sq f4 [48, 25]
00000000: 6e94 b13a 5500 243b bfb7 623b e327 913b
00000010: 83ca 943b 02e9 9e3b 6919 1e3b 4208 7a3b
00000020: 8095 a93a 677a 1a3b 512e 543b 3cde 8c3b
00000030: bded 8f3b 9b5e 993b aa37 0b3b 5beb 5b3b
00000040: 6816 053c 003f cb3b 4099 b43b b9b3 da3c
00000050: 2aca 8b38 02f9 6d3c a265 0e3d c476 ca3c
00000060: 2085 ce3c 131d 093a 5e77 4c3a a735 e23a
00000070: 661f a93a 9431 003b e6fb b73a c36c 7c3a
00000080: f7c0 a03a cdb0 f339 b47e 323a 1c42 1d3a
00000090: efc0 983a 03cb 8a3a 3b3c 903a 3363 ed39
000000a0: 96da 393a 5f0b 273b f515 163b 0b35 123b
000000b0: ecb8 643c 9f1a 0c38 3822 283b c28c 6b3c
000000c0: 4ad9 4e3c cc69 4e3c 5340 1839 c468 7f39
000000d0: 38c8 bf39 05ce f039 c455 023a b6b1 113a
000000e0: 236c 8339 f93f e439 1688 2539 3f0e 9339
000000f0: 2969 c339 219f 0c3a 9dbc f039 4798 2c3a
00000100: 1b6d 8339 0a83 073a c46b 613a aa4d d83a
00000110: 81c6 f439 e4ae 3c3b 1af6 9e36 7936 f23a
00000120: 3d71 7f3b 3b4e 2d3b c0c5 2d3b c794 2d3c
00000130: 8507 223d 857e 933d 751f 9c3d 84cb ca3d
00000140: 6f23 8d3d 4390 533d ac31 773d 5db8 1d3c
00000150: c48f 113d ac62 893d e4f2 8e3d 7e65 bd3d
00000160: 5731 813d 416f 3c3d f91a 6a3d 5a7a 733e
00000170: 4f86 8c35 5bfc 243e 1fe8 3a3e 7522 d539
00000180: e8c8 163e aa9a 803e 5faf 4b3e de7f 503e
00000190: dd79 6d3b b962 b93b 43e9 e33b 0e00 063c
000001a0: 18d4 083c b30a 0a3c 4cb5 993b 37bc d43b
000001b0: 4cf4 503b 911e 733b 5604 9f3b 8504 cc3b
000001c0: 8e9a e03b 4d5d cb3b 0068 4d3b c2d7 893b
000001d0: bfe4 3d3c 65c7 963c abfe 703c b5e0 833d
000001e0: e266 9939 19a8 a33c 8f9a aa3d 1eca 733d
000001f0: cb40 6c3d 102d c63a fe38 083b fba5 2c3b
00000200: 60b2 5e3b 15c4 6f3b cd79 7b3b 534b f73a
00000210: 0ee2 4c3b 6c45 db3a 3540 243b 7be7 433b
00000220: 4f55 823b 462b 663b 7785 883b 1215 083b
00000230: 4d90 5e3b b129 a73b 74cc 143c 44db 9e3b
00000240: c32f de3c 63c4 d638 d3e5 253c fd85 223d
00000250: 3480 c93c b753 cb3c f9bc fe3a 4a8b 4c3b
00000260: d287 8a3b bc88 963b 4393 a43b 47be 953b
00000270: febf 343b 0761 783b 4b5a bb3a 8a44 f03a
00000280: 57ca 123b 1f37 5e3b 5335 653b 160c 5e3b
00000290: 001f ca3a 92f8 123b 3e32 cd3b 66a7 0f3c
000002a0: 322b e53b e8e9 203d 13d1 0339 2e30 413c
000002b0: 65b9 423d 4ddd 113d 8a52 103d 99e3 043b
000002c0: a12c 8a3b f7cd cc3b 0e34 f83b e331 073c
000002d0: bae1 033c c26d 8f3b 8480 db3b aaac ed3a
000002e0: 3f89 653b d0bf b23b 0257 e13b d94e fb3b
000002f0: 6620 f23b c29d 6e3b 1c5e b53b 2b11 7f3c
00000300: d131 243c ef47 1e3c 8336 1b3d 786e b438
00000310: d8bf b73c 89e9 6a3d 7c84 0e3d 2d02 133d
00000320: ae1f 643b 53b5 bf3b 0497 fd3b 8b57 1a3c
00000330: 6ea9 273c da53 203c 78e0 b23b 439f f93b
00000340: dfd6 5a3b a66d ab3b a46b eb3b f414 113c
00000350: 64ce 1a3c 1440 133c 0937 a03b 214e ec3b
00000360: 892a 8b3c f703 913c 6862 5d3c 71a3 803d
00000370: 0ea2 7d39 328a af3c d65c a13d 48b3 6f3d
00000380: 1d52 6f3d 4b02 f539 86dc 593a dd6d 983a
00000390: 8268 be3a d3a7 c73a f50d d23a 67a1 553a
000003a0: e3ea a23a e8dd db39 f5c0 343a e313 6d3a
000003b0: ec29 9f3a 1582 a53a 8a3d aa3a 4c09 1c3a
000003c0: 3615 623a 388a 143b 93e8 293b a966 a33a
000003d0: 593f 093c 05ee aa37 1261 993b a435 3a3c
000003e0: 1a48 ff3b 1776 003c 04c0 913a 0336 bb3a
000003f0: 25d5 cd3a b812 273b fd58 263b 821f 503b
0.0013548264 0.0025024612 0.0034594384 0.0044298037 0.004540743 0.004849554 0.0024124032 0.0038151895
0.0012938231 0.0023571493 0.003237624 0.0042989533 0.0043923543 0.0046804673 0.0021242895 0.003355703
0.008123018 0.0062025785 0.005511433 0.026697027 6.6656925e-05 0.0145247 0.034764893 0.024714835
0.025209963 0.00052304677 0.00077997695 0.0017258421 0.0012903034 0.00195608 0.0014036864 0.0009629244
0.0012264539 0.000464803 0.00068090414 0.0005998926 0.0011654178 0.0010589067 0.0011004278 0.00045278072
0.0007089762 0.0025488955 0.002290127 0.0022309448 0.013960104 3.3403394e-05 0.0025655162 0.014376821
0.012625048 0.012598466 0.00014519812 0.00024357723 0.00036579533 0.00045929864 0.00049718865 0.0005557792
0.00025066835 0.00043535212 0.00015786322 0.0002804864 0.0003727165 0.0005364288 0.00045916895 0.00065839704
0.00025067557 0.00051693677 0.0008599127 0.0016502638 0.00046687204 0.0028790766 4.737417e-06 0.0018479369
0.0038977407 0.0026444334 0.0026515573 0.010594553 0.039557952 0.07201866 0.076231875 0.09902099
0.06891524 0.05165125 0.060350105 0.009626475 0.035537496 0.06708273 0.069799215 0.09247874
0.06308239 0.046004537 0.05715463 0.23777142 1.0469902e-06 0.16111891 0.1825261 0.00040652198
0.14725077 0.25118 0.19891118 0.20361277 0.0036235966 0.0056575206 0.006955297 0.008178724
0.008351348 0.008425402 0.0046908017 0.0064921635 0.0031883894 0.0037097076 0.004852812 0.0062261247
0.006854362 0.0062061907 0.0031342506 0.0042066285 0.011590182 0.018405626 0.014709155 0.06439344
0.00029259088 0.019977616 0.08330261 0.059518926 0.05767898 0.0015119631 0.0020785923 0.002634405
0.0033980832 0.003658538 0.003837216 0.0018867053 0.0031262669 0.0016729063 0.0025062684 0.0029892612
0.0039774547 0.0035121008 0.004166301 0.0020764512 0.0033960522 0.0051014055 0.009081949 0.004847916
0.027122384 0.00010240895 0.010125595 0.039678562 0.024597265 0.024820192 0.001943498 0.0031210952
0.004227617 0.0045939367 0.005022438 0.004569802 0.0027580257 0.003789963 0.0014293877 0.0018330973
0.0022398436 0.0033907366 0.003497441 0.0033881715 0.0015420616 0.0022425991 0.006262093 0.008767938
0.0069936747 0.03928557 0.0001257102 0.011791272 0.047540087 0.03561144 0.035234965 0.002027726
0.004216746 0.006250139 0.007574565 0.00825164 0.008049423 0.004377098 0.00669867 0.0018133123
0.0035024432 0.0054549947 0.006876827 0.0076693115 0.007389116 0.003640995 0.0055349004 0.015568058
0.010021643 0.009660705 0.037893783 8.603645e-05 0.022430345 0.057351623 0.034794316 0.035890747
0.0034808922 0.005850473 0.0077389497 0.009420286 0.010233266 0.009785617 0.0054588877 0.0076178624
0.0033392233 0.005231577 0.0071844626 0.008855093 0.009448621 0.008987445 0.004889373 0.007211462
0.016988056 0.017702086 0.013512231 0.06281174 0.0002418833 0.021428201 0.07879035 0.058520585
0.05842792 0.0004673175 0.00083107536 0.0011629421 0.0014526995 0.0015232511 0.0016025888 0.0008149356
0.0012429621 0.00041936268 0.0006895208 0.0009043796 0.0012143231 0.0012627268 0.0012988311 0.0005952313
0.00086243765 0.0022665393 0.0025925979 0.0012466508 0.00837692 2.0376416e-05 0.004680761 0.011365328
0.0077905776 0.007840655 0.0011119847 0.0014283065 0.0015703781 0.0025493335 0.002538263 0.0031757061

exp_avg f4 [48]
00000000: 2fcd abbc b0fd a3ba 1042 acbc 163a 0d3e
00000010: 19c0 a7bc 3f25 22bd 4f22 f6bc 877a b2bb
00000020: 4032 ffbc acb4 7b3c bb89 663c 7258 b13c
00000030: d75e 3c3d 2d4a 823b d001 443d f0e9 18bc
00000040: 75ae 3fbd 6da5 f339 0b92 1c3d db2b cabb
00000050: 2f09 e0ba 7db7 3dba 2e93 0b3b cbcc 143c
00000060: ec84 9b3b d24e 87bd 4874 c33b 6e91 50bd
00000070: 0fc2 873c 9d23 1abc c383 25bd bb13 993c
00000080: 9ef5 943d b794 7a3d c602 c2bc a418 8ebb
00000090: 34c3 bf3c 2e6a 633d e139 6cbc 92e5 80bc
000000a0: 6fe2 3bbb 988b 923a 7c8b 86bd c5eb 063c
000000b0: f468 353b 787e a1bc e17d 803c 7304 e23b
-0.020971863 -0.0012511518 -0.021027595 0.1379169 -0.020477341 -0.039586302 -0.030045656 -0.0054467353
-0.03115189 0.0153629 0.014070923 0.02164862 0.045988884 0.0039761276 0.04785329 -0.009333119
-0.046797235 0.00046471824 0.038225215 -0.0061697788 -0.0017092581 -0.000723712 0.0021297443 0.00908203
0.00474607 -0.06606831 0.0059647895 -0.050919943 0.016572027 -0.009407905 -0.04040886 0.018686166
0.0727341 0.06117698 -0.023682963 -0.0043364335 0.02340851 0.055521183 -0.014418096 -0.015734468
-0.00286689 0.0011180518 -0.06569573 0.008234923 0.0027680965 -0.019713625 0.015685024 0.006897503

exp_avg_sq f4 [48]
00000000: 552a e33c 2687 6e3c 0e3a 423b c0a7 413e
00000010: bf11 8c3d a403 ea3c f5f2 283d 26b7 203d
00000020: a398 873d cc6d 0e3c 45dc ac3c 272b a23b
00000030: 17d8 a83c 3884 843b 1d60 473d 8afd 8a3b
00000040: 57b9 d33b 06b7 7d3b b6f8 033d bf8c 213c
00000050: ab7e 453a da1e de3b fcee a93c a872 243c
00000060: adfa 393d 867b d43c 0009 9d3b 5565 b73c
00000070: c3cb 8c3b a99a e83b 3070 ab3c fecf 693c
00000080: 9337 833d 07fc bf3d 3a77 1b3d f96d b23c
00000090: 0f83 0e3c 2208 9e3d c912 3a3c d8c7 cf3c
000000a0: abbe 163c 152c 633c 28ff 923d c78a fc3b
000000b0: 0cfa ac3c 0692 2e3b d302 a23b f188 f23c
0.027730146 0.014558589 0.0029636654 0.18911648 0.06839322 0.02856619 0.041247327 0.039237164
0.0662091 0.00869317 0.021101126 0.004948992 0.020610852 0.004044082 0.048675645 0.00424165
0.006461303 0.0038713827 0.03221961 0.009860217 0.00075338286 0.00677858 0.02074384 0.010037102
0.04540508 0.025937807 0.0047923326 0.022387186 0.004296751 0.007098515 0.020927519 0.014270781
0.06407084 0.09374242 0.0379555 0.021780955 0.008698239 0.07716395 0.011357018 0.025363848
0.009200732 0.01386549 0.071775734 0.0077069732 0.021115325 0.002663733 0.0049441843 0.029606314
