training/blind_neural_network.pth (torch, 50661 bytes, 20 tensors)

net.0.weight f4 [64, 20]
000000 41 3f 36 3d 8c c7 d9 3d ff 43 2a 3e b9 ea 4b 3d
       0.044493917 0.10633764 0.16627501 0.049784396
000010 da 71 85 3c 1a b5 8e 3c 4c 7a 75 3c 2a d0 bd 3c
       0.01628964 0.01742034 0.014982771 0.02317055
000020 9e 46 74 3d 80 98 cf 3d e4 9a 4e bd ac a5 f0 3c
       0.05963766 0.10136509 -0.050440684 0.029375874
000030 92 30 25 3d 6a a1 cf bb 60 9a 7b bc 0e 6f 01 3d
       0.040329523 -0.0063363807 -0.01535663 0.03160005
000040 b8 cd 8c 3d 66 b7 34 3d f8 64 01 3d 3c 9f 69 3d
       0.06875175 0.044120215 0.031590432 0.057036623
000050 2b e6 0e 3f 83 8f ad be 0e 35 22 3d 09 70 52 be
       0.5581996 -0.33898553 0.03960138 -0.2055055
000060 dd 6d bb be b8 8d 84 be b9 e4 6c be 41 44 3f be
       -0.36607257 -0.25889373 -0.23134126 -0.1867838
000070 fa 0f e0 bc 4b f8 62 3d 23 46 c5 be 23 e6 20 bf
       -0.027351368 0.055412572 -0.38530073 -0.6285116
000080 71 e6 e9 bd f2 58 6e be f6 3e b8 bd c0 79 57 3d
       -0.11420906 -0.23276117 -0.08996384 0.052606344
000090 87 7d a5 bc 05 6b 5c 3d ae cd a6 be 84 cf 28 3c
       -0.020201458 0.053813 -0.32578796 0.010303382
0000a0 b7 a9 d1 bf 4c ef 60 be db 28 9e 3f 8c ab d6 3e
       -1.6379918 -0.21966285 1.2356218 0.41927755
0000b0 93 cb bc 3d 7c 0c 17 3d b3 91 ee bb b6 5e 01 bd
       0.09218516 0.03687714 -0.0072805523 -0.031584464
0000c0 42 50 1a bd f6 24 aa bd c3 e2 1a 3e 4e 94 93 3d
       -0.037674196 -0.08307831 0.15125565 0.07206021
0000d0 38 82 a2 3c f8 11 57 3c 93 be 9b 3b 11 9a d7 ba
       0.019837484 0.013126843 0.004752943 -0.0016449114
0000e0 50 32 a0 3c 54 13 31 bd 23 eb a2 3e bc 0c 0c be
       0.01955524 -0.043231323 0.3182002 -0.13676733
0000f0 9e 77 01 be c5 5f 4c bf 21 40 da 3e 95 a1 11 3e
       -0.12643287 -0.7983363 0.4262705 0.14221795
000100 d0 03 37 3e 1b 2b 5c 3c e5 0d a1 bc 19 69 67 3b
       0.17872548 0.0134380115 -0.019659946 0.0035310446
000110 25 94 0d bc 2f b1 67 3d 75 b6 1e be 0d bb 3e 3c
       -0.008641277 0.05656546 -0.1549929 0.011641276
000120 25 62 36 bc 9d 15 6c bb 8c 35 ef bc 6d fe 82 bc
       -0.011131798 -0.0036023625 -0.029200338 -0.01599046
000130 8b f8 f9 bc dd f6 72 bc 49 a2 6b 3d 59 3c 23 3e
       -0.030514022 -0.014829365 0.057527814 0.1594099
000140 27 b1 f8 3f b0 e7 35 3e 4b bb 40 bf 53 89 dc be
       1.9429063 0.17764163 -0.75285786 -0.4307352
000150 80 83 1c be f0 ba b6 bd d9 5e d6 bc 3a 1b a9 3c
       -0.15284538 -0.08922374 -0.026168274 0.020642865
000160 a8 6e 8e 3d c2 97 05 3d 49 bc ce bd db 0a f3 bb
       0.069547 0.03261543 -0.10094506 -0.0074170656
000170 a1 e7 59 bc db d2 1e bd b9 49 66 3b f2 17 20 3d
       -0.013299854 -0.038775306 0.0035139157 0.039085336
000180 f1 43 cd 3c f6 97 03 3d 39 dd 83 be 82 7a 45 3d
       0.025056811 0.032127343 -0.25754717 0.048212536
000190 ef 7d 18 40 55 80 40 3e 62 72 0e bf 82 15 f9 be
       2.3826864 0.18798955 -0.55643284 -0.48649222
0001a0 84 bf 63 be f3 05 4e bd b6 2c c5 3c d2 3f 3e 3d
       -0.22241026 -0.050298642 0.024069171 0.046447583
0001b0 a8 c0 8a 3d 8f 35 92 3d 47 ae e1 bd d4 7e f2 bd
       0.067750275 0.07139122 -0.11019569 -0.11840597
0001c0 12 99 52 b9 93 6c 5c 3c f5 bf 37 bb 5b 5a 40 3c
       -0.00020084184 0.0134536205 -0.0028038 0.011740292
0001d0 0f dc 0a 3d fc d7 a7 3c 26 ef 83 be d2 d5 ca 3b
       0.03390127 0.020488732 -0.25768393 0.00619004
0001e0 83 06 f3 bd 49 60 2a 3e 93 55 3d 3c f0 b5 85 3c
       -0.118664764 0.16638292 0.011556047 0.016322106
0001f0 6d a4 d1 bd ef 3e 83 bd 8b 0b a6 bd d7 4b 73 be
       -0.1023644 -0.06408488 -0.081076704 -0.237594
000200 72 32 cd be d5 77 90 be 20 0f c3 3c 37 15 85 3b
       -0.4007755 -0.28216425 0.023810923 0.004061367
000210 38 f2 ad bd bb 16 c4 bd 3e 06 42 be 8c 88 92 be
       -0.08493465 -0.09574648 -0.18947694 -0.28619802
000220 f0 c0 ad be 0e a2 05 bf 94 04 ca 3c be e0 f7 3d
       -0.33936262 -0.522004 0.024660386 0.12103413
000230 18 43 54 bf 24 56 61 bf ec d5 d2 bd 77 80 be bc
       -0.82914877 -0.88022065 -0.102947086 -0.023254616
000240 89 f1 87 3d 5d d0 a5 3b 2b 9e 94 bd e2 86 f2 3c
       0.06637866 0.005060239 -0.07256731 0.029605333
000250 97 8a e3 3d 8f d2 92 bd f9 55 7f 3d 88 1a 63 be
       0.11110418 -0.07169067 0.06233785 -0.2217809
000260 b2 1c ca be 1f e9 c0 be 3b 5d 7e be f5 b7 0e bd
       -0.39475018 -0.37677857 -0.24840252 -0.034843404
000270 19 d8 90 3e a9 b8 8d 3e 32 54 e3 bc 74 fd 1c 3d
       0.2828987 0.27679947 -0.027750108 0.03832765
000280 e7 d7 91 3f f5 f0 22 be 1d 6c d2 bf 28 3f 24 be
       1.1394013 -0.1591223 -1.6439244 -0.16039717
000290 ce 3e 40 bd f6 1d 6a bd 1d 2c ed 3b 85 fb 53 3d
       -0.046934895 -0.05715748 0.0072379247 0.05175354
0002a0 3a a6 c7 3c 3d 90 1d 3d b4 a0 6c 3e 21 99 8c 3d
       0.024371255 0.038467634 0.23108178 0.068651445
0002b0 6b 48 a5 3d 0a d0 23 3c 70 70 35 bc c5 19 5f 3d
       0.08070453 0.009998331 -0.0110741705 0.054467935
0002c0 2b 37 c3 3d 85 5c 5f 3d 77 93 0c be 17 3b 33 3d
       0.09532007 0.054531593 -0.13728128 0.043757524
0002d0 4f d5 0a c0 ef 50 c0 be 74 8e c8 3f fd 20 ed 3e
       -2.1692693 -0.37561747 1.5668473 0.4631423
0002e0 0b 55 3f 3e 6b 17 c5 3d 8d b4 01 3d 29 a4 dd bc
       0.18684785 0.09623607 0.031666327 -0.027055817
0002f0 7a 9a 7a bd 82 26 4d bc 25 2e bd bd 78 8d 2e 3d
       -0.061182477 -0.012521388 -0.09237317 0.042615384
000300 77 e9 81 bd db 63 8e bd c5 ff 35 bc 59 c1 c0 bc
       -0.06343358 -0.0695264 -0.0111083435 -0.023529695
000310 6f c4 ae bd 75 b7 03 bd 93 92 95 3e d7 59 76 3c
       -0.085335605 -0.03215738 0.2921339 0.015036068
000320 38 6e ef 3c bd db 2c bd dc 83 10 3d f5 7e 62 bd
       0.029227361 -0.042201746 0.035282 -0.055296857
000330 1b a2 93 bb fd 27 d3 3c 5a ae 30 3d 90 ba 57 3d
       -0.0045054085 0.025775904 0.043135025 0.052668154
000340 bd 0f 15 3d b8 c3 5c 3d 07 d5 39 bd 71 68 35 bd
       0.036391962 0.05389759 -0.045369174 -0.044289056
000350 00 fa cf bc c7 81 42 3c 3c 79 89 3d 19 83 ec 3d
       -0.025387764 0.011871762 0.06712577 0.115484424
000360 0e bb 10 3e 8a 91 ce 3d 2d c6 bd bc 74 65 0b bc
       0.14133856 0.10086353 -0.023165787 -0.008508075
000370 c7 81 46 3e 8b d3 f3 3c 60 93 e8 3d 4a 04 73 3d
       0.19385444 0.029763957 0.113562346 0.059330262
000380 9a d3 bc 3d eb 47 71 3a 48 7c 96 bd 7b a6 f9 bd
       0.09220047 0.0009204137 -0.073479235 -0.12189957
000390 8e 0c 1c be cf 05 ef bd 80 7c 87 3e 0d 9e 01 3e
       -0.15239164 -0.1167103 0.26462173 0.12657948
0003a0 7a 73 dd bc 05 68 b7 bd 1c 43 a9 bd d1 7b 1f bd
       -0.027032603 -0.08955387 -0.08264753 -0.03893644
0003b0 26 3e ca 3a 0e 12 62 bd 86 e7 ae 3d 91 29 ce bd
       0.0015429899 -0.055193 0.08540253 -0.10066522
0003c0 a5 af 62 3e fb 50 46 3f 9d 65 26 3d e2 3c 5c 3e
       0.22137316 0.77467316 0.04062425 0.215076
0003d0 e6 44 27 3e 5d bf fe 3d 77 3a 8d 3d 75 53 75 bd
       0.16334876 0.124388434 0.06895917 -0.059894044
0003e0 f8 e1 fe bd fd e0 46 be 02 88 2a be 4a c9 97 3c
       -0.12445444 -0.19421764 -0.16653445 0.0185286
0003f0 f0 b5 1c bc 96 3e c0 bd 33 84 ee bd 94 15 c2 bd
       -0.009564862 -0.09386937 -0.11646309 -0.09476772

net.0.bias f4 [64]
000000 5c ec 29 bf 9f d2 2c bf a4 22 b6 be b9 6a c0 3e
       -0.6637628 -0.6750888 -0.35573304 0.37581423
000010 bd 93 20 be 10 9f f2 bc 80 64 3f bf b9 50 dd 3d
       -0.15681358 -0.029616863 -0.74762726 0.10806412
000020 fe ca 3b 40 51 4e 06 bf 0a 2b 22 3e f1 36 98 bf
       2.9342647 -0.5246325 0.1583673 -1.1891767
000030 6c 08 49 bf 5a 51 9d 3f 0e 2d 96 bf f5 a5 b8 3f
       -0.78528476 1.2290452 -1.17325 1.4425646
000040 78 93 45 bf 0f f7 bd bf 67 27 03 bf 09 e1 21 3f
       -0.77178144 -1.4841021 -0.51232 0.63234
000050 18 8b df 3d c8 8e cb 3f c7 92 60 3f b8 de e7 bf
       0.10915202 1.5902948 0.87723964 -1.8114843
000060 19 82 46 bf 64 0d bd be bd 6d b7 3e 7f 4f 5b bd
       -0.77542263 -0.3692428 0.3582591 -0.05354261
000070 aa 0d 3e 3f 41 e0 c9 3e e4 7a 4d bf e4 66 22 bf
       0.742396 0.39428905 -0.8026564 -0.6343825
000080 d9 c8 91 3f 99 9c 4b bf a7 e2 d4 bf 68 28 09 3e
       1.1389419 -0.79535824 -1.6631669 0.1339432
000090 ed d6 94 be 98 10 8b be be a3 45 3f bf 85 9e bf
       -0.29070225 -0.27161098 0.77202976 -1.2384566
0000a0 03 88 c8 3e 83 36 b3 be 1c ea 76 3f bf 83 c3 3e
       0.3916627 -0.35002527 0.9645097 0.38186452
0000b0 55 a1 e6 3f 82 11 c0 bf 9e 1d af 3f 5a 71 bb 3e
       1.8017985 -1.5005343 1.3680913 0.36609918
0000c0 a6 a3 62 3f 84 c9 e2 be 20 87 ff 3e 43 e8 d7 3e
       0.8853096 -0.4429437 0.4990778 0.4216939
0000d0 a6 68 a2 be c2 12 4e bf 18 4f 85 be 7f 28 2d 3f
       -0.31720465 -0.8049737 -0.26036906 0.6763992
0000e0 e1 10 40 3f c1 26 a7 bf 5e c6 51 3e d2 c8 8c bf
       0.75025755 -1.3058702 0.20485827 -1.0998785
0000f0 59 33 a9 be cf a5 39 bf f2 6c bc bf 39 53 68 3e
       -0.33046988 -0.7251863 -1.4720747 0.22687997

net.2.weight f4 [64]
000000 94 20 09 3f fc 2b 59 3f 30 e9 1f 3f 02 05 31 3f
       0.53565335 0.8483274 0.6246519 0.69148266
000010 83 f3 25 3f 42 01 2d 3f e7 3d 30 3f bd fb 91 3f
       0.64824694 0.67580044 0.68844455 1.140495
000020 ff c4 23 3f 00 49 3e 3f 7b be 25 3f 16 7b 2f 3f
       0.6397247 0.7433014 0.64743775 0.6854719
000030 bb ef 3e 3f c4 22 36 3f 2d d3 3b 3f 50 a2 92 3f
       0.7458455 0.711468 0.73369104 1.1455784
000040 fb 8d 0e 3f 65 0e 41 3f 49 3c 3a 3f 8d 48 82 3f
       0.55685395 0.7541259 0.7274824 1.0178391
000050 03 19 25 3f 13 3b 26 3f 98 c6 0e 3f e0 87 48 3f
       0.6449129 0.6493389 0.5577178 0.7833233
000060 15 26 79 3f 1d 9a 39 3f 0f 5d 4d 3f 68 10 44 3f
       0.97323734 0.72500783 0.8022012 0.76587534
000070 e9 22 3d 3f 8f c1 3d 3f 0e 5d 38 3f b6 0b 3e 3f
       0.73881394 0.7412347 0.7201699 0.7423662
000080 2a e5 3f 3f d4 91 3e 3f 0d 1b 83 3f 72 53 1e 3f
       0.7495905 0.74441266 1.024263 0.6184608
000090 68 6e 22 3f 32 3b 25 3f a4 ef 3c 3f 99 87 25 3f
       0.63449717 0.6454345 0.7380316 0.6466003
0000a0 a9 5a 06 3f d1 3c 8e 3f f2 b2 47 3f eb 71 84 3f
       0.52482086 1.111231 0.78007424 1.0347265
0000b0 45 87 70 3f dd 34 3d 3f d0 5e 43 3f 7d e8 1f 3f
       0.93956405 0.7390879 0.7631655 0.62464124
0000c0 ce db 7c 3f 2e 3b 3f 3f fd c3 3d 3f 16 8c 3f 3f
       0.98772895 0.74699676 0.7412718 0.7482313
0000d0 90 bc 1e 3f eb c7 5e 3f 71 09 6e 3f 75 da 39 3f
       0.62006474 0.870238 0.92983156 0.72598964
0000e0 4a 1a 36 3f c4 ab 3c 3f 92 ce 56 3f 37 a6 68 3f
       0.71133864 0.73699594 0.8390895 0.90878624
0000f0 c8 8e 24 3f 39 9d 38 3f f7 7f 33 3f 33 08 22 3f
       0.64280367 0.721149 0.70117134 0.6329376

net.2.bias f4 [64]
000000 87 50 d7 be d2 b9 f6 3c 44 5f e8 be 0d f7 20 3f
       -0.42053625 0.030117903 -0.45385182 0.6287697
000010 0a e1 24 3f 34 c8 34 3f 2c e8 ec bd 86 5d 9b be
       0.6440588 0.70617986 -0.11567721 -0.3034479
000020 74 db cd 3e 33 11 6c bd 27 1a 5a 3e d8 96 da bd
       0.40206492 -0.05763359 0.21299039 -0.106733024
000030 c1 db ea 3c 3f b9 31 bc 51 df 3e be 3b 28 06 bf
       0.02866924 -0.010847389 -0.18639876 -0.52405137
000040 90 3e d5 be b3 d0 0c bd 5a 25 1e be 93 1e 1a 3e
       -0.41649294 -0.03437872 -0.15443936 0.15050726
000050 21 56 2b 3f 86 37 23 be d6 94 16 3f 4c c6 1b bf
       0.669283 -0.1593915 0.58820856 -0.6084945
000060 4e d4 31 3e 1b dc 99 3c 47 e6 fc 3e fb 52 c4 be
       0.17366144 0.018781712 0.49394438 -0.3834456
000070 5e e8 82 3d a6 59 ce 3e 90 39 11 be 9f bc 83 bb
       0.06391977 0.4030277 -0.14182115 -0.004020288
000080 c6 37 41 3d 57 46 d1 3e 96 0d 06 be 71 90 65 3e
       0.04717233 0.40873978 -0.1309112 0.22418381
000090 47 22 2d bf cf 49 2b 3f fe 4f 00 3e e2 41 e8 3d
       -0.6763043 0.669095 0.12530515 0.11340691
0000a0 c6 86 f0 3e e1 08 03 3e 5e 7b ab be 1b 8c 0a be
       0.46977824 0.12796356 -0.3349256 -0.13530008
0000b0 4e 7d 82 3e e8 69 f1 be 26 e9 cf 3e b9 f4 24 bf
       0.25486225 -0.47151113 0.40607566 -0.6443592
0000c0 9d 04 0a 3c fb bc d4 be e5 c8 b4 be 25 a3 29 be
       0.008423951 -0.4155043 -0.3530952 -0.16566141
0000d0 e9 0a 26 bf 9d 19 b3 3e c0 91 9e 3e cb 12 16 3e
       -0.648604 0.3498048 0.30970573 0.14655606
0000e0 67 89 bb be 82 2c 76 3e ee 8f 3d be 0a 6f fe bd
       -0.36628267 0.24040416 -0.18511936 -0.12423523
0000f0 ea 99 2a bf ad aa 15 be a9 a6 1a 3e a9 43 28 bf
       -0.66641104 -0.14615889 0.15102638 -0.6572824

net.2.running_mean f4 [64]
000000 81 78 04 bf c8 7e 6a bf a2 ee 0a bf 2d 89 c8 be
       -0.51746374 -0.915997 -0.54270375 -0.39167157
000010 64 85 86 3e 97 54 4a 3e b4 5f 6d bf 35 73 17 bf
       0.26273644 0.19758831 -0.92724156 -0.59160167
000020 c1 c3 7f 3f f7 87 42 bf 47 01 d3 3e 7e 0a 4e bf
       0.9990807 -0.75988716 0.41211912 -0.8048476
000030 30 11 44 bf 16 10 00 3f 95 b3 61 bf b2 ef 1d 3f
       -0.76588726 0.50024545 -0.88164645 0.6169387
000040 ff 52 17 bf 45 29 4c bf d4 f4 3b bf 6f 55 66 3e
       -0.59111017 -0.7975047 -0.73420453 0.22493528
000050 35 fb 25 3c 68 c1 61 3f 94 64 33 3f 75 7f 2a bf
       0.010130693 0.8818574 0.70075345 -0.66600734
000060 63 0c 6c be 10 e1 71 bf 2c 05 4a bf f4 c2 9c be
       -0.230516 -0.94484043 -0.7891414 -0.30617487
000070 51 11 62 3f 59 43 71 bd 60 00 60 bf a4 6f 4d bf
       0.8830767 -0.05890212 -0.8750057 -0.80248475
000080 26 cd df 3e 93 cf 49 bf 9f e4 19 bf f4 ce e5 bc
       0.43711203 -0.7883236 -0.60114473 -0.028052785
000090 db cf 8b be 53 28 0b 3e ee 94 4b 3f cf c7 49 bf
       -0.2730702 0.13589601 0.79524124 -0.7882051
0000a0 7d 19 a3 bd 7c 8d c1 3e 89 32 4c 3f 52 71 7a be
       -0.07963846 0.37803257 0.7976461 -0.24457291
0000b0 80 de 7f 3f 86 ad 7e bf a2 16 2c 3f 74 8c 83 bd
       0.99948883 -0.99483526 0.67222035 -0.06423274
0000c0 f4 89 9d 3e 1a 32 b1 be 8e eb 5b 3f 19 0a a1 3e
       0.30769312 -0.34608537 0.859063 0.31453016
0000d0 58 51 ca be d5 c9 b6 be 20 12 b8 3e 85 b6 4c 3f
       -0.39515185 -0.3570086 0.35951328 0.79966
0000e0 d6 42 55 3f 35 e1 52 bf 3b 5f 0f 3e 77 ae 49 be
       0.8330511 -0.8237489 0.14001171 -0.1969546
0000f0 08 20 d3 be 33 49 64 bf 47 b8 55 bf a4 8c eb bd
       -0.41235375 -0.89174193 -0.8348431 -0.115014344

net.2.running_var f4 [64]
000000 ae 7d 86 3c 39 5b 91 3c f5 40 a8 3e 10 32 82 3e
       0.01641735 0.017743694 0.32862058 0.2542882
000010 cf 5e 08 3f 06 e0 1e 3f b3 e4 2d 3c 32 47 85 3e
       0.53269666 0.6206058 0.010613608 0.2603088
000020 97 4c 9f 36 e9 a6 52 3e bb cd 98 3c 3c ab b3 3b
       4.7474855e-06 0.20571484 0.018652787 0.005483059
000030 be 75 ea 3d cc 23 9c 3d 29 29 8f 3d f8 9c e9 3e
       0.11448239 0.07624015 0.069902726 0.4562757
000040 0b 1c ed 3b 24 78 43 3b ff 39 64 3e d2 21 32 3f
       0.007236009 0.0029826248 0.22287749 0.69582856
000050 a9 24 95 3d df 9c a7 3a 5f c0 98 3c 24 0a 96 3e
       0.07282383 0.001278784 0.018646417 0.29304612
000060 51 c7 08 3e 66 e4 e1 3a e4 9e cc 3d 16 66 ac 3e
       0.13357283 0.0017234206 0.099912435 0.33671635
000070 2c 45 a2 3d b6 84 36 3f a2 04 a5 3d 55 ca 98 3c
       0.0792335 0.7129625 0.08057524 0.018651167
000080 f6 74 ac 3e e5 7c da 3d d8 13 e4 3e 43 73 1e 3d
       0.33682984 0.10668353 0.4454639 0.03868414
000090 76 21 00 3f ab 2e 18 3f 46 29 2d 3e 89 ae b0 3a
       0.5005106 0.5944621 0.16910276 0.001347975
0000a0 96 3b 2f 3e bd f8 74 3e 6f 9e 8f 3d b3 c0 1f 3e
       0.17112574 0.23923011 0.07012641 0.15600853
0000b0 0b 3a 35 36 f6 a3 f3 37 8b 30 0b 3e 12 42 0e 3f
       2.7004887e-06 2.9044208e-05 0.13592736 0.55569565
0000c0 64 61 fa 3d c1 dc 79 3c 82 07 62 3d d1 15 36 3d
       0.12225607 0.015250386 0.05518294 0.0444544
0000d0 82 9d e1 3e a2 6a 15 3f a1 99 09 3e 66 49 2e 3e
       0.4406548 0.58365834 0.13437511 0.17020187
0000e0 9a b3 a7 3d 8d b0 46 3b f8 a4 fa 3b b0 3a 9b 3e
       0.08188553 0.0030317635 0.0076490603 0.30318213
0000f0 f2 9b df 3e a5 e3 91 3d 66 5d fc 3c 3e f9 0b 3f
       0.43673664 0.07123498 0.030806255 0.5467719

net.4.weight f4 [64, 64]
000000 42 12 e3 bd c9 52 39 3c 04 b6 60 be c7 3a 8d 3f
       -0.11087467 0.011311241 -0.21944433 1.1033562
000010 97 8f ac 3e 3b 05 ad 3e fe 4f 12 bd d2 cc 0f 3c
       0.337033 0.33793053 -0.035720818 0.00877686
000020 77 fe b2 3c d5 e5 39 bd 38 31 2a 3e 46 c0 be 3c
       0.021849854 -0.0453852 0.16620338 0.023285042
000030 20 4f 95 bd 6a e5 ed bd 33 15 f6 bd 0d 3c c8 3d
       -0.072904825 -0.11616023 -0.12015762 0.09777079
000040 a1 cd ae bd 5d c5 7d 3d 50 f3 a9 bd 86 56 d9 3d
       -0.08535314 0.0619558 -0.08298361 0.10612206
000050 51 87 30 3d 87 c9 77 bd 97 c0 c8 3d b5 57 04 be
       0.043097798 -0.060494926 0.098023586 -0.12924083
000060 f0 46 84 bd 4e f6 c8 3d 02 46 78 3f e5 1d 90 bd
       -0.06458843 0.09812604 0.96981823 -0.07036952
000070 da 05 c9 3d c3 a1 41 3d ef 22 ef bd 7f a9 88 bc
       0.09815569 0.04727341 -0.11676585 -0.016682385
000080 5a 0a 6a 3d a8 f3 86 3e 31 de 09 be 93 a9 1b 3e
       0.05713878 0.2635777 -0.13463666 0.15201406
000090 4c a2 9f bd c0 c0 9f 3e a1 3c 1a 3d 8d d6 56 3d
       -0.077946275 0.31201744 0.037655476 0.052450705
0000a0 1d 8c 29 3f b7 fd 66 be ae c2 c1 3c 5d cc 28 3e
       0.6622942 -0.22557722 0.0236524 0.16484208
0000b0 f5 be 9b 3e 3a c9 dd 3d 91 63 c9 3d 0b cb 90 be
       0.30419126 0.108293965 0.09833444 -0.2827991
0000c0 0f a1 46 3e 64 65 9d bd 41 4a 40 ba cb c6 c9 bd
       0.19397376 -0.07685354 -0.00073352834 -0.0985237
0000d0 b8 18 c4 bd b4 42 93 3b 05 4c c8 bd c7 91 22 3d
       -0.09575027 0.0044940356 -0.097801246 0.039689805
0000e0 45 68 a3 3b 43 fc 7e 3e f1 fb b9 bd 3c 0a bd be
       0.004986795 0.24900918 -0.09081257 -0.3692187
0000f0 80 85 c1 bd 49 06 03 be 69 24 be 3d 00 2d 9b be
       -0.09449291 -0.12795366 0.092842884 -0.3030777
000100 ae 2f c1 3b d4 50 5b 3e f7 6a bf bc 57 19 17 3d
       0.0058955764 0.21417552 -0.023366434 0.0368894
000110 42 f9 d3 3c 60 52 d6 3c b9 7c 94 3d c4 71 7f bd
       0.025875691 0.026162326 0.072503515 -0.062364355
000120 20 16 9d bd d8 df 8a bc bd 7d df bd bd 50 c1 bd
       -0.07670236 -0.01695244 -0.109126545 -0.09439228
000130 5e 28 3a bc a2 88 2e 3d 5d bc 2c 3d 39 9a 9b bc
       -0.011362163 0.042610772 0.042171825 -0.018994438
000140 8a 32 f4 bc 74 60 f7 bd f4 57 b9 bc 1d b4 bb 3c
       -0.029809255 -0.12078944 -0.022624947 0.022913033
000150 20 ff 2a 3d 4c 54 6e 3d 07 7d fc 3b 4f 54 27 3d
       0.041747212 0.05818586 0.007705334 0.040851887
000160 68 ff cb 3a 87 47 96 3d fc dc 46 3d 91 1e 04 bd
       0.0015563788 0.073378615 0.04855059 -0.032255713
000170 ed de c2 bd 4f a8 50 3c ef 90 95 3d 2b da bd 3d
       -0.09515176 0.01273544 0.073030345 0.09270128
000180 be fa 11 bd b3 f8 61 3d 1d e1 be 3c 50 db af bd
       -0.035639517 0.05516882 0.023300702 -0.085867524
000190 42 ad 20 bd dc e6 89 3c de 45 43 3c 1f 7f ec bd
       -0.03922773 0.016833715 0.011918513 -0.11547684
0001a0 5f 0e 3d 3d 59 9c bb 3c 2f 2a 2e 3d 96 5f 05 bc
       0.046156283 0.0229017 0.0425207 -0.008140465
0001b0 c9 b6 aa be 59 55 25 3d 3c dd 9e bc 1a 2e 63 bb
       -0.3334258 0.040364597 -0.019392602 -0.003466493
0001c0 73 52 80 3b ad 17 04 3c 87 02 69 bd 5c 03 52 3d
       0.0039160787 0.008062285 -0.056887176 0.051272735
0001d0 02 45 37 bd 68 38 9f bd 10 df a5 3c 79 ea 81 3c
       -0.044743545 -0.077744305 0.020247966 0.015858876
0001e0 9a 7b 88 bd f9 db 32 39 be 0a 33 3c 6c db 97 bb
       -0.066642 0.00017057349 0.010927854 -0.0046343114
0001f0 d5 4c 37 bd b4 f2 ba 3d 78 9c a4 bd 25 d0 16 bc
       -0.044751007 0.09128323 -0.080376565 -0.009204899
000200 3d 73 e6 bd 21 26 47 be 66 3a 08 3d 93 cb 1c bd
       -0.11252449 -0.19448139 0.033258818 -0.03828008
000210 7d 9c 63 bd 63 15 2d be 14 07 5c bd 2a da fe bb
       -0.05556916 -0.1690269 -0.053717688 -0.007777472
000220 c8 2a 37 bd 2f 84 49 bd 26 33 e9 3c 26 f4 75 be
       -0.044718534 -0.049198326 0.028466772 -0.24018916
000230 c8 29 b5 bd 38 35 73 be 25 e6 32 be 2a e0 b7 bd
       -0.0884586 -0.2375077 -0.17470606 -0.08978303
000240 a3 2e 05 be 67 b9 7c 3d 23 17 22 bd a0 da 9b bf
       -0.13006072 0.06170025 -0.039572846 -1.2176094
000250 72 52 20 3e fe b6 a5 bd c1 1a 1f 3e 50 e4 c1 3d
       0.1565645 -0.080915436 0.1553755 0.09467375
000260 82 b6 ce 3b 2a d3 49 3b 53 a1 6c be 72 83 03 3d
       0.0063083777 0.003079603 -0.23108415 0.032107778
000270 bf 2a 37 3e 7f ce 37 bf 21 0c 37 be f0 ae c7 3d
       0.178874 -0.71799463 -0.1787572 0.097501636
000280 55 08 91 be ee 66 76 3d d1 06 d1 3d b8 9e 38 be
       -0.2832667 0.060156755 0.10206378 -0.18029296
000290 c8 ea fc bd 21 e0 aa be 1c 96 20 3d be 5b 71 3d
       -0.123494685 -0.33374122 0.039205655 0.058925383
0002a0 83 35 d4 3c 15 cd 2f bd d7 e9 e9 3e a6 d9 98 3c
       0.025904423 -0.04292019 0.45686218 0.01865847
0002b0 a6 0d 6b 3e c2 f9 1c 3d 76 0d 2b bd db 75 d7 3e
       0.22954425 0.038324125 -0.041760884 0.42082104
0002c0 55 dc 2d 3c 69 7e 34 3d 1d 40 0d be cb 4c 48 3e
       0.010611613 0.044065867 -0.13793989 0.19560544
0002d0 3d cc cf bd 41 22 fc 3d 8f 5f e1 bc fc cd e7 3c
       -0.10146377 0.12311221 -0.027511386 0.028296463
0002e0 81 27 53 be d7 e6 6f 3c b5 25 0d 3e dc 3e 70 3a
       -0.20620538 0.014642439 0.13783915 0.000916464
0002f0 53 a9 bd bd da 53 49 be b7 48 9c bd be c9 99 3e
       -0.09260812 -0.19660893 -0.07631057 0.3003673
000300 c9 c6 d9 bc 5d b9 fa 3c 92 cf 1a be 54 9e 58 3c
       -0.026584046 0.030605966 -0.15118244 0.013221342
000310 77 d3 a4 3e a9 dc c2 3e 96 4b b7 38 fa 27 40 bc
       0.32192585 0.38058975 8.740199e-05 -0.011728281
000320 d5 04 e0 bc 42 2e 78 bc 22 a1 40 3d 2b 7f 4c 3c
       -0.027346054 -0.0151477475 0.04702867 0.012481491
000330 af 0b b6 bc 73 7d 26 bd b9 3a 9e 3d 5c c9 3e 3c
       -0.022222368 -0.04064698 0.07726044 0.0116446875
000340 ce 92 9e bc 9c 4d 89 3d 3a e7 70 bd 9b 53 bf 3c
       -0.019357111 0.06704256 -0.058814265 0.023355296
000350 5d 22 0c 3c 08 42 22 bd f0 df 42 3c b8 bc 70 3c
       0.008553115 -0.039613754 0.011894211 0.014693432
000360 26 d5 3b bb 4d 2a 6c bb 9b bf 8f 3b 65 ec 34 3c
       -0.0028660982 -0.0036035955 0.004386855 0.011042689
000370 ea e6 c8 bd f1 57 ab 3d 28 75 b2 3d 4c 16 84 3a
       -0.09809668 0.08366383 0.08713752 0.0010077446
000380 cc 76 85 3c 0b 00 de bc dd 37 9a bc e0 45 64 3d
       0.016291998 -0.02709963 -0.018825466 0.0557307
000390 a9 12 3d 3c 79 87 e8 3e 7c 80 58 3d a7 41 ac 3c
       0.011540093 0.45415857 0.052856907 0.0210274
0003a0 30 92 83 3c 56 ff 62 ba 7f 2b 95 bd bf be 87 3b
       0.016060919 -0.0008659264 -0.07283687 0.0041426118
0003b0 a3 b3 f9 bd a2 7a 2d bd 8a 47 c5 bc 16 5a 06 bf
       -0.12192466 -0.04235328 -0.024081964 -0.5248121
0003c0 e5 ae 7c 3b b7 2a 87 bc ba a0 ef bb b6 74 84 3c
       0.0038556394 -0.01649986 -0.0073128613 0.016168933
0003d0 34 c9 3e 3c b9 a0 7e 3d 25 d7 4a bb cf fb 58 3d
       0.01164465 0.062164996 -0.003095099 0.05297452
0003e0 19 8c dd ba fb 1a d1 bb 36 54 6e bc f5 7c 05 3a
       -0.0016902714 -0.00638139 -0.014546445 0.00050921674
0003f0 d0 0f 09 3c 76 60 c4 3d b8 95 ae 3d 03 fc e3 be
       0.008365586 0.09588711 0.0852465 -0.44528207

net.4.bias f4 [64]
000000 67 1f 58 3f c0 20 2b 3f f8 de 99 3e 25 09 3c 40
       0.84422916 0.6684685 0.30052924 2.9380581
000010 43 fb f1 3e 52 cb 70 bf 57 2f 23 3f 97 58 a5 3f
       0.4726201 -0.9406024 0.6374411 1.291766
000020 05 33 e0 be 7a 73 42 40 43 44 99 3f 2c 83 a1 3e
       -0.43788925 3.0382981 1.1973957 0.3154539
000030 57 42 97 3f 03 0f a7 3f bf d6 21 bf 3a 02 23 3f
       1.181712 1.3051456 -0.632183 0.6367527
000040 ca e8 88 3e 2d 28 37 3f 4e c7 26 bf 7b 8d 6d 3f
       0.26740104 0.7154568 -0.65147865 0.9279401
000050 78 55 c0 bf 85 0d 55 3e d0 55 31 bf 23 a0 93 3f
       -1.5026083 0.20805939 -0.69271564 1.1533245
000060 c0 eb 23 40 b5 16 63 bf f2 e4 4e 3f 89 cc 65 3f
       2.561264 -0.88706523 0.8081809 0.8976522
000070 c1 cb f8 3e c8 26 91 3f a8 c9 3f bf 09 5b 81 bf
       0.48592952 1.133996 -0.7491708 -1.0105907
000080 06 09 0a bf 4d e2 16 3f 89 4d bd bf 79 5c b9 bf
       -0.5392002 0.5893906 -1.4789287 -1.4481345
000090 31 08 33 be a5 4a 40 40 b4 37 40 c0 43 43 58 be
       -0.17483594 3.004556 -3.0033998 -0.21119408
0000a0 17 70 7d 3e 74 ea b7 3f a8 ec 2d 3e 4b 5f f2 3f
       0.2474979 1.4368424 0.16984808 1.8935331
0000b0 82 ef 75 bf 09 5d d5 3e b8 e9 bf bf 32 61 55 3f
       -0.96068585 0.41672543 -1.49932 0.83351433
0000c0 22 71 8c bf a5 20 93 3f e7 1a bb 3f ea e2 e7 bf
       -1.0972025 1.1494337 1.4617585 -1.8116124
0000d0 4a 18 8b bf b9 a7 3a 3e 29 25 c2 3f 97 40 0d 3f
       -1.0866787 0.18228044 1.516759 0.5517668
0000e0 97 a8 e3 3f de c1 1f 40 57 6e 2e 3f ef ac cc 3f
       1.7785825 2.4962077 0.68137115 1.5990275
0000f0 4c 33 2e bf 70 e2 39 c0 ac 33 db be d5 13 cc bf
       -0.6804702 -2.9044456 -0.4281286 -1.5943552

net.6.weight f4 [64]
000000 1d 21 56 3f 05 b0 2d 3f 63 e3 14 3f 1a bd 46 3f
       0.83644277 0.6784671 0.58159465 0.77632296
000010 7b 97 3f 3f df b6 1b 3f b5 3f 3f 3f e2 d9 30 3f
       0.74840516 0.60825914 0.74706584 0.6908246
000020 b8 28 29 3f 1f ed 49 3f 70 6e 29 3f 49 c1 24 3f
       0.66077757 0.78877443 0.6618414 0.6435743
000030 85 6f 20 3f 69 5c 2c 3f 94 58 3f 3f 06 7f 3f 3f
       0.62670165 0.67328507 0.74744534 0.748032
000040 2e 6f 24 3f d1 7c 3c 3f b5 68 2c 3f e2 7f 4d 3f
       0.64232147 0.73627955 0.6734727 0.8027326
000050 4e b0 86 3f 22 1b 82 3f 8d 52 29 3f de e5 3c 3f
       1.0522554 1.016453 0.6614159 0.7378825
000060 09 96 45 3f a7 2b 38 3f 1c 60 33 3f 04 76 ff 3e
       0.7718206 0.7194161 0.70068526 0.49894726
000070 df 10 2e 3f 8c 09 36 3f c8 e6 3e 3f d2 a5 5d 3f
       0.67994493 0.7110832 0.74570894 0.86581147
000080 d9 65 28 3f c2 eb 53 3f 30 15 33 3f 1f 0a 0b 3f
       0.6578041 0.8278161 0.69954205 0.5431232
000090 1e bb 48 3f f4 ea 3f 3f fa b4 40 3f 9c fb 2e 3f
       0.7841052 0.74967885 0.7527615 0.68352675
0000a0 10 db 1d 3f 4a 62 81 3f 9d cf 2c 3f fc 5a 3c 3f
       0.6166239 1.010812 0.6750429 0.7357633
0000b0 81 71 3a 3f 30 96 4d 3f a7 56 2f 3f 72 f9 41 3f
       0.72829443 0.8030729 0.68491596 0.7577125
0000c0 b3 eb 31 3f b2 53 29 3f 9e 91 6b 3f 00 6f 09 3f
       0.69500273 0.66143334 0.9201907 0.53685
0000d0 a3 91 32 3f 4b 50 59 3f fc 4b 56 3f 44 ec 40 3f
       0.69753474 0.8488814 0.8370969 0.7536051
0000e0 07 96 17 3f a5 c8 3d 3f 8a 6f 3f 3f 61 df 1d 3f
       0.592133 0.74134284 0.7477957 0.61668974
0000f0 77 b8 35 3f fa 7d 46 3f f8 6c 20 3f aa cc 14 3f
       0.70984596 0.77535975 0.62666273 0.5812479

net.6.bias f4 [64]
000000 f6 25 46 be f3 e6 ad be 6f da 0f bf 67 c6 99 be
       -0.19350418 -0.33965263 -0.5619268 -0.3003418
000010 e8 74 ad 3c 02 d7 37 be 30 67 66 be 46 fa af be
       0.02117391 -0.17953113 -0.225003 -0.3437063
000020 75 f4 d9 3e 0a 8f 80 be a6 d8 93 bd 92 1a d0 3e
       0.42569318 -0.2510913 -0.07219057 0.40645272
000030 9a 94 8b 3e 79 e0 03 bf db 5a cc 3e 88 bc c0 be
       0.27261811 -0.51514393 0.39913067 -0.37643838
000040 cf 2c f5 be 4d a7 c0 be 78 4b a8 3e 4a 00 7f be
       -0.4788575 -0.3762764 0.32870078 -0.24902454
000050 85 9c ac 3e 33 a6 f6 bd d4 e1 1b bc eb ae ba be
       0.33713165 -0.12043419 -0.009514291 -0.36461577
000060 92 6d a9 be 2d 4b 9c 3e 75 d3 88 be 48 3d 0b 3f
       -0.33091408 0.30526105 -0.2672383 0.5439038
000070 a1 4d b2 3e 97 8f c3 be f8 15 66 3e 92 9d 3b 3e
       0.3482485 -0.38195488 0.22469318 0.18321827
000080 c5 0d f6 3e 0f bf ee be 6b e6 6b 3e fc 22 d1 be
       0.4805738 -0.4663014 0.23037116 -0.40847003
000090 58 b3 bc 3e 0d b0 80 be c9 8f 68 3e 2d a5 aa be
       0.36855578 -0.25134316 0.227111 -0.33329144
0000a0 49 e0 0f bf 48 95 d3 be e3 08 02 bf ce fe c8 be
       -0.56201607 -0.4132483 -0.5079481 -0.392569
0000b0 5b 49 02 be 9a 24 30 be ea dc 10 3e c7 22 bc be
       -0.12723295 -0.17201462 0.14146772 -0.36745283
0000c0 cc 81 96 3e 25 aa 88 be a8 c8 a9 be e8 b0 1d bf
       0.29395902 -0.2669231 -0.331609 -0.6159806
0000d0 21 24 d0 3e b0 f3 26 be 61 f4 b2 be 65 f5 8c be
       0.40652564 -0.16303897 -0.3495207 -0.2753097
0000e0 02 57 33 3f 01 2a ad be 73 4f cd be fe 0c e5 3e
       0.7005464 -0.3382111 -0.40099677 0.44736475
0000f0 54 a0 c1 3e 98 b7 9a 3e 07 d7 1b 3f b4 38 24 3e
       0.37817633 0.30218196 0.6087498 0.16037256

net.6.running_mean f4 [64]
000000 88 9e 65 3f ef d3 02 3f 45 7b e7 bd 06 3c 7b 3f
       0.89695024 0.51104635 -0.11302809 0.98138463
000010 9d 5d 8a 3e 7e d5 55 bf 67 2a 23 3e 58 fc 37 3f
       0.27024546 -0.8352889 0.15934144 0.7186942
000020 0e c9 e9 bd 0d 0b 7c 3f 06 ef 5b 3f 85 2f bf 3e
       -0.11415301 0.9845436 0.85911596 0.37340942
000030 35 31 5f 3f f2 9d 0d 3f d4 49 24 bf 85 ae 28 3f
       0.8718446 0.5531913 -0.6417515 0.65891296
000040 5a 8c 88 bd be a5 24 3f fe ed 8d 3d fc a3 55 3f
       -0.06667395 0.643154 0.06930159 0.83453345
000050 4c 8e 4c bf af 26 82 3d ab 32 3f bf 9b c7 20 3f
       -0.7990463 0.063550346 -0.7468669 0.62804574
000060 a7 e8 79 3f e5 5e 46 bf f1 47 fe 3e e1 07 4b 3f
       0.97620624 -0.7748855 0.49664262 0.793089
000070 f1 32 a5 3d d3 e5 2f 3f 1e 9f 15 bf b2 61 67 bf
       0.08066357 0.6871006 -0.5844592 -0.90383446
000080 ae df b0 be 54 57 fb 3e 51 ed 55 bf 76 4b 72 bf
       -0.34545654 0.49090064 -0.8356524 -0.94646394
000090 44 0c 24 bf 09 c9 7b 3f 1d d9 7b bf fb ab 99 be
       -0.64081216 0.9835363 -0.98378164 -0.30014023
0000a0 17 e5 06 3e bc 0d 38 3f 76 89 9a 3e 07 00 51 3f
       0.13173328 0.71895957 0.30183 0.81640667
0000b0 24 d7 56 bf 55 e7 d7 3e 6b ce 62 bf 08 b6 23 3f
       -0.8392203 0.4216868 -0.8859622 0.6394963
0000c0 47 39 51 bf f5 69 3f 3f 79 42 56 3f 81 ac 78 bf
       -0.81728023 0.7477105 0.8369518 -0.9713822
0000d0 f1 1a 33 bf 98 fa 60 be 1c 60 4d 3f 65 5d 2d 3f
       -0.69962984 -0.21970594 0.80224776 0.67720634
0000e0 fb 53 79 3f e4 f4 78 3f cf 27 2a 3f fc 3b 70 3f
       0.9739377 0.97248673 0.66466993 0.9384153
0000f0 27 d4 17 bf 4e 8f 7b bf 9f 7a d7 bd bd 08 5c bf
       -0.59308094 -0.9826554 -0.10521435 -0.85950834

net.6.running_var f4 [64]
000000 96 a9 d1 3d fc f7 03 3e 91 f6 5c 3f 5d 3c 8b 3b
       0.10237424 0.12887567 0.8631373 0.004249139
000010 72 c8 45 3c 8a 65 26 3d 78 f4 0a 3f a9 5c 5d 3e
       0.012071716 0.04062418 0.5427928 0.21617378
000020 ee 92 15 3f 91 4a 28 3b b9 b7 af 3d eb 5d 0c 3c
       0.5842732 0.002567921 0.08579964 0.008567314
000030 7a 3e 01 3c 9a 51 61 3e 3a c2 bc 3e 10 c4 87 3e
       0.007888431 0.22003785 0.36866933 0.2651677
000040 31 6f b4 3e 7e 37 99 3e 29 f8 17 3f f7 96 54 3e
       0.35241082 0.2992515 0.5936304 0.20760714
000050 25 0d 83 3e 23 c4 12 3d db a2 2e 3d 90 57 02 3f
       0.25595966 0.03583158 0.04263578 0.5091486
000060 57 94 b2 3b 5f 35 7a 3e d9 87 bd 3d 32 62 08 3c
       0.0054498124 0.24434422 0.092544265 0.008324193
000070 d8 cb 5a 3f ce 08 cb 3d 46 e6 3a 3e 7e 15 e3 3d
       0.8546729 0.09913789 0.18251905 0.11088084
000080 ae a4 3c 3f 46 58 2b 3f 96 65 7f 3d ad dc dc 3b
       0.7368878 0.6693157 0.06235274 0.006740174
000090 54 2c 06 3f 8c 08 1c 3b 2c d1 1c 3b f6 4b 19 3c
       0.5241139 0.0023808805 0.0023928387 0.009356489
0000a0 f1 bb 4a 3f cb e2 d8 3e 5e f1 1c 3f 47 b1 4f 3d
       0.79193026 0.4236053 0.613058 0.050706174
0000b0 8f 79 eb 3c 39 5b 23 3f 39 68 86 3d cb cb e2 3e
       0.028744487 0.6381107 0.06562848 0.44296107
0000c0 66 ce ff 3d ea fb e1 3d 24 2a 47 3e f5 96 32 3a
       0.12490539 0.11034377 0.19449669 0.00068126555
0000d0 d5 c9 10 3e 67 36 60 3f d0 22 42 3e a8 97 e3 3e
       0.14139493 0.8758301 0.18958592 0.44451642
0000e0 e6 26 3d 3a d5 43 d9 3b c8 8f 85 3e 44 c7 7b 3b
       0.0007215574 0.0066304007 0.2608626 0.0038418332
0000f0 3a 9e 09 3f b1 13 7c 3b eb 67 2a 3f a1 ff 0f 3c
       0.5375706 0.0038463885 0.66564816 0.008788974

net.8.weight f4 [64, 64]
000000 24 a1 a5 39 ee 8c a9 bd 43 0b 23 bb fa 26 c9 3c
       0.00031591312 -0.08278833 -0.0024878539 0.024554718
000010 c3 c9 2d bd 80 1d 79 bd 43 97 79 bd e5 81 05 3d
       -0.042428743 -0.06081915 -0.06093527 0.03259458
000020 83 2f 0d bd 29 48 3b 3c a8 99 31 3b d2 45 6f bc
       -0.03446914 0.011430779 0.0027099643 -0.014604049
000030 77 45 20 3d 86 22 cb bd 3e dd 32 3c 59 41 92 bd
       0.039128747 -0.09918694 0.010917006 -0.0714137
000040 21 2f 91 3c 36 dc 3f be 17 ab 5e bd 78 47 c0 be
       0.017722668 -0.18736348 -0.054362383 -0.37554526
000050 7f ef 13 3e 1b f9 40 bc 2d 71 07 bd e7 c2 74 be
       0.1444683 -0.011778141 -0.033066917 -0.23902474
000060 e7 d6 d8 3c bf f9 f3 3e 86 11 de bc e0 08 09 3e
       0.02646966 0.4765148 -0.027107965 0.13382292
000070 39 0e 82 3c 8c fb 9a bd ad 34 8f 3c 51 c8 c4 bc
       0.015875923 -0.0756751 0.017481172 -0.0240213
000080 4d 0b 09 3d e1 ca 9e be 99 09 73 bc c4 f6 f2 bc
       0.033458043 -0.3101416 -0.014833831 -0.029658683
000090 50 31 5b 3c c9 d1 97 3c c7 53 bb 3c 8b 23 69 bd
       0.013378456 0.01853265 0.022867097 -0.056918662
0000a0 d2 0e 27 3d bb 4b c3 be 07 13 cd be 45 c6 5c 3b
       0.040785618 -0.38143715 -0.4005358 0.0033687514
0000b0 e2 5f a5 bb 00 7a 2c 3c d3 d1 f3 bc f5 6b 98 3b
       -0.0050468305 0.010527134 -0.029763138 0.0046515414
0000c0 33 f6 97 bb 75 9e 00 bb a9 82 a0 be ed ed 28 3c
       -0.0046375035 -0.0019625698 -0.31349686 0.010310632
0000d0 e1 4d 32 bc ca 7e e3 bc 91 8e bc be 3e 3f 36 bc
       -0.010882826 -0.027770419 -0.3682752 -0.011123477
0000e0 1a 93 0b bd d0 b4 09 3d a0 9c af bb 5f be 06 3d
       -0.034075834 0.0336197 -0.0053592473 0.032896396
0000f0 8e f9 fe 3e d9 82 2a bd ce af 3e be 15 5e a2 3b
       0.4979977 -0.041628692 -0.18621752 0.004955063
000100 0c 66 f1 3c 7a 63 cf bc c0 1a fa bc 8b 4f 4c bd
       0.029467605 -0.025315989 -0.030530334 -0.049880546
000110 cc 68 20 bd f9 ec cf 3d a4 cf 11 be 60 5d 1b 3e
       -0.039162442 0.10152621 -0.14239365 0.15172338
000120 52 e4 14 bd dc c7 8b bc d6 e1 36 3c 0c 00 3e 3d
       -0.036350556 -0.017063074 0.011162242 0.046386763
000130 3a bd 36 bd 10 ca 31 bd 69 ee 45 3d a8 6f 36 bc
       -0.044614054 -0.043405592 0.04832307 -0.011135019
000140 25 6b f0 bb 86 89 76 3e c6 66 52 3d 03 11 b8 3e
       -0.0073369914 0.24075899 0.051367544 0.3595048
000150 11 30 5c 3c 68 00 64 bc cb 0a 28 3d f5 ee e7 3e
       0.013439194 -0.0139161125 0.041025918 0.45299497
000160 b3 08 41 bd 0d d0 e9 be df 88 8d bd d8 e8 b9 bd
       -0.047127437 -0.45666543 -0.06910872 -0.090776145
000170 1d b3 41 bd 4f a3 86 3c 83 5e 84 bd 1e 14 8d bc
       -0.047289956 0.016435293 -0.06463339 -0.017221507
000180 88 fb 2a bf 4c 51 92 3c d8 83 c2 3b a0 27 76 bc
       -0.66790056 0.017861031 0.005936127 -0.015024096
000190 57 28 bd 3d 8b 43 00 bc d2 4c 55 3a 9f 1e 64 3d
       0.0923621 -0.0078286035 0.00081367523 0.055693265
0001a0 21 85 9b 3e 48 de b0 3e 1f 96 0d bd ea 88 b4 3d
       0.30375007 0.34544587 -0.034566995 0.08815177
0001b0 ff 36 a0 bc 19 a6 af 3c e6 b2 d6 3b 80 b8 37 3b
       -0.019557474 0.021441506 0.006552088 0.0028033555
0001c0 1e 07 48 3c 5a 56 08 3d 84 01 e2 3e 63 59 07 3e
       0.012208728 0.033285476 0.4414178 0.13217692
0001d0 7a c0 3c be 1e 97 27 bc f6 a8 98 3e 1c 35 01 3d
       -0.18432799 -0.0102289 0.29816407 0.03154479
0001e0 f9 bf a5 bd 2e bb 55 bd b7 29 bc 3c 0b ae ca bd
       -0.080932565 -0.05218046 0.02296911 -0.09896477
0001f0 09 05 17 bf 54 bf 5b 3d 22 2e 8a 3d 86 21 23 3d
       -0.5899206 0.05364926 0.067470804 0.039826892
000200 d4 fa dd bc e1 20 81 3d ed fd ac 3c bd e8 1a 3d
       -0.027097143 0.06305099 0.021117175 0.037819613
000210 af 60 60 3d d9 df 96 bd 8c 2b 84 3d 80 d2 3d bd
       0.054779705 -0.07366914 0.064536184 -0.046343327
000220 88 fd 3a 3e 6e 2a 08 40 87 66 b5 3d f2 3d ef bc
       0.18260777 2.1275897 0.08857446 -0.029204343
000230 e9 08 52 3d 9c 44 84 3d b7 c8 a3 3c 82 da 3b 3d
       0.05127803 0.06458399 0.01999317 0.045862682
000240 c0 9c 07 bd 5e ec cd 3c a7 3f ca 3b a8 6e 89 3b
       -0.033108473 0.025137123 0.0061721387 0.0041940995
000250 4c 58 e1 bc 9f 87 a9 bc 8d 98 fc bc 90 af 5a 3b
       -0.027507924 -0.020694552 -0.03083446 0.0033368804
000260 cc f7 9a 3c cd 10 50 3d 4e 01 67 bd c5 a3 0f bc
       0.018916987 0.050797272 -0.05639773 -0.008767073
000270 6e 62 ae bc 76 0f ec 3c 59 94 fe bc 24 8d 73 3c
       -0.02128717 0.028815966 -0.031076597 0.0148651935
000280 39 e4 00 ba 1c ed 10 3d 7b a2 27 3e 95 88 3f 3d
       -0.00049168203 0.035382375 0.16370575 0.046761114
000290 ca 4d ba bc a9 4d 16 40 73 18 c1 bf 4b 02 81 bd
       -0.02274217 2.34849 -1.5085586 -0.062992655
0002a0 44 f5 64 3c 48 61 71 3b af e7 b7 3d 03 3d f8 bd
       0.0139744915 0.0036831666 0.08979737 -0.12121012
0002b0 5a 07 b7 3d 90 3f bf 3c 43 32 a4 3d 5b c4 10 bc
       0.08936949 0.023345739 0.08017399 -0.008835877
0002c0 0b 76 86 bc fd dd 14 3e 22 e0 06 bd 2b 40 c4 bb
       -0.01641371 0.14537807 -0.032928593 -0.0059890947
0002d0 a9 69 2d bd 04 8e 88 bd c5 57 ac bb f6 90 62 3f
       -0.042337094 -0.06667712 -0.0052594864 0.8850244
0002e0 de 47 fb 3a 7e 24 5d 3c 6e c4 51 be 64 bb fa bd
       0.0019171198 0.01349747 -0.20485088 -0.12242773
0002f0 7b e4 d2 3a 99 2a ff ba 41 37 8a bb bf f5 3d be
       0.0016089821 -0.0019467651 -0.0042180126 -0.18550776
000300 86 da ef bc 90 b7 87 3c 47 a3 8e bc 2c c1 7a bd
       -0.029279005 0.016567022 -0.017411841 -0.06121938
000310 62 e2 3a bd 44 f4 42 3d 5d 67 df ba 93 1e 11 3f
       -0.04562605 0.04759623 -0.0017044354 0.5668728
000320 5c b1 e6 bc 30 1d 7c bc 88 3a a7 3b b0 66 68 be
       -0.028160743 -0.015387818 0.005103413 -0.22695422
000330 3c 0e 99 3d 3c 7c cd bc 05 1a 8e bc d4 73 94 bc
       0.07473418 -0.025083654 -0.017346391 -0.018121637
000340 bd a4 55 3b 0d 24 cc 3e 9b 81 eb bd 89 05 c1 3d
       0.0032599412 0.39871255 -0.1149933 0.09424884
000350 4e d7 a5 be 6e d1 a1 3b dd cb b6 3c 62 66 8d 3b
       -0.32390827 0.004938296 0.022314006 0.0043151835
000360 21 36 25 bd ad bc 0c be dd cb 83 3d 0e 50 0f 3c
       -0.040334824 -0.13743849 0.06435368 0.008747114
000370 95 6c c9 bc 8b 3a f2 bb d0 b7 4b bd b4 26 51 3d
       -0.024587909 -0.007392233 -0.049735844 0.0510623
000380 0d 6e 63 bc a2 a2 79 3d e8 23 bf be c5 f0 c2 bd
       -0.013881219 0.060946114 -0.37332082 -0.095185794
000390 60 d5 90 bd 2d 31 68 bb 32 12 97 bd c9 fe 23 3e
       -0.07071948 -0.0035429702 -0.07376517 0.16015162
0003a0 88 15 ff 3b de 92 0b bd af 59 a9 bc bf 09 80 3c
       0.007784549 -0.03407561 -0.020672647 0.015629647
0003b0 7d 5d 78 bd c7 57 a9 bc 40 1a 32 bd 0a e1 c6 bc
       -0.060636032 -0.020671738 -0.043482065 -0.024277229
0003c0 ce be 23 bf fb 77 2a 3e 67 82 97 bc 60 f0 95 3c
       -0.6396302 0.16647331 -0.018494798 0.018303096
0003d0 b3 be 78 3d 7e c0 cc bc 55 d9 d4 3d 30 51 30 bc
       0.06072874 -0.024994131 0.10393015 -0.010761544
0003e0 43 6f a7 bc 49 ab 3c 3d 0d 35 29 3d 43 a2 85 bd
       -0.020438796 0.046061788 0.04131036 -0.065250896
0003f0 73 5b 85 bc de 72 32 3c b8 01 9d 3b 03 b1 b1 bd
       -0.016278958 0.010891644 0.0047914647 -0.086763404

net.8.bias f4 [64]
000000 54 2c b8 3f cb 40 5e bf b8 51 95 3e 14 ef 5e bf
       1.4388528 -0.86817616 0.2916391 -0.87083554
000010 4a 14 b4 bf b5 56 ac bf e9 00 91 3f 00 4d 30 3f
       -1.4068692 -1.3463961 1.1328403 0.6886749
000020 0b 98 4b be 85 1e 33 be 09 3f 7a bf 52 36 ed bb
       -0.19882219 -0.17492111 -0.97752434 -0.0072391415
000030 8a 31 92 3f b3 b3 27 3b 94 5a cc 3e 3d 4d cf bf
       1.1421368 0.0025589287 0.39912856 -1.6195446
000040 c0 1e be 3e 7d 2d 40 3f f7 7e 27 be 49 8e 36 3f
       0.37132835 0.7506941 -0.16357027 0.7131086
000050 f7 9f 65 bf 1a b8 57 bf f9 80 4a 3f d7 ef 1a bf
       -0.8969721 -0.8426529 0.79103047 -0.60522217
000060 b0 60 28 bf 72 46 18 bf 8b 6e 8f bf a6 8d c2 3f
       -0.65772533 -0.5948249 -1.120561 1.5199478
000070 ee a1 12 bf fc 4c 78 bf 35 dd 45 3f b8 fc da be
       -0.57278335 -0.9699247 0.7729066 -0.42770934
000080 ad 3e bf 3f 01 3a 92 bd e2 7f 9d 3f a1 9c 9e 3f
       1.4941002 -0.071399696 1.2304652 1.2391549
000090 34 1c 80 3f f2 27 6f 3f af b5 1a bf fe 96 97 be
       1.0008607 0.93420327 -0.6043348 -0.29607385
0000a0 cb 99 aa bf e8 07 c1 3f 94 2b 7b bf b0 bb 73 bf
       -1.3328184 1.5080538 -0.9811337 -0.95208263
0000b0 72 ad 88 bf 0b 7d 6f 3f 7d 19 07 3e 56 3e 40 bf
       -1.0677931 0.93550175 0.13193317 -0.7509512
0000c0 cf 18 40 3f 98 42 ed be 71 06 d0 bf 2d ba 0e bf
       0.75037855 -0.4633987 -1.6251966 -0.5575283
0000d0 2e 68 86 bd 86 af b5 bf e1 b6 46 3f 78 6e 67 bf
       -0.065628394 -1.419419 0.776228 -0.90402937
0000e0 6f 4c 93 3f 2c cf ac be ec 00 06 3f 4f 49 28 bf
       1.1507701 -0.3375181 0.52345157 -0.6573686
0000f0 19 98 23 bf a6 67 2c 3f 68 0b 51 3f ef 43 97 bf
       -0.6390396 0.67345655 0.8165803 -1.1817607

net.10.weight f4 [64]
000000 9b 3b 12 3f 2c 34 11 3f 66 a2 0e 3f 41 9c 12 3f
       0.571222 0.5672023 0.5571655 0.57269675
000010 a0 70 1d 3f 43 49 0a 3f 02 d1 0f 3f ae f4 13 3f
       0.6149998 0.5401804 0.56178296 0.57795227
000020 d5 be 0f 3f c5 5d 0f 3f 1f e8 06 3f 6e dc 08 3f
       0.5615056 0.56002456 0.5269794 0.5346135
000030 1a 1c 12 3f 45 4e 0c 3f 0e c1 15 3f a8 e5 16 3f
       0.5707413 0.5480693 0.58497703 0.5894418
000040 82 a4 15 3f 60 c0 0e 3f d9 60 10 3f af ee 14 3f
       0.58454144 0.5576229 0.5639778 0.581767
000050 4c b2 10 3f f0 df 17 3f c2 43 13 3f 33 fe 11 3f
       0.5652206 0.59326077 0.57525265 0.570285
000060 5d fc 08 3f 6e 53 17 3f f3 11 14 3f 52 79 0e 3f
       0.53510076 0.5911168 0.5783989 0.5565387
000070 81 bb 0b 3f d8 35 15 3f c6 c2 0f 3f 8a 49 10 3f
       0.54582983 0.58285284 0.56156576 0.5636221
000080 d7 fb 0c 3f 5c 8e 0b 3f 06 63 11 3f d5 ff 13 3f
       0.5507178 0.545141 0.5679172 0.57812244
000090 4f 29 13 3f 43 21 14 3f be ae 09 3f e2 15 14 3f
       0.57484907 0.57863253 0.5378226 0.5784589
0000a0 a7 31 0c 3f df 04 13 3f ad 44 0b 3f d2 fe 12 3f
       0.54763263 0.5742931 0.54401666 0.57420075
0000b0 6a b5 0d 3f 18 73 14 3f 45 99 0c 3f e3 28 05 3f
       0.5535494 0.5798812 0.5492137 0.52015513
0000c0 78 2f 11 3f 76 1b 0c 3f 5e 6c 0e 3f 54 61 15 3f
       0.56713057 0.547294 0.55634105 0.58351636
0000d0 0a a9 08 3f 0a ee 13 3f 38 38 0b 3f 5e 9d 13 3f
       0.53382933 0.57785094 0.5438266 0.57662
0000e0 9e 0a 13 3f 0e ed 02 3f 74 92 12 3f e8 24 12 3f
       0.57438076 0.51142967 0.5725472 0.57087564
0000f0 4f cd 1d 3f 46 06 0d 3f 8b 45 12 3f b0 6a 0d 3f
       0.616414 0.550877 0.57137364 0.5524092

net.10.bias f4 [64]
000000 27 88 69 bd 80 aa a5 3d c6 14 d4 bc e1 9e 12 3d
       -0.05701461 0.08089161 -0.025888812 0.03579605
000010 b4 fc b4 bd 77 b6 e3 3c 03 99 81 3d 41 58 71 bc
       -0.08837262 0.027796967 0.06328013 -0.014730514
000020 cd bb a6 bd 7e fc 74 bd cb 42 01 3c b1 a6 35 3d
       -0.08141289 -0.059811108 0.00788946 0.044348422
000030 f5 46 60 bd 88 b4 8d 3d db b9 83 bd 9a c7 a9 bd
       -0.05475517 0.06919199 -0.064319335 -0.08290024
000040 44 44 91 bd f8 28 9d bd e3 62 8a 3c fb a0 9e 3d
       -0.07093099 -0.0767383 0.016892856 0.07745548
000050 4e 64 80 3d 0b 41 b0 3c a9 1c a4 bd 18 b6 4d 3d
       0.062691316 0.02151539 -0.08013279 0.050222486
000060 13 17 26 bc 3f 8c 06 3d a1 3b b3 3d 9e 86 17 bd
       -0.010137337 0.032848593 0.08751608 -0.036993615
000070 10 e8 ca bc 22 b5 88 3d 7a 20 32 3d b5 13 b3 bc
       -0.02476886 0.06675173 0.043488003 -0.021859983
000080 2d b8 9a bd 62 cf 22 3c 8b e8 7b bd f4 bc 03 bd
       -0.0755466 0.009937139 -0.061501067 -0.03216262
000090 97 75 62 bd 5b 9d 6b bd 94 2a 87 3c 7f 02 81 3d
       -0.055287924 -0.057523113 0.016499795 0.06299304
0000a0 d4 00 b9 bd 25 53 74 3d 2d 70 5c bd 3d 25 b4 bd
       -0.09033361 0.059649605 -0.053817917 -0.08796165
0000b0 ee af b4 3d 7a 2f ab bd f9 4b df 3c 8d c7 57 3c
       0.088226184 -0.08358665 0.027257906 0.013170135
0000c0 5c ac 87 bd 74 fe 23 3d 88 0f 7f 3d 80 7a 02 ba
       -0.06624672 0.040037587 0.06227067 -0.00049773604
0000d0 0f 11 55 3b bf 4f 89 bd 76 71 49 bc 60 a3 5c 3d
       0.0032511388 -0.067046635 -0.012295118 0.053866744
0000e0 34 69 92 3d 8a f3 a0 3c ca 75 01 bc ba b7 93 3d
       0.07148972 0.019647378 -0.007901618 0.072127774
0000f0 e0 0f 9b bd b0 2f 0a 3d 4c 94 9a bd 02 04 a9 3d
       -0.07571387 0.033736885 -0.07547817 0.082527176

net.10.running_mean f4 [64]
000000 61 85 6c 3f 29 33 5a bf b5 35 08 3d 9b 55 51 bf
       0.9239102 -0.85234314 0.033254344 -0.8177125
000010 68 2b 78 bf c2 72 6b bf 82 37 b2 3e 5a e3 34 3f
       -0.9694123 -0.9197198 0.34807974 0.7065941
000020 28 5f 0a bf 32 de be 3e 13 37 b2 be 2b 29 e7 bd
       -0.54051447 0.37278897 -0.34807643 -0.11287149
000030 52 0a 66 3f c1 76 c1 be c6 56 fd bd be f0 78 bf
       0.898595 -0.37785915 -0.12370066 -0.97242343
000040 2d 0d 26 3f 4d 63 50 3f 25 34 02 3e 69 b8 ef 3d
       0.64863855 0.8140152 0.12715204 0.11705095
000050 74 d0 5f bf 18 50 35 bf 8e 03 6b 3f 54 8e 21 bf
       -0.8742745 -0.7082534 0.918023 -0.631078
000060 e5 1b d7 bd d3 30 3f bf fc 2c 66 bf d2 a1 6b 3f
       -0.10503367 -0.74683875 -0.8991239 0.92043793
000070 c6 91 52 be 3e 8d 6e bf 08 de f5 3e f6 3f e4 be
       -0.2056342 -0.9318427 0.4802096 -0.44580048
000080 62 d1 72 3f 76 05 a4 be 46 a7 6a 3f 58 13 63 3f
       0.9485074 -0.32035416 0.9166149 0.8870139
000090 0c d8 55 3f c1 5d 2b 3f 5d 62 aa be 93 bb f0 be
       0.83532786 0.6693993 -0.3327817 -0.47018108
0000a0 43 f1 62 bf eb 24 79 3f 9c fb 83 be ea 72 33 bf
       -0.88649386 0.9732196 -0.257779 -0.7009722
0000b0 36 7f 55 bf 4e f8 64 3f 55 3e 81 be 4e cd fd be
       -0.83397233 0.8944138 -0.25242868 -0.49570698
0000c0 1e 17 5c 3f 7e f8 7c be 5a a0 77 bf 7b 31 23 bf
       0.85972774 -0.24704167 -0.9672905 -0.63747376
0000d0 77 43 69 3e 30 fe 73 bf 40 eb 3c 3f 70 92 57 bf
       0.22779642 -0.95309734 0.73796463 -0.8420782
0000e0 d5 e4 41 3f f9 88 a4 be 01 be f5 3e 73 c2 4a bf
       0.75739795 -0.32135752 0.47996524 -0.79202956
0000f0 c9 5d 56 bf ed 82 c0 bb dc 2b 5c 3f a1 97 6d bf
       -0.83736855 -0.0058749826 0.86004424 -0.9280949

net.10.running_var f4 [64]
000000 1c 99 02 3c 27 22 15 3d 59 b5 dc 3e 86 37 42 3d
       0.007971074 0.036409523 0.43107107 0.047416233
000010 1b f8 8b 3a 61 12 9d 3c c1 ea 0d 3f 43 fd e5 3d
       0.00106788 0.019173803 0.5543633 0.112299465
000020 2b b3 04 3e c6 2c da 3e 5e ee 1b 3f fa 0f 08 3f
       0.12958972 0.42612284 0.60910594 0.5314938
000030 c4 ff bb 3c 76 ac d6 3e 45 15 d1 3e 0e 5b 15 3b
       0.022949107 0.41928452 0.4083654 0.0022789869
000040 e7 63 c6 3e a7 17 a6 3d 60 1e 5c 3f c2 ea aa 3e
       0.38748094 0.0810998 0.8598385 0.3338223
000050 ca 08 dd 3d ff 90 48 3d 3c 64 3c 3d fa 8b d0 3e
       0.10792692 0.048966404 0.04599403 0.40731794
000060 61 83 30 3f 52 3b d9 3d fa 46 1a 3c ce 20 e2 3b
       0.6895047 0.106070176 0.009416336 0.0069008833
000070 39 d3 3c 3f ac d8 a9 3c 10 cd 3a 3e d6 4d ea 3e
       0.737598 0.0207332 0.18242288 0.4576251
000080 e5 b0 10 3c af e7 48 3f 10 44 48 3c a2 d9 a3 3c
       0.008831237 0.7847852 0.012223259 0.020001236
000090 bf f0 5e 3d bf 57 3d 3e d3 aa 3a 3f fa 75 d7 3d
       0.054428812 0.18490504 0.7291691 0.10520549
0000a0 c8 a8 28 3b 7a 79 8e 3a 11 ff 2c 3f 23 79 bd 3d
       0.0025735367 0.0010869943 0.675767 0.092516206
0000b0 b9 1c c8 3b e7 ee 4c 3d 20 26 2d 3f 79 94 19 3f
       0.0061069396 0.050032523 0.676363 0.59992176
0000c0 6c 3a b6 3d 55 71 47 3f 7b c1 22 3b df 8b 1d 3e
       0.08897862 0.77907306 0.0024834562 0.15385388
0000d0 e6 6d 57 3f d0 43 3b 3b ba 0b 92 3d 62 10 24 3d
       0.84152067 0.0028574355 0.07131143 0.040054686
0000e0 34 83 e7 3b d7 3b 54 3f 7f f6 92 3e bb 0d 30 3e
       0.007065201 0.8290381 0.28703687 0.17192738
0000f0 1a 94 0c 3d 0b ee 20 3f e4 b2 19 3e 21 c4 a1 3c
       0.03432093 0.62863225 0.15009648 0.019746842
