training/blind_neural_network.pth (torch, 50661 bytes, 20 tensors)

net.0.weight f4 [64, 20]
0.9078684 -0.33161768 0.11445754 -0.13668627 0.040374275 0.13208492 -0.020501414 -0.03465864
0.04175759 0.0113637885 -0.11483648 -0.23570657 -0.042777807 0.06025493 0.27519757 0.54621965
0.6081611 0.7247906 -0.12587799 -0.27391028 1.0423689 -1.7480502 -0.10276311 -0.10525926
-0.100597575 -0.1546368 -0.14027148 -0.027508155 0.039513852 0.0896551 -0.43491936 -1.0277178
-0.38367257 -0.39484933 -0.1967799 -0.011121011 0.10141666 0.057178803 -0.45607042 0.022199102
-2.7818666 -0.37926945 1.95199 0.68294287 0.21847133 0.14360525 0.021285279 -0.04332758
-0.034974556 -0.13200429 0.004518781 0.028361762 0.03408385 -0.031967934 -0.009591506 0.01104551
0.00308883 -0.038415615 0.4627056 -0.02898296 -0.0789588 -0.22533515 -0.07816358 0.077883095
0.08125115 0.056748312 0.107088044 0.19668095 0.2376336 0.19777155 -0.060389485 0.026825465
-0.2055183 -0.269817 -0.31094238 -0.3081714 -0.1961943 -0.21200176 0.026482934 0.048711207
2.7076921 0.19533956 -0.9957291 -0.64405507 -0.20125808 -0.121827014 -0.017966637 0.023572067
0.05361754 0.02552486 -0.058067698 0.0069341287 0.02877329 -0.0034619637 0.019088171 0.012672526
0.057398424 0.009297441 -0.39293763 0.091767885 2.7957027 0.19761004 -0.80358213 -0.6301609
-0.26220796 -0.090317525 -0.029797662 0.006191364 0.08166883 0.0376824 -0.11394816 0.032548387
0.020459779 -0.0018574448 0.009505975 -0.0024139162 0.010439884 0.032418612 -0.31773344 0.056720708
-0.07156879 -0.06001011 -0.043839898 0.053757656 -0.1275584 -0.15175745 -0.30957434 -0.4781292
-0.54040146 -0.5585046 0.33231187 0.03215966 -0.10258054 -0.22236882 -0.27600524 -0.37770137
-0.4381429 -0.4738812 0.09398497 -0.0031358553 -0.6858637 -0.78974617 1.1383933 0.5197074
0.14342986 0.017161096 0.045842104 -0.0020875924 -0.035484016 0.031158337 -0.08844694 0.023154963
0.00081864273 0.00042435178 -0.024289345 -0.010829146 -0.020420253 -0.03887922 0.34492788 -0.04674441
1.105478 -0.2666469 -1.8774341 -0.28793347 -0.22920609 -0.14498289 -0.089174025 -0.0071781813
0.08871348 -0.012910399 0.6082279 0.16934888 0.20456854 0.14338706 0.10843835 0.095868066
0.21225828 0.254606 -0.09609397 0.113354884 -2.4015648 -0.41047922 1.7206993 0.5800038
0.15072832 0.097622074 0.02233608 -0.0059932712 -0.028817022 0.011231293 -0.060538173 0.013576202
0.02884581 -0.020021696 -0.008778405 -0.048630662 0.015744612 -0.032150164 0.3847234 0.008555236
0.032013383 0.1324052 -0.040243115 -0.13715126 0.030569982 0.11810199 0.23832537 0.4597249
0.4494212 0.40601787 -0.3535559 -0.06900017 0.08095932 0.17810605 0.23321716 0.2760424
0.37099782 0.34739336 -0.11184178 0.021281477 2.0679307 -0.22849666 0.19089337 -0.033760797
0.01785434 0.08000664 -0.027817711 -0.07685347 -0.105395734 -0.010446471 0.723972 0.23791496
-0.22683077 -0.3010627 -0.15476839 -0.05963995 0.09066109 0.07900684 0.12907605 -0.18091032
0.18817538 0.500762 0.8037882 0.09416547 0.04028649 -0.002040032 -0.05096565 -0.2320814
-0.23412274 -0.24758421 0.103228875 0.16793594 0.13971232 -0.015191268 -0.1366662 -0.12455556
00000000: 106a 683f cbc9 a9be b768 ea3d 7cf7 0bbe
00000010: 7f5f 253d 4541 073e 95f2 a7bc 38f6 0dbd
00000020: 020a 2b3d 2f2f 3a3c 632f ebbd 105d 71be
00000030: c837 2fbd e0cd 763d b2e6 8c3e 0dd5 0b3f
00000040: 72b0 1b3f e08b 393f 29e6 00be f83d 8cbe
00000050: 586c 853f 1cc0 dfbf 7775 d2bd 2b92 d7bd
00000060: 1a06 cebd 1c59 1ebe 54a3 0fbe c858 e1bc
00000070: 47d9 213d 189d b73d c0ad debe 428c 83bf
00000080: bb70 c4be b129 cabe ac80 49be e734 36bc
00000090: 8ab3 cf3d 5234 6a3d 1082 e9be e4da b53c
000000a0: 1a0a 32c0 9b2f c2be cfda f93f 58d5 2e3f
000000b0: f3b6 5f3e 410d 133e 775e ae3c 4378 31bd
000000c0: 7b41 0fbd 222c 07be 4812 943b ed56 e83c
000000d0: 829b 0b3d cff0 02bd b125 1dbc 3af8 343c
000000e0: f86d 4a3b b159 1dbd c0e7 ec3e ac6d edbc
000000f0: 27b5 a1bd 42be 66be 3a14 a0bd 2c81 9f3d
00000100: 0167 a63d eb70 683d fa50 db3d bb66 493e
00000110: 3956 733e a084 4a3e f75a 77bd 14c1 db3c
00000120: 6473 52be 7425 8abe d733 9fbe a4c8 9dbe
00000130: 29e7 48be fd16 59be bdf2 d83c 6785 473d
00000140: d44a 2d40 1807 483e 1ae8 7ebf cbe0 24bf
00000150: 9916 4ebe 7180 f9bd c52e 93bc 351a c13c
00000160: 119e 5b3d 8319 d13c 65d8 6dbd b037 e33b
00000170: f6b5 eb3c 1de2 62bb cc5e 9c3c 6da0 4f3c
00000180: 9c1a 6b3d 4b54 183c 1f2f c9be cdf0 bb3d
00000190: cbec 3240 495a 4a3e 8fb7 4dbf 3a52 21bf
000001a0: 1f40 86be 65f8 b8bd 3a1a f4bc ede0 ca3b
000001b0: fd41 a73d dc58 1a3d a75d e9bd 7551 053d
000001c0: 449b a73c 8175 f3ba f3be 1b3c cb32 1ebb
000001d0: 0c0c 2b3c 61c9 043d f5ad a2be f953 683d
000001e0: a892 92bd 29cd 75bd 7791 33bd fd30 5c3d
000001f0: ab9e 02be 4e66 1bbe 8780 9ebe 5acd f4be
00000200: c057 0abf 28fa 0ebf c824 aa3e d9b9 033d
00000210: bf15 d2bd a7b4 63be 8f50 8dbe 1362 c1be
00000220: 4454 e0be 8fa0 f2be 317b c03d ec82 4dbb
00000230: c394 2fbf ce2c 4abf dfb6 913f 8b0b 053f
00000240: 47df 123e 6d95 8c3c eec4 3b3d fdcf 08bb
00000250: b057 11bd c53f ff3c ab23 b5bd 7aaf bd3c
00000260: 2f9a 563a 887b de39 73fa c6bc bb6c 31bc
00000270: 6048 a7bc d13f 1fbd 639a b03e 1177 3fbd
00000280: 4e80 8d3f f185 88be c34f f0bf 046c 93be
00000290: 00b5 6abe 6576 14be dfa0 b6bd f336 ebbb
000002a0: 6aaf b53d 2386 53bc d3b4 1b3f cb69 2d3e
000002b0: 6a7a 513e 0fd4 123e ed14 de3d 7a56 c43d
000002c0: 3c5a 593e b85b 823e eacc c4bd 9b26 e83d
000002d0: 3db3 19c0 552a d2be e03f dc3f 217b 143f
000002e0: 8658 1a3e 15ee c73d 28fa b63c 3463 c4bb
000002f0: ad11 ecbc 7503 383c e0f6 77bd b86e 5e3c
00000300: 0c4e ec3c 8a04 a4bc 4dd3 0fbc f230 47bd
00000310: d8fa 803c e4af 03bd 77fa c43e 432b 0c3c
00000320: 7720 033d 3b95 073e f7d5 24bd 6171 0cbe
00000330: e66d fa3c 75df f13d 910b 743e 1061 eb3e
00000340: 891a e63e 93e1 cf3e 4705 b5be f64f 8dbd
00000350: 00ce a53d 6f61 363e 7bd0 6e3e 6e55 8d3e
00000360: 6df3 bd3e 8bdd b13e 4e0d e5bd 7e56 ae3c
00000370: fa58 0440 07fb 69be 8d79 433e c348 0abd
00000380: 4443 923c 85da a33d f8e1 e3bc 5a65 9dbd
00000390: b8d9 d7bd ad27 2bbc 3b56 393f fb9f 733e
000003a0: 5346 68be e424 9abe 9b7b 1ebe 0549 74bd
000003b0: 86ac b93d 57ce a13d 832c 043e 8e40 39be
000003c0: 0cb1 403e f031 003f 10c5 4d3f d3d9 c03d
000003d0: 7203 253d 0fb2 05bb 5bc1 50bd bfa6 6dbe
000003e0: dfbd 6fbe b786 7dbe a969 d33d 66f7 2b3e
000003f0: bf10 0f3e cce4 78bc 39f2 0bbe fc16 ffbd

net.0.bias f4 [64]
0.22920159 0.24526894 -1.273882 0.75629795 -0.21625306 -0.26727697 -0.5550664 0.46866795
1.9555157 -1.0427842 0.4773817 -2.696093 -0.7045618 2.2107553 -1.1124961 0.64072347
-1.6062796 -1.7529912 -1.1934841 0.63924974 -0.61900145 1.9095601 1.3253076 -3.0884485
-1.8139168 -1.0660379 -2.0477943 1.1267854 0.8219387 0.65745133 -1.1044616 0.08852636
2.3551726 -1.5927204 0.20920241 1.5794286 0.3112135 -0.21598496 1.2122724 -1.8397796
1.367194 -0.7016544 1.390098 1.6785022 2.1553264 -1.2698278 2.359991 0.15726888
1.7861345 0.018109726 -0.064719506 1.1081154 0.3317098 -2.4253917 -1.6668477 1.1517204
0.28727314 0.55695456 0.7911006 -1.7020713 0.30208683 -1.9511936 -1.5489513 0.04522884
00000000: d2b3 6a3e c827 7b3e 910e a3bf be9c 413f
00000010: 7171 5dbe 87d8 88be d518 0ebf 3ff5 ef3e
00000020: 574e fa3f f479 85bf 606b f43e ca8c 2cc0
00000030: 2a5e 34bf 047d 0d40 4666 8ebf 7406 243f
00000040: 929a cdbf 0462 e0bf 16c4 98bf dfa5 233f
00000050: e176 1ebf 776c f43f aea3 a93f 24a9 45c0
00000060: 6d2e e8bf ee73 88bf 100f 03c0 813a 903f
00000070: 936a 523f bb4e 283f ff5e 8dbf 4f4d b53d
00000080: 26bb 1640 43de cbbf 2839 563e b72a ca3f
00000090: 6057 9f3e 292b 5dbe be2b 9b3f e67d ebbf
000000a0: 3700 af3f 9f9f 33bf bbee b13f 29d9 d63f
000000b0: def0 0940 b889 a2bf 180a 1740 180b 213e
000000c0: 0ea0 e43f d95a 943c a98b 84bd bad6 8d3f
000000d0: ded5 a93e 9e39 1bc0 445b d5bf 936b 933f
000000e0: 7715 933e 9394 0e3f 9285 4a3f 79dd d9bf
000000f0: 20ab 9a3e b6c0 f9bf 0944 c6bf e041 393d

net.2.weight f4 [64]
0.15765202 0.69615424 0.30653515 0.29360735 0.26559752 0.2793001 0.18743956 0.6095652
0.7476946 0.4974828 0.19899179 0.39534783 0.18425 0.35343236 0.33683676 0.74164087
0.123788565 0.35403067 0.31814408 0.3036193 0.18916042 0.61360914 0.1965254 0.71942496
0.3735807 0.26368564 0.73540974 0.5010182 0.46446958 0.29805842 0.3448043 0.25495866
0.28213593 0.507524 0.63869023 0.14396955 0.23959698 0.28144988 0.30938628 0.2227391
0.10834305 0.5611185 0.28492826 0.24287915 0.71054584 0.3637555 0.66511625 0.268117
0.37444898 0.6722056 0.15575582 0.2855646 0.21155953 0.36272427 0.40026456 0.3247611
0.15943924 0.2670518 0.26257628 0.3908478 0.2236032 0.3485657 0.22851285 0.25719473
00000000: 886f 213e 2a37 323f 2df2 9c3e b453 963e
00000010: 66fc 873e 6c00 8f3e 28f0 3f3e 770c 1c3f
00000020: ea68 3f3f 11b6 fe3e 81c4 4b3e 086b ca3e
00000030: 08ac 3c3e 16f5 b43e de75 ac3e 2ddc 3d3f
00000040: dc84 fd3d 8243 b53e c8e3 a23e fd73 9b3e
00000050: 45b3 413e 7d15 1d3f f43d 493e 3c2c 383f
00000060: f845 bf3e ce01 873e d043 3c3f bb42 003f
00000070: f5ce ed3e 1d9b 983e 308a b03e f189 823e
00000080: 1f74 903e 18ed 013f 3481 233f c16c 133e
00000090: e958 753e 331a 903e e167 9e3e b815 643e
000000a0: f6e2 dd3d 76a5 0f3f 1ee2 913e 50b5 783e
000000b0: 55e6 353f 293e ba3e 0f45 2a3f a246 893e
000000c0: c7b7 bf3e ab15 2c3f 747e 1f3e 8635 923e
000000d0: 10a3 583e ffb6 b93e 7aef cc3e 1647 a63e
000000e0: 0a44 233e 03bb 883e 6670 863e 341d c83e
000000f0: 3df8 643e 3477 b23e 46ff 693e 07af 833e

net.2.bias f4 [64]
-0.06749071 0.23253657 0.077357374 0.048326924 0.23651437 0.26343533 0.07487601 -0.08794675
-0.06651933 0.14862877 -0.08781902 0.17381275 -0.04833089 -0.098648295 0.08321722 -0.4085676
-0.011910121 0.0660145 0.09014575 0.22923279 0.08996759 -0.009828362 0.15756133 0.28440988
0.04290813 0.0007835557 0.26271933 0.017369121 -0.17417862 0.21924338 0.08940078 -0.008770874
0.006112768 0.22713223 0.24950132 0.003368496 -0.27070972 0.24228181 -0.08370633 0.059071545
0.019702893 0.0600438 -0.11737633 0.007347515 -0.025113882 -0.20410816 -0.3209934 -0.2813763
-0.03111764 -0.07787206 -0.065445356 -0.107105315 -0.2680491 0.17910148 0.0075083254 -0.07804997
-0.061721224 0.15160213 0.026930086 -0.016731609 -0.26272175 0.1732461 0.043558102 -0.2861204
00000000: 9238 8abd 111e 6e3e 8b6d 9e3d 74f2 453d
00000010: d330 723e ffe0 863e 9858 993d 6d1d b4bd
00000020: 493b 88bd 2432 183e 75da b3bd f8fb 313e
00000030: 9cf6 45bd 1e08 cabd ca6d aa3d c62f d1be
00000040: ab22 43bc 9c32 873d 569e b83d 00bc 6a3e
00000050: ee40 b83d 2307 21bc c257 213e 2c9e 913e
00000060: 6fc0 2f3d 8867 4d3a 2683 863e b049 8e3c
00000070: e15b 32be 5681 603e c217 b73d b6b3 0fbc
00000080: 9d4d c83b 5a95 683e 467d 7f3e fcc1 5c3b
00000090: 779a 8abe b918 783e 396e abbd 01f5 713d
000000a0: f667 a13c 7df0 753d 0063 f0bd 6cc3 f03b
000000b0: a1bb cdbc bb01 51be 3f59 a4be 8e10 90be
000000c0: 6cea febc 637b 9fbd 3708 86bd 085a dbbd
000000d0: bb3d 89be 6166 373e 6608 f63b aad8 9fbd
000000e0: 65cf 7cbd 973d 1b3e 7c9c dc3c ba10 89bc
000000f0: 7783 86be 6d67 313e fb69 323d 607e 92be

net.2.running_mean f4 [64]
0.84832346 -0.8356199 -0.80415976 -0.7814081 0.2740247 0.19979362 -0.8385182 -0.53670746
0.9995185 -0.816025 0.79106116 -0.86178267 -0.7830237 0.68618953 -0.89219797 0.5900436
-0.8035046 -0.6795474 -0.8212071 -0.053782485 -0.81036335 0.9996312 0.7504352 -0.74859923
-0.5150491 -0.99265075 -0.7511478 -0.16711421 0.85439634 -0.02003786 -0.8762011 -0.42498314
0.81920964 -0.7614732 -0.71743673 0.8240876 -0.49367815 0.19419882 0.87050366 -0.7265302
0.7834804 0.41411617 0.78337514 0.668996 0.999614 -0.9958499 0.6526052 -0.13777812
0.5890516 -0.63200366 0.68847835 0.69698423 -0.4250497 -0.72302276 -0.55294186 0.84675884
0.8489366 0.0075039677 0.46256834 -0.45653224 -0.66208124 -0.60582787 -0.85945547 -0.11152222
00000000: ba2b 593f 30eb 55bf 6add 4dbf 5c0a 48bf
00000010: f74c 8c3e b396 4c3e 21a9 56bf a965 09bf
00000020: 72e0 7f3f 04e7 50bf fc82 4a3f ca9d 5cbf
00000030: 3e74 48bf 1eaa 2f3f 1667 64bf 190d 173f
00000040: 7ab2 4dbf d2f6 2dbf a13a 52bf 064b 5cbd
00000050: f973 4fbf d5e7 7f3f 851c 403f 33a4 3fbf
00000060: 42da 03bf 5c1e 7ebf 394b 40bf fd1f 2bbe
00000070: b8b9 5a3f 7026 a4bc b74e 60bf 6497 d9be
00000080: b9b7 513f e8ef 42bf efa9 37bf 68f7 523f
00000090: 62c3 fcbe 0edc 463e 54d9 5e3f e2fd 39bf
000000a0: 2c92 483f 0907 d43e 468b 483f 5243 2b3f
000000b0: b4e6 7f3f 05f0 7ebf 2211 273f b515 0dbe
000000c0: 16cc 163f feca 21bf 1e40 303f 8f6d 323f
000000d0: 1da0 d9be 0518 39bf 998d 0dbf 30c5 583f
000000e0: e953 593f d8e3 f53b c2d5 ec3e 98be e9be
000000f0: 287e 29bf 8917 1bbf 4605 5cbf c365 e4bd

net.2.running_var f4 [64]
0.06495756 0.16408756 0.17640997 0.04028434 0.62699705 0.6738412 0.06502192 0.25775018
4.863233e-06 0.14881712 0.069848344 0.07059056 0.06738784 0.11123513 0.091959745 0.48238674
0.031020045 0.084127404 0.16055013 0.8149634 0.036515564 3.3772428e-06 0.08756384 0.30782083
0.25995156 4.8287628e-05 0.3002487 0.26207733 0.13147314 0.81464005 0.1091277 0.20857888
0.09738587 0.23847656 0.28207934 0.026910424 0.41802663 0.67250526 0.110084206 0.10483613
0.029661106 0.26663497 0.11960746 0.13178092 2.0252896e-06 2.367558e-05 0.43544686 0.7260292
0.22822307 0.297364 0.15356395 0.1563305 0.47969556 0.19837163 0.22276787 0.13354728
0.06447763 0.23487891 0.06465575 0.2753404 0.27013564 0.3304064 0.041514967 0.7594746
00000000: 7808 853d 9206 283e d1a4 343e 3101 253d
00000010: e182 203f db80 2c3f 362a 853d d5f7 833e
00000020: da2e a336 8463 183e a60c 8f3d c991 903d
00000030: a302 8a3d 3ecf e33d 6455 bc3d 65fb f63e
00000040: c01d fe3c fd4a ac3d 4167 243e 71a1 503f
00000050: 5891 153d 97a4 6236 ac54 b33d b19a 9d3e
00000060: 5f18 853e 7288 4a38 33ba 993e 002f 863e
00000070: e5a0 063e 408c 503f 587e df3d b495 553e
00000080: 3e72 c73d 3333 743e b46c 903e 4073 dc3c
00000090: 9607 d63e 4e29 2c3f d473 e13d 53b4 d63d
000000a0: d9fb f23c 6184 883e c2f4 f43d 94f1 063e
000000b0: 36ea 0736 ec9a c637 e4f2 de3e 0ddd 393f
000000c0: 4fb3 693e 1840 983e de3f 1d3e 1a15 203e
000000d0: a89a f53e ef21 4b3e 431d 643e 9ec0 083e
000000e0: d90c 843d 1984 703e 3c6a 843d 6bf9 8c3e
000000f0: 384f 8a3e 072b a93e 990b 2a3d ed6c 423f

net.4.weight f4 [64, 64]
0.09615245 -0.5250417 0.049831342 0.07441259 1.4381775 1.407862 0.22920652 0.57154185
0.017424498 0.059120603 -0.14988184 0.30819532 0.06991449 0.05195759 0.019623807 -0.40803143
-0.0074385833 0.11837774 0.05085639 0.82110703 0.14048383 0.013865578 0.185859 -0.07864823
-0.15384096 0.18113159 -0.17757437 0.32275108 -0.053051353 0.73445517 0.016774636 -0.34646434
-0.050362803 0.17393276 0.29019234 -0.093254216 -0.22216348 1.3874348 0.007322064 0.08277046
0.08924303 -0.4698828 -0.63095033 0.03777621 -0.0906424 0.13690618 -0.5015273 -1.9039369
0.22774082 0.8331952 0.12473108 -0.47211677 -0.14362276 0.18286617 -0.14296417 -0.047849406
0.08476529 0.47862735 -0.19613205 -0.2304193 -0.24230236 0.13240127 -0.25690055 -2.1249053
0.084624134 0.5053094 0.23443161 0.10144063 0.24930407 0.27779618 -0.032822464 -0.07768054
0.037854575 0.13635507 0.030304225 -0.17916223 -0.027808536 0.00010441365 -0.19042645 0.19181296
-0.2693763 -0.2988634 0.14797315 0.54719865 -0.058091294 0.085385635 0.008230712 0.5436051
-0.2624533 0.043379806 0.5356402 0.12927058 0.09821424 0.5800346 -0.14724168 -0.1279881
0.03829444 0.11440539 0.0043084617 0.24149042 0.14080885 0.24659541 -0.13899563 -0.06142432
-0.051407598 0.026573218 0.082950935 0.19133748 0.11931335 0.012323379 0.25541714 -0.3581479
0.20593607 -0.2242823 0.12284903 0.029410958 0.21151851 -0.18988259 -0.23286796 -0.1629207
0.04823977 0.26825118 0.04482808 -0.18881094 0.110343345 -0.16054463 -0.004019882 -0.42454222
0.098961085 -0.09828219 -1.0615542 0.16222468 0.04843372 -0.016123988 0.020320976 0.11839164
0.15948164 -0.5834937 -0.0020161679 -3.3045518 0.044507522 0.24651605 -1.1777277 -0.0112382155
-0.09500693 -0.3257532 -1.0526761 -0.5358319 0.025024934 0.010555925 -0.10489237 -0.091652915
-0.10629215 0.19824602 -0.09365275 0.12430161 1.8547728 -0.51811785 -1.0839599 0.3839918
0.444002 0.027297577 -0.03552125 0.037437275 0.069260776 0.022020778 1.0477343 -0.21095195
0.11074295 -0.13362214 0.20216392 0.14433327 -0.10816816 0.041595347 0.0660639 0.0055423067
0.08234608 0.051855914 0.15917419 0.13326061 0.13576932 -3.3160543 -0.056083072 0.91315967
0.12655164 -0.11440223 0.3302335 -0.06928689 0.09491939 -2.9912279 0.09376131 0.02011487
0.033693314 -0.0888866 -0.092364684 -0.17476293 0.8617573 1.038505 -0.021722723 -0.031295188
-0.061980203 -0.022107411 -0.025853124 0.53487235 -0.31111407 -0.6494989 0.81214833 -0.030783057
-0.08042752 -0.22212107 -0.02402121 0.3571075 -0.0053670765 -0.91615385 0.053480916 0.07259309
0.067694776 -0.02693143 -0.04005742 -0.01336491 -0.57866424 0.41861233 0.9602385 0.028296126
0.16206841 0.053973787 0.050508223 0.06227689 -0.022067472 0.96243054 0.03843938 0.087064706
-0.0016556658 0.030984363 -0.4548743 0.09738516 -0.7056786 -0.084720224 0.08214913 -1.0910945
0.03232139 -0.015614034 0.11484614 -0.31857115 -0.069325045 0.7769441 -0.008188577 0.062320728
0.09467015 0.24018838 -0.050959308 0.035443813 -0.0352133 0.7948541 0.8289402 -1.1091665
00000000: 93eb c43d 2269 06bf f31b 4c3d a165 983d
00000010: 3316 b83f d234 b43f 1db5 6a3e 9150 123f
00000020: d2bd 8e3c 7228 723d a07a 19be c7cb 9d3e
00000030: 542f 8f3d 7bd1 543d 1bc2 a03c 7fe9 d0be
00000040: 5cbf f3bb 0770 f23d ca4e 503d 1234 523f
00000050: feda 0f3e 732c 633c d251 3e3e 5312 a1bd
00000060: 7c88 1dbe 8f7a 393e 0ed6 35be a13f a53e
00000070: 604c 59bd 4105 3c3f f66a 893c c663 b1be
00000080: 3a49 4ebd 6e1b 323e 1794 943e 11fc bebd
00000090: d37e 63be 7797 b13f eded ef3b 8f83 a93d
000000a0: 0dc5 b63d 7a94 f0be f685 21bf 3abb 1a3d
000000b0: b9a2 b9bd 2231 0c3e 1864 00bf 34b4 f3bf
000000c0: e434 693e 484c 553f 0273 ff3d 4ab9 f1be
000000d0: d811 13be 4541 3b3e 3365 12be bdfd 43bd
000000e0: 6d99 ad3d a50e f53e d7d6 48be 09f3 6bbe
000000f0: 1c1e 78be 3394 073e 7888 83be 73fe 07c0
00000100: 6b4f ad3d f55b 013f d70e 703e 1bc0 cf3d
00000110: 9149 7f3e 4d3b 8e3e d970 06bd fa16 9fbd
00000120: 660d 1b3d aaa0 0b3e 9140 f83c 4e76 37be
00000130: bace e3bc a7f8 da38 27ff 42be 9e6a 443e
00000140: b1eb 89be a004 99be 4686 173e 3615 0c3f
00000150: 23f1 6dbd aade ae3d 1cda 063c b429 0b3f
00000160: 4760 86be 06af 313d b71f 093f 825f 043e
00000170: 8c24 c93d 267d 143f 86c6 16be 500f 03be
00000180: a1da 1c3d 604d ea3d ff2d 8d3b 4449 773e
00000190: 3230 103e 8283 7c3e df54 0ebe 1198 7bbd
000001a0: c690 52bd 14b0 d93c 2ee2 a93d f9ed 433e
000001b0: 8f5a f43d ffe7 493c 09c6 823e 295f b7be
000001c0: e8e0 523e 42aa 65be 4698 fb3d 40ef f03c
000001d0: 4f98 583e 9570 42be f074 6ebe afd4 26be
000001e0: 1197 453d 3858 893e a69d 373d a857 41be
000001f0: b1fb e13d d065 24be 37b9 83bb 995d d9be
00000200: 1cac ca3d 2c48 c9bd 02e1 87bf 3a1e 263e
00000210: 7062 463d 7416 84bc 2d78 a63c 5177 f23d
00000220: 284f 233e d85f 15bf af21 04bb c77d 53c0
00000230: 854d 363d b46e 7c3e c8bf 96bf 7e20 38bc
00000240: fe92 c2bd 20c9 a6be 17be 86bf 482c 09bf
00000250: 1701 cd3c c2f2 2c3c d0d1 d6bd 86b4 bbbd
00000260: b3af d9bd 0101 4b3e 03cd bfbd d891 fe3d
00000270: 3269 ed3f 5fa3 04bf 33bf 8abf 939a c43e
00000280: 3b54 e33e 2b9f df3c bb7e 11bd d457 193d
00000290: 98d8 8d3d eb64 b43c 281c 863f ca03 58be
000002a0: 33cd e23d 3ed4 08be 0f04 4f3e 1acc 133e
000002b0: 4587 ddbd e25f 2a3d 834c 873d 3d9c b53b
000002c0: 10a5 a83d de66 543d 8ffe 223e 7875 083e
000002d0: 1d07 0b3e 3c3a 54c0 5db7 65bd d5c4 693f
000002e0: c196 013e b74b eabd 5e14 a93e 49e6 8dbd
000002f0: 1965 c23d 4770 3fc0 ee05 c03d f1c7 a43c
00000300: 0002 0a3d 2e0a b6bd b229 bdbd 0ef5 32be
00000310: 209c 5c3f bbed 843f daf3 b1bc 622f 00bd
00000320: f4de 7dbd 9a1a b5bc eec9 d3bc 65ed 083f
00000330: 584a 9fbe 8f45 26bf f4e8 4f3f c02c fcbc
00000340: 2fb7 a4bd b573 63be 21c8 c4bc cbd6 b63e
00000350: 4dde afbb 0f89 6abf ce0e 5b3d b0ab 943d
00000360: 8fa3 8a3d 4d9f dcbc 4013 24bd 7ff8 5abc
00000370: 5723 14bf 5b54 d63e 31d2 753f 47cd e73c
00000380: 43f5 253e 9e13 5d3d b6e1 4e3d 0d16 7f3d
00000390: d8c6 b4bc d961 763f 9c72 1d3d fb4e b23d
000003a0: ed02 d9ba ebd2 fd3c 49e5 e8be df71 c73d
000003b0: 5aa7 34bf cc81 adbd ce3d a83d fca8 8bbf
000003c0: 6f63 043d 01d2 7fbc 7434 eb3d c21b a3be
000003d0: 4afa 8dbd cfe5 463f 6229 06bc 0544 7f3d
000003e0: 6ce2 c13d f1f3 753e b5ba 50bd 882d 113d
000003f0: d23b 10bd 8f7b 4b3f 6d35 543f 2bf9 8dbf

net.4.bias f4 [64]
1.2944717 -0.7874459 -0.89217556 2.8902223 1.0297903 -1.3794274 0.7723305 1.6738595
-1.1411058 3.1387007 -0.49095896 -1.0597333 2.223921 1.9097762 0.64927876 0.5565519
1.3668054 1.2657543 -1.5464565 1.1719817 -2.2161388 -1.5583864 -1.3610243 0.8317799
2.4435105 -1.2995641 0.8137711 -0.5303613 -1.7049944 2.5154524 -0.30729598 -1.5895445
-0.43025154 1.1903372 -1.0097532 -1.7903556 -1.3200517 2.6876242 -2.9870799 -0.800742
1.2297274 0.2649486 0.46106508 2.1388447 -1.8397795 2.3981276 -2.00048 1.0541828
-1.0414865 1.0440792 1.6400007 -1.2831638 -1.3525211 0.35008013 0.6245337 0.90255874
1.6839244 2.449325 0.7389209 0.9979069 -1.2160338 -1.924974 -1.1002651 -1.0941607
00000000: 40b1 a53f 0e96 49bf 9e65 64bf 67f9 3840
00000010: 2bd0 833f 1491 b0bf 74b7 453f 0741 d63f
00000020: c10f 92bf 79e0 4840 f95e fbbe 57a5 87bf
00000030: b954 0e40 8c73 f43f 2237 263f 2f7a 0e3f
00000040: 7bf3 ae3f 3d04 a23f 49f2 c5bf 7f03 963f
00000050: 38d5 0dc0 3579 c7bf 0b36 aebf 87ef 543f
00000060: 7a62 1c40 1e58 a6bf 4e53 503f c2c5 07bf
00000070: 423d dabf 2cfd 2040 e655 9dbe 3276 cbbf
00000080: ee49 dcbe f85c 983f 983f 81bf 5f2a e5bf
00000090: 74f7 a8bf 0902 2c40 512c 3fc0 6dfd 4cbf
000000a0: b567 9d3f 58a7 873e b910 ec3e d5e2 0840
000000b0: e57d ebbf ec7a 1940 dd07 00c0 76ef 863f
000000c0: 6e4f 85bf 63a4 853f 8beb d13f b63e a4bf
000000d0: 691f adbf b43d b33e 71e1 1f3f 170e 673f
000000e0: d68a d73f bec1 1c40 ec29 3d3f d476 7f3f
000000f0: ffa6 9bbf 8c65 f6bf 7dd5 8cbf 750d 8cbf

net.6.weight f4 [64]
0.28581822 0.31569812 0.37867615 0.22682226 0.2604353 0.29686236 0.269599 0.32113266
0.29564074 0.28835088 0.22991462 0.24567145 0.17771524 0.37563106 0.34695098 0.24543588
0.26417738 0.3800635 0.29100543 0.4875666 0.50227493 0.17080548 0.1998656 0.34216332
0.23031224 0.38502744 0.28563085 0.33357033 0.34509054 0.3458931 0.23380655 0.28905922
0.25554234 0.3362892 0.18673177 0.32871735 0.26051003 0.3223186 0.23610926 0.23184611
0.33682096 0.23873857 0.32692444 0.33978382 0.2108385 0.30748406 0.20182781 0.27398482
0.21536027 0.24586569 0.37228724 0.14918222 0.3395783 0.25550357 0.32259727 0.2345321
0.19050801 0.32206076 0.18215823 0.187037 0.4665135 0.18849285 0.28322357 0.18851697
00000000: c456 923e 2fa3 a13e d7e1 c13e 1844 683e
00000010: c757 853e 58fe 973e e108 8a3e 806b a43e
00000020: 395e 973e baa2 933e bd6e 6b3e 4c91 7b3e
00000030: fcfa 353e b752 c03e 8fa3 b13e 8b53 7b3e
00000040: 4242 873e af97 c23e aafe 943e 54a2 f93e
00000050: 1795 003f a2e7 2e3e 91a9 4c3e 0830 af3e
00000060: f9d6 6b3e 5122 c53e 353e 923e bbc9 aa3e
00000070: b5af b03e e718 b13e fc6a 6f3e 92ff 933e
00000080: 72d6 823e 192e ac3e 9d36 3f3e a44d a83e
00000090: 9261 853e f206 a53e a0c6 713e 1169 6d3e
000000a0: cc73 ac3e e277 743e a462 a73e 25f8 ad3e
000000b0: 0ce6 573e 8d6e 9d3e f3ab 4e3e bd47 8c3e
000000c0: 6787 5c3e 37c4 7b3e 6f9c be3e 39c3 183e
000000d0: 35dd ad3e 5dd1 823e 782b a53e 2f29 703e
000000e0: 8814 433e 26e5 a43e b087 3a3e a186 3f3e
000000f0: dcda ee3e 4504 413e ae02 913e 980a 413e

net.6.bias f4 [64]
-0.07842721 0.11730335 0.26219004 -0.09431321 -0.11610934 -0.19421768 -0.17681403 -0.115244426
0.21866535 -0.086845376 0.18182054 0.14740947 -0.043474864 -0.22323522 -0.03399887 -0.25970468
-0.13291982 -0.20667467 0.24713479 -0.18212941 0.17880295 -0.05407158 -0.019220626 -0.22713919
-0.10580024 0.23110378 -0.28315532 0.24931096 0.17529653 -0.24880393 0.26708418 0.084224924
0.27226356 -0.16935767 0.050293583 0.09993149 0.11063004 -0.10955248 0.067593776 -0.11644443
-0.1846863 -0.22320972 -0.21717925 -0.24071255 -0.05365136 -0.016043726 0.026874073 0.082858466
0.078223 -0.14248547 -0.2387333 -0.095383324 0.18846262 -0.26920703 -0.28918055 -0.0928298
-0.049679797 -0.15140629 0.0034861262 0.08038363 0.16777506 -0.16277252 0.23247509 -0.04674539
00000000: 729e a0bd bd3c f03d c63d 863e 4927 c1bd
00000010: bcca edbd 00e1 46be bd0e 35be 4505 ecbd
00000020: cfe9 5f3e fddb b1bd 2a2f 3a3e 82f2 163e
00000030: b312 32bd c697 64be 6642 0bbd 03f8 84be
00000040: 221c 08be 86a2 53be e710 7d3e 2280 3abe
00000050: 1f18 373e 297a 5dbd 9374 9dbc 2d97 68be
00000060: ccad d8bd 78a6 6c3e bcf9 90be 5f4b 7f3e
00000070: ef80 333e 75c6 7ebe 42bf 883e 1e7e ac3d
00000080: 2166 8b3e 196c 2dbe a500 4e3d e2a8 cc3d
00000090: 0192 e23d 0d5d e0bd 9b6e 8a3d 6b7a eebd
000000a0: 681e 3dbe 1791 64be 3d64 5ebe 5a7d 76be
000000b0: 87c1 5bbd 226e 83bc 0427 dc3c b3b1 a93d
000000c0: 6133 a03d b6e7 11be 8176 74be 5558 c3bd
000000d0: 58fc 403e 81d5 89be 790f 94be 8d1d bebd
000000e0: 0b7d 4bbd 400a 1bbe 7e77 643b 2ca0 a43d
000000f0: 3acd 2b3e d7ad 26be f30d 6e3e 1878 3fbd

net.6.running_mean f4 [64]
0.84569114 -0.11751023 -0.7753836 0.98294634 0.60783595 -0.69088006 0.5124441 0.8155102
-0.8274314 0.9841039 -0.03255976 -0.46499586 0.9576089 0.89663595 0.38858858 0.3733194
0.66950995 0.8024905 -0.67636484 0.7759556 -0.88419306 -0.8727017 -0.8487959 0.3106156
0.9796442 -0.5320155 0.21369876 -0.18256098 -0.92854244 0.9530041 -0.30619523 -0.9070183
-0.36543056 0.50445807 -0.6291255 -0.9742046 -0.65402746 0.98225516 -0.98781306 -0.6653347
0.7782986 0.41561195 0.3090423 0.942676 -0.9711492 0.9744526 -0.853299 0.41914555
-0.7483992 0.4885966 0.6591137 -0.83970577 -0.93924195 0.41422957 0.2787987 0.7719055
0.81139904 0.9751715 0.6351194 0.86037153 -0.7628979 -0.9195803 -0.78472996 -0.6626293
00000000: 377f 583f 34a9 f0bd 8a7f 46bf 5fa2 7b3f
00000010: 239b 1b3f 84dd 30bf 892f 033f 47c5 503f
00000020: 8bd2 53bf 3cee 7b3f 625d 05bd f013 eebe
00000030: db25 753f ef89 653f 15f5 c63e b823 bf3e
00000040: 0165 2b3f 0470 4d3f 3f26 2dbf 07a5 463f
00000050: 7a5a 62bf 6169 5fbf b04a 59bf 0209 9f3e
00000060: f6c9 7a3f 2b32 08bf d9d3 5a3e 44f1 3abe
00000070: f5b4 6dbf 14f8 733f 9fc5 9cbe 5a32 68bf
00000080: b719 bbbe 2a24 013f 5e0e 21bf 7965 79bf
00000090: 586e 27bf 1375 7b3f 51e1 7cbf 6053 2abf
000000a0: 943e 473f 17cb d43e cb3a 9e3e 3753 713f
000000b0: 3c9d 78bf ba75 793f ce71 5abf 3f9a d63e
000000c0: 1797 3fbf 5529 fa3e adbb 283f f5f6 56bf
000000d0: 2972 70bf e615 d43e b4be 8e3e 999b 453f
000000e0: d9b7 4f3f d7a4 793f 2f97 223f 4f41 5c3f
000000f0: 474d 43bf 9d69 6bbf 10e4 48bf 13a2 29bf

net.6.running_var f4 [64]
0.17089507 0.46107432 0.112172134 0.0020718004 0.17261037 0.18286945 0.22961417 0.09540704
0.04815318 0.00440215 0.34603184 0.24707662 0.00552399 0.03440955 0.28757125 0.36855483
0.19483699 0.109370135 0.16405234 0.27102688 0.09398929 0.023442699 0.04700396 0.4822466
0.0018851046 0.5840222 0.4662252 0.4777884 0.020257523 0.0060192402 0.3835341 0.07016676
0.29449 0.51283747 0.3160045 0.0042291647 0.2557339 0.0057756887 0.0022698145 0.11147766
0.10327593 0.23217058 0.42727926 0.008614406 0.0015124719 0.0015960309 0.08038389 0.18364523
0.09402452 0.2338652 0.27022657 0.03749051 0.007428837 0.3217428 0.6993001 0.26946783
0.09293679 0.004994921 0.096841596 0.025093654 0.3214655 0.012783894 0.07305918 0.07919698
00000000: 1eff 2e3e ef11 ec3e 81ba e53d 0bc7 073b
00000010: c6c0 303e 2142 3b3e fa1f 6b3e c464 c33d
00000020: 453c 453d e93f 903b 162b b13e a701 7d3e
00000030: 9602 b53b 07f1 0c3d 8a3c 933e 38b3 bc3e
00000040: 5983 473e 73fd df3d 56fd 273e 09c4 8a3e
00000050: 757d c03d e70a c03c 3987 403d 07e9 f63e
00000060: 9d15 f73a 7b82 153f 12b5 ee3e aea0 f43e
00000070: 1bf3 a53c 0c3d c53b 955e c43e 97b3 8f3d
00000080: 65c7 963e 5149 033f 58cb a13e ce94 8a3b
00000090: 8eef 823e fd41 bd3b 2bc1 143b 664e e43d
000000a0: 5582 d33d 20be 6d3e 59c4 da3e 7023 0d3c
000000b0: 233e c63a e931 d13a 4fa0 a43d 7f0d 3c3e
000000c0: ed8f c03d 5c7a 6f3e 235b 8a3e a68f 193d
000000d0: 9a6d f33b 79bb a43e 5505 333f b0f7 893e
000000e0: a555 be3d 6fac a33b e354 c63d 3591 cd3c
000000f0: 2097 a43e 8a73 513c 0da0 953d 0732 a23d

net.8.weight f4 [64, 64]
0.054133527 -0.080754094 0.9766761 -0.025135351 -0.5229017 0.30096355 -0.7739704 0.14903459
0.43143564 -0.09577981 -0.04117663 0.00944303 0.1735507 -0.9562006 0.13245806 -0.38898766
0.0017527436 -0.13506812 1.7526546 -0.9023346 0.71575624 -0.38196358 -0.2526837 0.043304674
-0.05153184 0.20200478 -1.5319687 0.37760088 0.08659858 -1.7148536 -0.12805861 -0.050863776
-0.078166686 -0.16788803 0.08852411 -0.0067609153 0.02053255 0.02553472 0.0028848343 0.19625089
0.13672605 0.018441487 -0.58120507 -1.5633631 0.24360886 0.026047794 0.00103856 -0.15096849
0.008795572 0.012399232 0.02093805 -0.506969 0.2775223 0.16413544 0.09522294 -0.0077056712
0.119249 -0.0950825 -0.09597678 0.22464019 0.97658294 -0.10577719 0.290567 -0.1174046
-0.0015196294 0.02632046 -0.044430126 -0.24530542 -0.029627286 0.0241204 -0.0004175397 0.36048493
0.057808872 -0.06697751 -0.077396296 -0.01813129 -0.071060956 0.14737642 0.046657067 0.06184533
0.12163261 0.109657 -0.1019958 0.121237256 -0.343824 0.091143854 -0.0062620197 1.0831109
-0.006746876 -0.9637611 -0.1238282 -0.848015 0.04259476 0.021392893 0.018380811 0.03848271
0.024061961 0.50180596 -0.31088978 0.00903288 0.11501171 -0.052625567 0.047168367 0.13589841
0.12471511 0.14976221 -0.10468117 0.048064977 0.18162808 0.09663042 0.23618883 0.08071565
0.086524144 -0.00066796364 0.9904445 0.22099963 0.011581336 0.16029713 0.08002212 0.12034318
-0.1454064 -0.10496978 -0.15523487 -0.032283064 -0.39783618 -0.059375115 -0.07143111 -0.08943877
-0.06682205 0.10913573 0.039889667 0.13125414 0.04374348 0.13940674 0.1610869 -0.116487466
0.2637173 1.0156094 0.023799298 -0.09873049 0.3806562 -0.09935704 -0.0757787 -0.053827394
0.013261442 0.051845986 -0.13449155 0.0021594472 0.004267318 -0.08107004 0.015396142 0.12672825
-0.040886965 0.04673069 0.07058109 -0.13994983 -0.19306038 -0.14932454 0.1142489 -0.003174899
0.013355978 -0.090370476 -0.24617212 -0.060786925 -0.017631795 0.8073152 -1.0996039 0.030500803
0.03447788 0.14681874 0.076122634 -0.24007064 0.47772148 0.017268918 0.52264136 -0.058440756
-0.20901126 0.124179915 0.0024064889 -0.057528023 0.031683657 -0.1757614 0.019186817 0.5426249
0.84831834 -0.087601714 -0.639177 -0.12645067 -0.02154682 -0.08218738 0.24020196 -0.68598247
-0.13361457 -0.11152883 0.16938844 -0.19661337 -0.062312484 -0.022564089 -0.01344147 0.90199345
-0.053743616 0.07395838 -1.6913506 -2.4387975 0.2287985 0.039317492 -0.01192765 9.3066854e-05
0.3950233 0.5555302 -0.0026798863 0.02439971 -0.73603445 -0.16583008 0.1172314 -0.0695547
0.4134682 0.0013913616 0.022082344 0.07411146 0.010249967 0.03515837 -0.0049589905 0.111026056
0.046552215 0.0146014495 -0.18740416 -0.018140087 -0.5279837 -0.017318575 -0.0151581485 0.062259797
0.07892626 -0.04606131 -0.2162491 0.094060324 -0.13176861 0.005356547 -0.063445 0.027799286
-0.1702278 2.4920046 0.00824829 0.46093073 0.17165715 -0.06715876 0.019265886 0.023463154
-0.3184835 0.29338145 0.257353 -0.62043184 -0.076440185 0.04152785 -0.07067136 0.15264551
00000000: 1ebb 5d3d 6762 a5bd 7207 7a3f a7e8 cdbc
00000010: e3dc 05bf e517 9a3e ed22 46bf 869c 183e
00000020: 22e5 dc3e 3428 c4bd d3a8 28bd f0b6 1a3c
00000030: 46b7 313e 90c9 74bf 16a3 073e 6429 c7be
00000040: 51bc e53a 4c4f 0abe fc56 e03f 66ff 66bf
00000050: cd3b 373f bb90 c3be c25f 81be 3e60 313d
00000060: 0d13 53bd 57da 4e3e 8d17 c4bf e754 c13e
00000070: 995a b13d 5380 dbbf cc21 03be 8956 50bd
00000080: db15 a0bd d7ea 2bbe 214c b53d ab8a ddbb
00000090: e133 a83c 302e d13c 7d0f 3d3b fef5 483e
000000a0: ea01 0c3e 9a12 973c dbc9 14bf 481c c8bf
000000b0: 9a74 793e 2f62 d53c 4a20 883a 7c97 1abe
000000c0: 4e1b 103c 2626 4b3c 4686 ab3c b8c8 01bf
000000d0: 6717 8e3e 1f13 283e 3f04 c33d db7f fcbb
000000e0: d238 f43d 9dba c2bd 798f c4bd 1408 663e
000000f0: 5701 7a3f b6a1 d8bd 33c5 943e d371 f0bd
00000100: 4d2e c7ba 019e d73c 5dfc 35bd 5831 7bbe
00000110: ecb4 f2bc 2598 c53c 3be9 dab9 7b91 b83e
00000120: ffc8 6c3d 812b 89bd f381 9ebd 1288 94bc
00000130: 6888 91bd d8e9 163e 7b1b 3f3d 8751 7d3d
00000140: 851a f93d d993 e03d 2de3 d0bd 3d4b f83d
00000150: b309 b0be a1a9 ba3d a131 cdbb 61a3 8a3f
00000160: e614 ddbb 0cb9 76bf a499 fdbd 8317 59bf
00000170: d877 2e3d 2640 af3c 5b93 963c 0ca0 1d3d
00000180: 971d c53c 5b76 003f f22c 9fbe a5fe 133c
00000190: 428b eb3d e88d 57bd 9e33 413d f428 0b3e
000001a0: a36a ff3d 445b 193e 1563 d6bd c8df 443d
000001b0: b6fc 393e 2be6 c53d 7cdb 713e 3f4e a53d
000001c0: 9233 b13d 481a 2fba c58d 7d3f ba4d 623e
000001d0: a5bf 3d3c ee24 243e a3e2 a33d 7c76 f63d
000001e0: 6ae5 14be 65fa d6bd e4f5 1ebe 3f3b 04bd
000001f0: 2fb1 cbbe 5233 73bd 794a 92bd ad2b b7bd
00000200: 00da 88bd 8e82 df3d 5963 233d 7c67 063e
00000210: 5d2c 333d a4c0 0e3e f7f3 243e fb90 eebd
00000220: f405 873e 7dff 813f bff6 c23c 3633 cabd
00000230: 5fe5 c23e b47b cbbd dd31 9bbd 1d7a 5cbd
00000240: 8546 593c 755c 543d 27b8 09be 8385 0d3b
00000250: dcd4 8b3b 0d08 a6bd 1a40 7c3c 0dc5 013e
00000260: 1779 27bd ae68 3f3d d28c 903d 024f 0fbe
00000270: 9fb1 45be 88e8 18be 54fb e93d f711 50bb
00000280: 08d3 5a3c 2814 b9bd 8b14 7cbe b6fb 78bd
00000290: 8e70 90bc 35ac 4e3f d2bf 8cbf d2dc f93c
000002a0: ad38 0d3d a757 163e 2fe6 9b3d 14d5 75be
000002b0: e997 f43e 8c77 8d3c d3cb 053f 935f 6fbd
000002c0: 0c07 56be 0a52 fe3d 2fb6 1d3b 81a2 6bbd
000002d0: b9c6 013d ccfa 33be ac2d 9d3c 77e9 0a3f
000002e0: 642b 593f 8768 b3bd 1ba1 23bf 497c 01be
000002f0: f582 b0bc db51 a8bd 81f7 753e 8c9c 2fbf
00000300: 42d2 08be 3a69 e4bd 2a74 2d3e 0455 49be
00000310: 603b 7fbd 53d8 b8bc 9d39 5cbc 0be9 663f
00000320: 4422 5cbd 7e77 973d 2d7e d8bf 4215 1cc0
00000330: 274a 6a3e 610b 213d 316c 43bc e32c c338
00000340: 7e40 ca3e 3a37 0e3f 08a1 2fbb e7e1 c73c
00000350: c16c 3cbf 5ccf 29be 0417 f03d b272 8ebd
00000360: 1bb2 d33e 595e b63a 08e6 b43c c0c7 973d
00000370: 7aef 273c 3902 103d 077f a2bb a161 e33d
00000380: 89ad 3e3d eb3a 6f3c e0e6 3fbe 859a 94bc
00000390: f129 07bf afdf 8dbc e259 78bc 2104 7f3d
000003a0: 17a4 a13d c9aa 3cbd 6770 5dbe b3a2 c03d
000003b0: 5aee 06be f985 af3b 74ef 81bd 54bb e33c
000003c0: 3250 2ebe 017d 1f40 d623 073c 1dff eb3e
000003d0: e4c6 2f3e 888a 89bd 7ed3 9d3c cd35 c03c
000003e0: 4510 a3be 1836 963e c6c3 833e 9fd4 1ebf
000003f0: ac8c 9cbd 1b19 2a3d 25bc 90bd 1b4f 1c3e

net.8.bias f4 [64]
0.60095006 -0.3572256 0.17064106 -0.2077222 -1.2162492 -0.4909769 0.9648002 0.60948443
-0.17552495 0.81332445 -0.6199492 0.07305152 0.57410634 -0.19631965 -0.12514858 -0.5556915
0.60681015 0.6166709 0.09556316 0.6081581 -1.0857128 -0.50630975 0.8831001 -0.109819524
0.19457057 -0.30296078 -0.06733946 2.5165992 -0.20319892 -0.2957731 -0.5077506 -0.99174947
0.7168329 -0.24776119 0.49092525 0.76029783 0.9883435 0.68575746 -0.29663464 -0.94502425
-0.2832077 0.5183726 -0.7691097 -0.35779312 -2.546423 0.831706 0.18811513 -0.39867586
0.5930418 -0.3358729 -2.3197901 -0.6983067 0.16964391 -0.561748 0.2132129 -0.6360572
0.60553813 -0.3106973 0.26429275 -0.5014168 -0.7172247 0.49126557 0.5208178 -0.58366495
00000000: ddd7 193f 46e6 b6be 88bc 2e3e 21b5 54be
00000010: 0eae 9bbf 5361 fbbe 25fd 763f 2c07 1c3f
00000020: d0bc 33be 0836 503f feb4 1ebf 099c 953d
00000030: a2f8 123f 0508 49be f326 00be cc41 0ebf
00000040: e957 1b3f 25de 1d3f 9eb6 c33d 40b0 1b3f
00000050: a3f8 8abf 849d 01bf d912 623f 0fe9 e0bd
00000060: 823d 473e ad1d 9bbe 45e9 89bd f60f 2140
00000070: 6113 50be 926f 97be f1fb 01bf 4be3 7dbf
00000080: 5c82 373f 1cb5 7dbe 8e5a fb3e e1a2 423f
00000090: 1404 7d3f cd8d 2f3f 7fe0 97be 1ced 71bf
000000a0: 9a00 91be 11b4 043f 60e4 44bf a930 b7be
000000b0: 98f8 22c0 afea 543f 41a1 403e 3e1f ccbe
000000c0: 96d1 173f 88f7 abbe 7177 14c0 3ac4 32bf
000000d0: 22b7 2d3e b8ce 0fbf 7c54 5a3e a5d4 22bf
000000e0: 8c04 1b3f b713 9fbe 6151 873e da5c 00bf
000000f0: 0a9c 37bf 2987 fb3e 5154 053f 116b 15bf

net.10.weight f4 [64]
0.24931532 0.22876701 0.22330901 0.24128734 0.25895303 0.1964129 0.23397723 0.19187148
0.214397 0.22201961 0.18140256 0.19522399 0.21808851 0.22456458 0.171697 0.2322067
0.24515402 0.24093133 0.18635413 0.22446683 0.21110518 0.23876847 0.22725101 0.2436096
0.20922837 0.22712713 0.22271147 0.57786536 0.22007538 0.23046917 0.2195974 0.2265116
0.21741751 0.20155293 0.24024652 0.2312607 0.22261211 0.22520329 0.19491425 0.22791953
0.23880145 0.23436247 0.22811835 0.24958421 0.5677798 0.26054996 0.1944397 0.1848368
0.24813397 0.18359634 0.50640124 0.23222916 0.19096595 0.22569235 0.23618226 0.21693236
0.21120338 0.17567219 0.23749211 0.23932093 0.22389375 0.20068261 0.23364332 0.21173948
00000000: 844c 7f3e e641 6a3e 1eab 643e 0714 773e
00000010: 7e95 843e 7720 493e ba97 6f3e f579 443e
00000020: e38a 5b3e 1c59 633e 98c1 393e cce8 473e
00000030: 9852 5f3e 42f4 653e 57d1 2f3e 98c7 6d3e
00000040: a809 7b3e b4b6 763e 9ed3 3e3e a2da 653e
00000050: f52b 583e b97f 743e 7db4 683e cc74 793e
00000060: f63f 563e 0494 683e 7a0e 643e fcee 133f
00000070: 715b 613e 1c00 6c3e 24de 603e a8f2 673e
00000080: b2a2 5e3e e463 4e3e 2f03 763e 9bcf 6c3e
00000090: 6ef4 633e b19b 663e 9a97 473e bd63 693e
000000a0: 5e88 743e b7fc 6f3e db97 693e 0193 7f3e
000000b0: 045a 113f ce66 853e 331b 473e dc45 3d3e
000000c0: d516 7e3e ae00 3c3e 83a3 013f 7bcd 6d3e
000000d0: 948c 433e e51b 673e c3d9 713e 8423 5e3e
000000e0: b345 583e 69e3 333e 2231 733e 8c10 753e
000000f0: 6744 653e be7f 4d3e 3240 6f3e 3cd2 583e

net.10.bias f4 [64]
-0.016828503 0.016874127 -0.005162671 0.014099559 -0.034617756 -0.004194024 0.017210357 -0.0038473194
-0.019300617 -0.019471027 -0.0014385624 0.012942003 -0.010951064 0.005614762 0.0022628973 -0.030576523
-0.03377882 -0.02873355 -0.0048317444 0.009168441 0.013559847 0.0134324245 -0.015206548 0.02261773
-0.013490897 0.015633825 0.008018816 -0.008122072 -0.011981472 0.023877442 -0.02254801 0.0046191523
-0.023586059 0.007090778 -0.025382007 -0.0021443046 -0.014144663 -0.013767907 0.007986172 0.017738082
-0.03230273 0.010260216 -0.0081783915 -0.028500468 0.013205011 -0.031521507 0.013466661 0.001067345
-0.027468277 0.0010717551 0.026133988 0.008498868 0.0020019198 -0.023993399 -0.0052497974 0.012220668
-0.001137094 -0.0008148326 -0.013389398 0.02208772 0.002872265 -0.0006108055 -0.02777653 0.018317595
00000000: eedb 89bc 9c3b 8a3c a02b a9bb d601 673c
00000010: 59cb 0dbd 066e 89bb bcfc 8c3c 4f23 7cbb
00000020: 541c 9ebc b481 9fbc 258e bcba b20a 543c
00000030: 176c 33bc 0afc b73b 1e4d 143b 9e7b fabc
00000040: a95b 0abd 9f62 ebbc 9c53 9ebb 3b37 163c
00000050: 1f2a 5e3c ac13 5c3c e324 79bc d148 b93c
00000060: ec08 5dbc 8212 803c 5a61 033c 7012 05bc
00000070: f04d 44bc a09a c33c 9bb6 b8bc 425c 973b
00000080: 8d37 c1bc c259 e83b eded cfbc 7687 0cbb
00000090: 04bf 67bc ca92 61bc 6fd8 023c 744f 913c
000000a0: de4f 04bd 771a 283c a9fe 05bc d079 e9bc
000000b0: d559 583c b21c 01bd 45a3 5c3c 28e6 8b3a
000000c0: 2705 e1bc 227a 8c3a f216 d63c d63e 0b3c
000000d0: a432 033b ce8d c4bc 7e06 acbb 3239 483c
000000e0: 8b0a 95ba 7d9a 55ba 355f 5bbc 4ef1 b43c
000000f0: 9c3c 3c3b 771e 20ba 9b8b e3bc c80e 963c

net.10.running_mean f4 [64]
0.9062079 -0.68130136 0.02349967 -0.55150515 -0.94135576 -0.51649284 0.8831855 0.80801874
-0.17886543 0.8243923 -0.7587702 -0.08395045 0.72465545 -0.17486063 0.07112403 -0.8881362
0.53804356 0.8338913 0.088274285 0.37781575 -0.87270933 -0.5453948 0.88181007 -0.49827623
0.44505632 -0.5730626 -0.3659331 0.99976826 0.12118899 -0.8350429 -0.12957391 -0.84400684
0.8730741 -0.322365 0.8739918 0.70039636 0.8475528 0.6959255 -0.295446 -0.72522163
-0.37710735 0.8405409 -0.48388836 -0.7162012 -0.9997557 0.8738258 -0.14607361 -0.35994577
0.8580738 -0.24298687 -0.9996363 -0.7530877 0.23320523 -0.7036432 0.52741593 -0.80249614
0.77538174 -0.18461537 0.78406894 -0.6937637 -0.7262262 0.008830222 0.80963045 -0.879999
00000000: 3efd 673f c469 2ebf 6182 c03c 712f 0dbf
00000010: b1fc 70bf e038 04bf 7218 623f 51da 4e3f
00000020: 8028 37be 600b 533f c43e 42bf 37ee abbd
00000030: 0583 393f aa0e 33be 7aa9 913d e55c 63bf
00000040: 39bd 093f e679 553f 26c9 b43d 1171 c13e
00000050: e169 5fbf fe9e 0bbf 4ebe 613f 101e ffbe
00000060: 6cde e33e 3bb4 12bf 955b bbbe d0f0 7f3f
00000070: ef31 f83d 5fc5 55bf 06af 04be d510 58bf
00000080: c981 5f3f 060d a5be edbd 5f3f 2d4d 333f
00000090: 38f9 583f 2c28 323f b344 97be 20a8 39bf
000000a0: 3714 c1be b02d 573f 37c0 f7be f658 37bf
000000b0: fdef 7fbf 0cb3 5f3f 5294 15be d04a b8be
000000c0: b9aa 5b3f 8dd1 78be 2ae8 7fbf 5bca 40bf
000000d0: 5acd 6e3e f621 34bf bb04 073f 6370 4dbf
000000e0: 6b7f 463f d00b 3dbe beb8 483f 7f9a 31bf
000000f0: f6e9 39bf a3ac 103c f143 4f3f 9d47 61bf

net.10.running_var f4 [64]
0.05674735 0.116903014 0.28609055 0.28502473 0.004531406 0.21610232 0.04796852 0.081586234
0.44801378 0.041961808 0.07525008 0.56937146 0.1055343 0.19942044 0.521154 0.031967442
0.53313816 0.062005725 0.8520495 0.5482226 0.083108865 0.1337134 0.051647555 0.4687274
0.4685276 0.20094225 0.18656985 7.4404085e-07 0.6189565 0.13456634 0.16235664 0.060064923
0.05005275 0.7593009 0.058186945 0.12203535 0.060354553 0.10640415 0.75937295 0.057649657
0.13206987 0.028819297 0.5606785 0.04858138 9.627946e-07 0.08350692 0.7549415 0.5941277
0.082726 0.5989888 2.4607014e-06 0.077703685 0.870601 0.10166186 0.31515425 0.06968733
0.06030039 0.8593708 0.09511881 0.37831968 0.08352971 0.7038732 0.24171993 0.050899483
00000000: e96f 683d d96a ef3d 767a 923e c3ee 913e
00000010: 307c 943b ed49 5d3e a47a 443d af16 a73d
00000020: 1062 e53e 25e0 2b3d b71c 9a3d 54c2 113f
00000030: 5e22 d83d df34 4c3e 596a 053f 4bf0 023d
00000040: be7b 083f b7f9 7d3d eb1f 5a3f 5158 0c3f
00000050: fb34 aa3d 2aec 083e 638c 533d 0afd ef3e
00000060: d9e2 ef3e cec3 4d3e 2b0c 3f3e 19ba 4735
00000070: ef73 1e3f c2cb 093e d240 263e a306 763d
00000080: 1d04 4d3d 8b61 423f 6f55 6e3d abed f93d
00000090: 5636 773d 6bea d93d 4466 423f 0c22 6c3d
000000a0: 533d 073e 7216 ec3c a088 0f3f 45fd 463d
000000b0: 5f39 8135 ad05 ab3d d943 413f c118 183f
000000c0: 406c a93d 5457 193f 8722 2536 1c23 9f3d
000000d0: b5df 5e3f 1834 d03d e65b a13e 3bb8 8e3d
000000e0: 8bfd 763d baff 5b3f a7cd c23d 1eb3 c13e
000000f0: a011 ab3d 0931 343f 6e85 773e fa7b 503d

net.12.weight f4 [6, 64]
-0.031535074 0.095053054 0.039865255 0.038045395 0.0172521 -0.20202765 0.07218678 -0.28252032
0.0915104 -0.015713725 -0.27120206 0.15970753 0.053364284 0.04038177 -0.041074034 0.004326404
0.08990883 -0.029696675 0.1581164 0.031731542 -0.20524652 0.04086484 -0.02382179 0.045234386
-0.27561605 0.028934611 0.08550882 -0.016324097 -0.20787324 0.020965388 -0.11408737 0.12925994
0.06512713 -0.17407879 0.07364946 -0.04389374 -0.18016855 -0.11516295 0.24171574 -0.0130295195
0.09492237 -0.07566811 -0.029814057 0.0023792211 -0.000569042 0.0101862885 -0.07932815 0.17364322
-0.10176546 0.23076378 -0.12247064 0.02653171 0.1547053 0.026930349 -0.051667213 0.01966358
0.0579238 -0.15350673 0.00506567 -0.06122486 0.15499395 0.038059924 0.055787347 -0.025288278
-0.036135867 -0.09843684 -0.0639176 -0.018091658 -0.014521486 -0.02231905 -0.09798841 -0.13250029
-0.12967937 -0.010344225 0.13895759 -0.044713374 0.08562901 0.035350494 -0.32079878 -0.10994393
0.052595578 0.10825955 0.020849116 -0.20221171 -0.06009985 0.06169919 0.047710586 -0.0381637
-0.099697545 -0.021598456 -0.028533135 0.0007963958 -0.009672807 0.005764282 -0.12143957 -0.029923433
0.08043129 0.013781875 -0.007121083 0.06780535 -0.019765161 0.02182553 -0.0560442 0.091649756
0.043973 0.019755257 0.23418282 -0.01701184 -0.028500004 0.02746595 -0.025555786 -0.06449315
0.0027085633 0.12119324 0.0056987507 -0.017811622 -0.0226394 -0.11765489 0.015946928 -0.1125017
-0.117728785 0.0053884136 -0.08149993 -0.039568886 -0.106641725 -0.23261788 0.03929426 0.04476849
-0.07007247 -0.096773535 -0.20318463 -0.27845597 0.05428845 0.181669 -0.21217017 -0.07544272
0.15835203 0.24810106 0.023969287 -0.112363815 -0.08825918 -0.24414179 -0.09116903 0.02552312
0.020574288 0.1281331 0.039191466 -0.13457114 -0.033715345 -0.2609046 -0.030528264 0.027422506
0.11069025 -0.26589754 -0.24609096 -0.02593505 0.20274226 0.008355113 0.19177838 0.07447827
0.20322971 -0.015991945 -0.0039519444 0.2491447 -0.058373474 0.23759016 0.035236675 -0.24357398
0.19422394 0.13715783 0.10181003 0.029949969 0.034959458 0.046027247 -0.17105903 0.13797963
0.02165971 0.11193614 -0.031788286 -0.26424772 0.05882294 0.054594025 0.2714907 0.11425867
-0.22050586 0.0075663636 -0.037580494 -0.04044838 -0.18098684 0.16405648 0.013749153 -0.0366679
0.2419725 -0.20846094 0.15843356 -0.002734837 0.24223302 -0.04850985 -0.10533005 0.07924242
0.16685618 0.12820876 -0.07418284 -0.06938866 0.19914827 0.107082695 0.067738965 0.22760177
0.2371459 0.21302646 0.031580348 -0.13973354 -0.18233256 0.07734752 0.2226758 -0.23809355
0.050481062 -0.046736788 -0.06689798 0.5200824 0.027979966 -0.23168035 0.13782273 -0.21240008
0.15930484 -0.1205061 0.2387261 -0.042277377 0.20018598 -0.06931297 -0.072830215 0.12158464
0.18119144 -0.2074399 0.14906421 0.2420658 -0.51058733 0.2574595 -0.06233053 -0.06877274
0.24546029 -0.045692287 -0.4473696 0.058304038 0.051330704 0.19057113 0.013313508 -0.19398108
0.13229756 -0.0243695 0.22918797 -0.23285264 0.10848017 -0.10095218 0.23284824 -0.20796093
00000000: ec2a 01bd 2dab c23d c049 233d 7dd5 1b3d
00000010: 4754 8d3c 56e0 4ebe aad6 933d 81a6 90be
00000020: ce69 bb3d 12ba 80bc ffda 8abe 5f8a 233e
00000030: 8294 5a3d 5b67 253d 3f3d 28bd 82c4 8d3b
00000040: 1f22 b83d 7146 f3bc 44e9 213e eff8 013d
00000050: 252c 52be e461 273d ea25 c3bc b147 393d
00000060: 8c1d 8dbe 4708 ed3c 401f af3d 1dba 85bc
00000070: b9dc 54be 9bbf ab3c a4a6 e9bd b85c 043e
00000080: 5f61 853d b641 32be 87d5 963d ecc9 33bd
00000090: 1b7e 38be 8dda ebbd 5584 773e c479 55bc
000000a0: a966 c23d e2f7 9abd 9c3c f4bc b5ec 1b3b
000000b0: c32b 15ba 64e4 263c cc76 a2bd 87cf 313e
000000c0: 696a d0bd 574d 6c3e e3d1 fabd 0759 d93c
000000d0: 116b 1e3e 099d dc3c 00a1 53bd 8415 a13c
000000e0: 8241 6d3d de30 1dbe ebfd a53b ebc6 7abd
000000f0: bcb6 1e3e b9e4 1b3d 4681 643d 5d29 cfbc
00000100: 3403 14bd 4199 c9bd 3be7 82bd f534 94bc
00000110: 87eb 6dbc 71d6 b6bc 26ae c8bd 28ae 07be
00000120: abca 04be d37a 29bc e64a 0e3e 5f25 37bd
00000130: 435e af3d aecb 103d bd3f a4be 482a e1bd
00000140: 766e 573d 2fb7 dd3d c4cb aa3c 9610 4fbe
00000150: 432b 76bd 4ab8 7c3d 2d6c 433d 8a51 1cbd
00000160: 3a2e ccbd 3fef b0bc 52be e9bc 38c5 503a
00000170: b17a 1ebc 4de2 bc3b 4fb5 f8bd fd21 f5bc
00000180: 29b9 a43d 60cd 613c f957 e9bb 88dd 8a3d
00000190: 8cea a1bc 74cb b23c 9a8e 65bd deb2 bb3d
000001a0: 081d 343d c7d5 a13c 9fcd 6f3e 6a5c 8bbc
000001b0: d778 e9bc 4600 e13c 5e5a d1bc fc14 84bd
000001c0: 2782 313b 2934 f83d 96bc ba3b aee9 91bc
000001d0: 4376 b9bc 0cf5 f0bd 22a3 823c 4b67 e6bd
000001e0: ca1b f1bd 4a91 b03b 6fe9 a6bd fc12 22bd
000001f0: fa66 dabd 6233 6ebe 05f3 203d 2a5f 373d
00000200: 2882 8fbd 3431 c6bd a20f 50be c891 8ebe
00000210: 915d 5e3d 7007 3a3e 2343 59be b681 9abd
00000220: 0927 223e 340e 7e3e 3d5b c43c 001f e6bd
00000230: 3bc1 b4bd 4e00 7abe d4b6 babd dd15 d13c
00000240: 698b a83c 5335 033e 3b87 203d 04cd 09be
00000250: 1a19 0abd 4a95 85be 6916 fabc 2aa5 e03c
00000260: 92b1 e23d b923 88be 45ff 7bbe be75 d4bc
00000270: ab9b 4f3e e2e3 083c 8d61 443e 1088 983d
00000280: 731b 503e 8a01 83bc 507f 81bb ca1f 7f3e
00000290: 0619 6fbd d64a 733e 5554 103d 756b 79be
000002a0: a4e2 463e 1a73 0c3e c781 d03d a359 f53c
000002b0: a631 0f3d 1187 3c3d 192a 2fbe 884a 0d3e
000002c0: b46f b13c c63e e53d 6f34 02bd 7a4b 87be
000002d0: 53f0 703d fc9d 5f3d d400 8b3e 7300 ea3d
000002e0: 4acc 61be 42ef f73b 01ee 19bd 33ad 25bd
000002f0: 9d54 39be 6cfe 273e 2144 613c 1431 16bd
00000300: a4c7 773e c976 55be 683c 223e f33a 33bb
00000310: ef0b 783e 44b2 46bd 48b7 d7bd da49 a23d
00000320: 59dc 2a3e 2849 033e 2ced 97bd a41b 8ebd
00000330: 86ed 4b3e 2c4e db3d baba 8a3d 7010 693e
00000340: 60d6 723e 9c23 5a3e 655a 013d 4f16 0fbe
00000350: 63b5 3abe 6068 9e3d 2005 643e ccce 73be
00000360: 3bc5 4e3d 136f 3fbd cf01 89bd 1f24 053f
00000370: 3e36 e53c 9d3d 6dbe 6721 0d3e 687f 59be
00000380: cf20 233e e7cb f6bd 9d74 743e 0b2b 2dbd
00000390: 8efd 4c3e f5f3 8dbd 0228 95bd 5e01 f93d
000003a0: 408a 393e 206b 54be 4aa4 183e 19e0 773e
000003b0: dab5 02bf bbd1 833e 4c4e 7fbd b9d8 8cbd
000003c0: f159 7b3e d627 3bbd a10d e5be 37d0 6e3d
000003d0: 2540 523d 1425 433e e620 5a3c faa2 46be
000003e0: 0379 073e 8ca2 c7bc 40b0 6a3e ec70 6ebe
000003f0: da2a de3d 04c0 cebd c56f 6e3e b6f3 54be

net.12.bias f4 [6]
0.30010623 0.35727477 -1.0138315 -1.1161621 0.64946634 0.6098071
00000000: 86a7 993e b8ec b63e 3bc5 81bf 66de 8ebf
00000010: 6d43 263f 511c 1c3f
