training/nn-large.pth (torch, 149273 bytes, 8 tensors)

net.0.weight f4 [128, 21]
-0.51474965 -0.06630271 0.23989084 -0.1714245 -0.017377961 0.2039488 0.17367151 0.03846355
0.006982522 0.03174845 0.090772085 -0.05193814 0.05267769 0.06051932 0.082194045 0.030843629
0.019925648 0.028653009 -0.015941571 -0.0064082583 0.0026632189 -0.41513702 0.023022583 0.22235431
0.10232916 0.20753476 0.12565161 0.028658936 0.03870026 0.057363298 0.0020389871 -0.0309232
-0.041086107 -0.0010055649 -0.011593982 -0.016575584 -0.08542215 -0.17027283 -0.16947338 -0.38055128
0.06964072 0.07745445 -0.27751175 -0.13803805 -0.5022721 0.2574953 -0.18269101 -0.04797428
0.1263649 0.15393193 -0.015538774 -0.047794178 0.021225369 0.07217216 0.03840163 0.024305882
0.015575119 0.022122549 0.0028723208 0.009135964 -0.003953552 -0.13607275 0.010899432 0.15514816
0.101182856 0.75320715 0.18965697 0.09263496 -0.0030080378 0.21624482 0.15927728 -0.158321
-0.18503065 0.013868205 -0.07160997 -0.020194693 -0.018013624 -0.003931473 0.02301651 0.052397795
0.023144031 0.010787339 0.054334752 0.0038394346 -0.026438216 -0.3080659 -0.04484166 0.15166324
0.05016271 0.03988112 -0.0074542006 0.028384771 0.021675855 0.012314369 -0.024597196 -0.013304901
-0.031173723 -0.018608946 -0.028846513 -0.022762677 -0.01495507 -0.013843709 -0.0017436633 0.02950273
-0.0834572 -0.22755128 -0.07841687 -0.5269557 -0.0817296 -0.084161945 -0.16972426 -0.13169487
-0.3049939 -0.0673055 0.350938 0.084240645 0.10876378 0.0138044 0.050349966 0.030033153
0.047043435 0.06238779 -0.007927342 0.029698147 -0.008546464 0.054916136 0.21581562 -0.16608483
-0.28025487 0.7866223 -0.38553295 -0.52191424 -0.013195223 0.04816593 0.014595401 -0.013760298
-0.014085232 -0.043102853 -0.006746402 0.027517844 0.040996205 0.035038766 0.039579682 0.0499511
0.04130076 0.2602552 -0.0044500325 0.3887107 -0.25325167 -0.36284548 0.20129438 0.1808571
0.09493499 0.02387665 -0.054522783 -0.022841567 -0.042762935 0.007306155 -0.075930916 0.18401238
0.25075763 0.29955792 0.2499656 0.08847183 -0.083612375 -0.08927774 0.110482335 -0.11993186
0.12811752 0.060867004 0.022189679 0.35664874 -0.0005219521 -0.31227922 -0.3250149 -0.1635746
-0.03343891 0.07728082 0.043195307 -0.010881344 -0.0044783074 -0.005039461 0.004767402 -0.0052650524
0.0022859902 -0.005527992 -0.015124194 0.026837176 -0.005042336 0.032861542 -0.13283825 0.25119534
0.23721772 0.046348438 -0.2706221 -0.2803898 -0.11249799 -0.0049963873 0.008329729 0.06697066
0.0243738 -0.023662852 -0.04567149 -0.03925996 -0.031145774 0.047020614 0.024125252 0.12653944
0.067233056 -0.17188156 0.26507223 -0.17330725 -0.09029566 0.105765335 0.15568173 0.098865815
0.10377636 0.076632164 -0.083898835 -0.09899444 -0.23252413 0.113424785 -0.0015325005 -0.0021139358
-0.028562332 -0.015848804 0.013399882 -0.017733214 0.03676618 0.06996555 -0.009473031 -0.39946517
0.056394365 0.0011951209 -0.14534234 -0.11033915 -0.012225003 -0.020184617 -0.03021407 -0.08333658
-0.010909949 0.050146207 -0.12283354 0.0031287551 -0.0030211702 -0.033167325 -0.012443254 -0.043397024
0.01602042 0.009047944 -0.12068061 0.0022693053 -0.08118346 -0.045770712 -0.44334576 0.121967375
00000000: a2c6 03bf b7c9 87bd f2a5 753e e789 2fbe
00000010: 3a5c 8ebc f4d7 503e f2d6 313e f58b 1d3d
00000020: a4cd e43b aa0a 023d b7e6 b93d 16bd 54bd
00000030: 90c4 573d 1be3 773d 5a55 a83d c7ab fc3c
00000040: 1d3b a33c b7b9 ea3c e697 82bc 5efc d1bb
00000050: 6689 2e3b d78c d4be db99 bc3c d9b0 633e
00000060: f391 d13d fe83 543e d1aa 003e 25c6 ea3c
00000070: 2a84 1e3d c7f5 6a3d 87a0 053b a752 fdbc
00000080: e849 28bd 29cd 83ba aff4 3dbc 85c9 87bc
00000090: cff1 aebd 005c 2ebe 6e8a 2dbe 9ed7 c2be
000000a0: cb9f 8e3d 70a0 9e3d 0516 8ebe d959 0dbe
000000b0: e894 00bf 6dd6 833e 5a13 3bbe ae80 44bd
000000c0: cd65 013e 55a0 1d3e 5896 7ebc d4c3 43bd
000000d0: d3e0 ad3c ffce 933d 074b 1d3d 211d c73c
000000e0: c92e 7f3c 593a b53c 8c3d 3c3b 03af 153c
000000f0: cc8c 81bb a856 0bbe 8893 323c 29df 1e3e
00000100: f538 cf3d 2fd2 403f 7035 423e 66b7 bd3d
00000110: 8022 45bb 486f 5d3e 9519 233e e61e 22be
00000120: ad78 3dbe 7837 633c 3fa8 92bd 576f a5bc
00000130: 4f91 93bc 96d3 80bb 1f8d bc3c 129f 563d
00000140: 8d98 bd3c 61bd 303c 1e8e 5e3d 069f 7b3b
00000150: f594 d8bc d0ba 9dbe e3ab 37bd 9c4d 1b3e
00000160: 6a77 4d3d 635a 233d 5e42 f4bb 2e87 e83c
00000170: 9091 b13c 35c2 493c 0f80 c9bc cdfc 59bc
00000180: 0960 ffbc ca71 98bc 864f ecbc cb78 babc
00000190: 1c06 75bc b9d0 62bc a28b e4ba b6af f13c
000001a0: 9ceb aabd 3403 69be 0699 a0bd 92e6 06bf
000001b0: d961 a7bd 195d acbd 32cc 2dbe 05db 06be
000001c0: 2928 9cbe 77d7 89bd 25ae b33e 5c86 ac3d
000001d0: 8bbf de3d da2b 623c c43b 4e3d 1608 f63c
000001e0: 9eb0 403d 578a 7f3d afe1 01bc 8749 f33c
000001f0: 7806 0cbc beef 603d c5fe 5c3e 2412 2abe
00000200: 917d 8fbe 1460 493f 9364 c5be 2c9c 05bf
00000210: c730 58bc a349 453d 8c21 6f3c df72 61bc
00000220: bfc5 66bc 9e8c 30bd ec10 ddbb 1a6d e13c
00000230: a3eb 273d cf84 0f3d 4e1e 223d 8699 4c3d
00000240: fc2a 293d 2b40 853e 94d1 91bb 1705 c73e
00000250: 34aa 81be e2c6 b9be 1d20 4e3e 9b32 393e
00000260: 476d c23d f798 c33c 4853 5fbd 3d1e bbbc
00000270: 3028 2fbd 7868 ef3b ab81 9bbd be6d 3c3e
00000280: 4e63 803e a85f 993e fbf6 7f3e b830 b53d
00000290: f73c abbd 3fd7 b6bd 9044 e23d d69e f5bd
000002a0: 3d31 033e ae4f 793d 21c7 b53c aa9a b63e
000002b0: 9dd3 08ba 10e3 9fbe 5a68 a6be 1a80 27be
000002c0: 3df7 08bd 6845 9e3d 90ed 303d aa47 32bc
000002d0: c4be 92bb 1022 a5bb de37 9c3b 7686 acbb
000002e0: 8dd0 153b 2824 b5bb 78cb 77bc a3d9 db3c
000002f0: 2e3a a5bb d399 063d c006 08be ad9c 803e
00000300: 34e9 723e dcd7 3d3d fb8e 8abe 408f 8fbe
00000310: 5965 e6bd bcb8 a3bb 6a79 083c ea27 893d
00000320: 90ab c73c 99d8 c1bc 0712 3bbd 0dcf 20bd
00000330: 6c25 ffbc b098 403d 52a2 c53c 8e93 013e
00000340: 7cb1 893d b801 30be 8cb7 873e 7577 31be
00000350: eeec b8bd 7f9b d83d 086b 1f3e 297a ca3d
00000360: b388 d43d 53f1 9c3d 27d3 abbd 99bd cabd
00000370: ce1a 6ebe 414b e83d 2fde c8ba f589 0abb
00000380: 8dfb e9bc 5ad5 81bc 2e8b 5b3c 3f45 91bc
00000390: 2298 163d 194a 8f3d c634 1bbc b386 ccbe
000003a0: c7fd 663d 9aa5 9c3a 9fd4 14be 7ef9 e1bd
000003b0: 614b 48bc 365a a5bc 7f83 f7bc 5eac aabd
000003c0: a5bf 32bc 1c66 4d3d 2790 fbbd cd0b 4d3b
000003d0: d3fe 45bb 76da 07bd cade 4bbc 14c1 31bd
000003e0: 413d 833c d43d 143c 6527 f7bd a0b8 143b
000003f0: 8443 a6bd 127a 3bbd 37fe e2be 08ca f93d

net.0.bias f4 [128]
-0.019358393 0.13208191 0.3189763 1.0582274 0.120543525 0.21223974 0.3631433 -0.21708241
-0.47626883 0.10566539 -0.090332195 -0.040917296 -0.3963546 0.29488972 -0.11632599 0.15623724
-0.32877132 -0.053524066 0.2982241 -0.31969523 0.20645562 -0.019795056 -0.47014448 -0.05068588
-0.22344324 -0.041715603 -0.051138166 -0.19389468 0.43965092 0.51262975 -0.60760695 -0.18602969
-0.23459831 -0.04850914 -0.33305568 -0.1203842 0.32881474 0.3111886 -0.32875875 -0.49222726
-0.4385554 -0.31464776 -0.5304937 0.32854527 0.19437072 -0.38671255 -0.097963884 -0.11767979
0.344403 -0.06840577 -0.44204462 0.21530065 0.18104236 0.2512268 0.33342195 -0.6290625
-0.20481521 0.2391385 0.26331505 -0.5212985 -0.08851669 0.2581621 0.33651522 -0.0434481
0.067974344 0.28381085 -0.24816215 -0.051212378 -0.14031842 0.57354486 0.21374992 -0.09426202
0.27377445 0.3165823 0.2025685 -0.8967051 0.67759556 0.32878363 0.53601843 0.017683476
-0.016262487 0.10162873 0.2162087 -0.51434636 -0.57620984 0.08913379 -0.23376802 0.0807185
0.38778758 -0.26938322 -0.2676063 -0.15420231 0.35161036 0.13785666 -0.88384235 0.22088908
-0.1667491 0.11275672 -0.78979045 -0.3131847 0.34093457 -0.25784117 -0.05654387 -0.34026602
0.17785777 0.45203713 -0.31558573 0.50816774 -0.04674149 -0.45822752 -0.02490884 0.19667992
-0.51978105 0.2265045 -0.22496155 -0.34365997 -0.13515452 -0.27831477 0.14258404 0.28265768
0.14399043 -0.36881226 -0.22445935 0.36593673 0.04609844 -0.18947975 -0.10454911 0.05691134
00000000: 7e95 9ebc 7b40 073e dd50 a33e ff73 873f
00000010: 86df f63d 6055 593e ebed b93e da4a 5ebe
00000020: 82d9 f3be 1967 d83d 1600 b9bd e598 27bd
00000030: fdee cabe c9fb 963e 523c eebd a8fc 1f3e
00000040: b754 a8be 0d3c 5bbd d4b0 983e 18af a3be
00000050: 1a69 533e 3e29 a2bc c7b6 f0be ff9b 4fbd
00000060: 4ece 64be fbdd 2abd 4176 51bd 548c 46be
00000070: ed19 e13e b43b 033f 218c 1bbf 917e 3ebe
00000080: 8a3a 70be 85b1 46bd 4686 aabe fe8b f6bd
00000090: 685a a83e 1d54 9f3e 1153 a8be 3605 fcbe
000000a0: 558a e0be 8319 a1be 6fce 07bf 1637 a83e
000000b0: 1e09 473e 30ff c5be 4aa1 c8bd 1a02 f1bd
000000c0: 9755 b03e 5318 8cbd ac53 e2be c677 5c3e
000000d0: 2b63 393e cda0 803e 48b6 aa3e 3d0a 21bf
000000e0: 14bb 51be b9e0 743e 3bd1 863e d273 05bf
000000f0: 3d48 b5bd d32d 843e b94b ac3e a3f6 31bd
00000100: 2236 8b3d a84f 913e 381e 7ebe 12c4 51bd
00000110: a2af 0fbe d6d3 123f 42e1 5a3e 720c c1bd
00000120: 2a2c 8c3e 1317 a23e 1e6e 4f3e 778e 65bf
00000130: e776 2d3f 5456 a83e 8138 093f f0dc 903c
00000140: e838 85bc b922 d03d d065 5d3e 34ac 03bf
00000150: 7d82 13bf c78b b63d e260 6fbe be4f a53d
00000160: 188c c63e 99ec 89be b103 89be 36e7 1dbe
00000170: 4606 b43e 4c2a 0d3e 7e43 62bf bf30 623e
00000180: 47c0 2abe ffec e63d b52f 4abf bf59 a0be
00000190: fa8e ae3e c203 84be 8c9a 67bd 5937 aebe
000001a0: 5920 363e 6971 e73e 7494 a1be 4817 023f
000001b0: 0174 3fbd cc9c eabe a00d ccbc 7666 493e
000001c0: 5f10 05bf ccf0 673e 525c 66be 33f4 afbe
000001d0: f265 0abe 467f 8ebe 8d01 123e 82b8 903e
000001e0: 3a72 133e f6d4 bcbe acd8 65be 0f5c bb3e
000001f0: b8d1 3c3d fb06 42be d81d d6bd de1b 693d

net.2.weight f4 [128, 128]
-0.047230925 -0.057701886 0.029428583 -0.03046644 -0.020346828 0.007379409 -0.003533258 0.03798399
0.03265101 -0.0058984887 0.032824315 0.016603708 0.018848937 -0.016123135 -0.062309567 -0.00660042
-0.063898735 -0.02346483 -0.06792317 0.028925607 -0.06609712 -0.011297988 -0.013832791 -0.032319374
-0.027427908 0.01298709 0.094559245 -0.031859003 -0.025553687 -0.03493295 0.00455871 0.03841265
-0.041120835 0.046581913 0.07419062 -0.020941464 0.06387177 -0.012522574 -0.06390378 0.029782368
0.02595958 -0.00702646 0.00039460137 0.02314431 -0.039021645 0.06489638 0.023777025 -0.0012183973
0.056811918 -0.03528897 0.016196424 -0.010477106 0.046191454 0.046434004 -0.00847752 0.04340024
0.012163073 -0.0647592 0.050280873 0.006893587 -0.017869407 0.052909672 0.018625349 0.066431366
-0.002529036 -0.03501885 0.019597042 -0.02298177 -0.0011832732 0.016487889 -0.005874818 0.001002075
0.047478553 -0.068948 -0.034560855 6.776403e-06 -0.03906612 0.06389052 -0.015533912 0.022831745
-0.097455464 0.028144676 0.06451874 0.01766358 0.049371168 0.049169224 -0.04484045 -0.035389695
0.05223395 0.07103042 0.06470075 -0.0043984526 -0.051107075 -0.060761675 -0.002751899 -0.03590909
0.015194102 -0.03116663 0.017056752 -0.005274447 0.06263234 -0.0037858645 0.09862961 0.061484247
-0.08578432 -0.03628958 -0.013235669 0.043796618 0.011092932 -0.018359944 -0.045821633 -0.06917429
-0.0019428153 -0.010139931 -0.006333797 -0.0019747366 -0.016176457 -0.05336512 -0.039058305 0.039689254
-0.009584106 -0.02975462 0.0016529056 -0.048849568 0.018254394 -0.040066067 0.0015803459 -0.0057905708
-0.027524292 -0.039615907 -0.09877484 -0.1495131 -0.07447797 0.007976929 0.021823155 -0.00039102652
0.20755911 0.00014220642 -0.045218803 0.056461 0.05976301 -0.015509158 0.031817652 0.010855397
0.036634363 0.0047091553 -0.09543945 -0.024949612 -0.040667724 0.02005219 0.029949395 0.029451571
0.0061323717 0.054647252 -0.015569848 0.092432074 -0.17410877 -0.2133133 0.039839447 -0.051285606
0.06939696 0.035472613 0.017486058 0.0055550737 -0.03652598 -0.0912015 0.036655746 0.12667559
0.03567172 0.06591601 0.16217 -0.037993763 -0.04304345 0.1083499 0.07601682 0.044847317
-0.07421773 0.049211908 0.02584422 -0.05908139 -0.09495941 -0.07705279 -0.0411076 0.25021598
0.037638504 -0.03357115 0.009069101 0.15450129 -0.053949732 -0.025416246 0.007163291 0.011017545
0.018348053 -0.03344824 0.032387335 -0.05511776 0.08369905 -0.039784618 -0.10141428 0.09890571
-0.009684576 -0.0923591 -0.012642541 0.10660821 -0.22279766 -0.036601163 -0.16822521 0.059704762
0.033947077 0.004535659 -0.02036671 0.019947741 0.036097452 0.03268018 0.06445336 0.019273482
-0.13546431 0.05732366 0.024520028 0.077551745 -0.052218895 -0.05318614 0.3188998 -0.078115515
0.09845696 -0.076884 0.24731092 0.0349868 -0.08757714 0.12880132 0.01156383 0.07444455
-0.013375119 -0.22025895 0.018626217 -0.17553551 6.535024e-05 0.14719191 -0.004661082 -0.06822472
0.20708586 -0.1141812 0.03991499 0.035880934 0.07997925 -0.002731827 0.03015364 -0.026943393
-0.0034006252 -0.04644757 0.017799286 -0.05326593 -0.024286047 0.03792425 0.12310142 0.03273499
00000000: 3775 41bd d058 6cbd 3614 f13c c194 f9bc
00000010: 64ae a6bc f8ce f13b 3c8e 67bb 1a95 1b3d
00000020: 11bd 053d 1c48 c1bb ca72 063d 8004 883c
00000030: 1669 9a3c aa14 84bc 5138 7fbd 5648 d8bb
00000040: 57dd 82bd 5139 c0bc 4e1b 8bbd 65f5 ec3c
00000050: ed5d 87bd 321b 39bc eea2 62bc 5261 04bd
00000060: 7eb0 e0bc cec7 543c 47a8 c13d 967e 02bd
00000070: f755 d1bc da15 0fbd 3b61 953b 9556 1d3d
00000080: 526e 28bd adcc 3e3d 40f1 973d 6f8d abbc
00000090: 34cf 823d 7b2b 4dbc fcdf 82bd 27fa f33c
000000a0: 2fa9 d43c 383e e6bb 80e2 ce39 2399 bd3c
000000b0: 29d5 1fbd 65e8 843d 09c8 c23c a1b2 9fba
000000c0: 9db3 683d 2b8b 10bd 5dae 843c 2ba8 2bbc
000000d0: 4033 3d3d 9531 3e3d 4ce5 0abc 73c4 313d
000000e0: a047 473c 79a0 84bd 51f3 4d3d 99e3 e13b
000000f0: dd62 92bc d0b7 583d 3094 983c 2b0d 883d
00000100: 2fbe 25bb ed6f 0fbd fa89 a03c 4444 bcbc
00000110: 0f18 9bba 9c11 873c 8c81 c0bb 0f58 833a
00000120: df78 423d 9c34 8dbd af8f 0dbd dc60 e336
00000130: cc03 20bd 08d9 823d f381 7ebc a409 bb3c
00000140: bb96 c7bd aa8f e63c 6722 843d 36b3 903c
00000150: 6c39 4a3d ab65 493d 9faa 37bd c9f4 10bd
00000160: 44f3 553d 6678 913d d481 843d e520 90bb
00000170: a755 51bd 3ce1 78bd 3459 34bb 6915 13bd
00000180: aff0 783c 2951 ffbc 9aba 8b3c 45d5 acbb
00000190: 6245 803d 441c 78bb 52fe c93d e8d6 7b3d
000001a0: b1af afbd 62a4 14bd 6bda 58bc 1564 333d
000001b0: 21bf 353c 9867 96bc 77af 3bbd 40ab 8dbd
000001c0: 10a6 feba f421 26bc bd8b cfbb 956a 01bb
000001d0: 7d84 84bc 6295 5abd 9afb 1fbd 3391 223d
000001e0: a706 1dbc f6bf f3bc 4fa6 d83a 7c16 48bd
000001f0: 3d8a 953c 511c 24bd 9c23 cf3a d4be bdbb
00000200: a07a e1bc 4a44 22bd 774a cabd f619 19be
00000210: e887 98bd aab1 023c 79c6 b23c b102 cdb9
00000220: 608a 543e 3f1d 1539 5a37 39bd a643 673d
00000230: 0fca 743d 201a 7ebc 3a53 023d d6da 313c
00000240: ea0d 163d 424f 9a3b c275 c3bd 2163 ccbc
00000250: 3393 26bd 7e44 a43c 6f58 f53c 6c44 f13c
00000260: 10f2 c83b ccd5 5f3d ad18 7fbc 074d bd3d
00000270: 9249 32be cd6e 5abe b02e 233d db10 52bd
00000280: fe1f 8e3d bb4b 113d ec3e 8f3c 5607 b63b
00000290: 449c 15bd dac7 babd 5624 163d 3fb7 013e
000002a0: 821c 123d f9fe 863d e40f 263e 599f 1bbd
000002b0: 544e 30bd 8de6 dd3d b5ae 9b3d d2b1 373d
000002c0: 77ff 97bd 6d92 493d 42b7 d33c 54ff 71bd
000002d0: 147a c2bd dacd 9dbd 7160 28bd 4f1c 803e
000002e0: d52a 1a3d e781 09bd 9196 143c 9635 1e3e
000002f0: 65fa 5cbd bb35 d0bc 0aba ea3b ef82 343c
00000300: a84e 963c 0601 09bd 95a8 043d 29c3 61bd
00000310: 686a ab3d 32f5 22bd 4ab2 cfbd 148f ca3d
00000320: 0eac 1ebc c526 bdbd a922 4fbc 6855 da3d
00000330: 1225 64be 1aeb 15bd 3b43 2cbe fb8c 743d
00000340: 170c 0b3d de9f 943b 16d8 a6bc 7269 a33c
00000350: ecda 133d a7db 053d 2000 843d 6ce3 9d3c
00000360: 28b7 0abe 37cc 6a3d 3ade c83c 73d3 9e3d
00000370: 7be3 55bd b6d9 59bd d646 a33e 07fb 9fbd
00000380: cda3 c93d 5c75 9dbd 133f 7d3e 524e 0f3d
00000390: a55b b3bd 7ee4 033e 3876 3d3c 6276 983d
000003a0: 5123 5bbc 908b 61be 0296 983c 95bf 33be
000003b0: a50c 8938 7ab9 163e fdbb 98bb 67b9 8bbd
000003c0: 510e 543e d5d7 e9bd e77d 233d e3f7 123d
000003d0: 29cc a33d 7408 33bb c404 f73c 64b8 dcbc
000003e0: 06dd 5ebb cf3f 3ebd cfcf 913c 602d 5abd
000003f0: 88f3 c6bc 7556 1b3d 991c fc3d 2015 063d

net.2.bias f4 [128]
0.069538645 -0.058213666 0.23266406 -0.06024583 0.018665774 0.085412405 0.010708851 0.032937925
-0.036906485 0.068962716 -0.043625917 0.0016848904 0.15153436 0.056288693 -0.058524538 0.009823633
-0.01464583 -0.03242954 -0.09290713 -0.02010465 0.066275395 0.00363557 -0.18354177 0.029575698
0.18354063 -0.024583519 -0.03267146 0.09686148 0.00441095 -0.0545218 0.023843804 0.02096337
0.06278239 -0.19964074 0.03988294 0.007919385 -0.0036229237 -0.07441736 -0.06713725 -0.018586526
-0.18354215 0.08230621 -0.19326274 -0.013304438 0.0030845657 -0.048281334 -0.028845381 0.02922616
-0.049757276 -0.18695502 -0.08016985 0.07453789 0.18353134 -0.05974995 -0.083674125 -0.13839608
-0.18354625 -0.048674945 0.0006407805 0.045960188 0.12944846 -0.0036521722 -0.13104384 -0.03753399
0.07183382 -0.11243882 0.030632367 -0.06883082 -0.04864621 0.0028613429 -0.058197584 0.0029155486
0.10229957 0.17180714 0.08890697 -0.025350437 -0.108956285 0.08666919 -0.12855603 -0.21466687
0.007884727 0.03125619 -0.03132265 0.003449897 0.057432923 -0.183551 -0.0009243259 0.046947192
0.18354593 -0.01088898 0.06677431 -0.051283877 -0.00368607 -0.053132538 0.08735856 0.02454099
-0.08582986 -0.08355889 -0.011836234 0.0018659541 0.015705356 -0.027727753 -0.22904402 -0.03709808
-0.07938451 0.0823766 0.17546144 0.03976984 -0.12754543 0.02529737 0.07458355 0.045015324
-0.012292237 -0.018325737 0.0991647 -0.091667384 0.03025214 0.08079615 0.05740173 0.20804875
0.008365808 0.057273746 -0.00010546047 0.004237684 0.015061996 -0.022645311 -0.15608624 -0.0051509803
00000000: 476a 8e3d 7471 6ebd 7d3f 6e3e 55c4 76bd
00000010: f7e8 983c b3ec ae3d 2d74 2f3c ebe9 063d
00000020: 412b 17bd 533c 8d3d 17b1 32bd 8ad7 dc3a
00000030: d32b 1b3e f98e 663d 6db7 6fbd 4ef3 203c
00000040: 10f5 6fbc d6d4 04bd 1846 bebd 82b2 a4bc
00000050: 65bb 873d be42 6e3b 60f2 3bbe bc48 f23c
00000060: 13f2 3b3e 6063 c9bc 82d2 05bd 505f c63d
00000070: bb89 903b 4052 5fbd 1554 c33c 60bb ab3c
00000080: 0e94 803d 9f6e 4cbe 4b5c 233d 4fc0 013c
00000090: 936e 6dbb 2168 98bd 417f 89bd c542 98bc
000000a0: 79f2 3bbe 2990 a83d abe6 45be dcfa 59bc
000000b0: 6d26 4a3b a6c2 45bd 264d ecbc b36b ef3c
000000c0: 49ce 4bbd 2371 3fbe 1730 a4bd 52a7 983d
000000d0: a4ef 3b3e 5dbc 74bd 575d abbd b4b7 0dbe
000000e0: 8cf3 3bbe 615f 47bd 0dfa 273a c040 3c3d
000000f0: 238e 043e 4859 6fbb 5b30 06be 3ebd 19bd
00000100: 9c1d 933d 5346 e6bd bbf0 fa3c 2cf7 8cbd
00000110: 4041 47bd 5e85 3b3b 9760 6ebd ca12 3f3b
00000120: 7082 d13d 36ee 2f3e dc14 b63d b8ab cfbc
00000130: 7924 dfbd 9e7f b13d 31a4 03be a2d1 5bbe
00000140: f12e 013c 7e06 003d 2e4c 00bd ab17 623b
00000150: c93e 6b3d cbf4 3bbe 764e 72ba b34b 403d
00000160: 77f3 3b3e b167 32bc f8c0 883d 0b0f 52bd
00000170: fe91 71bb 81a1 59bd 0be9 b23d 300a c93c
00000180: 91c7 afbd ec20 abbd c3ec 41bc 0893 f43a
00000190: 85a8 803c 5025 e3bc 848a 6abe 28f4 17bd
000001a0: 5994 a2bd 10b5 a83d 2aac 333e b3e5 223d
000001b0: 459b 02be 6e3c cf3c 43bf 983d fd61 383d
000001c0: 6165 49bc db1f 96bc dd16 cb3d 1cbc bbbd
000001d0: 56d3 f73c 7478 a53d 141e 6b3d bb0a 553e
000001e0: be10 093c e097 6a3d a92a ddb8 45dc 8a3b
000001f0: 97c6 763c a982 b9bc 12d5 1fbe 8ec9 a8bb

net.4.weight f4 [128, 128]
-0.053806297 -0.022900851 -0.012233194 0.01895673 0.002200826 -0.049137354 -0.06165403 0.015778672
-0.06758109 -0.015656717 0.034139488 -0.022888433 -0.11973787 0.017871369 0.07434708 -0.0048545436
0.018046102 0.07434195 -0.036340144 0.0068851174 0.015492614 1.9952222e-06 0.031756654 -0.01748171
-0.031756435 0.08067285 0.080910385 0.0041169184 0.0006053399 -0.012500511 -0.012869045 0.0076543638
-0.023285117 0.02738535 -0.033058487 0.0329128 -0.048545856 -0.078965455 -0.03769253 -0.033392087
0.03175665 0.034092 0.0092006605 0.01892906 -0.007205923 -0.0010056385 0.046715964 -0.045304094
0.044214036 -0.016540283 0.00093345495 0.039663117 -0.03175583 -0.1106167 0.026559 0.0023902676
0.031756967 0.02899097 -0.008877183 -0.091841415 -0.0036836995 -0.009838772 0.026890954 0.0013360534
-0.017872151 0.049756873 -0.07579125 -0.005463859 -0.038882393 -0.010146253 -0.050684605 -0.0085551385
-0.035107933 -0.04129647 -0.022014465 -0.03080276 -0.0016660176 -0.0005126257 0.11484258 0.025298657
0.062301718 0.07638458 -0.01911238 0.00035403634 0.028764753 0.031757418 0.06122815 -0.02780886
-0.03175675 1.7167602e-05 -0.033600267 0.033448927 -0.025088338 -0.012551308 -0.037155822 -0.09526947
0.08672164 0.010288506 0.0010582148 -0.0004456572 -0.038364016 -0.0436425 0.06700549 -0.0331458
0.0635422 0.03872044 -0.008998354 0.028639892 0.019277073 -0.048814204 0.01826492 0.11036006
0.031393226 -6.442859e-05 -0.07350121 -0.04506175 0.001537776 -0.011959943 0.034204308 -0.0048216367
0.05841967 0.08040455 -0.03584888 -0.04411682 -0.026887478 0.068950795 0.014765879 0.039508224
-0.010123969 0.051361706 0.04625704 0.07870233 -0.19503205 -0.054433007 -0.028005278 0.03213147
0.017815217 -0.013648212 0.070374265 0.02306427 0.017136909 0.04480767 0.042369403 0.021954162
-0.023286592 -0.05554323 -0.070956886 0.016758686 -0.04204637 0.012138401 0.01079724 -0.022271711
-0.010797222 0.035684627 0.045572765 0.03140669 0.013783117 0.0065465784 -0.19764479 0.104279146
0.02167178 -0.04011051 -0.031626698 -0.033315998 0.08133579 0.06197447 -0.0038727273 0.06021214
0.010797212 0.099371806 -0.008022434 0.14824155 0.051698808 -0.016540432 -0.01840481 0.049616463
0.05264593 0.044146307 -0.010938932 -0.053157806 -0.010797431 0.015143969 0.07367364 -0.0012743004
0.010797144 0.030041829 -0.02102781 -0.03978431 -0.04024181 -0.0018312986 0.008630873 -0.104898304
0.0015235093 0.07148196 -0.043531027 -0.04574746 0.06361681 0.13541998 -0.010157565 0.070805736
0.03802384 0.029036231 -0.0005160937 0.21995145 0.11205831 0.0059756073 0.09984434 -0.0018642782
0.06281864 -0.0077664643 0.13169892 0.013096708 -0.031403616 0.010797058 0.08759931 -0.006450875
-0.010797096 -0.033966698 0.05683167 0.08801795 -0.030847656 -0.04390015 -0.021402832 0.022827042
0.120300665 -0.04441885 -0.049462184 0.011603173 -0.021461077 0.085213274 0.049303364 -0.020765224
0.1053024 -0.00768187 0.030956713 0.19569702 0.025675217 -0.233294 0.0025965539 -0.054758716
0.13942778 -0.10509869 -0.064183 -0.04709919 -0.054568827 -0.016932942 -0.031120922 0.006476973
0.07200249 -0.050830044 0.037434746 0.024512265 0.0077503216 0.012396407 0.04139704 -0.03494567
00000000: fe63 5cbd 919a bbbc bc6d 48bc 254b 9b3c
00000010: bc3b 103b 4044 49bd f088 7cbd 4642 813c
00000020: f467 8abd 8442 80bc d9d5 0b3d 8680 bbbc
00000030: 2139 f5bd fa66 923c 4843 983d dd12 9fbb
00000040: 6bd5 933c 9840 983d 67d9 14bd 8d9c e13b
00000050: bcd4 7d3c a8e5 0536 4413 023d ce35 8fbc
00000060: 0913 02bd cf37 a53d 58b4 a53d 37e7 863b
00000070: acaf 1e3a f1ce 4cbc b0d8 52bc 75d1 fa3b
00000080: 6ec0 bebc 3e57 e03c 5668 07bd 92cf 063d
00000090: 05d8 46bd a4b8 a1bd 7b63 1abd 24c6 08bd
000000a0: 4313 023d 0ea4 0b3d 5ebe 163c 1e11 9b3c
000000b0: aa1f ecbb a1cf 83ba 3d59 3f3d c990 39bd
000000c0: c719 353d 7d7f 87bc 1ab3 743a cb75 223d
000000d0: 6712 02bd 028b e2bd 4392 d93c 09a6 1c3b
000000e0: 9813 023d 797e ed3c 9b71 11bc 5a17 bcbd
000000f0: 396a 71bb cd32 21bc 6b4a dc3c 831e af3a
00000100: 9e68 92bc ddcd 4b3d 7138 9bbd 2c0a b3bb
00000110: 2543 1fbd 783c 26bc a99a 4fbd da2a 0cbc
00000120: 56cd 0fbd 7d26 29bd ae57 b4bc 1256 fcbc
00000130: 465e daba ba61 06ba 9632 eb3d 213f cf3c
00000140: 1630 7f3d 856f 9c3d 9191 9cbc f49d b939
00000150: 0fa4 eb3c 1114 023d 5eca 7a3d 68cf e3bc
00000160: 5e13 02bd 2503 9037 6fa0 09bd be01 093d
00000170: 0f86 cdbc 00a4 4dbc b430 18bd a41c c3bd
00000180: 1d9b b13d 1f91 283c ccb3 8a3a 19a7 e9b9
00000190: 9623 1dbd 7ac2 32bd 2d3a 893d e4c3 07bd
000001a0: 6a22 823d 5399 1e3d d56d 13bc 359e ea3c
000001b0: f4ea 9d3c 67f1 47bd 50a0 953c 7504 e23d
000001c0: 2f96 003d d61d 87b8 cd87 96bd ab92 38bd
000001d0: 338f c93a a3f3 43bc d119 0c3d d2fe 9dbb
000001e0: 7749 6f3d 24ab a43d 46d6 12bd d7b3 34bd
000001f0: 2143 dcbc 1336 8d3d 96ec 713c 60d3 213d
00000200: 01df 25bc a760 523d 0678 3d3d b02e a13d
00000210: 7bb6 47be 25f5 5ebd 536b e5bc 4a9c 033d
00000220: 38f1 913c c09c 5fbc 6220 903d 48f1 bc3c
00000230: b462 8c3c 3f88 373d 8a8b 2d3d 37d9 b33c
00000240: 86c3 bebc 4c81 63bd d851 91bd 8349 893c
00000250: d138 2cbd 25e0 463c e8e6 303c 2a73 b6bc
00000260: d5e6 30bc 0b2a 123d 82aa 3a3d 4da4 003d
00000270: 95d2 613c ae84 d63b 6563 4abe 4e90 d53d
00000280: 0489 b13c eb4a 24bd ff8a 01bd 5b76 08bd
00000290: 6193 a63d f1d8 7d3d 95cd 7dbb 01a1 763d
000002a0: cae6 303c 7283 cb3d 8770 03bc a2cc 173e
000002b0: 21c2 533d cd7f 87bc afc5 96bc a23a 4b3d
000002c0: 42a3 573d c2d2 343d 3539 33bc 00bc 59bd
000002d0: b5e7 30bc 691e 783c 35e2 963d 6d06 a7ba
000002e0: 81e6 303c 481a f63c 8442 acbc dff4 22bd
000002f0: 99d4 24bd 2f08 f0ba 8168 0d3c ecd4 d6bd
00000300: 7db0 c73a 2265 923d 974d 32bd b061 3bbd
00000310: 8849 823d 89ab 0a3e ea6b 26bc 9902 913d
00000320: e3be 1b3d 64dd ed3c 764a 07ba f43a 613e
00000330: d47e e53d 07cf c33b 307b cc3d cc5a f4ba
00000340: 0fa7 803d d37d febb 15dc 063e 9393 563c
00000350: 14a1 00bd 25e6 303c 4467 b33d dd61 d3bb
00000360: 4ee6 30bc aa20 0bbd 53c8 683d c142 b43d
00000370: 39b4 fcbc a5d0 33bd fe54 afbc c7ff ba3c
00000380: 3260 f63d 8af0 35bd dc98 4abd 3c1b 3e3c
00000390: 24cf afbc 4c84 ae3d 53f2 493d d51b aabc
000003a0: c9a8 d73d 32b8 fbbb ef98 fd3c cd64 483e
000003b0: d554 d23c 9fe4 6ebe f22a 2a3b ad4a 60bd
000003c0: 28c6 0e3e fb3d d7bd 6072 83bd 15eb 40bd
000003d0: 9083 5fbd f4b6 8abc 4ef1 febc ca3c d43b
000003e0: 0b76 933d 2a33 50bd 2d55 193d f2cd c83c
000003f0: 69f6 fd3b 4d1a 4b3c f18f 293d 3123 0fbd

net.4.bias f4 [128]
-0.04967206 -0.014288464 0.047790743 -0.32582197 -0.043992966 0.018589227 0.085924454 -0.08323932
-2.1639119e-06 0.07933744 -0.022142772 0.08765149 -0.06307633 -0.046944026 -1.2783642e-06 0.079299815
-0.0009485275 -0.08444318 -0.031133335 0.023141008 -0.076909296 0.05444618 -0.11127078 0.023193752
-0.06863361 -0.02266418 -0.06478191 0.04112133 -0.13822699 1.4197796e-06 -1.7913723e-06 -0.07030808
0.096171506 0.024832297 0.04984533 -0.02660146 -0.10946731 0.086142324 -0.06646852 -0.1093496
-0.08754966 1.2996146e-06 0.01877446 -0.09991287 0.0303707 -0.0024181502 -0.04375122 0.07030299
-0.16292043 0.011886958 -0.082391344 -1.4012272e-06 -0.025497844 2.1564156e-06 0.070789866 0.018238354
-0.001968203 -0.040173814 1.3189755e-06 2.162622e-06 -0.059328858 0.09121822 -0.015232569 0.013150412
-0.095614865 0.1147391 -0.048945155 0.064696826 0.021149602 -2.1364344e-06 0.06661979 0.045959245
-0.07187335 0.031858392 1.3490755e-06 0.073132075 -0.066617556 0.06753902 -0.031133221 -2.1478054e-06
0.009407202 0.06535547 0.13618729 0.10347254 0.07949934 -0.006076654 0.018965503 -0.06345236
0.018946273 -0.018123383 -0.021193452 1.3165256e-06 -1.7040934e-06 0.029103173 -0.0010163498 0.078828685
-0.15687975 0.0094573535 -0.029823264 0.0016412921 -0.034180317 -0.065602295 -0.046033476 -0.04524633
-0.097202405 0.0148343025 0.12605578 -1.9617546e-06 -2.206876e-06 -0.026452262 -1.4662204e-06 0.0059162397
1.4658906e-06 0.044202242 0.017453767 0.04383166 2.1372584e-06 -0.0037328003 -1.798968e-06 -0.0051331627
-2.0694781e-06 -0.103175856 -0.017142778 0.0038156584 -0.023003703 -0.011097856 2.1432854e-06 0.07801154
00000000: ee74 4bbd 291a 6abc 3ac0 433d 23d2 a6be
00000010: f831 34bd 6f48 983c 29f9 af3d 6079 aabd
00000020: b937 11b6 ab7b a23d c264 b5bc a082 b33d
00000030: 2a2e 81bd 6148 40bd 4294 abb5 f167 a23d
00000040: 9aa6 78ba 8cf0 acbd 560b ffbc 3692 bd3c
00000050: 9f82 9dbd f502 5f3d efe1 e3bd d300 be3c
00000060: c78f 8cbd 3baa b9bc 61ac 84bd d76e 283d
00000070: 608b 0dbe 418f be35 156f f0b5 affd 8fbd
00000080: 91f5 c43d 1a6d cb3c 9e2a 4c3d 4eeb d9bc
00000090: 6630 e0bd 636b b03d a620 88bd aff2 dfbd
000000a0: 3c4d b3bd 6b6e ae35 e5cc 993c 1e9f ccbd
000000b0: f9cb f83c d479 1ebb 7b34 33bd 04fb 8f3d
000000c0: 9dd4 26be 84c1 423c cbbc a8bd cd11 bcb5
000000d0: dbe0 d0bc f0b6 1036 47fa 903d 9a68 953c
000000e0: f8fc 00bb 4c8d 24bd a707 b135 9021 1136
000000f0: d102 73bd 9ed0 ba3d 0692 79bc d374 573c
00000100: bad1 c3bd 55fc ea3d b77a 48bd c57f 843d
00000110: ee41 ad3c aa5f 0fb6 f56f 883d c33f 3c3d
00000120: 5632 93bd f27d 023d e211 b535 45c6 953d
00000130: c96e 88bd e651 8a3d 190b ffbc 0423 10b6
00000140: aa20 1a3c 17d9 853d ae74 0b3e 69e9 d33d
00000150: 8dd0 a23d ab1e c7bb 8b5d 9b3c 50f3 81bd
00000160: 3735 9b3c 7d77 94bc e49d adbc 7ab3 b035
00000170: 34b8 e4b5 c769 ee3c 0a37 85ba ef70 a13d
00000180: 16a5 20be 04f3 1a3c eb4f f4bc a020 d73a
00000190: a900 0cbd 7f5a 86bd 998d 3cbd 3754 39bd
000001a0: 0e12 c7bd 930b 733c c414 013e b0a6 03b6
000001b0: d719 14b6 6ab2 d8bc f3ca c4b5 04dd c13b
000001c0: 9ebf c435 690d 353d 34fb 8e3c d488 333d
000001d0: d26d 0f36 ffa1 74bb 1274 f1b5 1734 a8bb
000001e0: 5de1 0ab6 dd4d d3bd 036f 8cbc 2010 7a3b
000001f0: 4372 bcbc c8d3 35bc 5dd5 0f36 84c4 9f3d

net.6.weight f4 [6, 128]
0.04054996 0.03720598 -0.45196673 -0.3858899 0.028658133 0.3273653 -0.22000495 -0.096795745
7.8845125e-07 0.123311825 0.028603962 0.031534865 0.29381153 -0.2111397 1.8376078e-06 -0.46904954
-0.03873336 0.1108051 -0.09932079 0.25170085 -0.028625078 -0.09316467 -0.2614734 -0.1242502
0.031926714 0.15773158 -0.051896166 0.21568953 -0.04699735 -1.4532986e-06 9.65205e-07 -0.16667779
-0.047553368 0.12220992 0.070271514 0.28324124 -0.11154149 0.332188 -0.14153549 -0.15520336
-0.029628493 -1.7814542e-06 -0.11411286 -0.0028622614 0.10399666 0.1205647 -0.15925388 0.23100963
0.24511397 0.0266228 0.20945743 1.5057552e-06 -0.3119574 -8.02281e-07 -0.4431751 -0.026973099
0.3099224 -0.14529088 -1.7361352e-06 -7.928527e-07 -0.08833632 0.011125564 0.2253693 -0.111289814
-0.21835053 0.10574726 0.0010944757 -0.057662196 -0.009676482 7.8009214e-07 0.38026845 -0.023652196
-0.18914567 0.35999376 -1.6502588e-06 0.039637752 0.057543445 -0.09913639 0.13628536 7.9206154e-07
0.18107896 0.17002898 -0.3522098 -0.20707473 -0.3086705 0.36345762 -0.28988963 0.060636096
0.09184504 -0.0033926037 -0.16440202 -1.7427325e-06 1.0538716e-06 0.13948858 -0.1474565 0.2903647
-0.047837123 -0.42333397 0.5411746 -0.41063872 0.13842203 0.088738546 -0.37918824 0.09996488
-0.17212942 -0.29237148 0.22296801 8.2129804e-07 6.2507013e-07 -0.3253822 1.3593816e-06 0.11236985
-1.377862e-06 -0.12962389 0.07531454 -0.20116709 -7.80538e-07 0.024475472 9.578769e-07 0.1930729
7.7225724e-07 -0.21022749 0.1188626 -0.10851446 -0.03727288 0.08527149 -7.9657485e-07 -0.18649024
-0.015697042 0.06858698 -0.5081633 -1.3070813 -0.48830926 -0.10000928 0.08859853 0.084311604
4.9043468e-08 0.5012529 0.44001633 0.32842353 -0.19733566 0.0035678889 3.4765876e-07 -0.11498442
-0.35748845 -0.3277841 -0.7282456 -0.37816474 -0.07282868 -0.29757616 -0.40912753 0.023161782
0.008345896 -0.2590295 -0.3854771 0.02536701 -0.31172225 -3.5263673e-07 2.8652624e-07 -0.7849277
0.37700748 0.6609535 -0.20174086 -0.28078225 -0.19762874 0.376641 -0.19757825 -0.11799531
-0.03702866 -3.5075564e-07 -0.55210286 -0.561957 0.09497046 0.083207354 -0.40587878 0.023628594
1.1714771 0.04844069 0.05441433 3.5479744e-07 -0.00380393 -7.495974e-08 0.39899018 0.019778272
0.047107078 -0.003978914 -3.52414e-07 -5.2875272e-08 -0.36968973 0.09123553 -0.2515412 -0.44556838
-0.22950435 0.042382345 -0.39923674 -0.75087047 0.34128055 9.426441e-08 0.74101436 0.09105139
-0.04513633 -0.14387633 -3.541968e-07 0.49223104 -0.24044369 0.3018234 -0.17702696 8.029733e-08
0.13149421 -0.06131273 0.1189091 -0.43389767 -0.07431319 0.057133526 -0.35410944 -0.36940357
0.23383701 -0.37881258 -0.7477862 -3.5219563e-07 3.1071536e-07 0.4713736 -0.019816725 0.093822025
-0.49661973 0.025184166 0.6388677 -0.027234258 -0.22256026 -0.1553564 0.033173267 -0.15465632
-0.08078607 0.0028390556 0.476678 2.1770337e-07 1.2078849e-08 -0.091480605 3.4918335e-07 0.8350187
-3.5160653e-07 -0.035120267 0.564028 0.0026154427 -9.316619e-08 0.23876819 2.8411569e-07 -0.24280941
1.5365205e-07 -0.07088148 0.02763017 -0.6657025 0.005611882 0.008736837 -1.02377754e-07 -0.055558786
00000000: b717 263d 4c65 183d 2f68 e7be 5c93 c5be
00000010: 76c4 ea3c 6d9c a73e fa48 61be d93c c6bd
00000020: f5a5 5335 e98a fc3d db52 ea3c b42a 013d
00000030: 776e 963e 0135 58be b9a3 f635 4327 f0be
00000040: dfa6 1ebd c9ed e23d b368 cbbd efde 803e
00000050: 247f eabc 1ecd bebd d7df 85be e476 febd
00000060: 96c5 023d 6384 213e 1391 54bd b7dd 5c3e
00000070: 4b80 40bd f60e c3b5 318c 8135 95ad 2abe
00000080: 52c7 42bd 3249 fa3d 83ea 8f3d ff04 913e
00000090: dd6f e4bd 8c14 aa3e aeee 10be a1ed 1ebe
000000a0: 74b7 f2bc 4d1a efb5 01b4 e9bd c794 3bbb
000000b0: 33fc d43d a0ea f63d 7313 23be ca8d 6c3e
000000c0: 28ff 7a3e 0f18 da3c 027c 563e 5b19 ca35
000000d0: e1b8 9fbe 555c 57b5 d9e7 e2be b0f6 dcbc
000000e0: 26ae 9e3e 22c7 14be 2705 e9b5 6cd4 54b5
000000f0: ace9 b4bd ff47 363c 36c7 663e eaeb e3bd
00000100: 4897 5fbe 0592 d83d 8374 8f3a 322f 6cbd
00000110: 1b8a 1ebc 8667 5135 8cb2 c23e 40c2 c1bc
00000120: 67af 41be 1a51 b83e 767e ddb5 325b 223d
00000130: adb2 6b3d 0508 cbbd 648e 0b3e 0e9e 5435
00000140: c36c 393e 141c 2e3e d854 b4be 660b 54be
00000150: 0f0a 9ebe 1e17 ba3e 6a6c 94be 8e5d 783d
00000160: 4119 bc3d 7256 5ebb 0159 28be d5e7 e9b5
00000170: c172 8d35 18d6 0e3e d6fe 16be afaa 943e
00000180: dcf0 43bd 3bbf d8be 6b8a 0a3f 3d3f d2be
00000190: 81be 0d3e 8ebc b53d f624 c2be 63ba cc3d
000001a0: b242 30be b7b1 95be ba51 643e 2c77 5c35
000001b0: 7eca 2735 7f98 a6be ff73 b635 2a22 e63d
000001c0: faee b8b5 20bc 04be 823e 9a3d bffe 4dbe
000001d0: 2a86 51b5 c980 c83c 6690 8035 e7b4 453e
000001e0: 1d4d 4f35 e045 57be 3c6e f33d d43c debd
000001f0: 73ab 18bd d2a2 ae3d 35d4 55b5 4cf7 3ebe
00000200: 1597 80bc 5577 8c3d fd16 02bf 714e a7bf
00000210: ac03 fabe aad1 ccbd 2573 b53d 90ab ac3d
00000220: dda3 5233 1c52 003f d249 e13e 2127 a83e
00000230: 5c12 4abe 3ed3 693b dba5 ba34 f47c ebbd
00000240: ba08 b7be 51d3 a7be 4e6e 3abf cf9e c1be
00000250: 3427 95bd e75b 98be 2a79 d1be c7bd bd3c
00000260: 3abd 083c 849f 84be 415d c5be 7ace cf3c
00000270: 0f9a 9fbe 0652 bdb4 ded3 9934 06f1 48bf
00000280: 2007 c13e 4034 293f 2895 4ebe b1c2 8fbe
00000290: 305f 4abe 17d7 c03e f451 4abe 86a7 f1bd
000002a0: 5dab 17bd 7d4f bcb4 9d56 0dbf 6adc 0fbf
000002b0: df7f c23d 9e68 aa3d 58cf cfbe c190 c13c
000002c0: f6f2 953f bf69 463d 8fe1 5e3d fd7a be34
000002d0: 5b4b 79bb 8ef9 a0b3 7148 cc3e 0b06 a23c
000002e0: 5af3 403d 8d61 82bb 6933 bdb4 fa18 63b3
000002f0: f947 bdbe b2d9 ba3d 02ca 80be 8a21 e4be
00000300: 3003 6bbe 1c99 2d3d c268 ccbe 0c39 40bf
00000310: 53bc ae3e 686e ca33 1eb3 3d3f 2779 ba3d
00000320: dfe0 38bd 5154 13be 7028 beb4 b505 fc3e
00000330: df36 76be 9988 9a3e 8e46 35be ed6f ac33
00000340: 6ba6 063e 0f23 7bbd 9d86 f33d d627 debe
00000350: 8431 98bd d804 6a3d d54d b5be 7722 bdbe
00000360: f872 6f3e b9f3 c1be eb6e 3fbf 6615 bdb4
00000370: 65d0 a634 e157 f13e af56 a2bc c325 c03d
00000380: f144 febe 064f ce3c d58c 233f 611a dfbc
00000390: d6e6 63be c015 1fbe b1e0 073d 3a5e 1ebe
000003a0: 2b73 a5bd 730f 3a3b 240f f43e d9c1 6934
000003b0: 5783 4f32 2f5a bbbd 6577 bb34 c9c3 553f
000003c0: 6fc4 bcb4 45da 0fbd 2464 103f d967 2b3b
000003d0: a812 c8b3 a67f 743e 9088 9834 08a3 78be
000003e0: 8efb 2434 4f2a 91bd ab58 e23c 7b6b 2abf
000003f0: e1e3 b73b f324 0f3c c4da dbb3 9c91 63bd

net.6.bias f4 [6]
6.21602e-40 0.28171942 2.61652e-40 0.3326865 0.18536086 0.18536086
00000000: c6c4 0600 873d 903e 61d9 0200 e355 aa3e
00000010: 3dcf 3d3e 3dcf 3d3e
