training/nn-large.pth (torch, 149273 bytes, 8 tensors)

net.0.weight f4 [128, 21]
-0.5135015 -0.06712091 0.22587879 -0.1676822 -0.031641416 0.18276492 0.18160227 0.047063738
0.012172295 0.018572707 0.089631274 -0.057313222 0.051868096 0.059464175 0.079972915 0.034107447
0.022805337 0.024604026 -0.017379766 0.011475971 0.001568229 -0.40768155 0.010250051 0.21475412
0.09236161 0.20871502 0.12322575 0.028479842 0.04263056 0.05452852 -0.0016611888 -0.03847815
-0.027114948 0.0055279494 -0.007096763 -0.012718836 -0.08164096 -0.17553636 -0.16704841 -0.38564762
0.069939375 0.07623633 -0.28313836 -0.13849063 -0.50069827 0.26674274 -0.1682149 -0.050749805
0.13638826 0.15931231 -0.012403073 -0.039454397 0.013906985 0.08259107 0.038272843 0.025594298
0.016774436 0.023873601 0.0053724055 0.009598692 -0.0064728786 -0.134427 0.00749065 0.14948913
0.10835742 0.76225376 0.19060746 0.109822325 -0.010124812 0.20758365 0.15890254 -0.15410529
-0.17481165 0.017297165 -0.071231686 -0.021720845 -0.020573108 -0.0067111757 0.023147367 0.04854782
0.025158724 0.015598498 0.04921042 0.0071467687 -0.033197213 -0.3226198 -0.043532874 0.15808645
0.05152383 0.04173596 -0.0057837367 0.026985796 0.023427043 0.012370536 -0.024967687 -0.015660653
-0.02737434 -0.01900951 -0.027450845 -0.01961144 -0.014851231 -0.013685309 -0.0017902929 0.028190032
-0.08752695 -0.22962555 -0.079926476 -0.51939064 -0.08113714 -0.069576494 -0.17682916 -0.14675742
-0.3115906 -0.07998255 0.3568183 0.102502726 0.10807315 0.011868418 0.051890943 0.028812218
0.043191634 0.0660465 -0.009199395 0.032164942 -0.0052947896 0.048557885 0.20352446 -0.16247006
-0.28623497 0.79059297 -0.340349 -0.5307818 -0.028993146 0.037623473 0.015009317 -0.0056662736
-0.017418403 -0.049664248 -0.008707856 0.030737262 0.040179916 0.038568538 0.045545347 0.052479945
0.04511398 0.2740042 -0.008487164 0.38604042 -0.2594972 -0.36684132 0.20900817 0.18325658
0.09458951 0.014146079 -0.06239743 -0.02147796 -0.04114712 0.006885273 -0.08518435 0.18676658
0.2518004 0.29581374 0.24465749 0.082791805 -0.08372464 -0.086841755 0.10864934 -0.11803307
0.12290916 0.04980819 0.03523749 0.3502579 0.022179222 -0.2960611 -0.33505526 -0.17793307
-0.04315388 0.0745364 0.050098896 -0.00545738 0.004088978 -0.0041238265 0.002761176 -0.00807718
0.0016335229 -0.0090309195 -0.011761087 0.035563145 -0.003611509 0.034744464 -0.1372867 0.2561032
0.23453838 0.030440986 -0.2742098 -0.2784745 -0.108462565 0.0014878648 0.004077825 0.06335988
0.03189811 -0.032377865 -0.056036223 -0.047374707 -0.033635575 0.048479695 0.02639487 0.13727365
0.06565485 -0.17013998 0.2684689 -0.17550454 -0.09609192 0.10764906 0.16124871 0.09046905
0.095415324 0.07326264 -0.080655865 -0.09131501 -0.23829177 0.11353133 0.004699767 -1.3022109e-06
-0.025802543 -0.013586696 0.013664522 -0.010854858 0.034909636 0.0800103 -0.011441958 -0.390702
0.056412373 0.0063816076 -0.14329872 -0.114094496 -0.009257243 -0.032648664 -0.029656159 -0.076326795
-0.016372249 0.053377014 -0.13760531 0.0010063916 -0.0051348926 -0.027349832 -0.004140359 -0.038502153
0.025718413 0.011825747 -0.12672201 0.0073834127 -0.092352174 -0.044274658 -0.41998467 0.13241784
00000000: d674 03bf b076 89bd c54c 673e e2b4 2bbe
00000010: 6e9a 01bd ba26 3b3e f2f5 393e e8c5 403d
00000020: 4e6e 473c ca25 983c 9a90 b73d 45c1 6abd
00000030: a473 543d b590 733d d7c8 a33d 40b4 0b3d
00000040: 42d2 ba3c 628e c93c 0360 8ebc b605 3c3c
00000050: 098d cd3a a3bb d0be d4ef 273c 81e8 5b3e
00000060: 1528 bd3d 64b9 553e c85d fc3d 8f4e e93c
00000070: 629d 2e3d 4c59 5f3d 3fbc d9ba 449b 1dbd
00000080: 2b20 debc cd23 b53b f68b e8bb aa62 50bc
00000090: 6033 a7bd cebf 33be bd0e 2bbe 9b73 c5be
000000a0: 603c 8f3d cb21 9c3d 83f7 90be 7dd0 0dbe
000000b0: c32d 00bf 8192 883e 8740 2cbe 07df 4fbd
000000c0: 5da9 0b3e c422 233e 4236 4bbc ef9a 21bd
000000d0: 1fda 633c 8225 a93d fcc3 1c3d 22ab d13c
000000e0: 8b6a 893c 9292 c33c 010b b03b d543 1d3c
000000f0: 711a d4bb 3ba7 09be 2074 f53b ae13 193e
00000100: 7fea dd3d 1023 433f 9a2e 433e 87ea e03d
00000110: 8ae2 25bc cf90 543e 59b7 223e c7cd 1dbe
00000120: d301 33be c9b2 8d3c ebe1 91bd eaef b1bc
00000130: ef88 a8bc 6ce9 dbbb 8c9f bd3c 14da 463d
00000140: ab19 ce3c d890 7f3c de90 493d 712f ea3b
00000150: cdf9 07bd 6c2e a5be 874f 32bd 6ae1 213e
00000160: a70a 533d 53f3 2a3d 8085 bdbb 5111 dd3c
00000170: 12ea bf3c caad 4a3c 0989 ccbc c54a 80bc
00000180: 2740 e0bc d5b9 9bbc 98e0 e0bc 2ca8 a0bc
00000190: 9452 73bc 5938 60bc 43a8 eaba c8ee e63c
000001a0: 5441 b3bd f622 6bbe 7eb0 a3bd c9f6 04bf
000001b0: 3b2b a6bd 1f7e 8ebd b412 35be 9447 16be
000001c0: ce88 9fbe e4cd a3bd e3b0 b63e f3ec d13d
000001d0: 7555 dd3d c173 423c 998b 543d 9a07 ec3c
000001e0: b6e9 303d 6343 873d 0fb9 16bc 63bf 033d
000001f0: ea7f adbb a2e4 463d b768 503e 8d5e 26be
00000200: 648d 92be 4d64 4a3f 3942 aebe 51e1 07bf
00000210: 0983 edbc 121b 1a3d a3e9 753c 26ac b9bb
00000220: 0ab1 8ebc bd6c 4bbd 65ab 0ebc b6cc fb3c
00000230: b293 243d 0bfa 1d3d c28d 3a3d 36f5 563d
00000240: 70c9 383d 474a 8c3e bf0d 0bbc 17a7 c53e
00000250: d1dc 84be a0d2 bbbe 3d06 563e 9da7 3b3e
00000260: 25b8 c13d f5c4 673c 7394 7fbd 8cf2 afbc
00000270: e289 28bd db9d e13b 2275 aebd bd3f 3f3e
00000280: fbeb 803e e674 973e 7e87 7a3e c08e a93d
00000290: d377 abbd 17da b1bd 8c83 de3d 52bb f1bd
000002a0: ccb7 fb3d ac03 4c3d 3055 103d 0155 b33e
000002b0: 33b1 b53c 5295 97be 5d8c abbe 1634 36be
000002c0: 1fc2 30bd 8aa6 983d 8034 4d3d d2d3 b2bb
000002d0: d5fc 853b 2a21 87bb d9f4 343b 2656 04bc
000002e0: ef1b d63a 6cf6 13bc 93b1 40bc a9aa 113d
000002f0: 11af 6cbb 3650 0e3d e294 0cbe f51f 833e
00000300: d42a 703e 605f f93c 3a65 8cbe 3694 8ebe
00000310: 9f21 debd 7504 c33a 479f 853b d3c2 813d
00000320: 98a7 023d a79e 04bd 3d86 65bd fb0b 42bd
00000330: 75c5 09bd a592 463d 0e3a d83c 7791 0c3e
00000340: 0d76 863d 2d39 2ebe c174 893e 76b7 33be
00000350: d7cb c4bd 1c77 dc3d 621e 253e d647 b93d
00000360: 1c69 c33d b90a 963d e72e a5bd 5d03 bbbd
00000370: c202 74be 1d83 e83d 8100 9a3b a0c7 aeb5
00000380: db5f d3bc bc9a 5ebc 29e1 5f3c 93d8 31bc
00000390: 68fd 0e3d 71dc a33d 0d77 3bbc 180a c8be
000003a0: a910 673d ce1c d13b e6bc 12be 60aa e9bd
000003b0: b1ab 17bc 9bba 05bd 79f1 f2bc 3951 9cbd
000003c0: 181f 86bc dba1 5a3d 68e8 0cbe e6e8 833a
000003d0: 9a42 a8bb c10c e0bc d9ab 87bb 6fb4 1dbd
000003e0: 6caf d23c c7c0 413c 6ac3 01be 8ef0 f13b
000003f0: 2323 bdbd 5859 35bd 3b08 d7be 8b98 073e

net.0.bias f4 [128]
-0.04834856 0.13080478 0.32944697 1.079324 0.1484348 0.20630224 0.35565776 -0.2118834
-0.4796549 0.110639006 -0.073098615 -0.048911974 -0.37422642 0.28687608 -0.120768845 0.15075171
-0.32925555 -0.05220621 0.21726109 -0.3383593 0.21378413 -0.03124324 -0.45529383 -0.04152091
-0.24132782 -0.041325685 -0.06366117 -0.17771642 0.43049896 0.534404 -0.6164097 -0.18903205
-0.24754135 -0.06575448 -0.33527318 -0.1188653 0.32923064 0.33409095 -0.32925394 -0.48440322
-0.42130756 -0.32309917 -0.5456834 0.32944557 0.19068985 -0.38680106 -0.124559924 -0.1309034
0.35645446 -0.095815316 -0.445568 0.20027062 0.18900184 0.24939363 0.33335885 -0.64558566
-0.21779445 0.2292877 0.28212667 -0.505084 -0.06838073 0.26809275 0.33804196 -0.037687812
0.076233074 0.28282297 -0.25300753 -0.03277327 -0.113193385 0.5781936 0.23464267 -0.10634487
0.29575786 0.33273417 0.19876869 -0.8999444 0.6863191 0.32925177 0.5395843 -0.004286629
-0.0389851 0.0902956 0.21392967 -0.4963704 -0.56651103 0.0874495 -0.2286119 0.055787366
0.38154233 -0.24384771 -0.26220155 -0.15035182 0.29741913 0.12488014 -0.8879204 0.25202894
-0.164082 0.13090742 -0.786482 -0.30947235 0.34160176 -0.24004364 -0.065887436 -0.35045132
0.18459186 0.45920455 -0.33284822 0.5035765 -0.033514064 -0.46033475 -0.023588616 0.23037498
-0.51018745 0.24773142 -0.21850991 -0.36295786 -0.1507395 -0.23570168 0.13232954 0.3181499
0.1681399 -0.34372702 -0.22733308 0.36552432 0.05894108 -0.1826994 -0.11552112 0.035876404
00000000: 2409 46bd b0f1 053e 46ad a83e 4a27 8a3f
00000010: 4bff 173e e540 533e c618 b63e f6f7 58be
00000020: 5495 f5be b496 e23d bab4 95bd ec57 48bd
00000030: 9b9a bfbe 6ce1 923e a855 f7bd a85e 1a3e
00000040: 2f94 a8be 2ed6 55bd b179 5e3e 6e3d adbe
00000050: 3aea 5a3e d3f1 ffbc 461c e9be d411 2abd
00000060: a41e 77be 1f45 29bd ca60 82bd 4bfb 35be
00000070: 5c6a dc3e b3ce 083f 07cd 1dbf 9e91 41be
00000080: 7b7b 7dbe 49aa 86bd eda8 abbe a76f f3bd
00000090: eb90 a83e f80d ab3e f993 a8be b303 f8be
000000a0: a0b5 d7be 416d a5be e8b1 0bbf 17ad a83e
000000b0: 3344 433e ca0a c6be 4619 ffbd 8a0b 06be
000000c0: 3381 b63e d23a c4bd 7d21 e4be be13 4d3e
000000d0: b389 413e 0b61 7f3e 03ae aa3e 1a45 25bf
000000e0: 8205 5fbe 65ca 6a3e e872 903e 2f4d 01bf
000000f0: 320b 8cbd 7443 893e d613 ad3e 895e 1abd
00000100: 1620 9c3d 2cce 903e 348a 81be 443d 06bd
00000110: efd1 e7bd 7f04 143f 2b46 703e 57cb d9bd
00000120: 936d 973e 225c aa3e 058a 4b3e c262 66bf
00000130: 9cb2 2f3f b093 a83e 3222 0a3f da76 8cbb
00000140: d7ae 1fbd e6ec b83d 6110 5b3e 4324 febe
00000150: de06 11bf b918 b33d 3d19 6abe 4b81 643d
00000160: 8459 c33e 37b3 79be 483f 86be d4f5 19be
00000170: 5247 983e 29c1 ff3d c04e 63bf f009 813e
00000180: 1d05 28be 980c 063e e256 49bf 2973 9ebe
00000190: 6de6 ae3e 00ce 75be feef 86bd 5b6e b3be
000001a0: a605 3d3e dc1c eb3e 156b aabe 64ea 003f
000001b0: 0b46 09bd ffb0 ebbe ea3c c1bc 6be7 6b3e
000001c0: a59b 02bf 4ead 7d3e 10c1 5fbe 9dd5 b9be
000001d0: 755b 1abe c85b 71be 6581 073e 8be4 a23e
000001e0: de2c 2c3e fdfc afbe 01ca 68be 0126 bb3e
000001f0: 346c 713d 8d15 3bbe 5696 ecbd 23f3 123d

net.2.weight f4 [128, 128]
-0.051514424 -0.04705715 0.026936766 -0.024909452 -0.019274632 0.0070426306 -0.0023240298 0.039728977
0.032653864 -0.0055019436 0.041436873 0.015405488 0.015045052 -0.019991022 -0.06991734 -0.008574501
-0.06370175 -0.020802757 -0.07806333 0.037216607 -0.06254147 -0.009906242 -0.012965226 -0.033641286
-0.026589796 0.01297901 0.09874498 -0.024172701 -0.023646567 -0.039977472 0.00051998685 0.043740977
-0.04528277 0.034692846 0.075139225 -0.013445519 0.06364411 -0.0113195935 -0.06371199 0.03825518
0.033200666 -0.009109161 -0.004263198 0.028802313 -0.044972476 0.06882022 0.022283481 -0.007652641
0.058242366 -0.031871103 0.028031036 -0.013895649 0.054464445 0.05060692 -0.008519036 0.03892688
0.010915368 -0.07340763 0.052923754 0.0057200696 -0.018135266 0.055421937 0.0120417485 0.064566635
0.003644952 -0.03654165 0.030189363 -0.02196572 -0.0017584536 0.021336094 -0.008642996 -0.000995919
0.05017428 -0.06339167 -0.033295475 0.002279224 -0.045877807 0.06368496 -0.01685739 0.02173051
-0.096243545 0.032070745 0.06798234 0.015485831 0.0433313 0.050340172 -0.061336067 -0.041485444
0.054779056 0.075243115 0.0682368 -0.009517574 -0.04775587 -0.05484031 -0.012193349 -0.030330274
0.01638802 -0.031773917 0.011852006 0.0023724022 0.06393149 -0.01112821 0.10210957 0.06052526
-0.08900917 -0.034567446 -0.019249205 0.04268105 0.005033844 -0.028401269 -0.02522876 -0.067098595
-0.0051778187 -0.0057716086 -0.0030856314 0.0043376014 -0.016081959 -0.047058556 -0.042261347 0.03608915
-0.010256788 -0.039143037 -0.006611587 -0.044196356 0.023168204 -0.041424666 0.0020412873 -0.015022306
-0.0224654 -0.038779244 -0.09403259 -0.14368953 -0.078209795 0.01084179 0.03130833 -0.007516456
0.202899 -0.0046309773 -0.04875948 0.056562964 0.057503305 -0.017441485 0.029618597 0.0067234645
0.032979377 -0.000996552 -0.048709754 -0.021112837 -0.036462035 0.02539895 0.03212345 0.02911011
0.010353966 0.053139564 -0.0116942655 0.08451965 -0.17336574 -0.2205073 0.039849382 -0.0558566
0.06831751 0.030804954 0.026647639 0.0035472503 -0.032717712 -0.08906733 0.03302911 0.15778457
0.023749193 0.06777822 0.16459152 -0.032210708 -0.04364796 0.108495824 0.07828065 0.055871204
-0.07988588 0.044843804 0.02963267 -0.057847537 -0.09126285 -0.077821136 -0.036702067 0.2538717
0.046072796 -0.03460439 0.008504576 0.15593207 -0.05605505 -0.031342857 0.0063575143 0.005319481
0.013434667 -0.031007232 0.034070484 -0.056719303 0.08128821 -0.041551527 -0.10216884 0.103604876
-0.016723847 -0.094301924 -0.0106902635 0.11035033 -0.22474594 -0.032899715 -0.16314851 0.06168496
0.03912304 0.011029405 -0.0297336 0.008750633 0.032558557 0.03672847 0.0633519 0.022127887
-0.13011055 0.052590095 0.016986176 0.07076961 -0.043256424 -0.045969978 0.3273956 -0.08183233
0.09562897 -0.077147454 0.24233778 0.038193163 -0.08341632 0.12444004 0.0063612317 0.07397894
-0.020208547 -0.21948875 0.02531015 -0.17415977 0.00045175172 0.15723155 -0.0015792486 -0.07988262
0.2053601 -0.11512123 0.037365265 0.037642147 0.08271064 -0.018297369 0.018454762 -0.032611914
-0.0031820815 -0.032978814 0.01933871 -0.05816058 -0.021194715 0.04357288 0.12553872 0.044189755
00000000: ca00 53bd 00bf 40bd 7eaa dc3c e80e ccbc
00000010: d5e5 9dbc dec5 e63b c04e 18bb daba 223d
00000020: 0fc0 053d a649 b4bb b6b9 293d 4d67 7c3c
00000030: 867f 763c 36c4 a3bc d330 8fbd 107c 0cbc
00000040: 1076 82bd 8b6a aabc abdf 9fbd 7170 183d
00000050: be15 80bd ca4d 22bc 196c 54bc 72cb 09bd
00000060: d8d2 d9bc eaa5 543c cf3a ca3d d405 c6bc
00000070: 72b6 c1bc 6bbf 23bd ba4f 083a bd29 333d
00000080: 6d7a 39bd 161a 0e3d 98e2 993d 984a 5cbc
00000090: d857 823d d175 39bc 6f7b 82bd 77b1 1c3d
000000a0: 6cfd 073d 973e 15bc 4cb2 8bbb d4f2 eb3c
000000b0: 0f35 38bd 9ef1 8c3d d98b b63c 01c3 fabb
000000c0: 8c8f 6e3d 468b 02bd 58a1 e53c 94aa 63bc
000000d0: 1c16 5f3d 3449 4f3d 6d93 0bbc cb71 1f3d
000000e0: 5fd6 323c bd56 96bd 94c6 583d 6c6f bb3b
000000f0: 6990 94bc 1d02 633d c14a 453c 833b 843d
00000100: 26e0 6e3b b2ac 15bd af4f f73c 74f1 b3bc
00000110: e97b e6ba 08c9 ae3c 5a9b 0dbc 7f89 82ba
00000120: 8c83 4d3d 7ed3 81bd d660 08bd 095f 153b
00000130: 5eea 3bbd 436d 823d 8218 8abc 2f04 b23c
00000140: 561b c5bd 9d5c 033d 533a 8b3d 48b8 7d3c
00000150: 297c 313d 7f31 4e3d 873b 7bbd a4ec 29bd
00000160: 0160 603d 1019 9a3d bcbf 8b3d 99ef 1bbc
00000170: a99b 43bd 3ca0 60bd 9dc6 47bc 3277 f8bc
00000180: 2b40 863c 5e25 02bd eb2e 423c 4e7a 1b3b
00000190: 83ee 823d 1953 36bc d21e d13d 56e9 773d
000001a0: 714a b6bd 9896 0dbd 82b0 9dbc 53d2 2e3d
000001b0: f2f2 a43b c7a9 e8bc 8bac cebc fd6a 89bd
000001c0: b1aa a9bb c31f bdbb 4e38 4abb 7022 8e3b
000001d0: 50be 83bc 79c0 40bd 3c1a 2dbd 37d2 133d
000001e0: 160c 28bc 7354 20bd 03a6 d8bb 3d07 35bd
000001f0: 3fcb bd3c e9ac 29bd 1ec7 053b 1e20 76bc
00000200: 5c09 b8bc fcd6 1ebd 2994 c0bd 5923 13be
00000210: 752c a0bd c3a1 313c 2a3d 003d 9a4c f6bb
00000220: c1c4 4f3e 74bf 97bb 05b8 47bd 91ae 673d
00000230: 9688 6b3d 72e1 8ebc b3a2 f23c 8250 dc3b
00000240: 6215 073d bc9e 82ba e183 47bd d4f4 acbc
00000250: 3759 15bd 7511 d03c e193 033d 5378 ee3c
00000260: aea3 293c dfa8 593d 4e99 3fbc a318 ad3d
00000270: ca86 31be aacc 61be 1b39 233d e4c9 64bd
00000280: 0dea 8b3d ac5a fc3c 264c da3c fc78 683b
00000290: 0203 06bd ef68 b6bd 8849 073d 4792 213e
000002a0: ab8d c23c 4fcf 8a3d ae8a 283e 60ef 03bd
000002b0: 34c8 32bd 0f33 de3d 9b51 a03d 34d9 643d
000002c0: 359b a3bd 23ae 373d 37c0 f23c 8af1 6cbd
000002d0: 04e8 babd b060 9fbd e854 16bd 79fb 813e
000002e0: d4b6 3c3d 55bd 0dbd c756 0b3c a8ac 1f3e
000002f0: fb99 65bd 5e61 00bd b252 d03b 0a4f ae3b
00000300: 141d 5c3c e102 febc 7e8d 0b3d 8052 68bd
00000310: 6f7a a63d ef31 2abd e63d d1bd cb2e d43d
00000320: 7300 89bc 5e21 c1bd 3726 2fbc 5bff e13d
00000330: cd23 66be dac1 06bd 6710 27be 5ea9 7c3d
00000340: 7b3f 203d adb4 343c e193 f3bc d15e 0f3c
00000350: 1f5c 053d 9870 163d a4be 813d 8b45 b53c
00000360: b33b 05be b668 573d 9826 8b3c a8ef 903d
00000370: a62d 31bd 044b 3cbd 65a0 a73e b597 a7bd
00000380: 1fd9 c33d 7cff 9dbd 6527 783e 6f70 1c3d
00000390: 2dd6 aabd 6bda fe3d e171 d03b 4582 973d
000003a0: 658c a5bc a9c1 60be 3b57 cf3c f056 32be
000003b0: 17d9 ec39 4f01 213e cafe ceba 8099 a3bd
000003c0: eb49 523e aec4 ebbd 520c 193d a72e 1a3d
000003d0: 3264 a93d 5de4 95bc 712e 973c 1294 05bd
000003e0: 788a 50bb cb14 07bd 376c 9e3c ca39 6ebd
000003f0: 8aa0 adbc 7a79 323d 398d 003e 5100 353d

net.2.bias f4 [128]
0.07191121 -0.05421487 0.23943472 -0.05810754 0.015929144 0.07695209 0.013125207 0.045576982
-0.04356875 0.057920508 -0.04418138 0.0028037175 0.15169741 0.039417304 -0.05737393 0.011914789
-0.015808081 -0.031657193 -0.09042375 -0.018180067 0.071687885 -9.185566e-05 -0.18540503 0.028899608
0.18540218 -0.029228592 -0.033304855 0.10241479 -0.00010564135 -0.05635404 0.024744347 0.026156038
0.06417498 -0.19180033 0.035780333 0.0061355685 -0.01003903 -0.07808491 -0.06857496 -0.016886368
-0.18540668 0.08102444 -0.1977754 -0.020990605 0.01102388 -0.047153514 -0.03744874 0.03535599
-0.05172582 -0.18925735 -0.07726885 0.05560094 0.18537907 -0.06424789 -0.07921175 -0.13315894
-0.18541808 -0.0536324 0.00473629 0.04288094 0.12789181 -0.0016993216 -0.12047848 -0.041282754
0.06942153 -0.12880291 0.017310146 -0.066713266 -0.06188796 0.008272356 -0.06046788 0.0013811394
0.108351305 0.18274091 0.10331679 -0.009560208 -0.11071917 0.088555515 -0.13678096 -0.21635672
0.008045842 0.029594189 -0.037626475 0.00016021513 0.060153827 -0.18542965 -0.0012039654 0.03694286
0.18541782 -0.015392148 0.06283315 -0.04947461 -0.0028003561 -0.055153273 0.087181516 0.024966504
-0.09201005 -0.08682674 -0.010894832 -0.00017675436 0.017181506 -0.027606646 -0.23129009 -0.03153187
-0.07573982 0.08698351 0.17753674 0.033699866 -0.12818263 0.025843007 0.07425851 0.0470301
-0.010483388 -0.022587748 0.0980907 -0.09762372 0.023643779 0.07780569 0.050026823 0.20822258
0.0069935163 0.06112505 0.0017371646 -0.0005495065 0.015815238 -0.017983591 -0.15577938 -0.0019462127
00000000: 2f46 933d 6910 5ebd 602e 753e 2c02 6ebd
00000010: d67d 823c 0f99 9d3d 1c0b 573c eeae 3a3d
00000020: 2575 32bd 0e3e 6d3d 89f7 34bd 93be 373b
00000030: 9156 1b3e 0a74 213d ed00 6bbd 3f36 433c
00000040: f37f 81bc f9aa 01bd 1630 b9bd 5dee 94bc
00000050: 19d1 923d a2a2 c0b8 d1da 3dbe dfbe ec3c
00000060: 12da 3d3e cd70 efbc ac6a 08bd d8be d13d
00000070: c58b ddb8 7ed3 66bd a8b4 ca3c 3045 d63c
00000080: 2c6e 833d 4e67 44be 668e 123d e10c c93b
00000090: be7a 24bc fbea 9fbd 0771 8cbd 4855 8abc
000000a0: 40db 3dbe 24f0 a53d a285 4abe 7df4 abbc
000000b0: 819d 343c 0b24 41bd da63 19bd 71d1 103d
000000c0: 74de 53bd aecc 41be 213f 9ebd d0bd 633d
000000d0: 03d4 3d3e 6694 83bd c539 a2bd d15a 08be
000000e0: 3dde 3dbe a6ad 5bbd e132 9b3b eda3 2f3d
000000f0: 12f6 023e c5bb deba 6cbd f6bd 1b18 29bd
00000100: e02c 8e3d e9e4 03be 02ce 8d3c f7a0 88bd
00000110: 3b7e 7dbd c788 073c 2bad 77bd 5907 b53a
00000120: 4ae7 dd3d 6f20 3b3e c197 d33d 6ba2 1cbc
00000130: bbc0 e2bd 985c b53d 4f10 0cbe 9e8c 5dbe
00000140: b5d2 033c 836f f23c 381e 1abd 6cff 2739
00000150: dc63 763d 45e1 3dbe 60ce 9dba 6551 173d
00000160: 2bde 3d3e 592f 7cbc abae 803d e3a5 4abd
00000170: 2e86 37bb 66e8 61bd 398c b23d 8e86 cc3c
00000180: c46f bcbd 38d2 b1bd 3d80 32bc 2357 39b9
00000190: 3bc0 8c3c 5527 e2bc 4fd7 6cbe 9027 01bd
000001a0: 7b1d 9bbd 6924 b23d 31cc 353e df08 0a3d
000001b0: 4f42 03be b7b4 d33c d814 983d a2a2 403d
000001c0: 84c2 2bbc f109 b9bc c7e3 c83d f2ee c7bd
000001d0: 99b0 c13c 9758 9f3d ede8 4c3d 4d38 553e
000001e0: de29 e53b 435e 7a3d 92b1 e33a c20c 10ba
000001f0: f58e 813c 5352 93bc a184 1fbe 1018 ffba

net.4.weight f4 [128, 128]
-0.05358853 -0.028500041 -0.014837509 0.024056483 -0.0040338608 -0.04455201 -0.05688458 0.024222424
-0.060390763 -0.015025238 0.042648714 -0.020286245 -0.11422164 0.03401709 0.06804035 -0.00647329
0.025589397 0.07913904 -0.033374734 0.0061710468 0.0157499 0.00027157392 0.030727843 -0.018127805
-0.030727146 0.084384285 0.09836841 -0.00061487244 0.0002382024 -0.020645883 -0.0028990433 0.0093307495
-0.021629471 0.022961289 -0.024965677 0.03231428 -0.049599398 -0.07853096 -0.03311092 -0.02627409
0.030728 0.036664944 0.0074603884 0.01946923 -0.009577987 -0.0007483635 0.04906993 -0.049154345
0.038382508 -0.01024772 -0.0033294002 0.043381862 -0.030725291 -0.10279333 0.033662286 0.002944017
0.03072881 0.027425347 -0.008706334 -0.08990747 -0.006196127 -0.009972562 0.015749255 0.00856184
-0.025174756 0.05537451 -0.06419377 -0.0010326325 -0.029392563 -0.0060288557 -0.050448332 -0.009845358
-0.03325722 -0.042863507 -0.02835154 -0.03596308 0.0014387537 -0.0031758733 0.11914782 0.024819303
0.05592808 0.07272327 -0.013644543 -0.0005816287 0.038078535 0.030729722 0.060853474 -0.029210547
-0.030728176 0.0027502354 -0.04211321 0.03500512 -0.027488772 -0.014099669 -0.035108898 -0.10131488
0.087248884 0.013933026 -0.0043283734 0.00023019694 -0.040522154 -0.048796456 0.056189638 -0.045940492
0.044454362 0.03687859 -0.013663466 0.027956402 0.028108224 -0.050830938 0.013433964 0.122571565
0.03644661 -0.0008566572 -0.070154235 -0.042134225 -0.0035566094 -0.00928655 0.020859096 -0.0039536883
0.06129032 0.088825695 -0.035463475 -0.03658814 -0.030125478 0.06622253 0.008848241 0.04056363
-0.016716907 0.04261327 0.05354906 0.08302812 -0.1878809 -0.05238806 -0.035153825 0.031502567
0.022573216 -0.015369514 0.069981165 0.024580847 0.02303137 0.043391217 0.045261595 0.023950309
-0.034180716 -0.05429229 -0.084261015 0.0074681193 -0.047991954 0.0007028081 0.011158164 -0.021418372
-0.011158082 0.016256168 0.04434107 0.028149458 0.0007759229 0.022420611 -0.19804488 0.097978614
0.022625247 -0.0014471776 -0.032518152 -0.027250562 0.08997054 0.06812542 -0.0107912915 0.06488587
0.011158178 0.097131245 -0.012353025 0.14918879 0.04320923 -0.014922546 -0.010602932 0.042982973
0.048476923 0.034512565 -0.015143171 -0.045534123 -0.011158663 0.018555842 0.07531442 0.0013109824
0.01115778 0.036808226 -0.021714766 -0.057320442 -0.034104735 -0.000116975265 0.0022411009 -0.11173546
-0.013035225 0.09018917 0.040235054 -0.042880952 0.06311364 0.15159518 -0.0041359277 0.06223006
0.03274929 0.02756659 0.002513344 0.21130985 0.11263194 0.0021519861 0.09723121 -0.0042388923
0.058083676 -0.008808952 0.1473156 -0.0001550103 -0.03261699 0.01115757 0.08841368 -0.004666593
-0.01115751 -0.038088392 0.06076987 0.09393669 -0.03390036 -0.04622659 -0.02374749 0.014793842
0.13216124 -0.0308926 -0.051605497 0.0008520919 -0.031447586 0.0915714 0.05481214 -0.017039454
0.12353051 -0.0034278266 0.034038156 0.20715 0.02871187 -0.2416779 0.0037049116 -0.05662648
0.14093602 -0.10657485 -0.08165547 -0.05556527 -0.059540298 0.0069648684 -0.029499974 0.0052164844
0.08931299 -0.04639898 0.042633258 0.025846353 0.02242479 0.008580232 0.049983174 -0.041105032
00000000: a57f 5bbd eb78 e9bc 0619 73bc 1a12 c53c
00000010: 7a2e 84bb 2b7c 36bd ceff 68bd 1b6e c63c
00000020: 4e5c 77bd 6a2c 76bc 6bb0 2e3d 572f a6bc
00000030: 09ed e9bd 8155 0b3d bd58 8b3d e41d d4bb
00000040: dba0 d13c a613 a23d f2b3 08bd 7e36 ca3b
00000050: ef05 813c 0962 8e39 f5b8 fb3c c380 94bc
00000060: 7fb7 fbbc abd1 ac3d 6075 c93d 642f 21ba
00000070: f8c5 7939 8e21 a9bc e0fd 3dbb 00e0 183c
00000080: 4a30 b1bc 5019 bc3c d284 ccbc fa5b 043d
00000090: bd28 4bbd d7d4 a0bd 519f 07bd c33c d7bc
000000a0: 49b9 fb3c fb2d 163d 4676 f43b ef7d 9f3c
000000b0: fdec 1cbc d32d 44ba 8dfd 483d 1156 49bd
000000c0: fa36 1d3d 0ee6 27bc 1132 5abb 2eb1 313d
000000d0: 9bb3 fbbc 4f85 d2bd 77e1 093d 69f0 403b
000000e0: fcba fb3c 1fab e03c 03a5 0ebc 6821 b8bd
000000f0: e108 cbbb f563 23bc 9504 813c f646 0c3c
00000100: 4a3b cebc 62d0 623d 0678 83bd 6659 87ba
00000110: acc8 f0bc b58d c5bb e9a2 4ebd 6d4e 21bc
00000120: b938 08bd a591 2fbd 7d41 e8bc 064e 13bd
00000130: 9094 bc3a 5022 50bb c603 f43d da51 cb3c
00000140: d814 653d f0ef 943d 5c8d 5fbc 7178 18ba
00000150: 3df8 1b3d e6bc fb3c 7e41 793d f54a efbc
00000160: a8b9 fbbc 4b3d 343b e77e 2cbd 8761 0f3d
00000170: 2230 e1bc 4c02 67bc 59ce 0fbd 2d7e cfbd
00000180: 8baf b23d 5947 643c 07d5 8dbb 0561 7139
00000190: 8ffa 25bd cbde 47bd 1b27 663d 192c 3cbd
000001a0: c715 363d 010e 173d bbdc 5fbc d304 e53c
000001b0: 3843 e63c 1a34 50bd 211a 5c3c cd06 fb3d
000001c0: 0a49 153d 4b91 60ba 06ad 8fbd f094 2cbd
000001d0: 0116 69bb 9d26 18bc b2e0 aa3c f18d 81bb
000001e0: 8f0b 7b3d 3fea b53d 2642 11bd 72dd 15bd
000001f0: b5c9 f6bc ae9f 873d 36f8 103c 0d26 263d
00000200: e5f1 88bc 418b 2e3d 4256 5b3d a60a aa3d
00000210: da63 40be dd94 56bd 75fd 0fbd d608 013d
00000220: 77eb b83c 6ad0 7bbc 4952 8f3d c65d c93c
00000230: 49ac bc3c fdba 313d 3964 393d 7033 c43c
00000240: 1401 0cbd 9861 5ebd 0a91 acbd 20b7 f43b
00000250: 3693 44bd a73c 383a bbd0 363c 9575 afbc
00000260: 63d0 36bc a82b 853c fb9e 353d b199 e63c
00000270: 4e67 4b3a 6eab b73c 47cc 4abe 03a9 c83d
00000280: 9558 b93c 39af bdba c131 05bd 923c dfbc
00000290: 7942 b83d 5785 8b3d f5cd 30bc e2e2 843d
000002a0: cad0 363c bfec c63d 5864 4abc f2c4 183e
000002b0: 29fc 303d b27d 74bc ecb7 2dbc ea0e 303d
000002c0: bd8f 463d 0c5d 0d3d 101b 78bc fd81 3abd
000002d0: d3d2 36bc 6c02 983c 723e 9a3d 45d5 ab3a
000002e0: 1fcf 363c 39c4 163d 2ae3 b1bc d7c8 6abd
000002f0: 68b1 0bbd 9e50 f5b8 6fdf 123b 90d5 e4bd
00000300: b291 55bc 19b5 b83d 83cd 243d f0a3 2fbd
00000310: b941 813d c43b 1b3e ad86 87bb f3e4 7e3d
00000320: 1f24 063d 54d3 e13c eab6 243b 9c61 583e
00000330: 93ab e63d 5608 0d3b 2821 c73d 68e6 8abb
00000340: 26e9 6d3d 6c53 10bc e7d9 163e 438a 22b9
00000350: 6599 05bd 3ece 363c 3b12 b53d 38ea 98bb
00000360: fdcd 36bc 9302 1cbd d4e9 783d e161 c03d
00000370: 1bdb 0abd 1858 3dbd 198a c2bc df61 723c
00000380: 4755 073e 7a12 fdbc 4960 53bd eb5e 5f3a
00000390: 2fcf 00bd c989 bb3d b282 603d 5396 8bbc
000003a0: 90fd fc3d 63a5 60bb 986b 0b3d 211f 543e
000003b0: 2835 eb3c 697a 77be 1ace 723b 2bf1 67bd
000003c0: 8851 103e ea43 dabd fc3a a7bd 6998 63bd
000003d0: 87e0 73bd 8d39 e43b eea9 f1bc 0bef aa3b
000003e0: bbe9 b63d db0c 3ebd 36a0 2e3d bbbb d33c
000003f0: 31b4 b73c 1a94 0c3c 28bb 4c3d c05d 28bd

net.4.bias f4 [128]
-0.04603179 -0.015204453 0.044977486 -0.33159652 -0.04994718 0.015877964 0.086102135 -0.08168697
-5.9901686e-06 0.08657338 -0.01883528 0.08504352 -0.069692105 -0.05118193 -4.909937e-05 0.082339
-0.0017392552 -0.08627269 -0.03729317 0.019453308 -0.07090452 0.05012547 -0.11794002 0.024357159
-0.06458815 -0.02355547 -0.0668736 0.038766664 -0.14472625 1.8606961e-05 -0.03590734 -0.07299458
0.09748169 0.025697587 0.04254428 -0.029985864 -0.11094938 0.09051889 -0.061044406 -0.111590125
-0.09163556 9.6107615e-06 0.021198334 -0.10943347 0.029496593 -0.0068070446 -0.055937923 0.06728527
-0.15701494 0.0098262 -0.07920944 2.0339856e-05 -0.028241536 -3.8132434e-06 0.06620211 0.018948756
-0.005463761 -0.03763552 -9.793374e-06 1.1177924e-05 -0.073703 0.10080008 -0.018197065 0.012001854
-0.09523808 0.111200996 -0.054456834 0.06368572 0.010511474 -1.4812832e-05 0.06896591 0.04659396
-0.071879424 0.04138884 -3.1488842e-05 0.07882702 -0.06571287 0.06534837 -0.022467284 -1.4580447e-05
0.008075148 0.06706778 0.13320248 0.10122819 0.07857286 -0.0066414126 0.01785595 -0.068955325
0.01899391 -0.024229553 -0.030776696 -9.089965e-06 4.4959966e-06 0.038917355 -0.006213514 0.07533142
-0.15834959 0.011547397 -0.029244263 0.00073551864 -0.035153374 -0.06239519 -0.045284737 -0.0450237
-0.09832503 0.011421748 0.12829971 -2.721163e-06 2.6665957e-06 -0.021600498 -1.5161144e-05 -0.0023374115
-3.4882836e-05 0.043057013 0.023247082 0.048083354 -2.5790201e-05 -0.0006376046 1.28894135e-05 -0.007322856
-2.6761476e-05 -0.10900932 -0.019004172 0.008785742 -0.021919748 -0.012560239 9.699855e-06 0.08184812
00000000: d58b 3cbd 191c 79bc 503a 383d 05c7 a9be
00000010: 6a95 4cbd 8112 823c 5156 b03d 804b a7bd
00000020: 28ff c8b6 624d b13d 724c 9abc 4c2b ae3d
00000030: bcba 8ebd 25a4 51bd 0cf0 4db8 5aa1 a83d
00000040: b8f7 e3ba bcaf b0bd b9c0 18bd 8b5c 9f3c
00000050: 6436 91bd 5d50 4d3d 8a8a f1bd aa88 c73c
00000060: cb46 84bd 67f7 c0bc 07f5 88bd cbc9 1e3d
00000070: 1e33 14be 2516 9c37 9313 13bd 2f7e 95bd
00000080: 7ba4 c73d bf83 d23c e942 2e3d eaa4 f5bc
00000090: 6e39 e3bd f861 b93d b309 7abd 5d89 e4bd
000000a0: 6dab bbbd e83d 2137 21a8 ad3c a81e e0bd
000000b0: d7a2 f13c a10d dfbb 2a1f 65bd dccc 893d
000000c0: 86c8 20be 12fe 203c 8f38 a2bd 829f aa37
000000d0: cb5a e7bc 06e7 7fb6 f994 873d 6c3a 9b3c
000000e0: 5909 b3bb b427 1abd 394e 24b7 d188 3b37
000000f0: 99f1 96bd 4670 ce3d 0312 95bc 6da3 443c
00000100: 2f0c c3bd 59bd e33d 210e 5fbd a96d 823d
00000110: 5138 2c3c a184 78b7 003e 8d3d 4fd9 3e3d
00000120: 8535 93bd 5887 293d e312 04b8 1070 a13d
00000130: 7894 86bd 5ed5 853d 4f0d b8bc 8b9e 74b7
00000140: a04d 043c d55a 893d 3b66 083e ba50 cf3d
00000150: cfea a03d 35a0 d9bb a446 923c 7338 8dbd
00000160: 1e99 9b3c 0e7d c6bc 691f fcbc 1a81 18b7
00000170: 51dc 9636 ce67 1f3d bc9a cbbb 5c47 9a3d
00000180: 6526 22be 4b31 3d3c aa91 efbc d2cf 403a
00000190: fcfc 0fbd 1992 7fbd 7d7c 39bd c56a 38bd
000001a0: a25e c9bd 4922 3b3c 0061 033e 399d 36b6
000001b0: c4f3 3236 87f3 b0bc 9e5c 7eb7 422f 19bb
000001c0: 294f 12b8 8d5c 303d aa70 be3c 0df3 443d
000001d0: 0958 d8b7 ec24 27ba 9c3f 5837 92f4 efbb
000001e0: d57d e0b7 4740 dfbd a3ae 9bbc 13f2 0f3c
000001f0: 0b91 b3bc 76c9 4dbc 8fbc 2237 fd9f a73d

net.6.weight f4 [6, 128]
0.036965564 0.038092602 -0.44718045 -0.37349543 0.015637632 0.32443893 -0.215417 -0.09309137
-2.2491802e-06 0.11947672 0.03781295 0.0240769 0.28001407 -0.20830801 -1.2633213e-05 -0.4706103
-0.031645473 0.11317459 -0.09423384 0.25267577 -0.016700102 -0.08518336 -0.2489485 -0.10360676
0.029731957 0.15164478 -0.050623234 0.19575007 -0.010242654 -7.3375704e-05 0.0011568115 -0.17626601
-0.039321322 0.11896019 0.064387105 0.2802638 -0.14421354 0.3280418 -0.12501056 -0.15376477
-0.023730535 -1.561185e-05 -0.10171187 -0.0017459833 0.10197186 0.1174305 -0.14499074 0.20529838
0.23831108 0.020861752 0.20581141 -4.7858586e-05 -0.29307482 -2.459758e-06 -0.4093436 -0.026980951
0.29300252 -0.12721214 -1.9802676e-06 2.0449154e-06 -0.08602076 0.0002748261 0.2142535 -0.10345842
-0.21687263 0.10552686 -0.0069166166 -0.060304873 -0.04597716 4.98353e-05 0.3871272 -0.022998713
-0.17905916 0.34419468 5.5687757e-05 -0.0016014074 0.067774214 -0.09869806 0.120526016 -2.788589e-06
0.17498636 0.1725319 -0.3460263 -0.20278826 -0.2916401 0.3678752 -0.27966124 0.07199568
0.088258296 0.021493465 -0.16239512 -1.6396845e-05 2.66706e-06 0.1253643 -0.14306714 0.28270763
-0.034003142 -0.42349786 0.53924704 -0.4014399 0.14123705 0.06536802 -0.32966658 0.09866454
-0.16560808 -0.27333552 0.22444162 -1.7072061e-05 -3.7452078e-06 -0.295551 7.188916e-05 0.12481258
1.9393101e-05 -0.116538405 0.08385084 -0.19733302 6.63145e-05 0.018336633 1.9669865e-06 0.17993064
8.3168115e-06 -0.19454522 0.13857171 -0.10297989 -0.05005133 0.079189576 -5.2954303e-05 -0.17862755
-0.013252919 0.05719153 -0.49887088 -1.2768708 -0.46828553 -0.08178128 0.0816271 0.0709278
-7.2513797e-07 0.48549032 0.40378523 0.28908336 -0.19164169 -0.002409977 8.832322e-06 -0.08941244
-0.3342989 -0.30662784 -0.68991596 -0.3711019 -0.034474272 -0.2877275 -0.3894741 0.018842317
0.0066019506 -0.23340401 -0.36124596 0.016811121 -0.28602645 -3.6281983e-06 -0.0052670697 -0.7499957
0.31419605 0.6277118 -0.16928233 -0.27764502 -0.2253854 0.36260664 -0.19962269 -0.11582422
-0.027646922 -1.5305089e-06 -0.50865674 -0.5487449 0.07887312 0.07440618 -0.4126356 0.019263161
1.1502217 0.036226586 0.03410274 -4.4442077e-05 -0.006698954 -1.0545087e-06 0.38908958 0.014960099
0.042325735 -0.0045053973 1.380419e-07 -7.08666e-07 -0.35951126 0.1056262 -0.24011879 -0.43028742
-0.1863232 0.026227938 -0.36410794 -0.73760164 0.32464987 4.9072154e-05 0.7147807 0.09023367
-0.039581574 -0.081327245 1.5362633e-05 0.43923894 -0.21421784 0.22767259 -0.16682965 1.054658e-06
0.098700754 -0.047569565 0.10080361 -0.4320771 -0.04327272 0.05633917 -0.35814035 -0.35191327
0.21836853 -0.3863081 -0.7064829 1.907518e-05 4.893949e-07 0.42608473 -0.018656595 0.0772503
-0.44800115 0.022639686 0.60727197 -0.02728154 -0.21383646 -0.108916886 0.0140298065 -0.12769288
-0.05995359 0.009081813 0.4420705 -1.6644254e-06 -1.5196116e-06 -0.07525528 9.3918646e-07 0.8146769
-1.31864845e-05 -0.018033966 0.53298765 -0.0048508625 3.401749e-05 0.23055366 -5.426153e-07 -0.21683532
3.8236817e-06 -0.087477975 0.011845199 -0.64639574 -0.0006854214 0.001246532 -1.6451756e-06 -0.037827354
00000000: 3469 173d fd06 1c3d d6f4 e4be cb3a bfbe
00000010: 7e1a 803c dc1c a63e 4696 5cbe b0a6 bebd
00000020: 9ff0 16b6 36b0 f43d c0e1 1a3d eb3c c53c
00000030: 015e 8f3e b24e 55be 3df3 53b7 d5f3 f0be
00000040: af9e 01bd 14c8 e73d acfd c0bd b85e 813e
00000050: a7ce 88bc 9d74 aebd 5bec 7ebe c82f d4bd
00000060: 6f90 f33c c548 1b3e 4f5a 4fbd b572 483e
00000070: ced0 27bc 48e1 99b8 27a0 973a 147f 34be
00000080: 650f 21bd 66a1 f33d 63dd 833d bd7e 8f3e
00000090: b7ac 13be 18f5 a73e c502 00be 8374 1dbe
000000a0: 8a66 c2bc 31f6 82b7 504e d0bd 7ad9 e4ba
000000b0: 9fd6 d03d 677f f03d 7478 14be bd39 523e
000000c0: d207 743e 44e6 aa3c 3ac0 523e c4bb 48b8
000000d0: e70d 96be 5212 25b6 7c95 d1be 2807 ddbc
000000e0: 6d04 963e e643 02be bde4 04b6 613b 0936
000000f0: a72b b0bd 8916 9039 4565 5b3e 02e2 d3bd
00000100: dc13 5ebe 771e d83d c9a4 e2bb 3e02 77bd
00000110: 8c52 3cbd 3f06 5138 8935 c63e cc67 bcbc
00000120: 495b 37be 493a b03e 4692 6938 51e6 d1ba
00000130: 35cd 8a3d 3522 cabd 58d6 f63d 9823 3bb6
00000140: a02f 333e 34ac 303e 5c2a b1be baa7 4fbe
00000150: da51 95be 235a bc3e c22f 8fbe 7972 933d
00000160: c4c0 b43d 1013 b03c e84a 26be f58b 89b7
00000170: befb 3236 805f 003e 3180 12be 0ebf 903e
00000180: e146 0bbd b6d4 d8be 180c 0a3f 8889 cdbe
00000190: 72a0 103e abdf 853d 0fca a8be a210 ca3d
000001a0: 2a95 29be a2f2 8bbe 06d4 653e f935 8fb7
000001b0: 2e56 7bb6 7652 97be 33c3 9638 bd9d ff3d
000001c0: 5eae a237 b0ab eebd fdb9 ab3d ab11 4abe
000001d0: 5312 8b38 b536 963c 9200 0436 bd3f 383e
000001e0: 6f88 0b37 dd36 47be bee5 0d3e 1fe7 d2bd
000001f0: a002 4dbd 252e a23d 401b 5eb8 24ea 36be
00000200: c522 59bc aa41 6a3d 016c ffbe 8170 a3bf
00000210: 1fc3 efbe f27c a7bd 1c2c a73d 9842 913d
00000220: 1aa7 42b5 3092 f83e f0bc ce3e bc02 943e
00000230: b83d 44be b4f0 1dbb 892e 1437 df1d b7bd
00000240: 3a29 abbe 53fe 9cbe 559e 30bf 1101 bebe
00000250: e534 0dbd 0551 93be 2669 c7be 345b 9a3c
00000260: 2d55 d83b 7601 6fbe 3bf5 b8be 7ab7 893c
00000270: 0f72 92be f97b 73b6 6297 acbb b8ff 3fbf
00000280: 4ede a03e b8b1 203f 5958 2dbe 7d27 8ebe
00000290: 6ecb 66be 94a7 b93e e469 4cbe 4035 edbd
000002a0: cc7b e2bc e36b cdb5 5437 02bf 8c7a 0cbf
000002b0: 3b88 a13d 4462 983d f944 d3be c7cd 9d3c
000002c0: 773a 933f 5462 143d 51af 0b3d 5167 3ab8
000002d0: e682 dbbb a588 8db5 c036 c73e 341b 753c
000002e0: c05d 2d3d 03a2 93bb ab38 1434 283b 3eb5
000002f0: dc11 b8be 8d52 d83d b3e1 75be a24e dcbe
00000300: 82cb 3ebe f9db d63c 5b6c babe 76d3 3cbf
00000310: 8238 a63e d3d2 4d38 defb 363f 6ecc b83d
00000320: 4a20 22bd e68e a6bd 01df 8037 ede3 e03e
00000330: ec5b 5bbe 0123 693e 64d5 2abe c68d 8d35
00000340: 9f23 ca3d 4ed8 42bd 2072 ce3d 3639 ddbe
00000350: bc3e 31bd e7c3 663d 2c5e b7be fa2d b4be
00000360: 009c 5f3e 2dca c5be 10dc 34bf a303 a037
00000370: f65e 0335 c727 da3e b7d5 98bc 6835 9e3d
00000380: 6860 e5be dd76 b93c 2d76 1b3f 897d dfbc
00000390: f2f7 5abe d10f dfbd 46dd 653c ecc1 02be
000003a0: e591 75bd e2cb 143c 1157 e23e 3965 dfb5
000003b0: 75f5 cbb5 711f 9abd 671c 7c35 aa8e 503f
000003c0: 853b 5db7 f8bb 93bc e171 083f fcf3 9ebb
000003d0: 00ae 0e38 4216 6c3e 3da8 11b5 140a 5ebe
000003e0: 2d4d 8036 a727 b3bd 5e12 423c 317a 25bf
000003f0: daad 33ba ac62 a33a cecf dcb5 dbf0 1abd

net.6.bias f4 [6]
-6.22891e-40 0.30303442 -5.7109e-41 0.3346979 0.17516361 0.17516361
00000000: 5ec8 0680 5427 9b3e 329f 0080 865d ab3e
00000010: 175e 333e 175e 333e
