training/nn-large.pth (torch, 148761 bytes, 8 tensors)

net.0.weight f4 [128, 20]
-0.69629264 -0.1206498 0.56100386 0.3373898 0.045223176 0.17983681 0.068072304 0.0845324
0.13348825 -0.06029243 -0.32542336 -0.18562053 0.019073047 0.049274575 0.03826066 -0.019152436
-0.027556788 -0.08046141 0.47401568 -0.0034437256 -0.772024 0.4490583 -0.08017831 0.1647045
0.19311234 0.0076449006 -0.11578181 -0.23084468 -0.4005279 -0.21100757 0.029240316 0.08191791
0.04657081 -0.10521768 -0.13763398 -0.23855576 -0.16137215 0.07048729 0.03471543 0.0060453033
-0.1472682 0.013892728 -0.8379288 0.044327635 0.067553565 0.17852804 0.18544978 -0.13315053
-0.20461555 0.0738919 -0.21682796 0.10365636 -0.15759261 -0.16652685 -0.059000272 0.043785725
0.09808309 -0.021908944 -0.09893183 0.07130974 -0.28998274 0.7014313 0.2876714 0.38094375
0.18002442 -0.029051797 -0.11571352 -0.02958575 0.15738842 0.18125232 -0.046949256 -0.16203755
-0.10487473 0.111276165 0.2401045 0.05819065 0.085471384 0.09094822 0.21955721 -0.0628926
-0.15170226 0.030825168 -1.4105239 -0.03406798 0.2943952 0.4160658 0.16790177 0.09848694
0.116401166 -0.106305026 0.11048476 -0.018849874 -0.2589251 -0.08434965 0.06503167 0.0060017304
-0.03358002 0.170339 -0.108709864 0.09240085 0.5570508 -0.35748717 0.33481127 0.9497004
-0.46854594 -0.4775751 -0.18912578 -0.073997915 0.035365146 0.034095503 -0.050221197 -0.039764687
0.028401008 0.118388824 0.12174344 -0.07058189 -0.09215185 -0.039010976 0.4636966 0.004873272
-0.032324497 0.06995242 -1.1257886 0.3905012 0.06602765 0.07584531 0.010194814 -0.11387393
-0.026965458 -0.044699017 0.89195216 0.008969285 -0.084117174 -0.041257482 0.039380353 0.011551412
0.08679286 -0.12939507 0.28312066 0.021800477 -0.37963966 0.2713905 0.30255046 0.52160317
0.10113763 0.28221583 0.27717423 0.10721738 -0.052044388 -0.049898032 -0.24714419 0.0016965175
0.11864727 0.077981375 0.09774676 0.0403532 0.07815401 0.011300779 0.21470547 0.017762514
0.035181373 -0.38094056 0.21049628 -0.25772506 0.0199452 0.089908734 0.054202348 -0.042754356
-0.050007615 -0.027577968 0.18758386 0.20381403 0.16632208 0.17183557 0.031304363 -0.23000647
-0.19307043 -0.03977354 0.089325964 -0.08106391 -0.3266982 0.25670353 -0.019450484 -0.024812317
-0.087358065 -0.03948393 0.0311649 0.039439905 0.0460022 0.45224813 -0.10004119 -0.05728909
0.1356432 0.11360321 0.014902924 -0.0056762486 -0.00669735 -0.29196185 -0.047724888 0.28957307
-0.95992225 0.26173866 -0.22792517 -0.14969388 0.025238805 0.091943696 0.24332547 0.1689873
-0.06394296 -0.1198781 0.33609548 0.24734162 -0.024554303 0.0075884415 -0.16756077 -0.1632773
-0.11386376 -0.11005616 0.13302101 0.005699274 -0.24924843 -0.004882688 -0.50003654 -0.047598116
0.16318925 0.13023305 -0.029653082 -0.12315013 0.030590987 -0.0042253006 -0.39979395 0.23562993
0.39352348 -0.1493307 -0.4382254 -0.26976055 0.07502777 0.024794737 -0.19801387 -0.015373483
-0.29316357 -0.33465794 -0.38529834 -0.20573412 -0.20032908 0.0546607 0.012135499 -0.13628843
-0.08888268 -0.057790853 -0.14840262 -0.3198011 -0.058536567 -0.21827766 -0.045774367 0.15589948
00000000: 3c40 32bf 3e17 f7bd f39d 0f3f 5bbe ac3e
00000010: f03b 393d 2427 383e 7e69 8b3d 531f ad3d
00000020: 25b1 083e 32f5 76bd e49d a6be 4f13 3ebe
00000030: 143f 9c3c 23d4 493d 36b7 1c3d 92e5 9cbc
00000040: c6be e1bc f4c8 a4bd 2fb2 f23e 21b0 61bb
00000050: 5da3 45bf f8ea e53e 8734 a4bd 4ca8 283e
00000060: 3ebf 453e 1382 fa3b 031f edbd 8c62 6cbe
00000070: fe11 cdbe 5e12 58be 6389 ef3c 94c4 a73d
00000080: 09c1 3e3d 5e7c d7bd ecef 0cbe f647 74be
00000090: be3e 25be a45b 903d c431 0e3d ae17 c63b
000000a0: 7acd 16be 539e 633c 8082 56bf e590 353d
000000b0: 8659 8a3d 0ed0 363e 8ce6 3d3e 9d58 08be
000000c0: bd86 51be a354 973d 2608 5ebe c949 d43d
000000d0: f55f 21be 0486 2abe 45aa 71bd a958 333d
000000e0: c9df c83d 637a b3bc c59c cabd d70a 923d
000000f0: 9e78 94be 0091 333f aa49 933e 0f0b c33e
00000100: 5258 383e 09fe edbc 36fb ecbd d15d f2bc
00000110: 6e2a 213e 359a 393e dd4d 40bd 2ced 25be
00000120: 90c8 d6bd c2e4 e33d f4dd 753e 5259 6e3d
00000130: 9f0b af3d 0f43 ba3d 9bd3 603e d6cd 80bd
00000140: d657 1bbe 1085 fc3c 0c8c b4bf de8a 0bbd
00000150: f8ba 963e 9406 d53e 71ee 2b3e 85b3 c93d
00000160: bc63 ee3d 73b6 d9bd d545 e23d 0d6b 9abc
00000170: d591 84be 82bf acbd 532f 853d 2aaa c43b
00000180: 348b 09bd 596d 2e3e 47a3 debd a83c bd3d
00000190: e29a 0e3f 8f08 b7be 626c ab3e 911f 733f
000001a0: 41e5 efbe b984 f4be 30aa 41be 388c 97bd
000001b0: 0bdb 103d baa7 0b3d beb4 4dbd 4ce0 22bd
000001c0: 3ba9 e83c d775 f23d a054 f93d 3d8d 90bd
000001d0: 1cba bcbd f9c9 1fbd a469 ed3e f8af 9f3b
000001e0: b166 04bd 3743 8f3d d719 90bf c6ef c73e
000001f0: 8139 873d c954 9b3d 2608 273c bc36 e9bd
00000200: aae6 dcbc 5116 37bd fa56 643f e8f3 123c
00000210: a045 acbd 9bfd 28bd 4b4d 213d 2242 3d3c
00000220: 74c0 b13d 2480 04be 31f5 903e ea96 b23c
00000230: 2160 c2be b2f3 8a3e e5e7 9a3e c987 053f
00000240: 3f21 cf3d 987e 903e c8e9 8d3e c994 db3d
00000250: 7f2c 55bd e161 4cbd 5e13 7dbe ae5d de3a
00000260: 57fd f23d b3b4 9f3d 742f c83d 6649 253d
00000270: 360f a03d e726 393c c0db 5b3e b182 913c
00000280: 581a 103d a40a c3be 568c 573e 8af4 83be
00000290: 1e64 a33c 1222 b83d 4803 5e3d 311f 2fbd
000002a0: c9d4 4cbd 31eb e1bc fc15 403e a0b4 503e
000002b0: 5650 2a3e aaf5 2f3e 0139 003d d186 6bbe
000002c0: 41b4 45be 94e9 22bd 88f0 b63d d604 a6bd
000002d0: fd44 a7be a56e 833e 9f56 9fbc 3343 cbbc
000002e0: c9e8 b2bd e7b9 21bd 884d ff3c bd8b 213d
000002f0: ce6c 3c3d 118d e73e 65e2 ccbd f7a7 6abd
00000300: 0de6 0a3e cda8 e83d 652b 743c d3ff b9bb
00000310: 7275 dbbb 067c 95be 2c7b 43bd ec42 943e
00000320: 77bd 75bf 9c02 863e 3765 69be 5a49 19be
00000330: 9cc1 ce3c fa4c bc3d 502a 793e 020b 2d3e
00000340: 87f4 82bd a682 f5bd b514 ac3e 1f47 7d3e
00000350: 1b26 c9bc 76a8 f83b 0d95 2bbe 2a32 27be
00000360: 6731 e9bd 2065 e1bd a936 083e fac0 ba3b
00000370: fb3a 7fbe f5fe 9fbb 6502 00bf 3ef6 42bd
00000380: 151b 273e d05b 053e 05eb f2bc 2336 fcbd
00000390: f399 fa3c 6474 8abb cbb1 ccbe f948 713e
000003a0: e97b c93e 26ea 18be 145f e0be 0e1e 8abe
000003b0: 29a8 993d 551e cb3c 26c4 4abe 10e1 7bbc
000003c0: 8919 96be 4958 abbe d345 c5be f7ab 52be
000003d0: 1123 4dbe e6e3 5f3d f9d3 463c 328f 0bbe
000003e0: 1f08 b6bd 1ab6 6cbd dbf6 17be f8bc a3be
000003f0: 0ac4 6fbd 2e84 5fbe e77d 3bbd 1da4 1f3e

net.0.bias f4 [128]
0.103714116 0.00036630206 0.11531888 0.10693385 -0.26444376 0.62481296 -0.70607054 0.27302614
0.42387027 -0.436794 0.03721556 0.4918755 0.3269527 -0.64682513 -0.1038988 0.031244528
-0.15422425 1.1628517 -0.53802526 0.66079116 0.7578845 -0.31004378 -0.09712817 -0.052561108
-0.26082578 -0.3237779 -0.2301758 0.06140767 0.20790565 0.11109268 0.2867385 -0.25359657
0.6683946 0.1711352 -0.29917774 0.09896837 0.4165315 -0.27048135 0.51191586 -0.352339
0.5595696 0.4556798 0.57254356 -0.0068040714 0.5915564 0.40089372 0.40297174 -0.19823633
-0.78798306 -0.073443376 -0.55659837 -0.41066688 0.4129023 -0.39856878 -0.3540828 0.28794146
0.030122539 0.45530617 -0.39560574 -0.62549615 -0.12524109 0.37563926 0.3728414 0.7494094
-0.15124989 -0.5603396 -0.50173 -0.3936733 -0.4811333 0.10816866 0.0038978474 0.25909728
0.42136395 0.100463286 0.20211723 0.50610954 -0.43729228 -0.39300483 0.1827176 0.6091347
-0.55916554 -0.16146679 -0.2969083 -0.3798394 -0.08889391 0.2239314 -0.03677642 -0.048705526
0.42445898 0.19007342 -0.25918356 -0.5884885 -0.018994333 0.5915388 0.35864326 0.25363266
0.4053674 0.57403016 -0.04067414 0.8568143 -0.77925164 -0.1905954 0.36441767 -0.09094576
0.0075511434 -0.43826762 -0.5458634 -0.41144675 0.35612327 -0.27321252 0.99598724 -0.46340355
0.23740487 0.2641698 0.2662914 -0.33717325 -0.2782215 0.70846826 -0.101180784 0.2945018
0.5445586 -0.2876041 0.5580364 0.5131458 0.63048154 0.1487004 -0.1625943 0.17409861
00000000: 1168 d43d 3b0c c039 4e2c ec3d 2200 db3d
00000010: 2c65 87be bef3 1f3f 0ac1 34bf 15ca 8b3e
00000020: 8605 d93e 77a3 dfbe 586f 183d 1bd7 fb3e
00000030: 5866 a73e 5596 25bf e5c8 d4bd 86f4 ff3c
00000040: f6ec 1dbe 53d8 943f 06bc 09bf 9c29 293f
00000050: b804 423f 0fbe 9ebe 22eb c6bd 514a 57bd
00000060: f58a 85be 38c6 a5be 34b3 6bbe 9c86 7b3d
00000070: 38e5 543e 8f84 e33d 64cf 923e 69d7 81be
00000080: e91b 2b3f 113e 2f3e d32d 99be eeaf ca3d
00000090: 9e43 d53e 887c 8abe eb0c 033f c765 b4be
000000a0: f43f 0f3f dd4e e93e 3792 123f b0f4 debb
000000b0: 3d70 173f f141 cd3e 5052 ce3e 77fe 4abe
000000c0: 42b9 49bf 7b69 96bd 3b7d 0ebf ee42 d2be
000000d0: ee67 d33e 3511 ccbe 574a b5be 106d 933e
000000e0: 8bc3 f63c e41d e93e d68c cabe 8420 20bf
000000f0: 333f 00be ca53 c03e 11e5 be3e 4bd9 3f3f
00000100: 40e1 1abe 6b72 0fbf 6171 00bf 8c8f c9be
00000110: 1b57 f6be 8887 dd3d 0773 7f3b 66a8 843e
00000120: 04bd d73e b2bf cd3d d2f7 4e3e 6590 013f
00000130: c6e4 dfbe ee37 c9be 531a 3b3e 40f0 1b3f
00000140: 7925 0fbf 8d57 25be 5d04 98be 4f7a c2be
00000150: 030e b6bd 464e 653e dfa2 16bd 727f 47bd
00000160: b052 d93e 9ba2 423e b5b3 84be 2fa7 16bf
00000170: 019a 9bbc 166f 173f 17a0 b73e 24dc 813e
00000180: 518c cf3e a4f3 123f ed99 26bd 2f58 5b3f
00000190: 097d 47bf 712b 43be f494 ba3e c541 babd
000001a0: 956f f73b 9d64 e0be b4bd 0bbf 26a9 d2be
000001b0: ca55 b63e 83e2 8bbe 05f9 7e3f 3b43 edbe
000001c0: 431a 733e 4441 873e 5957 883e f9a1 acbe
000001d0: 0c73 8ebe 2d5e 353f df37 cfbd f1c8 963e
000001e0: 3168 0b3f d840 93be 79db 0e3f 865d 033f
000001f0: 3d67 213f eb44 183e 1f7f 26be e846 323e

net.2.weight f4 [128, 128]
0.0104356175 -0.0032017087 -0.024599895 -0.003175388 -0.011474806 -0.029562049 -0.011818911 -0.029331857
-0.021588393 0.034289964 -0.011062129 -0.03412361 0.0026949788 0.02735626 0.034980834 0.037757155
0.036495566 -0.025860595 0.028968958 -0.030073572 -0.012772796 0.028472543 -0.012577524 0.042063914
-0.030961966 0.06681626 0.0117367515 -0.033158086 0.03557137 -0.015861327 -0.040741436 0.004889757
-0.010363128 -0.03143505 0.0017518225 0.016235244 -0.11502171 -0.026734004 -0.015261821 0.022069221
-0.011120964 -0.034816828 -0.044535648 -0.00571507 -0.005839229 -0.11130975 -0.10567736 -0.019834677
0.028126124 0.014030536 -0.004274603 0.05215787 -0.11263382 0.0011554923 0.011946174 0.019749403
0.029533679 -0.03846815 0.019321805 0.020713173 0.018067388 -0.023352854 0.010091897 -0.026320357
0.04258894 0.029376233 0.03354759 0.040114876 0.017845836 -0.0016032232 0.032878436 -0.020110479
-0.02224323 0.0325359 -0.021617562 0.021376843 0.023803359 0.033435643 -0.0020193183 -0.015447132
0.030428177 -0.02862192 -0.014214754 -0.022604497 -0.011999566 0.035527147 -0.026818184 0.021810837
-0.039864384 -0.002026625 0.019082917 0.03479586 -0.02927392 -0.042885635 -0.026221108 -0.014842555
-0.108760655 -0.02627945 -0.0016175198 -0.03614124 0.02375006 0.021486104 -0.026110265 0.0256612
-0.010367486 0.025201418 0.028531814 0.11308779 -0.006719499 -0.0046181316 -0.009400863 0.03670914
-0.0024027105 0.017024493 -0.028351752 0.02411635 0.048423987 -0.01665143 0.010774369 0.017565735
0.0016574711 0.009615957 -0.06413851 -0.016344383 -0.034581743 -0.010406146 0.055234242 -0.024827885
-0.0416913 -0.022255914 0.09409292 0.034091067 -0.06563904 0.108080685 -0.3656588 0.057924706
-0.12993978 0.1126941 -0.19945577 0.15057892 -0.06598138 0.038594168 0.011476467 0.2810132
0.35326788 0.019069465 0.019029759 0.16869804 0.00011174928 -0.037778206 -0.017357573 -0.06588913
-0.028157955 -0.0026629718 0.001342399 -0.009002096 0.61132354 0.030568842 0.016160611 6.9713285e-05
0.013451034 0.045061104 0.071484156 0.005734673 -0.10692545 -0.20247927 0.001727625 0.14624314
0.09224379 -0.09628611 -0.10586159 0.0933858 0.11581349 -0.09900019 -0.11563841 -0.07874459
-0.022702292 0.060818728 0.001619079 0.059159197 -0.1085705 0.14970097 0.04276403 0.2572813
0.12278071 -0.047850292 0.06176002 -0.053753342 0.012348045 -0.13206477 -0.007870249 0.18739603
-0.20942913 0.0742872 0.028501257 0.05624355 -0.13862227 -0.027381215 0.024138864 -0.0056701163
-0.028031476 0.10371208 -0.15205951 0.4942133 -0.03508656 -0.05281606 -0.074121915 0.06449211
-0.059127517 -0.059504453 -0.341471 -0.13305408 0.04179281 0.6576092 -0.042981047 -0.022335645
-0.09474822 0.04882836 0.0014126711 0.050635148 0.015749903 -0.009837314 0.26545244 -0.028877575
-0.11289048 0.11460026 -0.030604277 0.08752905 -0.067955956 -0.13300665 -0.13371955 -0.05038777
-0.028120492 -0.076047175 -0.03773956 0.10952695 -0.007898391 0.059506595 0.08420398 0.010649427
0.0068006925 -0.14225714 0.00801195 -0.23033309 0.04147059 0.028624289 -0.037564058 0.18158099
0.16740261 0.08700267 -0.05101529 -0.015016069 0.023446245 0.10222331 -0.03223688 -0.07602069
00000000: 27fa 2a3c c2d3 51bb b885 c9bc 2c1a 50bb
00000010: d300 3cbc 1c2c f2bc 1ba4 41bc 5d49 f0bc
00000020: 24da b0bc a273 0c3d ef3d 35bc 33c5 0bbd
00000030: 3e9e 303b 3c1a e03c 1048 0f3d 3fa7 1a3d
00000040: 607c 153d 99d9 d3bc 4f50 ed3c da5c f6bc
00000050: fd44 51bc 403f e93c f611 4ebc 364b 2c3d
00000060: f3a3 fdbc f7d6 883d 814b 403c c6d0 07bd
00000070: 49b3 113d 9def 81bc 7ee0 26bd 413a a03b
00000080: 1cca 29bc 0ac2 00bd 699d e53a c6ff 843c
00000090: 8190 ebbd 4501 dbbc b80c 7abc 83ca b43c
000000a0: b434 36bc 179c 0ebd 036b 36bd 7b45 bbbb
000000b0: 0157 bfbb 5ef6 e3bd 5f6d d8bd 557c a2bc
000000c0: c268 e63c 55e0 653c f811 8cbb 7ea3 553d
000000d0: 8fac e6bd e373 973a e3b9 433c 80c9 a13c
000000e0: 9df0 f13c c790 1dbd c348 9e3c acae a93c
000000f0: 0f02 943c 7c4e bfbc 7c58 253c ca9d d7bc
00000100: be71 2e3d 6da6 f03c 3369 093d 7f4f 243d
00000110: 6e31 923c 3e23 d2ba 8aab 063d bbbe a4bc
00000120: 6f37 b6bc 5d44 053d 5017 b1bc 7d1e af3c
00000130: 43ff c23c d0f3 083d 8a56 04bb f815 7dbc
00000140: 8344 f93c 8478 eabc 00e5 68bc 112d b9bc
00000150: d499 44bc ea84 113d cfb1 dbbc a4ac b23c
00000160: d648 23bd 20d1 04bb c753 9c3c 1b86 0e3d
00000170: dccf efbc d9a8 2fbd a6cd d6bc 302e 73bc
00000180: e8bd debd 0048 d7bc f502 d4ba d608 14bd
00000190: 7c8f c23c a003 b03c 32e5 d5bc 7037 d23c
000001a0: 63dc 29bc 3473 ce3c 8dbb e93c 929a e73d
000001b0: 3e2f dcbb b253 97bb 1406 1abc 535c 163d
000001c0: cb76 1dbb f376 8b3c ef41 e8bc a78f c53c
000001d0: 3b58 463d 9468 88bc fb86 303c 04e6 8f3c
000001e0: 803f d93a 3f8c 1d3c 0d5b 83bd a8e4 85bc
000001f0: 96a5 0dbd 8a7e 2abc 4d3d 623d d963 cbbc
00000200: 7fc4 2abd 0952 b6bc cab3 c03d 13a3 0b3d
00000210: c36d 86bd 6859 dd3d a137 bbbe 7542 6d3d
00000220: ef0e 05be 2acc e63d 223e 4cbe 5c31 1a3e
00000230: 3f21 87bd eb14 1e3d cb07 3c3c f6e0 8f3e
00000240: 87df b43e 9137 9c3c 4ce4 9b3c 2ebf 2c3e
00000250: f05a ea38 52bd 1abd 7831 8ebc e1f0 86bd
00000260: 83ab e6bc 4185 2ebb 70f3 af3a 877d 13bc
00000270: b37f 1c3f 826b fa3c 4263 843c 0933 9238
00000280: ba61 5c3c fe91 383d 4966 923d ece9 bb3b
00000290: bbfb dabd ba56 4fbe 7a71 e23a c3c0 153e
000002a0: 50ea bc3d a731 c5bd f6cd d8bd 0e41 bf3d
000002b0: 9f2f ed3d 9dc0 cabd d5d3 ecbd d844 a1bd
000002c0: 28fa b9bc 0f1d 793d 4737 d43a ea50 723d
000002d0: 365a debd 364b 193e 5629 2f3d 60ba 833e
000002e0: 7474 fb3d abfe 43bd 13f8 7c3d 772c 5cbd
000002f0: 744f 4a3c fd3b 07be 38f2 00bc bfe4 3f3e
00000300: 9774 56be e323 983d 787b e93c a35f 663d
00000310: fff2 0dbe 924e e0bc debe c53c 62cc b9bb
00000320: 44a2 e5bc 0067 d43d 7db5 1bbe 8709 fd3e
00000330: edb6 0fbd a755 58bd 3bcd 97bd 7014 843d
00000340: b22f 72bd f1ba 73bd 49d5 aebe 543f 08be
00000350: f02e 2b3d 1459 283f e50c 30bd 3ef9 b6bc
00000360: 5b0b c2bd 3f00 483d 6029 b93a cd66 4f3d
00000370: f105 813c af2c 21bc 62e9 873e aa90 ecbc
00000380: 2033 e7bd 8bb3 ea3d d2b5 fabc 6e42 b33d
00000390: 7e2c 8bbd e532 08be c7ed 08be 6863 4ebd
000003a0: f25c e6bc 9fbe 9bbd cc94 1abd aa4f e03d
000003b0: 4168 01bc 30bd 733d 2373 ac3d ef7a 2e3c
000003c0: 58d8 de3b dbab 11be 8e44 033c 70dc 6bbe
000003d0: 11dd 293d 7c7d ea3c c5dc 19bd 5ef0 393e
000003e0: 976b 2b3e 752e b23d 69f5 50bd f505 76bc
000003f0: 5712 c03c 745a d13d d20a 04bd bcb0 9bbd

net.2.bias f4 [128]
-0.15766107 -0.108736366 -0.10023705 -0.078306645 0.09647017 -0.08290155 -0.1256683 0.0029088024
0.044177078 -0.15717499 -0.1084614 0.022788858 -0.13473406 0.0010942987 -0.15766144 0.22286908
0.15261424 0.023223951 -0.05288774 -0.13452002 0.06188115 0.0064116153 -0.1660885 -0.05590442
-0.269005 -0.017533327 0.15651962 -0.15719071 -0.06101129 -0.044626694 -0.041134335 -0.16872707
-0.04488815 0.019705247 0.15735362 -0.15348086 0.21887769 0.073852114 0.059559688 0.0035615359
0.034544215 -0.012570949 -0.062494837 -0.16499507 -0.039970916 -0.15888079 0.0016201814 -0.15785196
0.03696375 0.05421513 -0.032053724 -0.041153245 0.038012385 -0.022153744 -0.045440752 0.07741934
-0.0318469 -0.09620016 0.19995897 -0.088181496 0.043216158 -0.12099666 0.05754679 0.116060905
-0.022931013 0.030840747 -0.12386144 -0.036638632 0.2615026 -0.046086013 -0.06382554 0.056885075
-0.15660346 0.038631428 -0.15698351 -0.09559794 -0.118189774 0.0145685915 -0.037839644 -0.047053598
-0.028177511 -0.074833244 0.084308244 0.05502443 -0.21793254 0.04087238 0.15780549 0.03225206
-0.029944938 0.06894096 0.13316055 0.13557537 0.0601014 0.04209269 -0.06664246 0.06737985
0.020895071 0.13512042 0.015079845 0.108864866 -0.20360677 -0.14063439 0.047388807 0.0032179926
0.04441919 0.13844962 0.07062295 -0.07962766 -0.07030568 0.13977912 0.062231958 0.065440424
-0.12664817 0.015416166 -0.045971148 -0.016548896 0.03800411 0.07718402 -0.013584433 0.15715814
-0.15679407 -0.07763971 -0.052557092 0.042654246 -0.030383112 0.08567042 -0.009826201 -0.15748377
00000000: e771 21be 2cb1 debd 1549 cdbd 3c5f a0bd
00000010: 2792 c53d 4ac8 a9bd 31af 00be 9ba1 3e3b
00000020: 06f3 343d 7bf2 20be 0321 debd b3af ba3c
00000030: baf7 09be 926e 8f3a 0072 21be cb37 643e
00000040: e846 1c3e 2840 be3c d1a0 58bd 9ebf 09be
00000050: 1777 7d3d 8718 d23b 1b13 2abe 08fc 64bd
00000060: 06bb 89be 0da2 8fbc ae46 203e 9af6 20be
00000070: f9e6 79bd 7bca 36bd 7a7c 28bd cac6 2cbe
00000080: a3dc 37bd e66c a13c 4f21 213e 162a 1dbe
00000090: 7921 603e c73f 973d dcf4 733d a868 693b
000000a0: 3c7e 0d3d 62f6 4dbc 96fa 7fbd 78f4 28be
000000b0: 8bb8 23bd a5b1 22be 445c d43a f2a3 21be
000000c0: 4d67 173d af10 5e3d c44a 03bd 4e90 28bd
000000d0: e0b2 1b3d c57b b5bc 1520 3abd 088e 9e3d
000000e0: e571 02bd 9704 c5bd 0bc2 4c3e 8098 b4bd
000000f0: 6d03 313d 19cd f7bd 2fb6 6b3d 57b1 ed3d
00000100: d2d9 bbbc bca5 fc3c 11ab fdbd 6412 16bd
00000110: abe3 853e b0c4 3cbd f7b6 82bd 5300 693d
00000120: a85c 20be fd3b 1e3d 49c0 20be dac8 c3bd
00000130: 7b0d f2bd 1ab1 6e3c befd 1abd 46bb 40bd
00000140: 86d4 e6bc 2c42 99bd cda9 ac3d 4c61 613d
00000150: b529 5fbe cc69 273d c397 213e bc1a 043d
00000160: 164f f5bc eb30 8d3d 3d5b 083e 45d4 0a3e
00000170: e32c 763d 6269 2c3d d87b 88bd 72fe 893d
00000180: 242c ab3c 025d 0a3e 7411 773c 8bf4 de3d
00000190: 4b7e 50be 7602 10be c41a 423d f5e4 523b
000001a0: e6f0 353d bdc5 0d3e c4a2 903d d413 a3bd
000001b0: 6dfc 8fbd 4222 0f3e f0e6 7e3d a105 863d
000001c0: 0fb0 01be 1694 7c3c 3e4c 3cbd 8d91 87bc
000001d0: 33aa 1b3d a812 9e3d 3e91 5ebc 10ee 203e
000001e0: a08e 20be 9101 9fbd 1b46 57bd 38b6 2e3d
000001f0: 01e6 f8bc f973 af3d 13fe 20bc 6d43 21be

net.4.weight f4 [128, 128]
0.11693234 -0.5733482 0.07325121 -0.071014844 -0.054965947 0.05418718 -0.09552542 -0.050632883
-0.07591658 0.11739869 0.029887185 0.0062562553 0.0375054 0.054779537 0.1168285 -0.015967865
-0.14924306 0.054081377 -0.01694001 -0.07568061 0.05759489 0.049492095 0.04646255 -0.0494393
0.25844112 0.03171291 -0.11409572 0.11649714 -0.030401712 0.013801405 -0.09176552 -0.08853579
-0.01011847 -0.02117159 -0.11895484 0.13875821 0.06933995 0.279946 0.005230823 0.0063887993
-0.08413258 -0.0063240943 0.02427597 -0.021976106 0.03661904 -0.16128202 -0.34226635 0.1174672
0.092671774 0.0016852405 -0.059903488 0.013420547 0.06338774 0.017631609 0.01260064 0.09460314
-0.023558956 5.355375e-05 -0.17823896 0.031370506 -0.04993266 -0.19243847 -0.007913579 0.021879485
0.03473489 -0.07032454 -0.001654604 0.15134455 -0.054664943 0.06297674 -0.0324033 -0.0009916775
0.11096134 -0.064988226 0.11077029 -0.14600751 0.11270653 -0.09347129 0.035727814 0.07392116
-0.024068592 0.026895076 -0.04421609 -0.03360923 -0.08188845 -0.050409876 -0.119410835 0.3786936
0.037134543 -0.14539851 -0.045022324 0.044375803 -0.046664022 -0.05855188 0.07372001 0.11567154
0.16565496 0.008171926 0.004948193 -0.06726909 0.15059076 0.050568666 -0.015628356 -0.024668438
-0.04875824 -0.052506987 0.06705822 -0.008460645 0.09901702 -0.12584604 -0.09312309 -0.06871136
0.12512662 -0.09195569 0.05181681 0.10004601 -0.03246786 -0.049030043 0.09070601 -0.11304778
0.11032724 0.048274487 0.11238402 -0.21092989 -0.052925337 0.13273858 -0.050101854 0.11765891
-0.0434549 0.0755361 -0.03983586 0.023789385 0.014439308 -0.1760524 -0.01853277 -0.036816683
-0.0074132322 -0.043608844 -0.0091798 -0.057962786 0.028783312 -0.023439622 -0.043452673 -0.054799188
0.012855193 0.023712246 -0.02816113 -0.105633 -0.03771405 -0.027714942 0.023819046 -0.044561733
-0.09078674 0.03373618 0.043374576 -0.043176796 0.007968381 -0.03363985 0.053859007 -0.02313145
-0.0208858 0.008440386 0.043386087 0.013999247 0.02855976 -0.014079388 0.05230447 0.023080783
-0.036530368 0.011284254 0.052417066 0.018403456 -0.018240241 0.10541448 0.04076698 -0.043559816
0.0038962157 -0.1431545 -0.005445637 0.14096758 -0.059835102 -0.07723788 0.009608218 -0.015143304
0.01755859 -0.18734992 0.056740507 -0.08500479 0.063173756 -0.03718966 -0.031140238 -0.084612355
-0.0023593477 0.1128374 -0.081193164 -0.04013651 0.0606977 0.07471571 0.05472455 -0.06775258
-0.043265656 0.13988754 -0.04322166 -0.0162184 -0.1638268 -0.04335048 0.022676488 0.022941723
0.08019056 -0.023255892 -0.041041307 -0.05377629 -0.08502481 0.031209001 0.043418676 -0.048107296
0.06844659 0.022142336 0.11853885 -0.046531633 -0.025976924 0.011050423 0.031894714 -0.050066326
-0.010165092 -0.08728251 0.09295845 -0.06724569 -0.063637756 0.022355925 0.009072029 0.011121291
0.0059390236 -0.016601142 0.020086354 0.014529009 0.14164814 0.04194815 0.07892874 0.029168813
0.010642687 -0.006498646 -0.036881287 0.057365704 -0.07851601 -0.04649496 -0.03332547 0.043134265
-0.04317655 0.032698542 -0.08061475 0.020014906 0.012044986 -0.0012370008 -0.050238863 -0.043217003
00000000: 397a ef3d f3c6 12bf bb04 963d 3b70 91bd
00000010: f923 61bd 60f3 5d3d d5a2 c3bd 6d64 4fbd
00000020: 277a 9bbd b96e f03d f8d5 f43c 4601 cd3b
00000030: 439f 193d 8260 603d c843 ef3d 0acf 82bc
00000040: 2cd3 18be 6f84 5d3d c7c5 8abc 70fe 9abd
00000050: 9fe8 6b3d 39b8 4a3d 844f 3e3d dd80 4abd
00000060: 6552 843e 65e5 013d 04ab e9bd 0d96 ee3d
00000070: 030d f9bc 4a1f 623c 90ef bbbd 4152 b5bd
00000080: f0c7 25bc 0b70 adbc 989e f3bd a216 0e3e
00000090: 1b02 8e3d 1555 8f3e 5367 ab3b 2259 d13b
000000a0: b44d acbd 593a cfbb 66de c63c 3c07 b4bc
000000b0: d9fd 153d 1d27 25be 893d afbe a592 f03d
000000c0: b3ca bd3d 4ae3 dc3a 5c5d 75bd dbe1 5b3c
000000d0: 6ed1 813d 2a70 903c ea72 4e3c 4bbf c13d
000000e0: b6fe c0bc e79e 6038 4684 36be 5c7e 003d
000000f0: 3086 4cbd 970e 45be f5a7 01bc 9b3c b33c
00000100: 2c46 0e3d 5006 90bd 4cdf d8ba 11fa 1a3e
00000110: 59e8 5fbd f3f9 803d 53b9 04bd 2dfb 81ba
00000120: b33f e33d 8c18 85bd 89db e23d fe82 15be
00000130: aed2 e63d e06d bfbd 5457 123d fa63 973d
00000140: 7f2b c5bc 1053 dc3c ee1b 35bd d5a9 09bd
00000150: 22b5 a7bd 967a 4ebd ab8d f4bd 21e4 c13e
00000160: 641a 183d 59e3 14be 5469 38bd 67c3 353d
00000170: c622 3fbd 19d4 6fbd 84fa 963d 33e5 ec3d
00000180: 74a1 293e 8be3 053c 7424 a23b 60c4 89bd
00000190: 7734 1a3e 1721 4f3d 0a07 80bc 7715 cabc
000001a0: b8b6 47bd 9111 57bd d255 893d 849e 0abc
000001b0: 6fc9 ca3d c9dd 00be 52b7 bebd 8bb8 8cbd
000001c0: 3121 003e 4453 bcbd dd3d 543d ece4 cc3d
000001d0: 05fd 04bd bad3 48bd 13c4 b93d 9885 e7bd
000001e0: 3ff3 e13d 78bb 453d 9829 e63d 01fe 57be
000001f0: 3dc8 58bd 9fec 073e 9a37 4dbd 28f7 f03d
00000200: c4fd 31bd acb2 9a3d ed2a 23bd f5e1 c23c
00000210: d992 6c3c 1547 34be 09d2 97bc 17cd 16bd
00000220: b3ea f2bb 309f 32bd df66 16bc 636a 6dbd
00000230: fbca eb3c 7304 c0bc 6efb 31bd 1d75 60bd
00000240: 969e 523c 2f40 c23c 2cb2 e6bc 1d56 d8bd
00000250: 0c7a 1abd 720a e3bc 2920 c33c 5d86 36bd
00000260: 66ee b9bd f32e 0a3d 8aa9 313d 27da 30bd
00000270: d08d 023c f0c9 09bd 439b 5c3d 2b7e bdbc
00000280: b218 abbc 8b49 0a3c 9cb5 313d 195d 653c
00000290: 28f6 e93c 3cad 66bc 363d 563d e913 bd3c
000002a0: dea0 15bd 97e1 383c 47b3 563d d8c2 963c
000002b0: 8f6c 95bc 8ce3 d73d 47fb 263d c76b 32bd
000002c0: a757 7f3b 1897 12be 5071 b2bb ce59 103e
000002d0: a715 75bd e52e 9ebd ca6b 1d3c 9f1b 78bc
000002e0: 08d7 8f3c a8d8 3fbe bc68 683d fe16 aebd
000002f0: 3e61 813d 2f54 18bd d019 ffbc 3e49 adbd
00000300: 499f 1abb 4b17 e73d 9a48 a6bd 2e66 24bd
00000310: 279e 783d 8d04 993d da26 603d ddc1 8abd
00000320: 5437 31bd ae3e 0f3e 3209 31bd 73dc 84bc
00000330: 36c2 27be 4690 31bd 0bc4 b93c 48f0 bb3c
00000340: f33a a43d 2483 bebc ee1a 28bd 8744 5cbd
00000350: 7d21 aebd 05aa ff3c c8d7 313d 280c 45bd
00000360: ba2d 8c3d d863 b53c 7fc4 f23d f497 3ebd
00000370: 8fcd d4bc d50c 353c 08a4 023d 5912 4dbd
00000380: 7c8b 26bc 2cc1 b2bd 0061 be3d 1cb8 89bd
00000390: 8354 82bd c623 b73c d9a2 143c 1336 363c
000003a0: 249c c23b 1eff 87bc 238c a43c 150b 6e3c
000003b0: 360c 113e d3d1 2b3d 64a5 a13d 6ff3 ee3c
000003c0: aa5e 2e3c 98f2 d4bb d510 17bd 4df8 6a3d
000003d0: 00cd a0bd 8071 3ebd 4a80 08bd 8ead 303d
000003e0: e5d9 30bd e8ee 053d 5919 a5bd 4df6 a33c
000003f0: 5558 453c dc22 a2ba 44c7 4dbd 5004 31bd

net.4.bias f4 [128]
-0.15602694 0.056008942 0.038496573 -0.07139887 -0.088887036 0.06304071 0.017692795 -0.047881458
0.005236004 -0.0797591 0.034667294 -0.004193043 0.065454945 0.07622137 -0.042671416 0.07400044
-0.07630798 -0.029625233 0.07365351 0.01932688 0.01104427 0.0015449863 -0.076299265 -0.056710232
0.046788838 0.021699637 0.04740735 -0.03953864 -0.043439683 0.06245979 -0.12094332 -0.027287098
0.07591963 -0.07124195 0.081889376 -0.0073780515 0.005767947 0.003805713 0.067299634 0.028959077
0.006121073 -0.06311976 -0.07815682 0.014936641 -0.0003576468 0.031949345 -0.019382775 0.120091364
0.05406485 0.027696183 0.121635735 -0.12350568 0.006488432 0.10600618 -0.050539784 -0.14434484
-0.046098676 0.053840682 0.018131178 -0.017955909 -0.023073481 0.0013169065 -0.07154105 -0.0055311327
0.012343341 -0.058400467 0.05948931 0.09316016 -0.012497547 0.084629916 -0.09135348 0.0029798027
-0.006566306 -0.027626047 -0.106215924 0.023761991 -0.028062481 0.04354875 0.0072754133 0.045352686
-0.014867007 0.07481752 0.06308931 0.1228768 0.067224 0.0062378813 -0.052783288 -0.005431124
0.070523314 -0.07768032 0.004605037 -0.05951789 -0.025539428 0.02566951 0.059868243 -0.010027118
0.06953977 0.08317542 0.0021529065 -0.0045953197 -0.08858398 0.05289783 0.036869474 -0.13492966
0.060101964 -0.10300787 -0.0074115177 -0.03870601 0.0065680216 0.16463988 0.058774985 -0.022109073
0.11302744 0.06315988 -0.12588486 0.04815417 0.05142121 0.08222012 -0.10948807 -0.04253849
-0.064400524 0.03342618 0.046063013 0.005977552 -0.078755334 -0.026874922 -0.10557586 -0.031751763
00000000: 87c5 1fbe a269 653d 95ae 1d3d 9239 92bd
00000010: 680a b6bd 7d1b 813d 7bf0 903c 591f 44bd
00000020: c992 ab3b bd58 a3bd 4bff 0d3d cb65 89bb
00000030: 3e0d 863d f319 9c3d 39c8 2ebd 8b8d 973d
00000040: 5c47 9cbd 9eb0 f2bc a7d7 963d 6853 9e3c
00000050: 07f3 343c 2381 ca3a ca42 9cbd fd48 68bd
00000060: a7a5 3f3d 70c3 b13c 362e 423d 45f3 21bd
00000070: cfed 31bd d6d5 7f3d 22b1 f7bd 3189 dfbc
00000080: c07b 9b3d 4de7 91bd 9eb5 a73d 95c3 f1bb
00000090: 0c01 bd3b 4569 793b 64d4 893d 963b ed3c
000000a0: 4893 c83b ef44 81bd af10 a0bd d0b8 743c
000000b0: 8a82 bbb9 51dd 023d a0c8 9ebc 76f2 f53d
000000c0: 1b73 5d3d 1be3 e23c 281c f93d 8cf0 fcbd
000000d0: ea9c d43b c519 d93d ce02 4fbd 22cf 13be
000000e0: f7d1 3cbd 0c88 5c3d d687 943c 4518 93bc
000000f0: 9904 bdbc 0d9c ac3a 1d84 92bd 813e b5bb
00000100: b93b 4a3c 5435 6fbd 10ab 733d c1ca be3d
00000110: 83c2 4cbc 7352 ad3d 8917 bbbd cb48 433b
00000120: 2b2a d7bb 0550 e2bc bc87 d9bd 82a8 c23c
00000130: 4ae3 e5bc 2d60 323d 9766 ee3b bdc3 393d
00000140: bf94 73bc ee39 993d f834 813d d5a6 fb3d
00000150: bdac 893d 2467 cc3b 4a33 58bd 92f7 b1bb
00000160: 876e 903d dc16 9fbd dae5 963b 08c9 73bd
00000170: 1038 d1bc dd48 d23c 6738 753d c848 24bc
00000180: de6a 8e3d e057 aa3d c717 0d3b 5694 96bb
00000190: 856b b5bd 65ab 583d 7204 173d 002b 0abe
000001a0: 7a2d 763d caf5 d2bd 51dc f2bb 318a 1ebd
000001b0: 8f38 d73b 5b97 283e 0abe 703d 161e b5bc
000001c0: ee7a e73d f859 813d f6e7 00be 4f3d 453d
000001d0: 0c9f 523d 0663 a83d 483b e0bd d73c 2ebd
000001e0: 6ce4 83bd e4e9 083d 92ac 3c3d 57df c33b
000001f0: 7a4a a1bd cc28 dcbc 2838 d8bd 230e 02bd

net.6.weight f4 [6, 128]
-0.010639698 0.18050288 -0.08480806 0.108353525 0.28446993 0.063704 -0.13056317 -0.13425769
0.02150959 -0.29318047 0.12638174 -0.0028699045 0.17235811 -0.31503633 0.21083413 0.10910528
0.3612859 -0.22102325 0.037874203 0.19142239 0.12976696 -0.03378428 0.03936627 0.15391701
0.10988247 0.24421144 0.019530343 0.13016066 0.17513736 -0.2549155 -0.20754197 0.0009858949
0.015892534 -0.0068418994 0.011431313 0.007394047 -0.05913533 0.20724258 -0.022246582 -0.25115454
0.0031857563 -0.1292166 -0.010421464 -0.04838671 0.0343497 -0.083646774 -0.07523122 -0.01683754
0.054411925 -0.08085585 0.009791887 0.13009337 0.0031438153 -0.1635324 0.19804806 -0.12531778
0.23274897 0.24018893 -0.031550504 -0.03243474 -0.28506702 0.10763079 -0.05664279 0.10900396
-0.13617063 0.010768367 -0.2590987 0.0783091 -0.15115274 -0.06715621 -0.01778607 -0.20153652
0.00083278766 -0.007617979 0.2516172 -0.49306634 0.35905498 0.11911496 0.08349188 0.05575805
0.03172985 0.014827557 0.15208063 -0.15907085 -0.019161213 -3.4739634e-05 -0.3858752 0.24027178
0.010599598 -0.011060156 0.0132543165 -0.27758154 -0.24983378 0.1405086 0.21231587 -0.0053848615
0.052089874 -0.01990628 0.054246232 -0.22640899 0.050328765 -0.20503491 -0.23218158 0.10125447
0.18414341 -0.443021 0.009174889 0.3983671 0.0045637083 -0.03962951 0.022731021 -0.28634128
-0.11103639 -0.08893884 0.19200112 -0.14411736 0.05368517 0.10109595 -0.04437565 -0.27641734
-0.11072964 0.1190066 0.1384792 0.0014668982 -0.045337502 -0.015487721 0.034769055 0.16558255
-0.039305225 0.1355317 0.046893626 0.09746325 -0.010140908 -0.05846201 -0.20439436 0.022273054
0.0041540274 -0.056918394 0.5012781 -0.09663489 -0.031149749 0.17980707 -0.03639321 0.045313474
-0.2262798 -0.030618088 0.22358255 -0.1253414 -0.27462864 0.26627198 -0.08034107 0.009309322
0.15636386 0.029680105 -0.0872514 0.002557722 -0.01987254 -0.040374868 0.019537112 -0.020071989
0.114388734 -0.052973516 -0.13411802 0.0057334676 -0.30518243 -0.012967462 -0.07700208 0.44103873
-0.005820204 0.07680026 -0.119390585 -0.3008385 -0.023923887 -0.1480943 0.0699747 -0.0838614
0.09329104 -0.37684017 -0.067911126 -0.47316575 -0.008404869 0.004109088 0.37225267 -0.016356174
-0.120471075 -0.06626518 -0.08629207 0.14489883 0.17124711 0.053869516 -0.036922384 -0.12137933
0.03307281 -0.057725545 -0.020847727 -0.12550285 -0.0067826053 -0.16611624 -0.18741588 -0.04075534
0.00500652 -0.015906818 -0.1811354 0.22346063 -0.08341473 -0.018116154 -0.10789287 -0.03421993
0.03781759 0.1142152 0.0073917317 0.023623012 -0.12446248 -0.004328331 0.16994001 -0.035700027
0.07825222 -0.10663058 -0.0022089805 -0.03737966 0.051199067 0.02794717 -0.054070164 0.013263344
0.4219738 0.0724197 0.013704347 -0.05409336 -0.20726988 -0.0537861 0.081324466 0.110453516
-0.23521411 -0.2845764 0.006741138 -0.06014532 -0.0023073647 -0.045130786 -0.06805495 0.32814988
-0.1983626 -0.16561419 -0.07198589 0.072614506 0.030205123 -0.08591504 0.14280738 0.07724621
0.04016595 0.300814 -0.0441006 -0.010922608 0.18502429 -0.07210517 0.051540952 -0.10191485
00000000: 2152 2ebc bfd5 383e d9af adbd 74e8 dd3d
00000010: 0ba6 913e 3e77 823d 5ab2 05be d97a 09be
00000020: e134 b03c c01b 96be 376a 013e 0215 3cbb
00000030: a57e 303e 714c a1be e7e4 573e 9772 df3d
00000040: 77fa b83e eb53 62be fb21 1b3d 3b04 443e
00000050: a1e1 043e 6361 0abd 873e 213d 6c9c 1d3e
00000060: 0f0a e13d 9012 7a3e 19fe 9f3c d648 053e
00000070: 3557 333e 4984 82be e285 54be 2539 813a
00000080: 0f31 823c 0332 e0bb 674a 3b3c c349 f23b
00000090: e337 72bd 6637 543e 773e b6bc 5497 80be
000000a0: 1fc8 503b 5b51 04be cabe 2abc 2531 46bd
000000b0: 45b2 0c3d 004f abbd d312 9abd e1ee 89bc
000000c0: 0adf 5e3d c097 a5bd 276e 203c 3237 053e
000000d0: 7808 4e3b 0a75 27be 1ccd 4a3e 4e53 00be
000000e0: bf55 6e3e 16f4 753e 1a3b 01bd 4ada 04bd
000000f0: 4ef4 91be 886d dc3d 4502 68bd 783d df3d
00000100: 5070 0bbe ce6d 303c 96a8 84be 8560 a03d
00000110: c9c7 1abe 3289 89bd 18b4 91bc 975f 4ebe
00000120: 6f4f 5a3a 3da0 f9bb f8d3 803e 3173 fcbe
00000130: 0ed6 b73e 8bf2 f33d cafd aa3d 8e62 643d
00000140: 29f7 013d 48ef 723c 06bb 1b3e 78e3 22be
00000150: faf7 9cbc 66b5 11b8 6f91 c5be ce09 763e
00000160: f0a9 2d3c a835 35bc a228 593c 2b1f 8ebe
00000170: 6dd4 7fbe 7de1 0f3e 5569 593e 7e73 b0bb
00000180: 315c 553d 7f12 a3bc 4c31 5e3d c2d7 67be
00000190: 8925 4e3d acf4 51be 02c1 6dbe 815e cf3d
000001a0: 1790 3c3e a6d3 e2be 4652 163c c6f6 cb3e
000001b0: 298b 953b 8e52 22bd 6836 ba3c 539b 92be
000001c0: 0c67 e3bd 9125 b6bd f19b 443e 8093 13be
000001d0: fbe4 5b3d 650b cf3d 3ec3 35bd 9386 8dbe
000001e0: 39c6 e2bd bbb9 f33d 7ecd 0d3e f044 c03a
000001f0: d1b3 39bd 36c0 7dbc ff69 0e3d 798e 293e
00000200: 84fe 20bd d2c8 0a3e 8813 403d d09a c73d
00000210: 0d26 26bc dc75 6fbd c14c 51be fb75 b63c
00000220: 821e 883b 4323 69bd c353 003f 83e8 c5bd
00000230: c22d ffbc 581f 383e 0c11 15bd 9f9a 393d
00000240: e4b5 67be c9d2 fabc d3f2 643e 7f59 00be
00000250: 209c 8cbe cd54 883e dc89 a4bd 2086 183c
00000260: d91d 203e b123 f33c ddb0 b2bd 749f 273b
00000270: bdcb a2bc 1e60 25bd 4b0c a03c 036e a4bc
00000280: a444 ea3d c2fa 58bd 3c56 09be d0df bb3b
00000290: df40 9cbe 7a75 54bc 44b3 9dbd d4cf e13e
000002a0: 69b7 bebb 7449 9d3d 0d83 f4bd 8107 9abe
000002b0: 07fc c3bc 08a6 17be e54e 8f3d 87bf abbd
000002c0: 5f0f bf3d 32f1 c0be fd14 8bbd c842 f2be
000002d0: 93b4 09bc 87a5 863b e797 be3e 62fd 85bc
000002e0: 8ab9 f6bd 0ab6 87bd e6b9 b0bd 5c60 143e
000002f0: 675b 2f3e 48a6 5c3d ed3b 17bd ba95 f8bd
00000300: 5b77 073d 9f71 6cbd dac8 aabc d283 00be
00000310: 9e40 debb 601a 2abe f3e9 3fbe 12ef 26bd
00000320: bc0d a43b 044f 82bc 8f7b 39be ddd2 643e
00000330: 58d5 aabd 5468 94bc f0f6 dcbd 332a 0cbd
00000340: 9ee6 1a3d a9e9 e93d 5736 f23b 0c85 c13c
00000350: 2fe6 febd acd4 8dbb c104 2e3e 313a 12bd
00000360: b342 a03d 2261 dabd 8bc4 10bb 6a1b 19bd
00000370: 1db6 513d 77f1 e43c ad78 5dbd 7f4e 593c
00000380: f30c d83e c850 943d 3388 603c 0091 5dbd
00000390: 8e3e 54be d04e 5cbd 718d a63d 7435 e23d
000003a0: f8db 70be ffb3 91be c4e4 dc3b f05a 76bd
000003b0: 2837 17bb 0fdb 38bd 6560 8bbd 4303 a83e
000003c0: 911f 4bbe c496 29be 576d 93bd eab6 943d
000003d0: bc70 f73c 39f4 afbd 193c 123e 4333 9e3d
000003e0: 0d85 243d 4b04 9a3e d5a2 34bd bdf4 32bc
000003f0: 0277 3d3e e0ab 93bd 9b1c 533d bcb8 d0bd

net.6.bias f4 [6]
0.015904147 0.13201614 -0.027471542 -0.38121203 0.0388827 0.1367551
00000000: 6a49 823c 3d2f 073e 000c e1bc 392e c3be
00000010: 7743 1f3d 8709 0c3e
