training/nn-medium.pth (torch, 43107 bytes, 8 tensors)

net.0.weight f4 [64, 20]
0	0x3f8178ef	1.0115031
1	0x3da55845	0.08073477
2	0x3f78f2eb	0.97245663
3	0x3edda1a7	0.43287393
4	0xbf54ea4c	-0.8317001
5	0xbf51941e	-0.81866634
6	0xbe6b8b49	-0.23002352
7	0x3d8a49f6	0.06752388
8	0x3df37d64	0.11889151
9	0x3c85c2de	0.016328271
10	0xbe4726e9	-0.19448437
11	0xbde71afe	-0.11284445
12	0xbbdc7edc	-0.00672899
13	0x3d058fa7	0.0326077
14	0x3cf724b0	0.030168861
15	0x3ae5c9b5	0.0017531427
16	0xbc85217c	-0.016251318
17	0xbcea9b94	-0.028638639
18	0x3ea0d20a	0.31410247
19	0xba9a88e1	-0.0011790061
20	0xbf5900e2	-0.8476697
21	0x3ecd3339	0.40078142
22	0xbbd6b4b3	-0.0065523027
23	0xbdb70173	-0.08935823
24	0xbd81ce43	-0.063381694
25	0xbd6ed91e	-0.058312528
26	0xbcd002f7	-0.025392039
27	0x3c8a5bc5	0.016889462
28	0xbd1ae399	-0.03781471
29	0x3c644c7c	0.013934251
30	0xbef61d97	-0.4806945
31	0xbf1eecec	-0.62080264
32	0x3f085863	0.5325987
33	0x3f54681b	0.8297135
34	0x3e511431	0.20417859
35	0xbe1444da	-0.1447939
36	0xbd61a273	-0.055086564
37	0x3da65fb1	0.081237204
38	0xbe87954f	-0.264811
39	0x3d6b2299	0.05740604
40	0x3d9b1cee	0.07573877
41	0x3e44985b	0.19198744
42	0x3e81c623	0.2534648
43	0x3e31606f	0.17321943
44	0x3e1f8562	0.15578225
45	0x3e47066c	0.19436044
46	0x3bad511d	0.0052892105
47	0xbebf59ab	-0.373731
48	0xbf056cb3	-0.52118987
49	0xbe67f79b	-0.22653048
50	0xbd853011	-0.065033086
51	0xbd053951	-0.032525364
52	0x3d8b126e	0.067906246
53	0xbd3df5ca	-0.04637698
54	0xbd8edfca	-0.06976278
55	0xbba461f9	-0.005016562
56	0x3ce478a5	0.027889559
57	0xbd0304ef	-0.031987127
58	0x3d13ecaf	0.03611439
59	0x3c8930aa	0.016746838
60	0x3f411516	0.754228
61	0xbd38e9b6	-0.04514476
62	0xbe0e52ef	-0.13898824
63	0x3b886b71	0.0041631986
64	0x3da79c05	0.08184055
65	0xbb0da44e	-0.0021612826
66	0x3ca8faac	0.020627342
67	0x3db7973a	0.08964391
68	0x3d8d74a7	0.06907015
69	0x3cd0ee12	0.025504146
70	0x3d4c8143	0.04992796
71	0x3e85f7f3	0.26165733
72	0x3e6ce749	0.23135103
73	0x3e8cefc8	0.2752669
74	0x3ea0ae8a	0.31383163
75	0x3d0953e9	0.03352729
76	0xbe7fedcb	-0.24993055
77	0xbda5d232	-0.08096732
78	0xbd544e9c	-0.05183278
79	0x3b74fe09	0.0037382862
80	0x3ed87c61	0.42282394
81	0xbcd9dea1	-0.026595416
82	0xbfb4c2ef	-1.4121989
83	0xbc3d5d7b	-0.011557932
84	0xbe90891c	-0.28229606
85	0x3adeadd5	0.0016989062
86	0xbc95f715	-0.018306294
87	0xbd5c336e	-0.053759985
88	0x3d940521	0.07227541
89	0x3da1ff47	0.079100184
90	0x3e5e0056	0.21679816
91	0x3e138780	0.14407158
92	0x3dea8ce5	0.11452655
93	0x3d9e9c1a	0.07744618
94	0xba125b67	-0.0005583078
95	0xbd1007d7	-0.035163727
96	0x3cc61746	0.02418102
97	0x3d58ba61	0.05291212
98	0xbe1ed11a	-0.15509453
99	0x3d7b7a97	0.061396208
100	0x3f840df2	1.0316756
101	0xba455328	-0.0007527345
102	0x3f6f8564	0.9356291
103	0xbfbb2689	-1.4621135
104	0xbeb4aa52	-0.35286194
105	0x3e1712c1	0.14753248
106	0x3cb6f49e	0.02233344
107	0x3b9b7625	0.0047443085
108	0x3da940a7	0.082642846
109	0x3d24e350	0.040255845
110	0x3e202cb1	0.15642048
111	0x3d9e611e	0.077333674
112	0x3aa091c0	0.0012250468
113	0xbd7725a0	-0.060338616
114	0xbd692ea9	-0.056929264
115	0x3d88eccb	0.0668579
116	0x3e088d3b	0.13335125
117	0xbc6c694b	-0.014429401
118	0xbe013c1e	-0.12620589
119	0xbcff2f70	-0.03115055
120	0xbf030d2a	-0.5119196
121	0x3fd609b4	1.6721711
122	0xbd9a4f29	-0.0753463
123	0x3c8333bc	0.01601588
124	0x3d126206	0.035738014
125	0x3ba6b215	0.005087147
126	0xbd608f91	-0.054824416
127	0xbcce3594	-0.025172032
128	0x3cf3d9ed	0.029767001
129	0x3c180e58	0.009280764
130	0x3e88c1b4	0.26710284
131	0x3ecf41b0	0.40479803
132	0xbddf4c20	-0.109031916
133	0xbf277d7e	-0.6542586
134	0xbf26328e	-0.6492089
135	0xbe0c40b7	-0.13696562
136	0x3e82fa2b	0.25581488
137	0x3e2e6a70	0.1703279
138	0x3ddb0b21	0.10695482
139	0xba4f79b4	-0.00079145585
140	0x3d39f278	0.04539725
141	0x3e9f85fe	0.31156915
142	0xbf38e96f	-0.7223119
143	0xbf45950d	-0.7718056
144	0x3e00c5fc	0.12575525
145	0x3df8a3f7	0.12140649
146	0x3e064c82	0.13115123
147	0x3dab32ad	0.08359275
148	0x3c2a582d	0.010396999
149	0xbb5fde3f	-0.0034159569
150	0xbd4fe69b	-0.050757032
151	0xbdb15de0	-0.08660483
152	0xbdcde32c	-0.10053095
153	0xbc13b5b5	-0.00901549
154	0x3ccff5fc	0.02538585
155	0xbd795484	-0.060871616
156	0xbe11e1f5	-0.14246352
157	0xbe469a94	-0.19394904
158	0xbf04039b	-0.51568
159	0xbb0b900a	-0.002129557
160	0x3f6174db	0.8806893
161	0x3e0dc7e3	0.13845782
162	0x3e095cee	0.13414356
163	0x3e3279f9	0.17429341
164	0x3c9b3297	0.018945022
165	0x3d5be743	0.053687345
166	0xbc29bbd6	-0.010359725
167	0xbd8a79e7	-0.06761532
168	0x3bbd6787	0.0057801637
169	0x3ecd1ca3	0.4006091
170	0xbeb7d2c1	-0.3590298
171	0xbe43ef6e	-0.19134304
172	0x3df259c3	0.11833527
173	0x3cc86a74	0.024464823
174	0x3db1f4d5	0.08689276
175	0x3dfc3528	0.12314826
176	0x3d1be750	0.038062394
177	0xbdb42452	-0.0879599
178	0xbd8cee42	-0.068813816
179	0x3aab039c	0.001304734
180	0x3f35411c	0.70802474
181	0x3d93ea6a	0.07222445
182	0x3e824f87	0.254513
183	0x3d3c38c6	0.04595258
184	0x3c89294f	0.01674333
185	0x3d213efd	0.03936671
186	0x3cfa9394	0.030587949
187	0x3c9de97d	0.019276375
188	0x3d92b3c9	0.071631975
189	0x3d8c5446	0.068520114
190	0xbfe6b1fe	-1.8023069
191	0x3e5a5d6d	0.21324702
192	0x3d0a3755	0.033744175
193	0x3cfa1348	0.030526772
194	0xbd076f5d	-0.03306519
195	0xbd90e4a9	-0.070748635
196	0xbd4b92e5	-0.049700636
197	0xbb775ebe	-0.003774568
198	0x3def69cd	0.11690102
199	0xbc258320	-0.010102063
200	0xbf52b595	-0.8230832
201	0xbe95f671	-0.29289582
202	0x3e265dba	0.16246691
203	0x3e9b762e	0.303636
204	0x3b0b09e4	0.0021215612
205	0xbdb560e6	-0.088563725
206	0xbe430444	-0.19044596
207	0xbe946abb	-0.2898768
208	0xbe9e257a	-0.30887967
209	0xbe36ca46	-0.17850599
210	0x3d2de765	0.042457003
211	0x3dc9f0cb	0.09860381
212	0x3dc2f17f	0.09518718
213	0x3d905a4a	0.07048471
214	0x3d361fd2	0.04446394
215	0x3caa0a26	0.020756792
216	0x3c175718	0.009237073
217	0x3d8fa647	0.07014137
218	0x3e55fef9	0.20898046
219	0xbdd6b934	-0.104845434
220	0x3d01e01a	0.03170786
221	0xbee24979	-0.4419668
222	0xbe9cd559	-0.3063152
223	0xbdc9f26c	-0.098606914
224	0x3d9662e0	0.07343078
225	0x3ca7da91	0.020489963
226	0xbc6b326b	-0.014355282
227	0x3d2262e2	0.039645083
228	0x3e03f7a1	0.12887432
229	0x3e615089	0.22003378
230	0xbd46cb0b	-0.04853348
231	0xbe430cb5	-0.19047816
232	0x3e015818	0.12631261
233	0x3d6de12f	0.05807608
234	0xbe9a2611	-0.30107167
235	0xbeacae4f	-0.33726737
236	0x3d22be28	0.03973213
237	0x3e79e7f2	0.24404886
238	0xbe464d59	-0.19365443
239	0xbc27f00f	-0.0102501055
240	0xbe114bba	-0.14189044
241	0xbe5d755b	-0.21626799
242	0xbeebf456	-0.4608485
243	0x3e9b6a50	0.30354548
244	0xbbd5c415	-0.006523619
245	0xbd7abea1	-0.061216954
246	0x3dc6f17e	0.0971403
247	0x3d04f8d6	0.03246387
248	0xbd8df8c7	-0.06932216
249	0x3cb2d9b7	0.02183233
250	0x4016a512	2.353825
251	0x3e524926	0.20535716
252	0x3ea5f39e	0.32412428
253	0x3d810f87	0.0630179
254	0x3d2612b2	0.040545173
255	0x3deb7ec5	0.11498789

net.0.bias f4 [64]
0	0x3f79870d	0.97471696
1	0x3f06bed1	0.5263491
2	0xbf16b7ec	-0.5887439
3	0xbe0f6ea1	-0.14007045
4	0xbf1be101	-0.60890204
5	0x3f0f4d53	0.5597736
6	0x3fbec8bf	1.4905013
7	0xbe16b944	-0.1471911
8	0xbf296360	-0.6616726
9	0x3ca00dbb	0.019537797
10	0xbe781c87	-0.24229632
11	0x3f194dce	0.59884346
12	0xbf2f0119	-0.6836105
13	0x3d81372b	0.063093506
14	0xbe4293aa	-0.19001642
15	0x3e6165f4	0.22011548
16	0xbf1d8d1d	-0.61543447
17	0xbf563c49	-0.8368574
18	0xbe713966	-0.23557052
19	0x3eb12278	0.3459661
20	0x3f01c4f6	0.50691164
21	0x3f9c77f4	1.2224107
22	0xbd7aa195	-0.061189253
23	0xbe695aaf	-0.227885
24	0xbdb8ebf8	-0.090293825
25	0xbec6c4e9	-0.38822106
26	0xbd916967	-0.07100182
27	0xbefd7702	-0.49504858
28	0x3ca1b88e	0.019741323
29	0x3eebaca4	0.46030152
30	0xbf96e278	-1.1787863
31	0x3ed93625	0.42424121
32	0xbeaf9a46	-0.3429739
33	0xbf712fff	-0.9421386
34	0x3efb643d	0.49099913
35	0xbe826995	-0.25471178
36	0xbf1711d8	-0.590116
37	0xbdbfb6dc	-0.093610495
38	0xbf65fbc5	-0.89837295
39	0x3f8b5061	1.0883905
40	0x3ec65bb1	0.3874183
41	0x3fad333b	1.3531259
42	0xbf218715	-0.63096744
43	0x3e7a717d	0.24457355
44	0xbf87ab0b	-1.0599073
45	0x3f510d5b	0.81661004
46	0x3eb4faf4	0.35347712
47	0xbe175294	-0.14777595
48	0xbe4daed3	-0.20086221
49	0x3e0bc59f	0.13649605
50	0x3fa4161e	1.281925
51	0xbf186935	-0.59535533
52	0xbe976470	-0.29568815
53	0xbec14aa6	-0.37752265
54	0xbf1dd3b0	-0.61651134
55	0xbdcb3c0a	-0.09923561
56	0x3f2f7344	0.68535256
57	0x3ee8a701	0.45439914
58	0x3e709391	0.23493792
59	0xbd370351	-0.044680897
60	0xbd7317b8	-0.05934879
61	0x3f8a8817	1.0822781
62	0x3f517095	0.8181241
63	0xbef03d74	-0.46921885

net.2.weight f4 [64, 64]
0	0x3c43d972	0.0119536985
1	0xbd80c205	-0.06287006
2	0xbe0e1f6f	-0.13879178
3	0x3c8f1d04	0.01746989
4	0x3d562232	0.052278705
5	0x3dab414e	0.08362065
6	0xbdc4dd0a	-0.09612472
7	0x3a4bf7d4	0.0007780765
8	0xbe339dd1	-0.17540671
9	0xbf8188fb	-1.0119928
10	0x3df3b185	0.118990935
11	0xbe114172	-0.14185122
12	0x3f8e8e75	1.1137224
13	0xbc1105bf	-0.008851468
14	0xbdf4fb78	-0.11962026
15	0xbed5059b	-0.4160584
16	0x3e381f5a	0.1798071
17	0x3cc649ee	0.024205174
18	0xbd2339b1	-0.03984994
19	0x3e9f59cb	0.31123194
20	0xbdd190c5	-0.10232691
21	0x3e37e18d	0.17957135
22	0xbde13e7c	-0.10998246
23	0x3d542c25	0.051799912
24	0x3e65c717	0.22439228
25	0x3ea0d40b	0.31411776
26	0x3e89a439	0.26883104
27	0xbd0fe68a	-0.03513197
28	0xbe9fde61	-0.3122435
29	0xbd650c96	-0.055920206
30	0xbcbc369b	-0.022975257
31	0x3e49426a	0.19654241
32	0xbdeaa2e2	-0.11456849
33	0xbd40bd84	-0.047055736
34	0x3d214811	0.03937537
35	0x3b8ac97b	0.004235444
36	0x3ef1345c	0.4711026
37	0x3da12fb2	0.07870425
38	0x3ed5a006	0.4172365
39	0xbe11d127	-0.14239942
40	0x3dd678eb	0.10472282
41	0xbe29be87	-0.16576587
42	0x3ea5752c	0.32315958
43	0x3ea81b0e	0.3283314
44	0x3d86466a	0.06556399
45	0x3bd200d7	0.0064087915
46	0xbe731bb3	-0.23741035
47	0x3d6f0ee2	0.058363803
48	0x3e2b3a64	0.16721493
49	0xbe1c6e80	-0.15276527
50	0xbe330801	-0.17483522
51	0xbefcbc3c	-0.4936236
52	0xbe4403d9	-0.19142093
53	0x3e10c880	0.14138985
54	0xbe9dd5e7	-0.30827257
55	0xbe7a67c5	-0.24453647
56	0xbdc310d7	-0.09524696
57	0x3e3cce48	0.18438065
58	0x3e133744	0.14376551
59	0x3bdea2a7	0.006794292
60	0x3ccf6a5d	0.025319273
61	0x3e36132e	0.17780754
62	0xbdb0d4ec	-0.086343616
63	0x3e5e198b	0.21689431
64	0xbd8aad31	-0.06771315
65	0xbd8dd210	-0.06924832
66	0xbf16d045	-0.58911544
67	0xbd8737c2	-0.06602432
68	0xbc325f24	-0.010886941
69	0x3d92288c	0.0713664
70	0xbe5499f0	-0.20761847
71	0xbd9377e0	-0.07200599
72	0x3efe8c11	0.49716237
73	0x3aacd891	0.00131871
74	0xbeba438b	-0.36379656
75	0x3ed223df	0.41042992
76	0x3dd58442	0.10425617
77	0x3f04381c	0.51648116
78	0xbd7fb8c5	-0.06243207
79	0xbd19a180	-0.037507534
80	0xbd79d4fe	-0.06099414
81	0xbe5e73e2	-0.21723893
82	0xbdbb69c9	-0.09151036
83	0x3d55c6d2	0.052191563
84	0xbe00d61c	-0.12581676
85	0x3d94a62c	0.07258257
86	0xbd619649	-0.055074964
87	0xbdc94dfc	-0.098293275
88	0x3dc5f812	0.09666456
89	0x3db0ae09	0.086269446
90	0x3da1cbd0	0.07900202
91	0x3d40870b	0.047003787
92	0xbdd24ea1	-0.102689035
93	0x3eac1d1f	0.33615968
94	0x3db5018a	0.08838184
95	0x3e2df9f6	0.16989884
96	0x3da28fd7	0.079375915
97	0xbdfc05c7	-0.123057894
98	0x3c2fabc3	0.0107221035
99	0x3d0d4494	0.03448923
100	0x3d384a2c	0.04499261
101	0xbdcc10d5	-0.09964148
102	0xbe8c97c4	-0.27459538
103	0x3ea1c9bf	0.31599233
104	0x3e2a3501	0.16621782
105	0xbd4d2ae9	-0.05008975
106	0x3d9babde	0.076011404
107	0x3d71a87f	0.05899858
108	0x3cad1788	0.021129385
109	0x3db769b6	0.0895571
110	0x3dc332f8	0.09531206
111	0x3ddfee02	0.10934068
112	0xbd5db0b3	-0.05412359
113	0xbe356d2e	-0.1771743
114	0x3dd71f8a	0.105040625
115	0x3e5a0fec	0.21295136
116	0x3e413d20	0.18870974
117	0x3d08bd04	0.033383384
118	0x3ed2a1e0	0.41139126
119	0x3e54843f	0.20753573
120	0xbe303ce0	-0.17210722
121	0x3dd9dd38	0.10637897
122	0xbc38ad12	-0.011271732
123	0x3e31b0e5	0.17352636
124	0xbde954aa	-0.113931015
125	0x3eeacff3	0.45861778
126	0x3e3328cc	0.17496032
127	0xbd30aad4	-0.043131664
128	0xbe578da9	-0.21050133
129	0x3d9da380	0.07697201
130	0xbdbc049d	-0.091805674
131	0x3cfc4b73	0.030797696
132	0x3c8f6c93	0.017507827
133	0x3bf534e5	0.007483112
134	0x3dbc7752	0.09202446
135	0xbd5abf4b	-0.053405087
136	0xbe29283a	-0.16519251
137	0xbdb82ac4	-0.08992532
138	0x3e3db30e	0.18525335
139	0x3d153246	0.036424898
140	0xbce319d5	-0.027722279
141	0x3e0c4645	0.1369868
142	0xbc70ef54	-0.014705498
143	0xbddaeeb4	-0.1069006
144	0xbd6a3d8b	-0.0571876
145	0x3da79018	0.081817806
146	0xbd3de15a	-0.04635749
147	0x3e06b26a	0.13153997
148	0x3d21c879	0.039497826
149	0x3d8236ec	0.06358132
150	0xbdae8d38	-0.08523029
151	0x3de39a82	0.111134544
152	0x3dec16b8	0.11527771
153	0xbde17836	-0.110092565
154	0x3df0e4b8	0.11762375
155	0xbd21a0ab	-0.039459866
156	0xbd4d5b93	-0.05013616
157	0xbc1ca1ac	-0.00956003
158	0xbe09a9cc	-0.13443679
159	0x3c923c9d	0.017851168
160	0x3d1b99e5	0.037988562
161	0xbd6276d2	-0.055289097
162	0xbd304ca9	-0.04304186
163	0xbe498321	-0.19678928
164	0xbd486360	-0.048922896
165	0x3e82b3ae	0.2552771
166	0x3e4e8cc8	0.20170891
167	0x3e702113	0.23450117
168	0x3d01230c	0.031527564
169	0xbd33afe0	-0.0438689
170	0xbe0e5cc9	-0.13902582
171	0x3dfc9e02	0.12334825
172	0xbddcfbe3	-0.10790231
173	0x3be72dbc	0.0070550125
174	0x3cb95acb	0.022626301
175	0xbce3b155	-0.02779452
176	0xbd6d1679	-0.05788276
177	0x3db54434	0.08850899
178	0xbd51e267	-0.051241305
179	0xbcb9aacb	-0.022664448
180	0x3db83d26	0.08996038
181	0x3c0d0f47	0.008609599
182	0xbdff21bf	-0.124576084
183	0xbd9175d7	-0.07102554
184	0x3d4de54e	0.05026751
185	0x3d87c920	0.066301584
186	0xbdc10844	-0.09425405
187	0xbd88e2a4	-0.06683853
188	0xbb7125e7	-0.0036796273
189	0x3de985ef	0.11402499
190	0xbd5d5938	-0.054040164
191	0x3d8f082a	0.06983979
192	0xbe605556	-0.21907553
193	0xbd89a808	-0.067215025
194	0x3e470aac	0.19437665
195	0x3d8bf14c	0.06833133
196	0xbea26884	-0.31720364
197	0x3e488830	0.19583201
198	0x3d4ea526	0.050450467
199	0xbea9ac75	-0.33139387
200	0xbd721aba	-0.05910752
201	0xbcdb2d06	-0.026754867
202	0x3e00d4da	0.12581196
203	0xbeb2a8f8	-0.34894538
204	0xbd95fbe4	-0.07323435
205	0xbc92ae9b	-0.017905524
206	0x3e26bfa4	0.16284043
207	0xbd2b7fc8	-0.04186991
208	0x3e6e94e9	0.23298992
209	0x3eb23adb	0.34810528
210	0x3ebaacad	0.36459866
211	0x3d877d61	0.06615711
212	0xbe0e2b22	-0.13883641
213	0x3e30344e	0.17207453
214	0xbec2b101	-0.38025668
215	0xbdafec0e	-0.08589946
216	0x3f189595	0.59603244
217	0xbdc6e82c	-0.09712252
218	0x3e0cda35	0.13755114
219	0xbc990c3c	-0.018682592
220	0x3d5b5e1f	0.053556558
221	0xbb3652f2	-0.0027820435
222	0xbd87adc7	-0.06624942
223	0xbd2dfe86	-0.04247906
224	0xbf28959c	-0.65853286
225	0x3d7fa63a	0.062414385
226	0xbd42b4c4	-0.047535673
227	0x3e99e034	0.30053866
228	0x3daed1bf	0.085361
229	0xbe24af2b	-0.16082446
230	0x3e1cb5fa	0.15303794
231	0xbe9ae254	-0.302508
232	0x3da158b9	0.07878251
233	0x3e4ae247	0.1981288
234	0x3ea1a944	0.31574452
235	0xbdb5674f	-0.08857595
236	0x3dc12cf3	0.094324015
237	0x3e8aabc2	0.27084166
238	0xbe364f18	-0.1780361
239	0x3f337b3b	0.7010991
240	0x3d72df4a	0.059294976
241	0x3e2504ce	0.16115114
242	0xbe2e09fe	-0.16995999
243	0xbe0d97bc	-0.13827413
244	0xbdd55190	-0.104159474
245	0xbf43e475	-0.7652047
246	0x3c4f07a5	0.0126361
247	0x3dbb2b84	0.09139159
248	0xbd80608d	-0.062684156
249	0x3b9ac930	0.0047236905
250	0x3d17d534	0.03706856
251	0xbd161d78	-0.036649197
252	0xbe88544a	-0.26626807
253	0xbe108e4d	-0.14116783
254	0x3e6d964e	0.23201868
255	0xbde4e280	-0.11176014

net.2.bias f4 [64]
0	0x3e9e633c	0.30935085
1	0x3dad9123	0.08474948
2	0x3dd152dd	0.10220883
3	0xbdef0443	-0.11670735
4	0xbe953843	-0.29144487
5	0x3dc2d7db	0.095138274
6	0x3de1ee1a	0.110317424
7	0xbec326af	-0.3811545
8	0x3da889e1	0.08229423
9	0xbdfc6809	-0.12324531
10	0x3e1c330d	0.1525385
11	0x3d2bd016	0.041946493
12	0xba83b208	-0.0010047564
13	0x3cb7aa55	0.022420088
14	0xbe12dda4	-0.14342362
15	0x3e8e8a96	0.27840108
16	0x3e480cbb	0.19536106
17	0xbec25d70	-0.37961912
18	0xbe6e9329	-0.23298325
19	0x3de0f013	0.109832905
20	0xbd859422	-0.06522395
21	0xbe956aed	-0.2918314
22	0x3cf38d78	0.029730543
23	0x3e54c8b7	0.20779692
24	0xbd645890	-0.055748522
25	0x3c74fdf1	0.0149531225
26	0xbe95f456	-0.29287976
27	0x3e909f6c	0.2824663
28	0xbd97c41b	-0.07410451
29	0x3b43ce8f	0.0029877757
30	0x3c3998d0	0.011327937
31	0x3e9abf1f	0.3022394
32	0x3e955948	0.2916968
33	0x3db21813	0.08695998
34	0xbea78e4b	-0.32725748
35	0xbd777061	-0.060409907
36	0xbe958090	-0.29199648
37	0x3e4eb690	0.2018683
38	0x3d71b97d	0.059014786
39	0xbdeb5c98	-0.1149227
40	0x3e453b6e	0.19260952
41	0x3e13a3e2	0.14417985
42	0xbd914bdb	-0.070945464
43	0xbe55d4bd	-0.20881934
44	0xbe47267d	-0.19448276
45	0xbdc02ab2	-0.093831435
46	0xbcc3abc5	-0.023885617
47	0x3c9e85a5	0.019350836
48	0xbe523265	-0.20527036
49	0xbee83dda	-0.4535969
50	0x3b641be5	0.0034806665
51	0x3d86f551	0.06589759
52	0xbe014133	-0.12622528
53	0xbb4b0061	-0.0030975568
54	0x3dca1239	0.09866757
55	0x3e95a709	0.29229
56	0x3e391616	0.18074831
57	0x3ce5b902	0.02804232
58	0xbe90bb7c	-0.2826804
59	0x3d533dc4	0.051572576
60	0x3e631b43	0.22178368
61	0x3c083a61	0.0083147
62	0xbebfcf8f	-0.37463042
63	0xbd851b94	-0.06499401

net.4.weight f4 [64, 64]
0	0xbe3af94c	-0.18259162
1	0xbd20ecb9	-0.039288256
2	0x3cfca030	0.030838102
3	0xbe496bdb	-0.1967005
4	0xbc9a7077	-0.018852456
5	0x3f290f57	0.6603903
6	0x3f48fd4b	0.78511494
7	0x3ddf8339	0.109137006
8	0xbddbf18d	-0.107394315
9	0x3d3d5404	0.0462227
10	0xbde16c0d	-0.11006937
11	0xbe8ccc38	-0.27499557
12	0x3eabb17c	0.33533847
13	0xbe1dc1d2	-0.15405968
14	0x3ea0665b	0.3132809
15	0x3eaf212b	0.34204993
16	0xbac03f92	-0.0014667383
17	0x3d6e3a89	0.058161292
18	0xbe3cd075	-0.18438895
19	0x3d86710d	0.065645315
20	0xbe9b53ce	-0.30337375
21	0xbca112b3	-0.019662237
22	0x3bd3652b	0.006451269
23	0xbc0b770b	-0.008512269
24	0xbe658fee	-0.22418186
25	0x3e4d5b78	0.20054424
26	0xbca5b86c	-0.02022954
27	0x3e6d6189	0.23181738
28	0x3dbfe796	0.093703434
29	0xbd9e2817	-0.0772249
30	0xbf05a8e1	-0.52210814
31	0xbe008fa9	-0.12554802
32	0x3c9bd6ce	0.019023325
33	0xbe75dd56	-0.24010214
34	0xbea69876	-0.32538193
35	0x3eb71aca	0.35762626
36	0xbc984004	-0.018585213
37	0x3e3a6e7b	0.18206207
38	0xbcb6373b	-0.022243133
39	0xbf27c8fe	-0.65541065
40	0x3d8e6ff0	0.06954944
41	0x3e547983	0.20749478
42	0x3d5c2b2e	0.053752117
43	0x3dc9791b	0.09837552
44	0xbc957181	-0.0182426
45	0x3ed7bde5	0.42137066
46	0xbc424106	-0.011856323
47	0x3ea98409	0.33108547
48	0x3d8a7e45	0.06762365
49	0xbd6fa166	-0.05850353
50	0xbe46cf08	-0.19414914
51	0x3d69b998	0.05706176
52	0xbc594333	-0.01326065
53	0xbd916de0	-0.07101035
54	0xbd856ff3	-0.06515493
55	0x3ca26f6b	0.019828519
56	0x3d75cf5b	0.060012203
57	0x3e802700	0.25029755
58	0xbd00f380	-0.03148222
59	0xbdcfe1e1	-0.10150505
60	0x3d8f6fdf	0.070037596
61	0x3e3fbaa9	0.18723549
62	0xbcbeba9a	-0.023282338
63	0x3e6da7e7	0.23208581
64	0x3d2e6efd	0.042586315
65	0xbd372f26	-0.0447227
66	0x3ca2ce6d	0.019873822
67	0xbe07d35d	-0.13264222
68	0xbd82e4d5	-0.063913025
69	0x3e5cbce9	0.21556439
70	0xbd1f7221	-0.0389272
71	0xbd25eb9c	-0.040507898
72	0xbdcd88a5	-0.100358285
73	0x3e58a5ff	0.21157072
74	0x3dd930df	0.106050245
75	0xbd9e5689	-0.07731349
76	0x3e10b830	0.14132762
77	0x3eefe58c	0.46854818
78	0xbce82416	-0.02833752
79	0xbc9120da	-0.01771586
80	0x3db3eeea	0.087858036
81	0x3e14846d	0.14503641
82	0x3ca80bf5	0.020513514
83	0xbdd08121	-0.101808794
84	0x3da97c67	0.08275681
85	0xbd840f69	-0.06448252
86	0x3d705d16	0.058682524
87	0xbd570efc	-0.052504525
88	0xbd1bbbed	-0.038021017
89	0x3ca183cf	0.019716172
90	0xbd81d81d	-0.063400485
91	0xbd015006	-0.031570457
92	0x3bb7063b	0.0055854595
93	0xbce85f13	-0.028365647
94	0xbe11304f	-0.14178585
95	0xbd9b50fd	-0.07583807
96	0x3d84873b	0.06471106
97	0xbeaa1b6b	-0.33224043
98	0x3de1466a	0.109997585
99	0x3e630ad2	0.22172096
100	0xbd848ca6	-0.06472139
101	0xbcd56bcd	-0.02605238
102	0xbe8c13d9	-0.27358893
103	0x3e43f1b2	0.19135168
104	0xbe2d3eb2	-0.16918448
105	0x3c9026c1	0.017596604
106	0x3d20efd5	0.03929122
107	0xbc6feed3	-0.0146443425
108	0xbeb099c3	-0.3449231
109	0x3d94cecb	0.07266005
110	0x3c915133	0.017738914
111	0xbdc674cd	-0.09690247
112	0x3cdac45f	0.026704965
113	0x3e4bbe7b	0.19896881
114	0x3d4e3dd5	0.050351936
115	0xbca23d90	-0.019804746
116	0x3d9cfb3c	0.07665107
117	0x3d80e4bc	0.062936276
118	0xbea33797	-0.3187835
119	0x3d8415f5	0.064495005
120	0x3e538a36	0.20658192
121	0x3e4baae8	0.19889414
122	0x3cf763a7	0.030198885
123	0xbd6c607e	-0.05770921
124	0x3e4802ca	0.19532314
125	0xbe873fa1	-0.26415733
126	0xbe42e8f4	-0.19034177
127	0xbe05696c	-0.13028497
128	0xbd006c1e	-0.03135311
129	0x3e26074b	0.1621372
130	0x3ce1c768	0.027560905
131	0xbe800679	-0.25004938
132	0x3e005110	0.12530923
133	0x3e797fb8	0.24365127
134	0xbf2178fa	-0.6307522
135	0x3c68faa8	0.014219917
136	0xbeb4f06a	-0.3533967
137	0x3e0f3914	0.13986617
138	0xbe2c02c6	-0.16797933
139	0x3ddde579	0.10834784
140	0x3e3489ee	0.17630741
141	0x3eda7eb3	0.4267479
142	0xbebf116e	-0.37317985
143	0x3dee8b7d	0.11647699
144	0x3e90d6a0	0.28288746
145	0x3cf3cd8d	0.0297611
146	0x3e73cfca	0.23809734
147	0xbe6768e4	-0.22598606
148	0x3ee14f01	0.44005588
149	0x3dff4a53	0.12465348
150	0xbd712639	-0.058874343
151	0xbd5ba248	-0.05362156
152	0x3de22299	0.11041755
153	0x3e6086c8	0.21926415
154	0x3e005833	0.12533645
155	0xbe4ab2b4	-0.19794732
156	0x3f09754c	0.53694606
157	0x3ea3b9c4	0.31977665
158	0xbf6fd72c	-0.936877
159	0x3e735c91	0.2376578
160	0xbdfea201	-0.124332435
161	0x3e881fd9	0.26586798
162	0x3e2275c5	0.15865238
163	0xbce87da0	-0.028380215
164	0x3dff6928	0.12471229
165	0xbe78761c	-0.24263805
166	0xbe012b26	-0.12614116
167	0x3e13db0b	0.14439027
168	0xbcdda982	-0.027058367
169	0xbbacae80	-0.0052698255
170	0xbe86043e	-0.26175112
171	0xbed36c4b	-0.41293558
172	0x3e87ad1a	0.26499254
173	0xbeb1e9a5	-0.3474857
174	0x3d87c3fd	0.06629179
175	0x3ed4f634	0.41594088
176	0x3da3276e	0.07966505
177	0xbcf59f43	-0.029983168
178	0xbe3eee7a	-0.18645659
179	0xbf780984	-0.9688952
180	0x3d9c0cad	0.07619605
181	0xbda4c29c	-0.08044931
182	0xbe82d904	-0.25556195
183	0xbdfec071	-0.12439049
184	0xbcf3256b	-0.029680928
185	0xbdc2e460	-0.09516215
186	0xbde35485	-0.11100105
187	0x3de41954	0.111376435
188	0xbdf04062	-0.1173103
189	0xbcf3199a	-0.029675294
190	0xbf9b4b57	-1.2132367
191	0x3e50b0c0	0.20379925
192	0xbcf1f5d0	-0.029536158
193	0xbd29cb71	-0.041453782
194	0x3d2c1357	0.04201063
195	0xbb5d13ce	-0.0033733728
196	0xbdb8ca25	-0.09022931
197	0xbe1c629b	-0.1527199
198	0xbf09be3a	-0.5380589
199	0x3e7137f2	0.23556498
200	0x3dcd831d	0.100347735
201	0xbbaec535	-0.0053335675
202	0x3de9fa2c	0.114246696
203	0x3def6739	0.1168961
204	0xbe837f1d	-0.25682917
205	0xbdbe8e29	-0.09304459
206	0xbd82bcb2	-0.06383647
207	0xbe9e8139	-0.30957964
208	0x3e1b1ef9	0.15148534
209	0xbd8e195b	-0.0693843
210	0x3c022569	0.00794349
211	0xbde23136	-0.110445425
212	0x3c828ab8	0.015935287
213	0xbdb8535a	-0.09000273
214	0x3e856f84	0.26061642
215	0xbd267b72	-0.04064507
216	0xbde3b65f	-0.11118769
217	0xbd6f4396	-0.058414064
218	0xbdba4882	-0.09095861
219	0xbeb65d0c	-0.35617864
220	0x3ba0f00f	0.0049114297
221	0x3a047e04	0.0005054178
222	0xbda9f3f6	-0.08298485
223	0x3d78a0af	0.060700115
224	0x3dba30d1	0.09091342
225	0xbc8ba402	-0.017045978
226	0x3de7d60a	0.113201216
227	0xbe0f0e12	-0.13970211
228	0xbdbaadf4	-0.0911521
229	0x3c9de572	0.019274447
230	0x3dcbe267	0.09955292
231	0xbd94af7c	-0.072600335
232	0xbebe99be	-0.3722667
233	0xbc82b02c	-0.015953146
234	0xbeaa1e87	-0.33226416
235	0xbce3bc73	-0.02779982
236	0x3e62ae0f	0.2213671
237	0x3dcd4cc2	0.10024406
238	0xbe24a89e	-0.16079947
239	0xbf1e1f8a	-0.61766875
240	0xbdcabafc	-0.09898946
241	0xbe22ab1e	-0.15885589
242	0x3b18ed4a	0.0023334795
243	0x3da0c197	0.07849424
244	0xbda78de1	-0.08181358
245	0xbe323fe6	-0.17407188
246	0x3cd4527d	0.02591824
247	0x3db7f078	0.08981413
248	0xbd6ee122	-0.058320172
249	0x3e3dd39a	0.18537751
250	0xbe48dcfa	-0.19615546
251	0x3e41a622	0.18911031
252	0x3c9a10a8	0.01880677
253	0xbe27c3bf	-0.16383265
254	0xbc6a17c7	-0.0142878955
255	0xbe0cc92b	-0.13748614

net.4.bias f4 [64]
0	0x3cb76968	0.022389129
1	0x3dfa2417	0.12213915
2	0xbdf369e3	-0.11885431
3	0x3dcc3bf7	0.09972375
4	0xbbc5bb1c	-0.006034268
5	0x3c7af6ee	0.015317662
6	0x3e587705	0.21139152
7	0x3e41ce60	0.18926382
8	0xbab0661b	-0.0013458164
9	0x3d327761	0.04357088
10	0x3d35dee5	0.044402022
11	0x3cbd1428	0.0230809
12	0xbdcc571d	-0.09977553
13	0x3daa641e	0.08319877
14	0x3cb7fe49	0.02246012
15	0xbe1b320e	-0.15155813
16	0x3df6323e	0.12021302
17	0xbdf26412	-0.11835493
18	0xbceed19b	-0.029152682
19	0xbd457a21	-0.048212174
20	0xbc87ad6e	-0.01656219
21	0x3e1a6407	0.1507722
22	0x3da2cb8e	0.07948981
23	0x3e3b88d4	0.18313915
24	0x3dd6b179	0.10483069
25	0xbdabe84c	-0.083939165
26	0x3e143a8a	0.14475456
27	0xbdf59928	-0.11992103
28	0xbdef459c	-0.11683199
29	0xbd32b778	-0.043632
30	0x3d207cf9	0.039181683
31	0xbe1ee74b	-0.15517919
32	0x3dca2699	0.09870643
33	0xbe814771	-0.25249818
34	0x3df490e4	0.11941698
35	0x3ce5c54c	0.02804818
36	0x3e8af0df	0.27136895
37	0x3d7c9591	0.061666075
38	0x3e8e3f1d	0.27782527
39	0x3e5317e7	0.20614587
40	0x3c838b12	0.016057525
41	0xbe5366a6	-0.20644626
42	0xbd3bea8e	-0.045877986
43	0xbe0725b5	-0.13197978
44	0x3e1e9f88	0.15490544
45	0xbe908261	-0.2822447
46	0x3e11f22b	0.14252536
47	0xbe0d0d2a	-0.13774553
48	0x3e90c961	0.2827864
49	0x3e4c260a	0.19936386
50	0xbe3e68e0	-0.18594694
51	0x3d3b7c05	0.04577257
52	0x3c7d08cc	0.015443992
53	0xbe8f899c	-0.28034675
54	0x3da3e4d3	0.08002629
55	0xbe53d42d	-0.20686407
56	0xbd789fdd	-0.060699333
57	0xbc7f7f89	-0.015594372
58	0xbdac8d69	-0.08425409
59	0xbd28ac0d	-0.041179705
60	0x3dec9c72	0.11553277
61	0x3cf1d93c	0.02952253
62	0x3c1437a3	0.009046468
63	0xbdb3541b	-0.08756276

net.6.weight f4 [6, 64]
0	0x3e24e2db	0.16102163
1	0xbeaa502f	-0.332643
2	0x3d4fb638	0.050710887
3	0x3dfc80df	0.12329268
4	0x3eb237b6	0.3480813
5	0xbde63065	-0.11239699
6	0xbeb46e5b	-0.35240445
7	0xbe955d03	-0.29172525
8	0x3e59dfe6	0.21276817
9	0xbd5883e8	-0.05286017
10	0x3ea4a047	0.32153532
11	0xbec93f73	-0.3930622
12	0x3e093463	0.1339889
13	0xbe9ccd4f	-0.30625388
14	0x3e2b8afb	0.16752236
15	0x3ec80949	0.39069584
16	0xbdc96c0a	-0.0983506
17	0x3e43c128	0.19116652
18	0xbe9798c3	-0.29608735
19	0xbce97699	-0.028498935
20	0xbe8b8698	-0.27251124
21	0xbdca2aef	-0.0987147
22	0x3e378172	0.17920473
23	0xbd982196	-0.07428281
24	0x3cec9c20	0.02888304
25	0x3e2864d2	0.1644471
26	0xbcf403e4	-0.029787011
27	0x3d70d2e2	0.058794864
28	0xbddb89ae	-0.1071962
29	0xbd7a87b3	-0.06116457
30	0x3d0d129d	0.03444158
31	0xbcc943a9	-0.024568396
32	0x3edfa134	0.43677676
33	0xbe3f9345	-0.18708523
34	0xbec47b33	-0.38375244
35	0x3e82c182	0.2553826
36	0x3e4126a5	0.18862398
37	0xbd0def77	-0.0346522
38	0xbd4fe125	-0.050751824
39	0xbd644f26	-0.055739544
40	0x3b2a001d	0.002594001
41	0xbf112b51	-0.5670672
42	0x3d3d312f	0.046189483
43	0x3e28646f	0.16444562
44	0xbd80920b	-0.062778555
45	0x3ed1b185	0.4095575
46	0x3d4eb81c	0.05046855
47	0xbed491b8	-0.41517425
48	0xbdce3c20	-0.10070062
49	0x3dd69ad0	0.10478747
50	0xbe43c571	-0.19118287
51	0x3d6c54b5	0.05769797
52	0xbf0096dd	-0.502302
53	0xbdb424d7	-0.08796089
54	0x3cccd676	0.025004607
55	0xbe50d448	-0.20393479
56	0x3d8aa8d7	0.06770485
57	0xbe59c35b	-0.21265928
58	0xbe8a1f87	-0.26977178
59	0x3d20e2d7	0.03927883
60	0x3e8d96dc	0.2765416
61	0x3eb5cd07	0.35507986
62	0xbe3b7734	-0.18307191
63	0xbe310d0a	-0.1729013
64	0xbcf05d0d	-0.029341245
65	0x3e5abc83	0.21360974
66	0xbe0141cd	-0.12622757
67	0x3ccfbb9d	0.025358016
68	0xbd9da902	-0.07698251
69	0xbcd4a291	-0.025956424
70	0x3ea69e3c	0.32542598
71	0x3b8a4011	0.004219063
72	0xbdae3c81	-0.08507634
73	0x3ef65fd6	0.48119992
74	0xbc822c38	-0.015890226
75	0x3d3224fc	0.043492302
76	0x3deeb2ef	0.116552226
77	0x3df8b4d8	0.12143868
78	0xbe193841	-0.14962865
79	0xbf220796	-0.63292825
80	0xbe2915f0	-0.16512275
81	0xbdad5573	-0.08463564
82	0xbb4f66b8	-0.0031646919
83	0xbdf008c6	-0.117204234
84	0x3f0b81e1	0.54495054
85	0xbe4bfc0d	-0.19920368
86	0xbed67a81	-0.41890338
87	0xbe5e7362	-0.21723703
88	0xbd552368	-0.05203572
89	0x3d684411	0.05670554
90	0xbe0a7ee0	-0.13524961
91	0xbd5ac297	-0.05340823
92	0xbd809d93	-0.06280055
93	0x3e3e2f7c	0.18572801
94	0x3de2c99d	0.11073611
95	0xbda4215d	-0.08014176
96	0xbd481903	-0.048851978
97	0xbeb915fc	-0.36149585
98	0x3ebd487c	0.36969364
99	0xbd646539	-0.055760596
100	0xbe5c5944	-0.21518427
101	0xbbcbd309	-0.0062202257
102	0xbe17c4c2	-0.14821151
103	0x3e610cc8	0.21977532
104	0xbe2ff0de	-0.17181727
105	0xbf10db00	-0.5658417
106	0x3de92a5b	0.11385032
107	0x3c9ec313	0.019380128
108	0xba438015	-0.00074577454
109	0x3df7de6f	0.12102973
110	0xbcfae695	-0.030627528
111	0xbe1cdfcd	-0.15319748
112	0xbdbb1063	-0.09133985
113	0xbe4a4e88	-0.1975652
114	0xbe2be5d4	-0.16786891
115	0xbda5bc76	-0.08092587
116	0xbecdf339	-0.40224627
117	0x3d9cf864	0.07664564
118	0x3e08cba2	0.1335893
119	0xbe899db1	-0.26878121
120	0x3dac15ab	0.0840257
121	0x3d942b39	0.072348066
122	0xbd01ab76	-0.03165766
123	0xbdd37ab2	-0.10326137
124	0xbe0ebc41	-0.13939
125	0x3c9ed755	0.019389788
126	0x3ebf7be1	0.373992
127	0x3e1631e0	0.14667463
128	0xbf7625a9	-0.96151215
129	0x3d05fbea	0.032710947
130	0xbd9f3ea0	-0.07775617
131	0xbf6349d1	-0.8878451
132	0xbf591762	-0.84801304
133	0x3f8eded9	1.1161758
134	0x3e999c45	0.30002037
135	0x3fadfcb4	1.3592744
136	0xbf8bf501	-1.0934144
137	0x3eae7a8d	0.34077874
138	0xbdedc565	-0.11609916
139	0x3face9b0	1.3508816
140	0x3e3bae07	0.18328105
141	0x3f92033a	1.1407235
142	0xbf18835c	-0.5957544
143	0x3ddc8c47	0.10768943
144	0x3db7f206	0.08981709
145	0xbf577e45	-0.84177047
146	0x3fbc86fe	1.4728696
147	0xbdf2eea2	-0.11861922
148	0x3dee37ae	0.11631714
149	0xbe24c1dc	-0.16089576
150	0xbcea1752	-0.028575573
151	0xbeb7cb14	-0.35897124
152	0x3eb235cd	0.34806672
153	0xbf68f28b	-0.9099509
154	0xbf6e6da7	-0.93136066
155	0xbce7af6e	-0.028281894
156	0xbf5da911	-0.865861
157	0xbe9608af	-0.293035
158	0x3e33bf05	0.17553337
159	0xbda03b27	-0.078237824
160	0xbf3b1fa5	-0.7309516
161	0x3ec98691	0.3936048
162	0x3cc120e7	0.02357526
163	0x3e92d2e3	0.2867652
164	0x3d104f2f	0.035231765
165	0xbdc875ec	-0.09788117
166	0xbead5838	-0.33856368
167	0x3d041d8e	0.032254748
168	0xbc53c591	-0.0129255215
169	0x3ec71ccc	0.38889158
170	0x3c59ebd4	0.013300855
171	0xbf89e597	-1.077319
172	0xbf4cb7bb	-0.7996785
173	0x3f495369	0.786429
174	0xbf778cd7	-0.9669928
175	0xbf06a89f	-0.52601045
176	0xbf0b2e60	-0.5436764
177	0xbe572b0a	-0.21012512
178	0x3dde4083	0.108521484
179	0x3d9402ca	0.072270945
180	0x3f26fc36	0.65228593
181	0xbf203383	-0.625786
182	0x3daafd1a	0.083490565
183	0x3f44b918	0.7684493
184	0x3f6b043b	0.9180333
185	0xbf0c6747	-0.5484509
186	0x3f98312b	1.1890005
187	0x3f422640	0.75839615
188	0x3f510772	0.81651986
189	0xbf6d314f	-0.92653364
190	0x3f251b83	0.64495105
191	0x3ece66d4	0.40312827
192	0x3d7add25	0.061246056
193	0xbf15d5ff	-0.5852966
194	0x3d29f443	0.04149271
195	0xbe61eed0	-0.22063756
196	0x3f0d7a91	0.55265146
197	0xbc7ad978	-0.015310638
198	0xbf473083	-0.778084
199	0xbe464a1b	-0.19364206
200	0x3db34e04	0.08755115
201	0xbe3aa765	-0.18227918
202	0x3f940654	1.1564431
203	0xbe16d4d7	-0.1472963
204	0x3f161952	0.58632386
205	0xbc39a338	-0.011330418
206	0x3e967864	0.29388726
207	0x3eae4eb5	0.34044424
208	0xbe6bca90	-0.2302649
209	0x3d9c1a9f	0.07622265
210	0x3dc93c54	0.0982596
211	0xbf4c401e	-0.79785335
212	0x3eba9589	0.3644221
213	0xbf4f675d	-0.81017095
214	0xbf13560c	-0.5755317
215	0xc0065035	-2.0986454
216	0xbf8cf95c	-1.1013598
217	0x3e0830e3	0.13299899
218	0xbedb7a44	-0.4286672
219	0xbfde048c	-1.7345138
220	0x3ea2dc29	0.31808594
221	0x3f455242	0.7707864
222	0x3f85e350	1.0459995
223	0xbfac99ff	-1.3484496
224	0xbe7f20fe	-0.2491493
225	0x3f8d03aa	1.1016743
226	0x3f60fda7	0.8788704
227	0xbef9a22c	-0.4875654
228	0xbfaeacc5	-1.3646475
229	0x3fce7cb1	1.6131803
230	0xbfe1dabe	-1.764488
231	0xbee5d5ef	-0.4488978
232	0xbfa25759	-1.2682906
233	0x3e86ec0c	0.26351964
234	0xbfa757d6	-1.307368
235	0x3d9d444d	0.07679043
236	0xbf41eb90	-0.75750065
237	0x3f36955a	0.7132164
238	0xbe9cbe18	-0.3061378
239	0x3ece9d4a	0.40354377
240	0xbf9e0b00	-1.2347107
241	0xbf7c3a3a	-0.98526347
242	0x3f9048ee	1.1272256
243	0x3de11966	0.109911725
244	0x3e42175d	0.18954225
245	0x3fa95e3e	1.3231885
246	0x3fa84688	1.3146524
247	0x3f28e0b8	0.65967894
248	0x3eb56c63	0.35434255
249	0x3f08adcc	0.53390193
250	0x3d5e654d	0.054295827
251	0x3e628f0d	0.22124882
252	0xbf651e7a	-0.8949963
253	0xbd780a08	-0.06055644
254	0x3e3a1859	0.1817335
255	0x3f88d9e4	1.0691495

net.6.bias f4 [6]
0	0x3c59a930	0.013284966
1	0x3e9d293b	0.3069552
2	0xbe510d4c	-0.20415229
3	0xbf8336c3	-1.0251087
4	0x3e25e3c1	0.16200162
5	0x3e3118b3	0.17294578
