training/nn-medium.pth (torch, 335745 bytes, 30 tensors)

net.0.weight f4 [64, 25]
00000000: f360 913e 8d1a 05be eb08 6d3e 5217 283f
00000010: aa3e 683f a9f8 453f f3a9 f63e 02a3 9b3e
00000020: 4377 583e 1eb9 1e3f 07ed a03e 4124 183f
00000030: 5e8f fe3e 37d2 563e 7de0 bd3d 53f1 92bd
00000040: e3f0 b13e ec33 0b3c 0f5a b63f 7547 663e
00000050: 804c d1be 6e81 2340 1d44 33be 82e6 b43f
00000060: e053 053f 1030 b13d 4e2e ce3c b0c7 93bd
00000070: 6a9a cfbd 4002 61bc f65b 1c3d 0a27 5d3d
00000080: 05e3 883d ee63 853e e9f3 0fbe 1af6 e9bd
00000090: 3c0b 313e 658e e3bd 7656 93be 2bd6 48be
000000a0: c1df 8ebb 4b5a 0c3e 7f18 03bd 4662 9cbf
000000b0: 69e1 50bf 3214 943e c02b 54c0 3817 89bd
000000c0: 156a 86bc 06ee bd3c 58dc d23e 4568 8d3e
000000d0: 07d6 b93e f423 f23e da19 f43e 3bcc d43e
000000e0: 3a57 a73e 8b34 853e af05 92be e2f9 9bbf
000000f0: 9800 9abe 1da8 3a3f 7762 ef3e 6156 03be
00000100: 7d71 61be a8a1 55be 1ed2 48be b997 353e
00000110: 866f 4a3f 5118 b43f 149c 1d3e b176 eb3e
00000120: 76fb 91bc b799 0a3e 8f01 40bf 71d8 bcbf
00000130: a418 69be 561c ffbd aa20 d2bd f9db febd
00000140: 6c40 12be 1b4e 77be 4c75 87be 86e1 0d40
00000150: e3fa e53e 5bb3 263f e861 783e e897 f43d
00000160: 4ceb 393e 4eee 893e 9c63 633e d856 2d3d
00000170: 8b50 5bbe 8c61 3c3f ea74 3e3f 671e 8ebf
00000180: 6596 ac3e e285 b13c 9cc2 083c 7dad 123e
00000190: 0864 d1be d26f 8abd b49e e4bc 2ea7 823d
000001a0: acd1 163d 44be 86bc bd7b 0fbd ff3e d5bd
000001b0: 44cf 71c0 aaa7 0f3d 1bba 783f 56f8 e13e
000001c0: fdfb 17bd 499c a6be 0a61 71be 49d9 18bb
000001d0: 3040 66bf 0bb6 d03d 1f87 883e 8a88 963e
000001e0: b3cd 94be 78f0 933f d77f 0e3e 50bd 243d
000001f0: 8c24 d93e 4f19 1b3f a91d ff3c 15a4 803c
00000200: 7cf9 893a 91fa 06ba ba95 753b 1859 983c
00000210: c0f1 34bd b29e 173e aa41 823f 978e fb3e
00000220: d003 c83e bee6 073e d4d8 f8bc a26a 70bd
00000230: 466f 05be 2d22 053f 2acf a73d 623e 853f
00000240: 4343 463f bf8c 65bf a0a2 f4bf 55c7 133f
00000250: 1d77 ab38 bc5c 1d3e 52bb 2dbd 45bb 4a3d
00000260: 3d1f b3bc 5ffe b63d 9c7f 0f3e 3ef0 c73d
00000270: 1f82 923e 78c8 8140 c595 793e 78ea 4cbe
00000280: 36ee 063d 444f 26bd 1886 2cbe f90d eebd
00000290: 0c26 92be 60ad 87c0 f936 b63c 09cf ebbf
000002a0: 3d86 343e d805 b8be 9bd5 bf3e c4b0 893d
000002b0: e980 313c 4173 fabb f24a 1dbc df03 83be
000002c0: 077f 94bd 728a 103d 201c c43d 9ed2 483d
000002d0: 944f 8f3b 3897 14bc 5ef8 14bd 3a26 9a3f
000002e0: af87 0640 fd0b 193f 1df5 1ec0 c190 25c0
000002f0: 7fe5 25bf 635a 133f c74a 8d3e b0ae a73e
00000300: 3172 623d 22eb f63f 0aaa 6e3f 3814 8abf
00000310: f377 ce3f bae9 d6bd e28d a0bd 0edb b4bd
00000320: 149a 88bf 8ade aa3e 4cc6 0a3e 971a d03c
00000330: e612 bebc 4981 c9bd 44b1 2ebe 475a 02be
00000340: 0f8a 6f3f 10b1 bebe 6cc4 113e 79a0 5b3f
00000350: a3c3 6d3c 09c9 1f3e 2ff6 493e b7ff 06be
00000360: d54d c93f d790 98bc c1a7 fdbf 690f 813c
00000370: 0214 f3be 4093 a13f 6dba c5bd 8cc6 923c
00000380: ea12 69bd eab5 e1be f073 27be 9ae3 76bd
00000390: 9a19 133a 46b2 b03c 6a68 a53b 7359 90bb
000003a0: 459b c3bd e694 003f b5d8 7e3f 9734 bd3f
000003b0: 37b4 da3f dfbc 963f c533 973e 59e6 ffbe
000003c0: 4aa4 1dbf 467a 093e f745 2c3d 6198 6840
000003d0: 9163 cf3e b75e 96be d27b 40bf baf3 493e
000003e0: bd9c 55bc dcdc 253e a44b bcbd 1cd2 a33d
000003f0: b3bf 173e 5790 493e 1c15 5e3e aaa1 473e
0.2839428 -0.1299841 0.23147933 0.65660584 0.9072062 0.7733255 0.48176536 0.30397803
0.21139245 0.62001216 0.31430838 0.5943032 0.49718755 0.20978628 0.09271333 -0.07174935
0.34754094 0.008496266 1.4246234 0.22488196 -0.40878677 2.5547748 -0.17506452 1.4132845
0.5208111 0.08651745 0.025168564 -0.07215822 -0.10136874 -0.013733447 0.03817364 0.05399231
0.066839255 0.26052803 -0.14057888 -0.11423893 0.17289442 -0.11111144 -0.28776902 -0.19612949
-0.0043601696 0.13706319 -0.032005783 -1.2217491 -0.8159395 0.28921658 -3.3151703 -0.06693882
-0.016408006 0.023184787 0.41183734 0.27618614 0.36296102 0.47293055 0.47675973 0.41562065
0.32683736 0.2601665 -0.2851996 -1.2185633 -0.30078578 0.7291277 0.4675481 -0.1282592
-0.22015949 -0.20862448 -0.19611403 0.17733659 0.7907642 1.4069921 0.1539157 0.45988992
-0.017820101 0.135352 -0.7500238 -1.4753553 -0.22763306 -0.124565765 -0.102601364 -0.124443
-0.14282387 -0.24150889 -0.26456678 2.2168899 0.44917974 0.65117425 0.24256098 0.11943036
0.18156165 0.26939625 0.22205967 0.04231915 -0.21417443 0.73586345 0.74397147 -1.1103028
0.33708492 0.021670286 0.00834718 0.14323993 -0.4089663 -0.06759609 -0.027907707 0.06379543
0.036821052 -0.016448148 -0.035030115 -0.10412406 -3.7782755 0.035072006 0.97158974 0.44134778
-0.03710555 -0.3254111 -0.23572174 -0.0023322871 -0.8994169 0.10190972 0.2666559 0.29401046
-0.29063186 1.155776 0.13915955 0.040219605 0.42410696 0.6058549 0.031142073 0.01570324
0.0010526623 -0.00051490316 0.0037473277 0.01859717 -0.044175863 0.14806631 1.0176289 0.49132225
0.3906541 0.13271615 -0.03037683 -0.058695443 -0.13030729 0.52005273 0.0819381 1.0409663
0.77446383 -0.89667886 -1.9112129 0.5772603 8.176102e-05 0.15367407 -0.04241497 0.049495
-0.021865482 0.08935236 0.14013523 0.097626194 0.286149 4.0557213 0.24373539 -0.20011318
0.03294202 -0.040602937 -0.16848028 -0.11623759 -0.28544652 -4.239914 0.02224301 -1.8422557
0.17629333 -0.35941958 0.37467656 0.067231685 0.010833957 -0.007643134 -0.009600388 -0.2558889
-0.07250791 0.03528828 0.09575677 0.049028985 0.0043735 -0.0090692565 -0.036369674 1.2042916
2.1020315 0.5978392 -2.4837105 -2.58696 -0.6480331 0.57559794 0.27596113 0.32750463
0.055284683 1.9290507 0.9322821 -1.078742 1.6130356 -0.104937986 -0.07839562 -0.08830844
-1.0672021 0.3337291 0.13552207 0.025403304 -0.02320237 -0.09839112 -0.17059809 -0.1272975
0.93570036 -0.37244463 0.14235085 0.85791737 0.014511975 0.15604033 0.19722818 -0.13183485
1.5726877 -0.018623753 -1.981682 0.015754418 -0.47476202 1.2623062 -0.096546985 0.01791694
-0.056902803 -0.44084102 -0.1635282 -0.06027565 0.000561142 0.021569382 0.0050478475 -0.0044051944
-0.095511 0.502272 0.9954942 1.4781674 1.7086247 1.1776389 0.29531685 -0.4998043
-0.6157881 0.1342555 0.04205891 3.6343005 0.4050565 -0.29369137 -0.75188935 0.1972188
-0.013037858 0.16197532 -0.09194115 0.079990596 0.14819221 0.19683968 0.2168774 0.19495264

net.0.bias f4 [64]
00000000: c551 7dbc c65e 27bf 63c1 a83f 5175 d23e
00000010: f60d 733e 9f6c 243f bc4b 8cbe 4f73 243f
00000020: 2973 f2bd 2931 8e3e c3f9 353d 7d2a 203f
00000030: 8e8f 08be 5bec b0be 719a 753e 3f64 93bd
00000040: e29e 953e 6d7a e53b 5036 593e e8f2 c5bd
00000050: f753 e53e 5028 b93e c7dd 96bd 932f d7bd
00000060: c156 72be b9c8 f2bd 7814 843e d266 8f3f
00000070: e0ca a8bd 8f06 273f 9951 3cbe 4932 1bbe
00000080: 8d41 423f 602d 9ebe baf8 9c3f 37d8 583f
00000090: 4486 4a3f bb49 1b3f 110f 7f3e 2020 bd3e
000000a0: 17b5 de3b 7e83 313f ff8d 6f3f 89c2 33bf
000000b0: c38e 76bf 683e ca3e fc00 983c a653 063e
000000c0: 54f2 2cbf a3c3 633e 8733 09bd 3a85 de3d
000000d0: 01e4 2c3f 9789 093f 1d0d bd3e 140f 263f
000000e0: aed7 1ac0 fa99 0c3f fbd0 c2bd 3818 08ba
000000f0: ea2e 3bbe 83ec db3e 084f bc3e 8694 523f
-0.01546139 -0.6537899 1.3184017 0.4110513 0.23735794 0.6422824 -0.2740153 0.64238447
-0.11838371 0.2777188 0.044427644 0.6256483 -0.13336012 -0.34555325 0.23984696 -0.07196855
0.2922278 0.0070031197 0.21212125 -0.09665471 0.44790623 0.36163568 -0.073665194 -0.10507121
-0.23665906 -0.11854691 0.25796866 1.1203253 -0.0824182 0.6524438 -0.18390502 -0.15155901
0.7588127 -0.30893993 1.2263405 0.8470492 0.79111123 0.6065938 0.24908091 0.36938572
0.00679649 0.69341266 0.93576044 -0.7021871 -0.9631159 0.39500737 0.018555157 0.13117847
-0.67557263 0.22242598 -0.033496406 0.10865255 0.67535406 0.5372557 0.36924067 0.6486676
-2.419414 0.5492245 -0.09512516 -0.0005191597 -0.18279615 0.42953882 0.36779046 0.8225788

net.2.weight f4 [64, 64]
00000000: 8a54 13be 2991 383e 7bd0 31bd 8db6 b73e
00000010: 7d39 00be dc3d f23c e02a 013c b519 973f
00000020: 35c9 be3c 11fb 973e 7e58 913d 4a16 743e
00000030: 1307 8ebd c020 f93d 0a1d fa3e b0c0 373e
00000040: 15fb 3cbe e313 903c eda5 f8bd 3211 b0be
00000050: 110a 873e 0ec8 0c3f 06b5 25bd 4586 cbbe
00000060: d926 f2bd 99b8 5f3f c954 fbbd 1711 2dbe
00000070: afbc 05bf fced 58bf 4e57 f43e b776 a13e
00000080: 13d3 cbbd fd27 ae3e c504 66bd 143d 803f
00000090: 7ed9 a0be 25cb ecbe 7375 cfbd b2e5 a0bd
000000a0: 4782 493d 83f2 fbbc 831f 1b3f b46a 8b3d
000000b0: b855 c7be ba91 823d e495 5ebe 10f7 623d
000000c0: fb11 bcbb f08d cbbe 3a84 0fbf eb2b ff3e
000000d0: 3871 bcbf efaf 93be dce3 30bd 9d63 763e
000000e0: 57cc 24bd 5330 3d3e 8332 18be ebfd 873e
000000f0: cf26 12be afa8 af3d c096 db3d b88b 343e
00000100: 23c0 2c3e 5a94 d7be ae72 913d 5c47 473e
00000110: a4d3 05c0 1b56 ec3e 5942 853c f057 73bd
00000120: bd38 e7be b39b 723d dc32 2f3e b445 993f
00000130: a2c2 b1be 0edc a03c e6b9 81be 3c4b 853d
00000140: 8d97 133f 1a7c 7e3f fa45 79bf 59f7 203d
00000150: 6632 ae3e fe62 a2bf 3be1 1dc0 848a a93e
00000160: 025a b53c 1976 0b3d 9c2f 3b40 711e 35bf
00000170: 30ee 843e 6a42 6bbe a56f 543e ecb6 ccbd
00000180: 0b31 34be 56af 93be aba3 053f 66b9 b5be
00000190: 38a8 a13e d128 843e 1d24 723f 755e ecbf
000001a0: 2de2 c73e f834 41bd d69c 7c3e e952 24bf
000001b0: 57b3 4d3e 690e 993f 27af 383d 5715 073e
000001c0: f4e6 b4be 9e3d 753f 7f89 233f 8792 c1be
000001d0: ef17 703e 7dd1 383d 0a5a 89be 917e c33c
000001e0: 911d 89bc 768c 6b3f d1a7 aa3e 111e 91bf
000001f0: 1271 a4bc e002 8ebe e330 43bf 963b abbe
00000200: 4112 8b3d 06d6 84bc 7d5a 4fbb bc13 3e3f
00000210: ad97 c9bf ff1a d8be 9f68 903c c459 d5bd
00000220: b736 0dbf e661 75be 7fe2 e23d 1170 0a3e
00000230: 730e 71bf a035 79bd 8140 f23e 1afe e83a
00000240: 677d a63d f592 673f 5cc1 7f3f c53a 9cbd
00000250: 50c1 5bbe 3146 14bf 7f9b 28bf 310d b13e
00000260: dfc5 0a3d 9bb5 323d 39d0 863f 7338 d0be
00000270: 288b 773e 2c2d 4a3e bcae 14bf a13c 533e
00000280: 959f afbe dbdb a73d 0dc7 d33e 017f b43e
00000290: a4d5 263e 4795 81be 2f10 f73f 9097 92bf
000002a0: f973 993e 3926 a8bb da85 e23e 2fe6 e8bd
000002b0: ae19 50be bb9b 303f 99a5 7abf 9e56 9abd
000002c0: 26f5 d63c b93a d03d 5af9 383f 8a31 e73c
000002d0: 74bd 02bf e070 a6be fc59 bfbd 55e5 89be
000002e0: e09f 3f3d bdce af3e 7571 eebe c7c0 70be
000002f0: cbc8 8c3d 20ac 7bbd dd74 013f 89ba f9bd
00000300: 2871 a83e 80fa 95bf 2ac0 03bf 7694 05bd
00000310: 288d f23a 4242 833f 52be e53c 9dde fc3c
00000320: de37 4ebe 17f2 cdbe c469 e63d b877 683e
00000330: 906a 92bd 2a7e 95be 66fc 7ebe f346 04be
00000340: 8088 ab3e 7c84 c33e a84b a03f f830 6cbe
00000350: 6412 0ebe 5a4c 24be 75c2 c1be 5937 8d3f
00000360: 355b 703d f5fd 4c3e ee9f 483e 610b 91bd
00000370: b260 b7bd c82f 723e cf14 91bf 411e 8cbd
00000380: 48a2 033f d4ab 063f 1ef1 73bf 5e7c bdbc
00000390: bb3f df3e 6059 72bf be5f 043f 1d5f 2bbe
000003a0: 1ba7 ff3c 1924 023d 3893 ca3e 114a fbbe
000003b0: f24a 573f 61b7 c13e 7d89 823d 5635 943e
000003c0: 4544 c1bc e768 c4be 4c7a ff3e 8185 8e3e
000003d0: 5cc1 e43b b4f6 d8bc 8a06 dcbd 420b 8f3f
000003e0: 444e ac3e 39ad 2bbf d0ed fb3d 3183 04bf
000003f0: 2a5b 0ebc d629 2e3d 0e48 2fbd 27cf d4bd
-0.14387718 0.18024124 -0.043411713 0.35881463 -0.1252193 0.029570512 0.007883757 1.180472
0.023289302 0.29683736 0.07096957 0.23836628 -0.06934943 0.1216445 0.4885028 0.17944598
-0.18455155 0.017587608 -0.12141023 -0.3438812 0.26374868 0.5499276 -0.04045584 -0.39750877
-0.11823816 0.8739105 -0.12272031 -0.1690105 -0.52241033 -0.84738135 0.47722858 0.31535885
-0.099523686 0.34014884 -0.056156892 1.001864 -0.31415933 -0.46248737 -0.101298235 -0.07856311
0.049196508 -0.030755287 0.6059496 0.068074614 -0.38932586 0.063754514 -0.21736866 0.0554114
-0.005739448 -0.39756727 -0.56061137 0.49838194 -1.4722052 -0.28845164 -0.043186054 0.24061437
-0.040233936 0.18475465 -0.14863019 0.26560912 -0.14272617 0.08577096 0.10722113 0.17631423
0.1687017 -0.4210537 0.071019515 0.19460815 -2.0910425 0.46159443 0.016266989 -0.059410036
-0.45160475 0.059230518 0.17109245 1.1974397 -0.34718806 0.01963618 -0.25337142 0.065084904
0.57653123 0.99408114 -0.973724 0.03929839 0.34022826 -1.268646 -2.466872 0.33113492
0.022137646 0.034048174 2.9247808 -0.70749575 0.25962973 -0.22974554 0.20745714 -0.09995827
-0.17596833 -0.28844708 0.5220286 -0.3549301 0.31573653 0.2581239 0.94586354 -1.8466326
0.39039746 -0.047169656 0.24669203 -0.6418901 0.20087944 1.1957523 0.045088913 0.13191734
-0.35332453 0.95797145 0.6388168 -0.37807104 0.2344663 0.04512166 -0.26826507 0.023864063
-0.016737731 0.920112 0.3333116 -1.13373 -0.020073447 -0.27736568 -0.7624647 -0.33443898
0.06790591 -0.016215336 -0.0031639629 0.7424886 -1.5749413 -0.42208096 0.017628012 -0.10417512
-0.55161613 -0.23963127 0.11078357 0.13519312 -0.9416267 -0.060842156 0.47314838 0.0017775923
0.08129387 0.90458614 0.9990442 -0.07628397 -0.21460462 -0.57919604 -0.6586227 0.34580377
0.03388011 0.043630224 1.0532295 -0.40668067 0.24174178 0.19743794 -0.58079123 0.20628597
-0.3430144 0.08196231 0.413628 0.35253146 0.16292435 -0.25309202 1.9301814 -1.1452503
0.29971293 -0.0051315096 0.44242746 -0.11372029 -0.20322296 0.68987626 -0.9790893 -0.07536052
0.026239943 0.101674505 0.7225548 0.028221864 -0.5107033 -0.32507992 -0.09343335 -0.2693278
0.046783328 0.34337416 -0.46570936 -0.23511039 0.06874236 -0.061443448 0.50568944 -0.12193782
0.3289883 -1.1717072 -0.51465094 -0.032612287 0.0018505203 1.0254595 0.028044853 0.030867869
-0.20138499 -0.40223762 0.11250642 0.22701919 -0.071492314 -0.29197818 -0.2490097 -0.1291769
0.3350258 0.38187015 1.2523088 -0.23065555 -0.13874203 -0.16044751 -0.3784367 1.1032516
0.05868073 0.20018752 0.19592258 -0.070822485 -0.0895399 0.2365104 -1.1334475 -0.06841708
0.51419497 0.5260594 -0.9528979 -0.023130592 0.4360331 -0.94667625 0.5170859 -0.16735502
0.031207612 0.031772707 0.39565444 -0.49079946 0.8409873 0.3783522 0.0637388 0.28946942
-0.023592124 -0.38361284 0.49897993 0.2783623 0.006981058 -0.026484825 -0.10743435 1.1175311
0.33653462 -0.6706119 0.123012185 -0.5176268 -0.008688727 0.042520367 -0.042793326 -0.10391074

net.2.bias f4 [64]
00000000: e2c9 ec3c 2aa2 a03d 4f2e 493c 8e51 9abe
00000010: e16c a33d 1c64 a73e cf93 533d dd92 683d
00000020: cdf5 02be b729 ae3d b3c7 61bd 1a26 873e
00000030: 400a f93e a858 b1bc 1884 753e 6e9f b1bd
00000040: cf60 fd3d a19c 56bd d462 653d a4ea 0ebe
00000050: b36c b1be 6c23 eebe 5cdb 3abf 4ea5 ed3d
00000060: 33c4 873e 2216 26bf 3763 b13e c4b6 e03d
00000070: e15c d73e c968 59be 0468 173e aa30 ea3d
00000080: 9c0e bb3e 1d76 e5bd 4f64 66bd 90c9 80be
00000090: f8b1 2fbe ac4d 1dbe b0ce 473c 9519 8dbe
000000a0: e564 103d 56d5 02be c35c 35be d56b 15be
000000b0: db51 283c 808e c1bd df65 d8bd ca74 143f
000000c0: 233a 0abe 5f99 833e 6a83 a03d 2773 03be
000000d0: 54dc c33d c769 bd3e 65f8 a6bd f6f6 403d
000000e0: 760c 143e 4d2b 9b3e ed98 fa3e d436 603f
000000f0: d6ac b73d 02d2 2e3e f9f9 653e aaf7 da3b
0.028904859 0.0784343 0.012279107 -0.30140346 0.079797514 0.32693565 0.051654633 0.056780685
-0.12789078 0.0850405 -0.05512209 0.26396257 0.48640633 -0.02164872 0.23976171 -0.08672987
0.123719804 -0.052395467 0.056002453 -0.13956696 -0.34653243 -0.465114 -0.72990966 0.11603795
0.26516876 -0.6487752 0.34646007 0.1097236 0.42063048 -0.21231379 0.14785773 0.11435063
0.36534584 -0.11204169 -0.056248005 -0.2515378 -0.17157733 -0.1536166 0.012195274 -0.2755858
0.03525247 -0.12776694 -0.17711167 -0.14591916 0.010273422 -0.09451008 -0.10566305 0.57990706
-0.1349874 0.2570295 0.07837565 -0.12836896 0.09563509 0.36994764 -0.08152846 0.04711052
0.14457878 0.30306473 0.48944798 0.8758366 0.08968513 0.17072299 0.22458638 0.006682356

net.4.weight f4 [64, 64]
00000000: 16dc 71be f3c7 29be 3217 93be 296e 56be
00000010: 691d 86bd 84fb d03e c9db 953d c6a1 c3be
00000020: 795b b2bc c54a 22be 440b 96be 2b79 cbbe
00000030: 8bb6 f93e 582f b0bc 0fb1 533e fa12 3dbf
00000040: b4fd 023f 2810 94be 6b62 16bd ee73 e23e
00000050: f098 1abd d660 f0bd fcab 9b40 8fec 38bf
00000060: 7112 063e 0f2e c0bc 70c0 5bbe f83b f3bd
00000070: 6404 73be 5d95 403d db22 e33e 97ba c03e
00000080: b37a 303c 9303 a9bd 7971 c7bb b6a4 9b3e
00000090: c7e9 643e 0c75 5dbe ee32 ec3b eee9 dcbe
000000a0: 7e27 013e c14b 1bbf d966 5bbd 5902 043e
000000b0: dd22 d0bc 86ca d139 bdb0 72bd 67ad 42ba
000000c0: 5b08 01bd 24c8 873d 895a 093e 1f9c 5ebe
000000d0: 82e4 123e 73d6 2b3f 8056 cbbe acab b0bc
000000e0: 88f8 0a3e 856d 1cbf 10d8 eabe c223 10bf
000000f0: 8461 6d3d 536d 423c 45b0 edbd 5c28 67be
00000100: 0bb3 c7bd ab90 6a3d 047b 6dbd 1b5b d6bd
00000110: 975e b3bd 519d 363d 9aa8 b3bd 6810 08be
00000120: b3a1 43bd f4a4 973d b0d5 59bc f6a4 b3bc
00000130: aa58 053e 4f4d 143d 9eed 74bd 124d 05bd
00000140: 06c6 1fbe 23ab 3dbe 549d 383c 5095 15bc
00000150: e029 debd 24f4 adbb 51df 783d d571 dc3d
00000160: 2a01 28be 334e f03c 354b 87bd 71b2 5d3e
00000170: 663c 7f3c 4978 61be e955 4f3c 1751 8f3d
00000180: c97e c0be 4d48 c9bc 21ad 1a3d ee16 373d
00000190: dd75 1f3d 8a85 afbd dc87 9ebe 1226 74bd
000001a0: 218b d8bd c59e a83d 5613 9fbe 02ed 8f3c
000001b0: 7ff1 423e b48b a23d c723 013d 1d24 043d
000001c0: 0afe 3dbd 0f4b 02bd 85bf 8ebe 7c8e 313d
000001d0: 3808 e23d 63c9 433d 55b3 36be 774e 853d
000001e0: b57a 213c db7c 64bd 5bd0 823c 9b24 a73e
000001f0: b31e d83d 5cdc 01bd a0ef 37bd 8005 f8bd
00000200: e3b6 82bc baa1 aabd c39e 81bd 3cdd b23d
00000210: 5364 ccbd 23f4 e83d c082 4e3d e419 633e
00000220: 494f 1abe 1dc3 7fbe 8b09 babe 4df3 093e
00000230: 6449 de3d b397 ac3c 269e a93c 98cd d4bd
00000240: dcac 5abe 749b a7be 8316 8d3d 5ac8 203e
00000250: cde7 a3be a505 e6be 11e5 0d3d 5d3d 89bd
00000260: fe72 7f3b 170d 983d b752 b0be 0020 4ebd
00000270: f216 263e 4aaa dc3d 6bc9 df3c a360 773e
00000280: 0b49 8b3c 2540 16bd 0264 ffbd 5a0d a63d
00000290: bb1c eb3d ca7f 85bf d794 743e c74b 003e
000002a0: 94ac 60be 6561 a63d 5b0d b23d 5d4d c7bd
000002b0: 567e 143e 21f0 f63d 3c75 dfbd 36c5 473e
000002c0: 7e61 14be df94 9a3e c5b6 343e 74f6 74be
000002d0: d149 103e 000e 5ebe c285 e1be 3620 eb3c
000002e0: d530 003e 581b 453d 202f 8fbd ced0 a63e
000002f0: f3bf 2a3e 9fb1 a73d b02a fdbd dde5 38bf
00000300: 2d87 173d 51e2 10be ad91 eebd fb44 23be
00000310: 105c 86bd b336 943d be7c 273d 97de dfbe
00000320: 0778 a0be 62d6 203e cdf5 8b3e ddcd 2abc
00000330: c0c2 48bf fc28 bdbe 6ab1 a63b 17ad 0c3f
00000340: 0598 363d 7fac cc3d 7e69 d8be a7ff b13e
00000350: 390e 1bbe dc01 d33d f5d5 c0bd 1d70 76be
00000360: 354f f2bd c412 f23c 96ce f3be 30cb 1dbe
00000370: e2c4 4ebe c3f3 f0bd a26a f53d 3d81 4d3e
00000380: e5fd 85be c97d 3d3c b09a b83e 929b bebe
00000390: 0d4d 0dbf 2f71 e9be ea44 0d3e b560 393c
000003a0: 91f5 cbbc 7229 1bbd 5922 173f 1cc6 8a3b
000003b0: df74 093e 063a cd3b 14f4 bfbe 4357 603e
000003c0: 55a2 f6bd 6e07 803d c523 893e 49b8 413e
000003d0: e7d9 04be a8b3 33be 2fea 893c 83e4 0fbf
000003e0: 6a97 25bd 4521 0ebe c51e 90bd ac71 ea3e
000003f0: 485e dcbe ebef 9b3e f9c5 34bd 8076 2b3e
-0.23619112 -0.16580181 -0.28728634 -0.2094046 -0.06548578 0.4081689 0.07317311 -0.3820936
-0.021772133 -0.15848835 -0.2930547 -0.3974088 0.48772082 -0.02150695 0.20673011 -0.7385708
0.5116837 -0.28918576 -0.036714952 0.44229072 -0.03774351 -0.1173722 4.864744 -0.7223596
0.13092972 -0.023459462 -0.21460128 -0.118766725 -0.23732144 0.047017444 0.4436253 0.37642357
0.010771441 -0.08252635 -0.006086525 0.30399102 0.22354804 -0.21626681 0.0072082197 -0.43147224
0.12612721 -0.60662466 -0.05356488 0.1289152 -0.02540725 0.00040014478 -0.059250582 -0.00074263517
-0.03150211 0.06629971 0.13413443 -0.21739243 0.14344981 0.671241 -0.39714432 -0.021566235
0.1357137 -0.61104614 -0.45867968 -0.5630456 0.057954326 0.011866885 -0.11605886 -0.2257399
-0.097509466 0.057266872 -0.057978645 -0.10466596 -0.08758276 0.044583622 -0.087723926 -0.13287508
-0.04776163 0.07404509 -0.013295576 -0.021929245 0.13022104 0.03620654 -0.059796922 -0.032544203
-0.15602884 -0.18522315 0.011267979 -0.009129837 -0.10847831 -0.005308645 0.060759846 0.10763899
-0.16406694 0.029334163 -0.066061415 0.21650101 0.015578365 -0.22018541 0.01265476 0.069978885
-0.3759673 -0.024570609 0.037762765 0.0446996 0.038930763 -0.085703924 -0.30963027 -0.05960662
-0.10573412 0.08233408 -0.3106944 0.017569069 0.19037436 0.079368025 0.03152826 0.032261003
-0.04638485 -0.031809863 -0.27880493 0.043348774 0.11036724 0.04779948 -0.17841847 0.065091066
0.009855916 -0.055783134 0.015968492 0.32645115 0.105527304 -0.03170429 -0.04490626 -0.12110424
-0.015956348 -0.08331628 -0.063291095 0.08733603 -0.09980073 0.113746904 0.05041766 0.22177845
-0.15069307 -0.24976774 -0.36335406 0.13471718 0.10853842 0.02106843 0.020705294 -0.103907764
-0.21355003 -0.3273579 0.068890594 0.15701428 -0.32012787 -0.4492618 0.034642283 -0.06701157
0.0038978453 0.07424372 -0.34438106 -0.050323486 0.1621969 0.107746676 0.027317723 0.24157958
0.017002603 -0.036682267 -0.12470247 0.08108015 0.11480089 -1.0429623 0.23884903 0.12528907
-0.21940833 0.08124045 0.086939536 -0.09731553 0.14501318 0.1205752 -0.109110326 0.19508824
-0.14490315 0.30191705 0.17647846 -0.2392214 0.14090659 -0.21685028 -0.44047362 0.028701883
0.12518628 0.04812178 -0.0699141 0.3258118 0.16674785 0.081881754 -0.123616576 -0.72225744
0.036994148 -0.14148833 -0.11648879 -0.15944283 -0.06560528 0.072369955 0.040890448 -0.4372451
-0.31341574 0.1570678 0.2733597 -0.010425058 -0.78422165 -0.3694533 0.0050870674 0.54951614
0.04457857 0.099938385 -0.42267984 0.3476536 -0.15142144 0.10303089 -0.09415809 -0.24066205
-0.11831514 0.029549964 -0.4761855 -0.15409541 -0.20192292 -0.11765244 0.11983229 0.20068832
-0.2617027 0.011565634 0.36055517 -0.37228066 -0.55195695 -0.45594165 0.1379582 0.011314561
-0.024897369 -0.037881322 0.59036785 0.0042350423 0.13423489 0.0062630204 -0.37490904 0.21908288
-0.12042681 0.06251417 0.26785102 0.18917955 -0.12973748 -0.17549002 0.0168353 -0.56208056
-0.040427603 -0.13879879 -0.07037119 0.4578985 -0.4304068 0.3045648 -0.044134114 0.16744423

net.4.bias f4 [64]
00000000: 98c7 acbe a122 e73e 9a94 473f 047b 84be
00000010: e516 bdbb e38e a7be 227d 1abe 964f 2b3e
00000020: fafb 0d3c ddd4 b43e 32bc 1a3e c827 8abc
00000030: a611 2f3f cd3e 373e 7879 c73c 28bf bf3e
00000040: ba9d 4fbe e4fc 813c 963d 053f fbd8 5e3e
00000050: 29d5 44be 6325 db3d c3a9 123e 19f7 bfbd
00000060: 1717 abbe 6ce4 d03e 961b 813e f785 b53e
00000070: b02f c83d 06cb 47bd 9d92 123e eea9 62be
00000080: fd12 acbe 9006 86bd 185f 0f3f 8188 fd3e
00000090: 8b74 b93e cf17 dfbd acfb 9fbd fba6 d63e
000000a0: 1a5b 70be 9830 75be 809a 0abf b971 713d
000000b0: 1fc9 b73e d3ee a33e 5785 573c 71e4 dcbd
000000c0: e417 99bd fecc 813e 0d8b 71bd e515 5c3e
000000d0: 71b7 023e 6c86 7e3e 1ac0 773c b032 8e3e
000000e0: 50fa d13d a27c cfbd 3a64 00bf a260 65bd
000000f0: e46d 573e e7c3 8f3e 9d86 98be ff83 73be
-0.33746028 0.45143607 0.77961123 -0.25875103 -0.0057705515 -0.327262 -0.15086797 0.16729578
0.008666033 0.35318652 0.15110853 -0.016864672 0.68386304 0.1789505 0.024349913 0.37450528
-0.20275012 0.015867658 0.520471 0.21762459 -0.19221939 0.1070049 0.14322571 -0.09373302
-0.33416054 0.40799272 0.2521636 0.3545377 0.09774721 -0.048777603 0.14313741 -0.22135136
-0.33608237 -0.065442204 0.56004477 0.49518207 0.36221728 -0.10893213 -0.078116745 0.4192427
-0.23472252 -0.23944318 -0.54142 0.058946345 0.3589563 0.32018146 0.013154349 -0.10785759
-0.0747526 0.2535171 -0.0589705 0.21492727 0.1276529 0.24855965 0.015121484 0.27773046
0.102528214 -0.10131194 -0.50152934 -0.05600036 0.21038014 0.2807915 -0.29790202 -0.23780821

net.6.weight f4 [64, 64]
00000000: 4ba8 493e 44cc 073e a89f dabe 6cec 4cbe
00000010: 5a41 1a3f 8311 bdbe 60b7 0e3d f628 043f
00000020: b932 683f 1964 ddbd 55b0 843f 4d84 833e
00000030: e32d 9e3c bd69 09bf 3aa7 80be 29c6 27bc
00000040: 889e c8bd 9871 bf3e 2460 953b a707 93be
00000050: 72a6 b23f 1da3 3e3f 64d5 0cbf b24c ec3e
00000060: e6ae 8d3e f73e acbd 7b70 7cbd 67e7 a4bc
00000070: 257f 92bd b045 95bd c0ba f33c 077b c03e
00000080: be3b 25be a576 223f 6d8d 0f3e b5c8 09be
00000090: 542c 5cbe 0ae6 893f 9a11 13be 6c06 62be
000000a0: 52e8 f3bd c334 a53e 2a93 883f 41f1 06bd
000000b0: eee7 2abe 99ff 8f3e ebdf 013e ea14 983f
000000c0: 1f74 463e 10c2 33be 37ba 49bd 5bf5 f63c
000000d0: 8f69 1ebf 0a67 8dbe ca2d ed3d 7175 883e
000000e0: 22bd 273e fe13 043f 1e07 38bd cdc2 fc3e
000000f0: 6437 733e 3d69 f2be b0e1 a33f 5061 483e
00000100: 525f 5cbf 1152 45bd 4115 70bd e2fc 7bbe
00000110: 650f e4bd 75a6 58bc 4b73 19bf 1d90 083b
00000120: 6541 56be b547 1ebd 428f cebc 832b 97be
00000130: d421 f73d 0715 453e fe8d d23c 2e9b 16be
00000140: 6a4f 37bd 36c1 413e 6e72 0c3e aa1c 2a3e
00000150: 5c80 0a3f 2161 85be fc0d 60be 1c7a 403c
00000160: d4e5 87bb 8757 8ebd 1a76 91be c8db 8cbd
00000170: b024 863e 7900 50bf 9d11 58bf 8486 4a3e
00000180: 29ba 39be 0814 09be 93b4 1abd b9bd 713d
00000190: e568 cbbd 4ab5 91be a238 453e 8fd8 33be
000001a0: 4a4a df3d 9a21 8cbb 964b d0bd 77ca 3bbe
000001b0: 741d 9c3b 258c 3e3d fe31 ea3d 95ff 93be
000001c0: 1d1e 1dbd 42b8 fc3c 0eea 073e 87b8 89ba
000001d0: 4c17 c1bd 26cb d7bc 2493 193e 21bf 043d
000001e0: c78b 79bf 8c8d e93d 84e2 89be 8196 f0bd
000001f0: 999c bdbd c40e dabb 0519 2a3e ce30 ef3c
00000200: 00d1 1ebe 558f 973e f20f 8ebe 92ef 843d
00000210: 3a34 58bd ad8f 603f 488b 183f cc41 3b3f
00000220: 33cc 813f 213f b7be 3410 aabd d194 643e
00000230: 4825 1dbe 504a dbbd 1746 30be 7291 e5bf
00000240: 41a7 b23f 0ba9 2e3e 18d3 b3bd 300a b9be
00000250: 46ba 613f e58d e0be 175a bc3e fcf3 32be
00000260: 906b b7bd d8ce aebe 2e71 83be c6b6 f73d
00000270: d107 19be 3248 41be 53d4 65bf 0c7f ca3e
00000280: 013c 003c f147 133f 2ab8 a5be 7454 adbe
00000290: 66e5 883d 35a1 7c3f 006a 8fbe 97e5 39bf
000002a0: b403 f2be 8332 76bd 1b9a be3d 74ba 163f
000002b0: ed1c ecbe 0d18 643e 10b0 10c0 6301 9e3e
000002c0: 7a4a acbf 1ae8 e8bd e439 c33e 5fd2 053e
000002d0: 0c25 7dbf 8e57 87bf 67c7 9abd 3cad cbbe
000002e0: a669 65bf fafa 423e 2f45 df3e bfd8 163e
000002f0: 85cb 673e 88a7 d2be 39d3 973f ec7f 8dbe
00000300: 5909 0bbf 3ee3 b4be 0b71 6fbd 93c4 c53c
00000310: 1d15 ea3c f8b5 403c efaf afbd 711f 553e
00000320: 2164 6dbe 9af5 48be f089 c0bc 981c 613d
00000330: fbb7 1c3d 5f6b 323e efe9 e3be a9dc 64ba
00000340: 1d72 ff3d 46bc 69be 4fe9 b33d a246 873d
00000350: f116 25be 5365 b6be a4e3 e33b bead 243e
00000360: d5b3 3e3e fbd0 a23d 43c5 8abd 5011 bbbe
00000370: f5cd d1be 1ae2 d33d 0cf1 a3be ae05 063e
00000380: 9876 e2be 8f6d 2bbd 4c98 64bd 257b de3d
00000390: 08d4 803e 1ac4 cebe 12df e7be de88 653d
000003a0: 45cf 5fbd 6bf3 57bb 5da3 5abd d074 75be
000003b0: 11e9 b8bd 085a 933c a42d 01be 9cc7 c7be
000003c0: 90e8 453d 72d7 27bd bfef a7bc cb6b 6abd
000003d0: 8db6 d6bc 1818 f63d ec0a 233e cffd f2bc
000003e0: 21b5 dfbe 3926 30bd fbc7 913d 223b a9be
000003f0: e18b 47be 1cae 75be 360d 9b3d b692 803d
0.19693105 0.13261515 -0.42699933 -0.20012063 0.6025597 -0.36927423 0.03484285 0.51625
0.90702397 -0.10810108 1.0366312 0.25686875 0.01930899 -0.5367697 -0.25127584 -0.010240116
-0.097958624 0.37391353 0.00455858 -0.28716776 1.3957045 0.7446764 -0.5501311 0.46152264
0.276725 -0.08410447 -0.061630707 -0.020129872 -0.07153157 -0.072886825 0.029752135 0.37593862
-0.16136071 0.6346229 0.14018793 -0.1345547 -0.21501285 1.0773327 -0.14362183 -0.22072762
-0.11909546 0.32266816 1.0669911 -0.03294492 -0.16690037 0.28124693 0.12683074 1.1881382
0.19380234 -0.17554498 -0.049249854 0.030146291 -0.6187982 -0.27617675 0.11580999 0.266521
0.16380742 0.51593006 -0.044928662 0.4936737 0.23751599 -0.47345915 1.2803249 0.19568372
-0.8608295 -0.048173968 -0.05861402 -0.24608186 -0.11135749 -0.01322328 -0.5994155 0.0020837851
-0.20923384 -0.038642604 -0.025214795 -0.29525384 0.12066999 0.19246303 0.025702473 -0.14707634
-0.04475347 0.1892136 0.13715526 0.16612497 0.5410211 -0.26050666 -0.21880335 0.011747863
-0.0041472707 -0.06950288 -0.28410417 -0.068778574 0.26199865 -0.8125072 -0.84401876 0.19777876
-0.1813742 -0.13386548 -0.037769865 0.059018824 -0.099321164 -0.28458625 0.19259885 -0.1756308
0.109028414 -0.0042764666 -0.10170667 -0.18338953 0.0047642533 0.04652037 0.114353165 -0.2890593
-0.038358796 0.03084958 0.13272879 -0.0010507264 -0.09428272 -0.026341986 0.14997536 0.032408837
-0.9747891 0.11403951 -0.2693063 -0.11747456 -0.09258384 -0.006654592 0.16611107 0.029198077
-0.15509415 0.2960154 -0.2774654 0.06491007 -0.052784182 0.8771923 0.59587526 0.73147273
1.0140442 -0.3579035 -0.08303872 0.22322394 -0.15346253 -0.10707533 -0.17214237 -1.7935011
1.3957292 0.17056672 -0.08780497 -0.36140585 0.88174856 -0.43858257 0.36787483 -0.17475885
-0.08956063 -0.34142184 -0.25672287 0.12095408 -0.14944388 -0.18875197 -0.89777106 0.39550054
0.007826806 0.5753165 -0.3236707 -0.33853495 0.06684379 0.9868348 -0.2801056 -0.7261595
-0.4726845 -0.060106765 0.09306737 0.58878255 -0.4611582 0.222748 -2.260746 0.30860433
-1.3460228 -0.11372395 0.38130105 0.13068531 -0.98884654 -1.0573595 -0.07557564 -0.39780605
-0.8961433 0.19041052 0.4360747 0.1473112 0.2263623 -0.4114344 1.1861335 -0.2763666
-0.5431114 -0.35329622 -0.058457416 0.024141585 0.02857452 0.011762135 -0.085784785 0.20812775
-0.23182727 -0.1962494 -0.023503274 0.05495891 0.038261395 0.17423771 -0.44514415 -0.00087303907
0.12472937 -0.22825727 0.087847345 0.06605269 -0.16122033 -0.3562418 0.006954627 0.16081902
0.18623288 0.07950016 -0.06775906 -0.36536646 -0.40977445 0.1034586 -0.32019842 0.13088104
-0.44231105 -0.04185253 -0.055809304 0.10863332 0.25161767 -0.4038399 -0.45287377 0.05603873
-0.054641027 -0.0032951485 -0.05337845 -0.23970342 -0.09028829 0.017987266 -0.12615067 -0.39019477
0.048317492 -0.04097695 -0.020500062 -0.057231706 -0.026210094 0.12016314 0.15922135 -0.029662041
-0.43692878 -0.043005202 0.07118221 -0.33052927 -0.19486953 -0.23992199 0.07570879 0.06277983

net.6.bias f4 [64]
00000000: 152a dabe 6157 713c 3bbb db3e 5901 01bf
00000010: c9e9 b53d c178 ae3e ddda 55be ef63 263e
00000020: 16e2 a33e 0886 3cbe 2d46 ac3e b392 bdbe
00000030: be37 6d3e cf27 8f3e 7df6 27bd 7487 fdbd
00000040: 9457 3bbf 6625 da3e 206b efbd 2d44 1a3f
00000050: c06c c4bd c5c2 cdbe 4f2f b4bd a636 993f
00000060: cfc5 2cbf 7db4 9f3d 160d d03f a3b6 2abe
00000070: 4fe9 2f3f c4d1 923e 5a3a a93d 5e67 903f
00000080: 8ecf a0be b200 ee3c 1723 6bbe d123 aabf
00000090: 015f ea3d d4fb 07bb bc78 593e 647f 83be
000000a0: 53ed 1c3d b770 eb3e a94a 9a3e d347 b7be
000000b0: 95f2 0e3e 520e 20bf 75e6 cd3e b658 fabe
000000c0: 7014 32bf f4eb c03e a89f 67bd 7654 083f
000000d0: 35b1 96be 499b f33e 9fb2 cc3e adb8 b13e
000000e0: efe7 26be bb78 053e 82ee e9bc dfe2 3d3f
000000f0: 9661 313f ce62 2c3e 504c 1dbe 0521 833f
-0.4261023 0.014730305 0.42916283 -0.5039268 0.088824816 0.34076503 -0.20884271 0.16249059
0.32008427 -0.18410504 0.3364729 -0.37025985 0.23165795 0.2796006 -0.041006554 -0.12379351
-0.7318051 0.42606658 -0.11690354 0.6026028 -0.09591055 -0.4018766 -0.08798086 1.1969802
-0.6748933 0.07798097 1.6253994 -0.16671233 0.68715376 0.28675663 0.08263083 1.1281545
-0.31408352 0.029053066 -0.22962604 -1.329218 0.11443902 -0.0020749466 0.21237463 -0.2568313
0.038312268 0.45984432 0.30135086 -0.35796985 0.13959725 -0.6252185 0.40214887 -0.48895806
-0.69562435 0.37680018 -0.056548744 0.5325388 -0.29432073 0.4757941 0.39980027 0.3471121
-0.16299413 0.13034336 -0.028556112 0.741743 0.6928953 0.16834566 -0.15361142 1.0244452

net.8.weight f4 [198, 64]
00000000: ab3b cd3e fc5b 493e 3275 793e 94ae 893f
00000010: a28a 0fbe 6ea3 c5be af03 d33e 70c4 9a3f
00000020: 8de0 043f e209 2240 27a7 c2bc edfc 3a3e
00000030: c778 c5bd 83ef a6be 22f7 c43d f65a 7abb
00000040: f5d8 4538 e2ce 32bf 9e2d d6be 6d0b fabf
00000050: 0699 c0bf 5d9a 6e3e c98e 2240 f361 f8be
00000060: f5c1 ecbd b650 2fbe 3601 16bf e6e0 2d3e
00000070: 95a2 213d f04f 05bf 3497 27be df58 653e
00000080: c251 bf3e 591c a13e 182f c0be a72b cdbe
00000090: ce0c 243f fe5e 443e c86b 803d 28dc a0bd
000000a0: 33be e7be a169 43be 532c 5e3d 8940 d03d
000000b0: 3130 a6bf 69d7 533f 6458 793e dc71 9cbe
000000c0: 887e d03d d9a3 40be 086f f4be c9ab 2ebf
000000d0: 9e76 973e 378e e33e bd0a b33e 6bf2 afbe
000000e0: 7190 c33e 0c58 863e a852 16be 5a7c 743e
000000f0: f2fd 983d 052b aa3e d9f5 953d 5752 11bf
00000100: 3d60 693d b92f 1dbc c341 fd3e 8b6a 7ebc
00000110: d111 ee3c 467c 6d3d ad39 b23b 141c 783d
00000120: 6f44 0c3d 66c1 afba ac31 ff3d 085f b5be
00000130: fcd9 073f 8b19 cc3d 14cf bc39 d8ea 3c3e
00000140: 61ef f4be 1a0c 8a3d b76f 033d b005 e33c
00000150: 7094 733e 5d81 7cbe 0dff 45bc d3f3 a8be
00000160: 3d48 9bbb ebb1 373d 2f61 b73c 17a0 78bd
00000170: 434d 30be b6a5 083f 165e 943e 1a3f 393e
00000180: cd9c 11be eba7 233c 44e3 1fbc 794c 33be
00000190: 1732 20bf 8f94 32be f6c6 1bbe 0269 e5ba
000001a0: 9469 023d da35 a63e 59cd 82bc 6cc3 c13d
000001b0: 81e2 323e d7f3 fabd c4b4 08be 0908 933e
000001c0: 36fe ce3c a0a8 f6bb faf3 08be 3e1b aebd
000001d0: 605e f43d 3be2 e53b 12d0 c6be b8e8 2fbe
000001e0: 9395 a3be 5abb 05be ea02 bc3e 9e58 34be
000001f0: a41b 7b3e 0334 dfbd f376 673c 64e8 efbd
00000200: 0479 98be f3e0 9aba b523 c2bd 33a7 18be
00000210: 0ee9 4ebd 4f2b ff3b 5f1c a53d d358 39be
00000220: 5845 213e c9d4 bcbb 6653 673e 273c 85bd
00000230: 1e80 563e 914f 0a3e d355 093d 8ee6 7b3d
00000240: ab72 ad3d 1319 473c 735d cb3d 9d02 a83c
00000250: 4a1c 133d a92a 1abe 4671 2a3c 1b7e 653b
00000260: 98bf 1b3b 6290 9f3c 1ad9 eb3c 590b 473c
00000270: 2614 27bc bd24 05bd 34aa 643d cf6c 3e3b
00000280: 5560 453d 28b6 b2bc 9a74 91bd 860a eabb
00000290: d665 80be 04d7 c33f 527a 2abe 9597 b5bc
000002a0: 4bdd 9abc 62f1 12bb de79 71ba eabf d4bd
000002b0: f874 a23e 1841 a3bc 3f4e 9fbe 7bed 383e
000002c0: 75fd a73b 7ca3 3dbc 9e10 c8bd 8996 333e
000002d0: e539 9abf d028 e73d 048d 4abd 1f13 61bd
000002e0: 0e17 943c 1de7 aebd bdd8 933d 0526 0d3d
000002f0: 630a bd3c 3947 7a3d 29d3 fbbb 437c 733c
00000300: 5840 a5be 8218 b43c b1c3 7fbf d545 c0bc
00000310: 176a b6be 51d9 423e bc6b 14bb b9a2 68bd
00000320: 37fb 3e3e 0844 073c dc9e 883e fec4 0f3f
00000330: 45cc 083f 1c41 91bd 532f 7f3c 677d 9cbe
00000340: a608 663f 8e50 f2bd 0552 8dbd 9ac4 08bd
00000350: 1131 30bd c8a0 de3e 0718 e53d e0a6 23be
00000360: 4444 b53d 1feb 06be 1792 03be c8bc a1be
00000370: f496 7f3e a46e 0abf b308 26bf fd2e afbe
00000380: 5977 f73e f65f 163e 37dc e83c 6cf1 cfbe
00000390: 4894 1ebf 5913 683c bc4b ab3c 197a fc3a
000003a0: c63e 98bd b666 36bf 6ad9 aa3c d709 c7be
000003b0: a15b e03d 1428 1cbf e0ca b83e d0b6 69bf
000003c0: f474 233e eb75 3e3c 038f 963f d18f 993d
000003d0: 75d8 e6bd 1699 613e 8dde 303f e690 e93d
000003e0: e442 5d3f 24db 1abd ee5e 88be 9b57 f0be
000003f0: 007f c3be 789c 833e 7379 673d 07e4 2bbf
0.40084586 0.19663996 0.24361113 1.0756402 -0.14017728 -0.3860125 0.41213748 1.2091198
0.5190514 2.5318532 -0.023761345 0.18260546 -0.09642177 -0.32604608 0.09617449 -0.003820119
4.7170517e-05 -0.6984693 -0.41831678 -1.9534737 -1.5046699 0.23301072 2.539965 -0.4851223
-0.11560432 -0.17120633 -0.585956 0.16980323 0.03946169 -0.520751 -0.16366273 0.22397183
0.37367064 0.3146694 -0.3753593 -0.40072367 0.6408204 0.19176862 0.06270558 -0.078544915
-0.45262298 -0.19083263 0.05424149 0.10168559 -1.2983457 0.82750565 0.24350125 -0.30555618
0.10180384 -0.18812503 -0.4774096 -0.68230873 0.29582685 0.4444444 0.3496913 -0.34364638
0.38196138 0.2623905 -0.14679968 0.23875561 0.07470311 0.33235946 0.07322282 -0.56766266
0.056976546 -0.0095938975 0.49464235 -0.0155283315 0.02906123 0.057979845 0.0054390044 0.060573652
0.03424495 -0.0013409078 0.12460646 -0.35424066 0.5306699 0.099658094 0.0003601244 0.18448961
-0.47838882 0.067405894 0.03208896 0.027712673 0.23787093 -0.24658723 -0.012084735 -0.32998523
-0.004738836 0.04484741 0.022385208 -0.06069955 -0.17216973 0.53377855 0.28978032 0.18090478
-0.14219971 0.009988765 -0.009758774 -0.17509641 -0.6257643 -0.17439483 -0.15212616 -0.0017502608
0.03183897 0.3246296 -0.015967058 0.09461102 0.17469217 -0.1225354 -0.13350207 0.28717068
0.025267702 -0.007527426 -0.1337432 -0.0850129 0.11932063 0.007015494 -0.3883062 -0.17178619
-0.31950054 -0.1305975 0.36720973 -0.1761193 0.24522263 -0.10898592 0.014127481 -0.11714247
-0.29779828 -0.0011816308 -0.09479467 -0.14907531 -0.050515227 0.007787145 0.08062052 -0.1810029
0.15749109 -0.0057626707 0.22590408 -0.06505614 0.2094731 0.13506915 0.033529114 0.06149917
0.08469137 0.012151974 0.099299334 0.020509059 0.03591565 -0.15055336 0.010402983 0.0035017792
0.0023765322 0.019478027 0.028790046 0.012148702 -0.010197675 -0.03250574 0.05582638 0.0029056554
0.048187573 -0.021815374 -0.07102318 -0.007142368 -0.25077695 1.5299993 -0.16648224 -0.022167007
-0.018904349 -0.0022421707 -0.000921158 -0.10388167 0.31729865 -0.0199285 -0.31114385 0.18059342
0.00512665 -0.011574622 -0.097687945 0.17537893 -1.2048918 0.11287081 -0.04945089 -0.054949876
0.0180774 -0.08540175 0.07219074 0.034460086 0.023076242 0.06110308 -0.0076850844 0.014861169
-0.32275653 0.021984342 -0.99907976 -0.023470799 -0.35627815 0.19028212 -0.0022647223 -0.05679581
0.18650518 0.008255966 0.266837 0.5615996 0.5343669 -0.07092497 0.015575248 -0.30564424
0.89856946 -0.11831771 -0.069004096 -0.03339062 -0.043015543 0.4348204 0.111862235 -0.15981627
0.08850911 -0.13175629 -0.12848698 -0.3158934 0.24959928 -0.54075074 -0.64857024 -0.34215537
0.48333243 0.14685044 0.02842532 -0.40613878 -0.6194501 0.014164769 0.020910136 0.0019262462
-0.07433848 -0.71250474 0.020855624 -0.38874695 0.10954977 -0.60998654 0.3609228 -0.91294575
0.15962583 0.0116247935 1.1762394 0.07498134 -0.11271755 0.22031054 0.69089586 0.1140459
0.8643019 -0.037806645 -0.26634926 -0.46941838 -0.3818283 0.25705314 0.056512307 -0.6714482

net.8.bias f4 [198]
00000000: 5a79 39bf 8aaa 0180 7d9e 883d e930 0280
00000010: fffd ab3d e2fa b43d 1b7c 3fbd fe17 b9be
00000020: 4eed 9bbe f07f 78be be41 42be c7e3 14be
00000030: c285 ddbd 3444 a2bd 0e01 84bd 494e 72bd
00000040: 4ebf 74bd 81e5 78bd e8f4 70bd d0d1 59bd
00000050: ec17 22bd 064f b1bc f51d f6bb 1387 dcb9
00000060: c2b1 5a39 45d5 73bb 93ec 17bc 2c30 49bc
00000070: 9cb9 f8bb 3eb8 153c 35d4 1b3d 6183 9b3d
00000080: 85e9 e93d 4f45 103e 6934 123e 2979 eb3d
00000090: 8d2d 923d 254c be3d a275 463e 1749 623e
000000a0: 7e73 da3d 55c6 a53d 75d5 c03d 2b4a 003e
000000b0: 86f8 db3d df44 873d 8bc7 df3a 0f69 50bd
000000c0: ffc7 9cbd 081e bdbd 73b5 d3bd f43d f5bd
000000d0: 6332 11be d89d 16be 37b1 02be 5271 cfbd
000000e0: 2e02 87bd 8191 91bc b1fa ca3c e0e9 553d
000000f0: cdb4 963d 3c2c c63d ab15 ce3d 7d49 b73d
00000100: c201 a23d 8e9a 533d 5c47 39bc 533b eebd
00000110: 3869 87be 7f49 b0be 3d2a f53e cda5 753e
00000120: f70b 953e 2622 a93e 6fde ae3e 73d3 b13e
00000130: c7b3 ba3e 1f54 cc3e 5c1d e53e 2fc5 003f
00000140: 92ca 0e3f 6e1a 1b3f 5dc3 243f 8776 2b3f
00000150: 7fad 2f3f 138a 323f 0b22 353f 5d11 383f
00000160: d1b1 3b3f 40d7 3f3f 1bf3 433f f122 473f
00000170: 1c71 483f ab29 473f 032d 433f fa43 3d3f
00000180: 8525 373f 533c 333f f6ec 333f 468f 3b3f
00000190: e3e0 483f 7a87 4b3f 1b7c 3fbd fe17 b9be
000001a0: 4eed 9bbe f07f 78be be41 42be c7e3 14be
000001b0: c285 ddbd 3444 a2bd 0e01 84bd 494e 72bd
000001c0: 4ebf 74bd 81e5 78bd e8f4 70bd d0d1 59bd
000001d0: ec17 22bd 064f b1bc f51d f6bb 1387 dcb9
000001e0: c2b1 5a39 45d5 73bb 93ec 17bc 2c30 49bc
000001f0: 9cb9 f8bb 3eb8 153c 35d4 1b3d 6183 9b3d
00000200: 85e9 e93d 4f45 103e 6934 123e 2979 eb3d
00000210: 8d2d 923d 254c be3d a275 463e 1749 623e
00000220: 7e73 da3d 55c6 a53d 75d5 c03d 2b4a 003e
00000230: 86f8 db3d df44 873d 8bc7 df3a 0f69 50bd
00000240: ffc7 9cbd 081e bdbd 73b5 d3bd f43d f5bd
00000250: 6332 11be d89d 16be 37b1 02be 5271 cfbd
00000260: 2e02 87bd 8191 91bc b1fa ca3c e0e9 553d
00000270: cdb4 963d 3c2c c63d ab15 ce3d 7d49 b73d
00000280: c201 a23d 8e9a 533d 5c47 39bc 533b eebd
00000290: 3869 87be 7f49 b0be 3d2a f5be cda5 75be
000002a0: f70b 95be 2622 a9be 6fde aebe 73d3 b1be
000002b0: c7b3 babe 1f54 ccbe 5c1d e5be 2fc5 00bf
000002c0: 92ca 0ebf 6e1a 1bbf 5dc3 24bf 8776 2bbf
000002d0: 7fad 2fbf 138a 32bf 0b22 35bf 5d11 38bf
000002e0: d1b1 3bbf 40d7 3fbf 1bf3 43bf f122 47bf
000002f0: 1c71 48bf ab29 47bf 032d 43bf fa43 3dbf
00000300: 8525 37bf 533c 33bf f6ec 33bf 468f 3bbf
00000310: e3e0 48bf 7a87 4bbf
-0.7245079 -1.53013e-40 0.06670854 -2.01217e-40 0.08398055 0.088369146 -0.046749216 -0.36151117
-0.30454487 -0.24267554 -0.18970391 -0.14540015 -0.10816528 -0.07923165 -0.06445514 -0.05915669
-0.059752755 -0.060765747 -0.05882731 -0.05317861 -0.039573595 -0.021644127 -0.0075108954 -0.00042062308
0.0002085632 -0.0037205976 -0.009272712 -0.0122795515 -0.0075904857 0.009138165 0.038044173 0.07593418
0.114214934 0.14088939 0.14277805 0.11497719 0.07137594 0.09291867 0.19380811 0.22098194
0.1066656 0.080944695 0.09415714 0.12528293 0.107407615 0.06604933 0.0017073018 -0.05088144
-0.07655334 -0.09234244 -0.10337343 -0.11974707 -0.14179377 -0.1470865 -0.12762915 -0.10129036
-0.065922126 -0.017769577 0.024777742 0.052224994 0.07358704 0.09676406 0.100627266 0.08949564
0.079104915 0.051661067 -0.011308517 -0.11632409 -0.26447463 -0.34431073 0.47883788 0.23989029
0.2911069 0.33033866 0.34154078 0.34731635 0.36465284 0.3990793 0.44748962 0.5030088
0.5577785 0.60587204 0.643606 0.66977733 0.6862411 0.69741935 0.7075507 0.71901494
0.733182 0.7493782 0.76542825 0.7778769 0.7829759 0.77797955 0.7624056 0.7393185
0.71541625 0.7001392 0.7028345 0.7326549 0.7846815 0.79503596 -0.046749216 -0.36151117
-0.30454487 -0.24267554 -0.18970391 -0.14540015 -0.10816528 -0.07923165 -0.06445514 -0.05915669
-0.059752755 -0.060765747 -0.05882731 -0.05317861 -0.039573595 -0.021644127 -0.0075108954 -0.00042062308
0.0002085632 -0.0037205976 -0.009272712 -0.0122795515 -0.0075904857 0.009138165 0.038044173 0.07593418
0.114214934 0.14088939 0.14277805 0.11497719 0.07137594 0.09291867 0.19380811 0.22098194
0.1066656 0.080944695 0.09415714 0.12528293 0.107407615 0.06604933 0.0017073018 -0.05088144
-0.07655334 -0.09234244 -0.10337343 -0.11974707 -0.14179377 -0.1470865 -0.12762915 -0.10129036
-0.065922126 -0.017769577 0.024777742 0.052224994 0.07358704 0.09676406 0.100627266 0.08949564
0.079104915 0.051661067 -0.011308517 -0.11632409 -0.26447463 -0.34431073 -0.47883788 -0.23989029
-0.2911069 -0.33033866 -0.34154078 -0.34731635 -0.36465284 -0.3990793 -0.44748962 -0.5030088
-0.5577785 -0.60587204 -0.643606 -0.66977733 -0.6862411 -0.69741935 -0.7075507 -0.71901494
-0.733182 -0.7493782 -0.76542825 -0.7778769 -0.7829759 -0.77797955 -0.7624056 -0.7393185
-0.71541625 -0.7001392 -0.7028345 -0.7326549 -0.7846815 -0.79503596

exp_avg f4 [64, 25]
00000000: 19af e63a 8a80 a439 2dec 9a3b dee4 24ba
00000010: 5bde 7a3b 3a7a 943a 3207 bdba d96a 283b
00000020: ebe1 20bb 2c9c 95bb ed7e 0b3b 5eff e8bb
00000030: b6ac a13b 34bc d8bb 25d9 413b 1a6c 82bb
00000040: fc37 f03b 4966 aa3a 263f 3bba 6464 1a3b
00000050: 6e78 9639 1b5b 163b 7a93 87bc 0b36 fd3b
00000060: d1d9 563b 38a2 123b 238c 263b 2a6b d83a
00000070: 51a4 293b 67fb 653a 0c3b aeb8 7ef1 9c3b
00000080: 6d9f 55bb 5127 cf39 9eda 093b 2988 4ebb
00000090: 51ac ae3b 65b0 12bc 4a84 f43b bdcf 51bb
000000a0: 8a09 ff3b b411 d2bb 83eb aaba 6d14 9bbb
000000b0: 6ac0 633c 4487 1bb9 b5dc 0ebc bca8 373c
000000c0: f542 223b 39db 5b3c 5f2e 43b9 4503 7b3b
000000d0: 76b9 67bc 56e9 c8ba 81c2 e2bb a813 6abc
000000e0: e66a 4a3a e106 bdbc cc64 0dbb 873b 1cbb
000000f0: 0e16 8ebc 53f4 13bc 80db 42bc 25f9 743b
00000100: 4b4d 9dbc 80d0 153c ca15 1bbd 65ea d53b
00000110: 369e 2d3c 1f27 093d 093f edb9 e6f4 21bd
00000120: 4a87 d3bc b8ad 893c b247 963c 8639 9e3b
00000130: b36c 953b c575 773b adb0 7d3b 7be2 8f3b
00000140: 8fd5 623b bd69 3c3b a44c d03a c52e 6ebb
00000150: 5185 acbb 8538 f9ba 089c 01bc 8745 b03a
00000160: 80ac 0abc fe47 20b9 4795 61bb 57fd a2ba
00000170: e75d 003c b0a0 2bba ae02 003d 221b 023a
00000180: dda8 d7bb edb3 973c 0602 fb3c 30ef ec3c
00000190: f375 96b9 fbb7 1f3b a2aa bdba f41b ae3b
000001a0: 857b 16bc 59da 463c 6572 babb fca9 0c3c
000001b0: 631e c23a c193 9c3b f7e3 8f3b bdce 5539
000001c0: d820 173c 4b78 39bb 2424 523c 0d68 efba
000001d0: d20f 593b ac99 4fba c789 4b3c 0864 f0bc
000001e0: dcc6 b5ba 481f 2ab9 e996 47bd ca8f 04bd
000001f0: fd0d 0bbd c582 9a3b df79 c9b9 ee92 653c
00000200: 4d3a 833a 5134 493c 81a1 b03b 2d64 cd3a
00000210: 0078 303c 9f78 fbbb e93a 1cbc 1877 6c3a
00000220: 032b 29bc cff9 0d3b 06c5 18bc ed9c be3a
00000230: 8394 20bc be34 a33c 5205 3f3c 20e3 12bc
00000240: ae04 5f3c c580 f93a a213 bb3b 6720 50bc
00000250: 8a03 d13c 2dc8 633c 85b0 bb3b ada2 bf3b
00000260: fcaa 0c3c db55 973b e8b8 143c 0b76 493b
00000270: b1e2 b93b 412f 453a 6994 c2bb 2893 90bb
00000280: 8899 05bc f5bc 32bb f00a 12bc e3a2 53ba
00000290: deaf d5bb da82 5037 1ac3 dab7 849b c1b9
000002a0: 1dbe 043b 5c19 d93c c72c 0b3a 96df 073d
000002b0: 1630 913c 981f d33c 4f7a b83c 336c d7bb
000002c0: d16f 2dbc e08b 99b9 603f 7dbc 316f 903b
000002d0: 1b0e 3dbc 159c e9ba 8217 b0ba d03a 883b
000002e0: dfda 9d3b f824 0e3b cd7e 403c 3eb9 11ba
000002f0: fb86 fa3b 19eb 4b3b 8e0a 1dba 3a5a f73b
00000300: 99eb 9fbb 8046 4e3c d49e 303a e5ea b3ba
00000310: 06a5 08bc c9fc 703d 0c7c 2fbc 009e 93bb
00000320: f4e6 9cba be6d eaba cef9 3e3a dce8 bb3a
00000330: b107 90bb 200c de3b dea5 b6bb d4cd 723b
00000340: 8f37 3439 6116 d9ba 7f42 3e3b 9acb c2bb
00000350: c0ed be3b 5ce5 fabb ebd8 b23b 21f2 68bb
00000360: ecdc c73b 0628 48bb 5b87 ce3b e343 61bc
00000370: 7437 2cba d80f 4dbc 34d0 a23c 5f9e 7bbc
00000380: d15e 8fbc bf9a b6ba 2904 0dbb 8f08 c4bb
00000390: 7815 c0ba 5796 18bc 75bc 64ba d6b4 1cbb
000003a0: 0e1e 95ba 173f fd3a 9b50 923b 40f8 bfbb
000003b0: af46 293c f2e3 4dbc 350c 1d3c 5bcb d2bb
000003c0: 6d5f b93b 6ad0 07bc f379 493a 5a41 cabb
000003d0: 2245 e7bb 1fd3 e8b9 627f b0bb 9ef3 9a3b
000003e0: 8c46 90bb f1ce 05bc 2a59 15bb c012 75bb
000003f0: c3d2 8739 7bd1 7bbb 2eab a539 65fe d0ba
0.0017599791 0.00031376287 0.0047278614 -0.00062902074 0.0038279507 0.001132793 -0.00144217 0.0025698452
-0.002454872 -0.0045657363 0.002128537 -0.0071105203 0.004933919 -0.0066142324 0.002957889 -0.003980172
0.0073308926 0.0013000454 -0.0007142894 0.0023558373 0.00028699957 0.0022942487 -0.016549814 0.0077273897
0.0032783637 0.0022374522 0.0025413118 0.001651143 0.0025885294 0.00087731186 -8.307965e-05 0.0047895303
-0.0032596246 0.0003951141 0.0021034847 -0.0031514263 0.0053306003 -0.008953189 0.007462059 -0.003201469
0.0077831196 -0.006410802 -0.0013040159 -0.0047326596 0.013900856 -0.00014832342 -0.008719613 0.011209663
0.0024759148 0.013418966 -0.00018613924 0.003830151 -0.014143338 -0.0015328329 -0.0069201593 -0.014286913
0.00077216176 -0.02307457 -0.0021574972 -0.0023839192 -0.0173445 -0.009030419 -0.011893153 0.0037379947
-0.019201895 0.009143949 -0.037862577 0.006528186 0.010596802 0.033484574 -0.00045251127 -0.039540194
-0.025821347 0.016806468 0.018344734 0.0048286347 0.004560077 0.0037759405 0.0038710043 0.0043910122
0.0034612154 0.0028749548 0.0015891981 -0.0036343795 -0.005264916 -0.0019014037 -0.007910736 0.0013448455
-0.008463979 -0.00015285608 -0.0034421252 -0.001243512 0.007834888 -0.00065470766 0.031252556 0.00049631495
-0.0065814094 0.018518412 0.030640613 0.028922647 -0.00028698109 0.0024371136 -0.0014470408 0.005313391
-0.009184723 0.012137019 -0.0056899064 0.008585449 0.0014810081 0.004778356 0.004391189 0.00020390279
0.009224139 -0.002830046 0.012825999 -0.0018265262 0.0033121002 -0.0007919322 0.012422985 -0.029344574
-0.0013868469 -0.00016224117 -0.048727904 -0.03236369 -0.033948887 0.004715296 -0.0003842851 0.014012082
0.0010011882 0.01228054 0.0053903465 0.0015670113 0.010770798 -0.0076742913 -0.00953553 0.0009020432
-0.010325196 0.002166379 -0.009324318 0.0014542617 -0.009801033 0.01992261 0.011658983 -0.008965284
0.013611956 0.0019035569 0.0057091275 -0.012703038 0.025514383 0.013902706 0.00572783 0.00584825
0.008585688 0.004618389 0.009077288 0.0030740525 0.0056727757 0.0007521995 -0.005938102 -0.0044120736
-0.0081542805 -0.0027273272 -0.0089137405 -0.0008073283 -0.006521209 1.2428232e-05 -2.6078476e-05 -0.00036927697
0.0020254918 0.02650135 0.00053091015 0.033172213 0.017723124 0.025771901 0.022519259 -0.0065741776
-0.010585741 -0.0002928665 -0.015457004 0.0044077863 -0.011539008 -0.0017823005 -0.001343474 0.0041574016
0.0048173512 0.0021689516 0.011748982 -0.0005558914 0.0076454855 0.003111547 -0.00059906475 0.0075485976
-0.0048803804 0.012590051 0.00067375344 -0.001372662 -0.008340126 0.058834825 -0.010710727 -0.004504919
-0.0011970685 -0.0017885489 0.00072851486 0.0014336365 -0.004395448 0.0067763478 -0.005573972 0.0037048953
0.00017186835 -0.0016562456 0.0029031334 -0.0059446814 0.005826682 -0.0076567363 0.0054579875 -0.003554471
0.006099334 -0.0030541434 0.0063027567 -0.013749096 -0.00065695425 -0.0125159845 0.01987467 -0.015357583
-0.017501267 -0.0013931616 -0.0021517372 -0.0059824656 -0.0014654836 -0.009313188 -0.0008725592 -0.0023911498
-0.0011376755 0.001932117 0.0044651753 -0.005858451 0.010331794 -0.012566553 0.00958543 -0.0064329333
0.0056571276 -0.008289436 0.00076857134 -0.0061723413 -0.007057802 -0.00044407786 -0.005386279 0.0047287485
-0.004402941 -0.008167014 -0.0022788742 -0.003739521 0.00025906236 -0.003842442 0.0003159879 -0.0015944956
