training/nn-medium.pth (torch, 43363 bytes, 8 tensors)

net.0.weight f4 [64, 21]
00000000: a0ed fabe ea4b 97be 4da0 163f 566e 233a
00000010: 1149 823c c31b 213c ea63 bbbb cf46 90bc
00000020: 06c2 b3bc 43ef c8bc e176 103c 0d00 38be
00000030: 609d 09bf e48f afbe ae38 b73e 2c90 0a3f
00000040: 61ae 673e 64d7 613c ef89 eebc 5478 80bd
00000050: 54e2 88bb a5cc ca3e 82de 68bc bbaa 37bf
00000060: 2abd c2bc eebb 75bb e781 5abb bfb9 3d3c
00000070: 1485 fb3c 071d 063d 30f7 d6bb 4fd3 9cbc
00000080: 21b2 743d 3c0f 0d3e 6e4d cd3e bb13 be3e
00000090: 541a 3ebe 015f e6be b750 29be db79 6e3d
000000a0: 9217 2a3c 5aee c9bb 0544 943f fb67 07be
000000b0: 079d b13e 2944 84bd 9c2c 14bc 3072 783c
000000c0: 7d27 773b f506 3aba 0bd7 b4bb 3bd1 4b3b
000000d0: 1a61 4c3c a181 4c3f 801e 7dbf 3b26 57bf
000000e0: b11d 06b9 c7be dc3d ea13 cc3c 52c1 76bc
000000f0: 3d70 debc 9c41 8d3d 3b04 133b a7bf f33e
00000100: c68e 363e 2c85 d5bc 2fad f43d 951f 943d
00000110: 86c9 033d c16c bb3c ac4a 90bc 8afd 22bd
00000120: 9809 6a3b bacc 2dbd f430 793e 5716 c63d
00000130: b825 00bd 5074 74bc 7a67 f4bc aaac cdbd
00000140: 588f b7bd 78b6 0dbc fc01 a93d e64d d1bd
00000150: 7426 903d 9516 333e 4fc3 c1be d520 36bd
00000160: b10f bf3b 7ac3 fd3c 5730 a23c da8a a13b
00000170: 71db 4fbb 5d1d 3ebc c877 ee3a e90b 523c
00000180: 1f29 b73d 0ddf 613e 1dc3 3c3e ef6c c43c
00000190: 71f5 2fbe 59d1 a6be 65f4 cbbe 8811 5e3b
000001a0: eca6 bbbc f4b9 b1be bd66 09bd bb8f ceb9
000001b0: 52f7 e83d 7825 033e 8bac 073e 3a91 ae3d
000001c0: 903a dc3c 45d8 993c d082 8f3c 9760 3b3d
000001d0: d2b2 8fbd 67b6 81bd 35e9 c1bc 69b8 723c
000001e0: c315 833d 83b6 9d3d 2338 873d 1404 d2bc
000001f0: 6d20 963a 0ed2 d23a b7ff ee3e 00f0 3b3b
00000200: 05bf 49bf 28c8 973d ec2e c13d 5e2e da3d
00000210: b80a de3d 04cc 1d3e 4213 2b3e ccfe 0f3e
00000220: be9c 5e3e 6466 2abd 6e1b df3d 828e 193c
00000230: 375a 153d c8d2 363d b345 1a3c cbc3 0b3d
00000240: dc7b fcbc 07d9 bf3d 7a8c c03d 6eac e73c
00000250: 27a6 47bc 58b3 d23c fd6c bebc 508e 41bc
00000260: 3b2a 5ebb eab3 81bc efe7 51bc beb8 0abc
00000270: 95c3 9cbc 8084 76bd 1b29 ca3c c529 3c3a
00000280: 6412 933a 9fc2 633c 6843 153c 39e1 e53b
00000290: c74b 173d f1b4 b63d fcef 63bb 2cd4 1bc0
000002a0: a6d3 2fbf 2787 68be cb5e cabe 31d3 2f3e
000002b0: e6b5 d33d f105 6a3d 88d1 223d e960 433d
000002c0: 96de a93c 1135 9ebb 7dff 4fbd 00d4 c1be
000002d0: b0d9 6abe ecb4 cfbd f4a7 803d 4d00 3b3e
000002e0: 5529 293e fb53 b23d f047 14be 7dfb bfbd
000002f0: 8e9c ecbb 334e 9bbd a537 4ebe 5f5d 47be
00000300: 6486 213c ec72 2abd 1658 7fbd 858b aabb
00000310: d7e9 edbb d519 06bd 8919 8abc 81e4 51bb
00000320: 1919 35bd 3baa e8bd 5f3a 49bd 0581 bb3d
00000330: d886 343e e783 2b3e 7e9b 313e e22e ed3d
00000340: 4b8e 4cbd 54dd d0bd 578e 303e 8ed0 223c
00000350: e5cb 92bf 56bb dd3b 0a26 babd 5e4f 65bd
00000360: 999b f4bc 61f2 7a3a 7abb 0c3a 5921 543d
00000370: 8567 bc3c 866a 533d c708 6bbb 44ea 953d
00000380: 1b2f dabb f1db 573b 6a1d 963c 35aa 1fbd
00000390: 920c 39bd 1f7f 1cbe c72a c63b 8448 1f3e
000003a0: e6b8 023e 0201 07bf baf5 e8bc 718c fbba
000003b0: 86c8 3ebc 2c39 a0bc 145e a8bc 7eb3 4cbc
000003c0: 8554 12bd 212f 8dbc 8437 8b3c 6f08 0c3e
000003d0: c2b3 ce3e 35f3 093f f438 05be 4d7f 53bf
000003e0: 57eb cfbe 7b9b a43e 2096 ce3c ee26 85bc
000003f0: 3a35 e2be 7ef6 d23d da70 a7be 0a4d 06bd
-0.49009418 -0.29550105 0.5883835 0.0006234398 0.015903981 0.009833279 -0.005718698 -0.01761189
-0.021943104 -0.024528151 0.008817405 -0.1796877 -0.5375576 -0.34289467 0.3578543 0.5412624
0.22625114 0.013784263 -0.029118506 -0.06272951 -0.004177371 0.39609256 -0.014213206 -0.7174489
-0.023771841 -0.0037496048 -0.0033341588 0.01157993 0.030703105 0.032742526 -0.0065602288 -0.019143729
0.05974019 0.13775343 0.40098137 0.37124428 -0.18564731 -0.44994357 -0.16534697 0.05822168
0.010381596 -0.006162447 1.1583258 -0.13223259 0.34690115 -0.06458313 -0.009043839 0.015163943
0.0037712746 -0.00070963736 -0.005518799 0.0031100053 0.012474323 0.798853 -0.98874664 -0.8404271
-0.00012790297 0.107785754 0.02491184 -0.01506074 -0.027153129 0.068972796 0.0022432941 0.47607157
0.17827901 -0.026064478 0.11947095 0.07232586 0.03217461 0.022879006 -0.017613731 -0.039792575
0.0035711285 -0.04243157 0.2433508 0.0967223 -0.03128597 -0.014920309 -0.029834498 -0.10042699
-0.089628875 -0.008649461 0.082523316 -0.10219936 0.07038584 0.17489083 -0.3784432 -0.044464905
0.005830728 0.030977 0.01979844 0.0049298825 -0.003171649 -0.01160368 0.0018193657 0.012820222
0.0894339 0.22057743 0.18433805 0.023977725 -0.17183472 -0.32581595 -0.39834896 0.003388496
-0.022906743 -0.34712183 -0.033545244 -0.0003939847 0.113752976 0.12807262 0.13249414 0.085237935
0.026883394 0.018779883 0.017518431 0.045746412 -0.07016529 -0.063336186 -0.023670772 0.014814475
0.06400635 0.07700827 0.06602504 -0.02563671 0.0011453755 0.001608433 0.4667947 0.0028676987
-0.788071 0.07411224 0.09432778 0.10653375 0.10841888 0.15409857 0.16706565 0.14062041
0.2173948 -0.041601554 0.10893904 0.009372355 0.03646299 0.04463461 0.009416032 0.03412227
-0.03082078 0.093675666 0.09401794 0.028280463 -0.01218561 0.025720283 -0.023245329 -0.011813715
-0.0033899683 -0.01583286 -0.012811645 -0.0084668975 -0.01913623 -0.060184956 0.024677804 0.0007177855
0.0011220691 0.013901382 0.009110309 0.007015374 0.0369375 0.089212306 -0.0034780493 -2.434825
-0.68682325 -0.22707807 -0.39525446 0.17170407 0.10337429 0.057134572 0.039750606 0.047699843
0.02073602 -0.0048281034 -0.050780762 -0.37857056 -0.22934604 -0.1014193 0.062820345 0.18261833
0.16519673 0.08707424 -0.14480567 -0.093741395 -0.007220811 -0.07583275 -0.20138414 -0.19469212
0.009858701 -0.041613504 -0.062339865 -0.0052046203 -0.007260542 -0.03273948 -0.01685788 -0.0032027068
-0.044213388 -0.11360594 -0.049127933 0.09155468 0.17629564 0.16749536 0.17344472 0.11581208
-0.04994039 -0.10198465 0.17241798 0.009937419 -1.1468474 0.006766717 -0.090892866 -0.055983894
-0.029859351 0.00095728604 0.00053685124 0.051789615 0.02299858 0.05161526 -0.0035863386 0.07320073
-0.0066584474 0.0032937492 0.018324573 -0.03898068 -0.045178004 -0.15282868 0.00604758 0.15555006
0.12765846 -0.5273591 -0.028437484 -0.0019191635 -0.011644488 -0.019558512 -0.020552672 -0.012493966
-0.035725135 -0.017234387 0.016994245 0.13675092 0.4037152 0.5388673 -0.13010007 -0.8261612
-0.40609238 0.32149872 0.02521807 -0.016253915 -0.44181234 0.10300921 -0.32703286 -0.032788314

net.0.bias f4 [64]
00000000: 0cc4 a73f 395b 9fbf cea3 6bbe cdfd c0bd
00000010: 63ac 063e 9b22 283f c363 29be 5935 75be
00000020: ff79 983e 898b 45be 3597 d63d 23df e23e
00000030: 0326 e63e 7f96 10be aba8 c2be ecd9 b43c
00000040: 021e 5fbf 04c7 ce3e f58e 333e 2a06 913c
00000050: a0e6 38bf b150 d0be 0b62 5d3e 78c0 5fbf
00000060: f905 173f df5b fabe 6658 aa3e eaea 8c3e
00000070: 2f56 b63e 12cf ecba 5674 63bf 87c2 d8be
00000080: 5495 8a3d 68cd 243e 482c c9bd b197 80bd
00000090: 1967 753e 518c a7be d9d5 f2be e20a e63e
000000a0: a7d1 9abd 6340 d13e e5a2 953d 0f7e 8fbe
000000b0: a7da 21bd 19e1 83bd e04f c4be 44e6 493e
000000c0: a033 953e 8a2c 903f f824 743e 377a cf3d
000000d0: 9571 8f3f d20d 2e3f ceb7 a0be 8eb9 073f
000000e0: fe7e 53be 9b33 0c3f e0d5 37bf 68ed 79bf
000000f0: d8e4 86be ebf0 4abf 198c ef3e 467f 8c3f
1.3106704 -1.2449714 -0.23011705 -0.09423409 0.13151698 0.65677804 -0.16541962 -0.23946132
0.29780576 -0.1929151 0.10478059 0.44310865 0.44950876 -0.1411991 -0.38019308 0.02207657
-0.87155163 0.40386212 0.17535003 0.017703135 -0.72226906 -0.40686563 0.21619432 -0.8740306
0.5899349 -0.48898217 0.33270568 0.27522975 0.35612628 -0.0018067083 -0.8884939 -0.42335913
0.06766763 0.16093981 -0.09822899 -0.06278933 0.2396511 -0.3272424 -0.47428778 0.44930178
-0.07559519 0.40869436 0.0730646 -0.28025863 -0.039515164 -0.06439418 -0.3834219 0.19716746
0.2914095 1.1263592 0.23842227 0.101307325 1.1206537 0.6798984 -0.31390232 0.5301751
-0.20653912 0.54766244 -0.7181072 -0.9762788 -0.2634647 -0.7927386 0.46786574 1.0976341

net.2.weight f4 [64, 64]
00000000: 8fcd 3f3d c8df 993d f2ae 30be 1951 2a3c
00000010: 89c2 89bc c7d6 053d 036b c6bc 8001 933d
00000020: f19f e33d e1ae 3ebc 8454 163d 533a 3a3b
00000030: cea3 a13c 6412 cfbe 7661 c1bd d8f4 b3bd
00000040: fab5 bd3c 45eb 99bd d0be cdbd 4a16 5fbd
00000050: fd1c a83c e651 543e 73fc ffbd 1010 76bd
00000060: e437 42be f4c7 23bd 0000 1a3d 8cba 8a3c
00000070: 1069 8ebe fa3c 013d 0ae6 bd3d fad5 943d
00000080: d3d6 c8bd db14 b8bd 8ec3 c73e 7a45 abbd
00000090: cb61 34bd 6c5b e83e 11c9 6ebd 78d9 0a3c
000000a0: 3fd2 593d d49b bd3d 3667 73bd 4b34 adbe
000000b0: ff0a 663d 627d 68bc 8d83 95bd 7f72 ce3d
000000c0: ae0f 7abd c874 36be 25ac 5cbd 6a62 15be
000000d0: 336b 00be c7aa b9bd a039 433e 838b 9f3e
000000e0: e821 253e 44b3 d0bc 3223 c93d 9666 913d
000000f0: 7a2d 783b 6300 063e 6caa 32bd 87f2 21bc
00000100: d2ae eb3d d6fb 403d d859 84bd be6d 21be
00000110: bab0 8c3d fb55 3bbc 9c1f 9dbd 6df2 efbb
00000120: ed38 353d 3a69 f6bc 5dec 5a3c c6e2 a3bc
00000130: 167c dc3d a877 e9bd da95 83be 791d 1a3d
00000140: ff55 04be 7af9 e9bd ad69 5c3c 0c11 b03c
00000150: 52a4 a1bd 93c7 b03c 1787 88bd 4c8f e6bd
00000160: 451a 8abe 53fa 3bbe b42e 383e 65f7 b7be
00000170: a687 f9bd 8946 3e3e f112 8c3d 22df d2bc
00000180: 8f6f 3bbd 881e 2cbe 3faa a6bb 579c c83c
00000190: a092 d8bd 11cb ca3d 005d 5cbd db8e 093d
000001a0: d4aa d33d 37dd d23b 79f9 29be b0b1 013c
000001b0: 73ef 07bd a2b8 233e 5bf8 853b c92b 0f3e
000001c0: ca0a 3d3d 87c7 9dbd 89c5 a93d 147e 16be
000001d0: 3fa2 3b3e 7623 853d 493c e5bd cb56 413d
000001e0: 215d 123e cb3d dc3d e145 1bbd c1bf 2bbe
000001f0: 7025 713e 0fd5 b03c 329f 013e 3269 0dbd
00000200: 81ce 723c b222 23be 001b 833e 2bd9 b03d
00000210: 1d31 51bd a84f 0abd 1616 2cbe 4df6 883a
00000220: 0e73 19be 50e9 eabd 4ef7 bd3d 8b45 203d
00000230: 8685 7cbe ede4 e93d 7454 243e 6e2d 39be
00000240: fbf3 59be 713e 13bd a9c7 e1bd 650f 71bc
00000250: 92fd a9bd 78ca 013d be9c 483e 6337 0c3a
00000260: 0915 4d3e 7f04 a83d 1933 993c 0357 28be
00000270: 1417 183e ecc6 32bd d041 f7bd 8fb1 28be
00000280: 61b2 85bc 4072 babc 99c4 08bd c391 fb3c
00000290: 26a8 583d 682e 08bd c343 2fbd 0f1f 0f3d
000002a0: b1b6 cdbd 0654 2c3d a4aa 5c3e c299 143e
000002b0: b5a0 8abc 3d35 e1bd 5b93 2dbd 0411 46bd
000002c0: ba17 813c 2cbc 143f 8503 a6be a25e 3f3e
000002d0: 5ea7 e1bd 626d 12be c45e 053e 0f7c 1f3d
000002e0: 29a8 37be 244e 3ebe 6559 aa3d 8b50 f43d
000002f0: 4bdf 43be 0805 07bc 0735 cfbd ed3a 023e
00000300: 4445 a6bc 52f0 08bd 6bb5 f3bb 733d abbd
00000310: a67a b1bd 770f 9a3d 4792 2bbc 1d80 21bc
00000320: 359a f8bb 36f5 83bc 49b1 9f3d 4c98 553d
00000330: 2e65 413d 0674 8ebe 7954 8bbc 5ec7 f2bc
00000340: 0311 433d f8c9 843c 1aad 713e 6937 68bd
00000350: 63de d5bc 9dc3 053e affc 513d fe4c 67bd
00000360: 9174 13bd 3c3b dabc bb87 c4bc 3d0c bc3d
00000370: 1487 103d b80d 5abc 7c7f 1d3d c345 cc38
00000380: 766c d43c c0ea a33c 3ad7 dd3d 8dbe fbbb
00000390: 2099 403d a238 a23b f170 113e 6a1c 95bc
000003a0: 0b78 02be 86d5 463e 8a60 65bd 1336 c73d
000003b0: 44b0 58bd 03ec 213c 197b 56be 2232 37bd
000003c0: 636e e8bc 2d33 053d 5f87 873d 2ac2 b1bd
000003d0: e4fb 5ebc d298 aa3d 263e 293e 67fa 6fbc
000003e0: 0c94 75bc c8ff 213d 16c8 0e3c 53e4 25be
000003f0: b283 85bd 3730 57bd 50b4 cb3c 077d 663d
0.046826895 0.07513386 -0.17254236 0.010395312 -0.016816394 0.03267553 -0.024220949 0.071780205
0.11114491 -0.011638374 0.036701694 0.0028416112 0.019731428 -0.40443718 -0.09442417 -0.087869346
0.023158062 -0.07515577 -0.1004616 -0.054464616 0.020521635 0.20734367 -0.12499323 -0.060073912
-0.18966633 -0.039985612 0.037597656 0.016934656 -0.2781453 0.031552292 0.09272392 0.07267375
-0.098065995 -0.08988353 0.39016384 -0.08362861 -0.044038575 0.4538225 -0.05829722 0.0084747
0.053179022 0.092582375 -0.0594246 -0.3382896 0.05616283 -0.01419005 -0.07300482 0.10080432
-0.06105011 -0.17817986 -0.053875107 -0.14588323 -0.12540893 -0.09065776 0.19064951 0.31161126
0.16126215 -0.025476106 0.09821166 0.07099645 0.0037868903 0.13086085 -0.04361956 -0.009884483
0.11507954 0.04711517 -0.06462449 -0.1576452 0.068696454 -0.011434074 -0.07672045 -0.0073226006
0.04424374 -0.030079473 0.013362017 -0.020005595 0.10765855 -0.11399776 -0.25700265 0.037625764
-0.1292343 -0.11424537 0.013452929 0.021492504 -0.0789267 0.02157954 -0.06666391 -0.112578005
-0.26973167 -0.1835721 0.17986566 -0.35930935 -0.12184076 0.18581595 0.0683955 -0.025741164
-0.045760687 -0.16808522 -0.005086213 0.024488611 -0.105748415 0.09902013 -0.05379963 0.033583503
0.10335317 0.0064350623 -0.16599073 0.007915899 -0.03318734 0.159884 0.004088444 0.13981546
0.046152867 -0.077040724 0.0828963 -0.14696532 0.1832361 0.06500904 -0.11193139 0.047201913
0.14293338 0.107539736 -0.03790844 -0.16772367 0.23549438 0.02158597 0.12658384 -0.03452415
0.014819742 -0.15931204 0.25606537 0.086351715 -0.05107223 -0.033767372 -0.168053 0.001044938
-0.14985296 -0.11470282 0.09275685 0.03912882 -0.2466031 0.11420617 0.16047841 -0.18083736
-0.21284477 -0.03594822 -0.1102441 -0.014713143 -0.08300318 0.03168723 0.19591042 0.00053488294
0.20027556 0.082039826 0.018701123 -0.16439442 0.14852554 -0.043646738 -0.120730996 -0.16473983
-0.01632041 -0.022759557 -0.033390615 0.030709153 0.052894734 -0.03324738 -0.042789232 0.03494173
-0.10044611 0.04207232 0.21549469 0.14511779 -0.016922334 -0.109964825 -0.042376857 -0.04835607
0.015758384 0.5809963 -0.3242456 0.18688443 -0.11018251 -0.14299539 0.13024431 0.03893667
-0.17935242 -0.18584496 0.08317832 0.11929425 -0.19128148 -0.008240946 -0.10117536 0.12717791
-0.0202967 -0.033432312 -0.007437398 -0.0836133 -0.086659715 0.07522481 -0.010471887 -0.009857205
-0.0075867423 -0.016108137 0.07797486 0.052147195 0.047215633 -0.27822894 -0.017008053 -0.029636081
0.047623646 0.016209587 0.2360119 -0.05669347 -0.026107019 0.13062902 0.05126637 -0.05646991
-0.03599984 -0.026639573 -0.023990503 0.09182022 0.03528507 -0.013308935 0.038451657 9.740472e-05
0.025930624 0.020009398 0.10832067 -0.0076826275 0.04702103 0.004950599 0.1420324 -0.018202025
-0.12741105 0.1941739 -0.05600027 0.09727111 -0.052902475 0.00988293 -0.20945396 -0.044725545
-0.028372949 0.03251951 0.06617617 -0.08679612 -0.01360986 0.083299294 0.16527614 -0.014647103
-0.01498891 0.039550573 0.008714696 -0.1620038 -0.065192595 -0.052536216 0.024866253 0.05627158

net.2.bias f4 [64]
00000000: 5af8 8a3d 5129 493c 349e 513d 377e 9f3e
00000010: fad8 9ebc 79d7 2e3d ffae f8bd 2a98 023b
00000020: 3e84 37bd 310c 2abe 8a41 a4bd 08ae 073d
00000030: a0d4 de3c b566 a6bd c2f2 63be 49ce 163e
00000040: 32e9 de3b e744 653d a077 9dbe c659 70be
00000050: b417 b8bd d2b4 773d 2e9b 20bb 231e 25be
00000060: b8c8 363d a597 653e 6797 3f3e 9324 2a3e
00000070: d816 b0be 5b08 40be d7df d6bd 8ef2 75bd
00000080: 0556 e63c 7eb2 d3bd 8be5 003d e007 243e
00000090: 64ae 15be d341 813d acad 953d 1cea 12be
000000a0: 13b4 d63c f8c8 ddbd b909 96be 319d 29be
000000b0: a152 8a3e 00e5 ea3d d52a 63be c978 693e
000000c0: 04b7 57bd 975d 77be a4d2 a3be d025 37be
000000d0: fb6a 453e db0c 5d3d 8292 febd cd92 9d3d
000000e0: f029 a3be 42c3 2b3e 4558 2d3d 2650 23bd
000000f0: 0bd9 28bd e572 1a3e 10ee b5bd 7aca 2a3d
0.067856506 0.012277917 0.051176265 0.31150982 -0.019390572 0.04268596 -0.12142753 0.0019927123
-0.04480385 -0.16606213 -0.08020313 0.033124954 0.027200997 -0.081250586 -0.22260574 0.14727129
0.0068027014 0.055973914 -0.3075533 -0.23471746 -0.08988896 0.060475178 -0.0024506557 -0.16124777
0.044625014 0.22421129 0.18710099 0.16615514 -0.34392428 -0.18753187 -0.10491913 -0.06004577
0.02811719 -0.10336779 0.03146891 0.16018629 -0.14617306 0.06311383 0.07308516 -0.14347118
0.026208913 -0.10829347 -0.29304293 -0.1656387 0.27016166 0.114694595 -0.22184308 0.22799982
-0.05266477 -0.24156795 -0.31996644 -0.17885518 0.19279091 0.053967338 -0.12430288 0.07694016
-0.31867933 0.16773704 0.04232051 -0.039871357 -0.041222613 0.15082891 -0.088832974 0.041697003

net.4.weight f4 [64, 64]
00000000: e174 8ebd 2f01 41bd 63ff 4c3e 2617 a1bd
00000010: 1cfa cbbd 2f69 aabd a80d 203e cf48 5abd
00000020: 89f6 a13d 1812 04be e77e 8cbe 0ae2 3cbe
00000030: 7f59 0f3d 7c03 e73d 1106 0f3e 6017 87be
00000040: 40f2 4dbe 5b66 81be d0b2 913d 1cf8 d9bb
00000050: 8c1c f53d 5943 6e3d 5492 2ebc c159 ba3b
00000060: 4c81 bfbd 9ed1 4c3e 41d4 593e 1d3e 9abd
00000070: 1964 e1bd e0e1 c8bd 936d ebbd 0242 b1be
00000080: 006a 0abe d084 7a3d fa08 37be 84d9 d4bd
00000090: 1246 b2bd 6ce2 c43d 675e 803e 6782 60be
000000a0: e1bb d4bd da14 953e c86d 1a3d b8b0 5cbe
000000b0: 0762 1bbe f3b1 5cbd a43b 60be e724 ccbd
000000c0: 95be 6abd 79e6 39bd 8a22 de3e 957b e8bd
000000d0: fd26 38be a7ea 48bd 1a04 2f3e e9f4 43be
000000e0: 5842 76be 398e 97be 7b28 953e 2a0f 0c3f
000000f0: 57f0 533d 6526 c53d b25e afbd a99b 45be
00000100: 4a0a c6bb cddb 06bd d674 853c 9349 923d
00000110: 0bdd 73bb 9902 a7bd 1c8a b63d 1206 133e
00000120: 0f63 35be 8df9 b1bd 2128 2e3e dfdf f53b
00000130: 1483 b23b c3ba dc3d 4aed c83b 67e1 fcbc
00000140: b9e9 8a3d 32e6 53bc 5030 143c b0ab 54bd
00000150: 0e38 39bd 04a4 2f3e e369 543c 9cd1 0d3e
00000160: d745 ee3b 60fc e33d 5b39 aebb fcbf 0fbe
00000170: 8b01 1ebe 3c98 b2bd 24a3 9d3c 2e1f 12bd
00000180: 29df 173c 05fb e0bd 0d1e fdbc a226 f53d
00000190: 4e47 173e 6f26 edbd f98d e93d c86f 9d3d
000001a0: 44ba 963d c750 d2bd 02f9 adbd 91f2 3cbd
000001b0: 2b48 ad3c 9654 00bd d7fe f4bd c891 87bd
000001c0: f75b e0bd 4c91 253d 1458 f73d 04f8 a2bd
000001d0: 25ea 5dbd 1982 573c 2c96 b93d 6f7d 4c3d
000001e0: 5693 933d 96f6 0dbe c386 9ebc f06c 0a3e
000001f0: 90cc bb3d 6405 5aba 855d 33be d939 a03d
00000200: 511f cb3c 9b42 483d ed38 babe e82a cabc
00000210: 73f5 43bc 42f2 4ebe 3f79 093d 8bbc a3bc
00000220: 353b 50bc 509c fc3c c99d 9fbd 4523 0a3c
00000230: 748c d13a d5f8 983b 5e03 39bd f849 ab3d
00000240: cfb6 9fbd 4117 ca3d 7867 cbbd 743e 09bd
00000250: febb 01bd 336e 5e3d e588 573b 0b68 4dbd
00000260: 4677 90bb 68db 513d 3af6 47bd 122e aabc
00000270: 39d0 d6bb cfec 9fbd e265 6c3c 494d 9abd
00000280: af7d a0bc 6afe 023d 1ea5 9c3c 0824 f039
00000290: 7724 363d e657 16be c8ea f13b ba00 0b3d
000002a0: 90ff eb3d d272 8cbd e349 3c3e 3b4b 81bc
000002b0: aa2c e03d 17e4 06bd a071 c4bd 500e 933d
000002c0: 8d6f 303c 718a 32bd 910a e83c 74da 30bb
000002d0: 7308 1dbd 42a7 823e 1adf 113d a8c5 bdbc
000002e0: 95f9 bc3e 8293 0bbd f77a 85bd 6b14 383c
000002f0: e9d1 d3bd 67e0 b63d 6150 8e3c 2232 533b
00000300: f176 ab3d 50e5 a8bd c180 78bc 1781 ff3d
00000310: 04cc 5f3e be0c 06be 7bfe d43b af06 7bbd
00000320: a779 443d e5f4 22be 6ebc c4bd 4c5b bfbd
00000330: 1be1 043d 473b 463c 099e 26bd e01f 37be
00000340: cf32 d0bc 62d2 61bc 0d67 46be 2cd5 d2bd
00000350: 326b edbd 0f00 563e b148 2abe e01b dfbd
00000360: a7ce e23c 916b 64be 8d0c 9b3e 619b 1d3d
00000370: f4cf 683e 9825 53be a4ab c6bd 5721 a13d
00000380: 0376 5f3d 1bd5 e73d 1eac 47be 9fb0 e4bd
00000390: fcf5 a1bd b853 5abd 3f19 013f 4987 55be
000003a0: caed 8cbd afbd 3a3d d1ea f5bd eebc 613e
000003b0: 56d7 b93d d8fd 14bd f8c0 3abd ba5a c23d
000003c0: 7a37 493d f6bf b2bd 907b 6c3d 00f4 b8bc
000003d0: 2588 9cbd 35a2 51bd 12f4 9ebc 405c 6dbd
000003e0: 1ec6 6b3d 4d01 febe 3833 68be 7c15 8c3e
000003f0: 9cd9 47be 6f20 203e 4f5a 093e 1942 053d
-0.06955887 -0.04712027 0.20019297 -0.07865743 -0.09959814 -0.083208434 0.1563021 -0.053292092
0.07908351 -0.12897527 -0.2744057 -0.18445602 0.03499746 0.112799615 0.13967158 -0.2638502
-0.20111942 -0.25273404 0.07114184 -0.0066518914 0.119683355 0.058169696 -0.0106550045 0.005686969
-0.09350833 0.20001838 0.21272375 -0.075313784 -0.1100542 -0.09808707 -0.11495509 -0.34620672
-0.13516998 0.061161816 -0.17874518 -0.1039305 -0.08704771 0.09613499 0.25072023 -0.21924745
-0.103873976 0.2911747 0.03770235 -0.21551788 -0.15174113 -0.053880643 -0.21897751 -0.09967976
-0.05731066 -0.04538581 0.43385726 -0.113516964 -0.17983623 -0.049051907 0.17091408 -0.19136395
-0.24048746 -0.29600695 0.29132447 0.5471064 0.051742878 0.09626464 -0.085629836 -0.19297661
-0.006043707 -0.032924462 0.016291063 0.071429394 -0.003721061 -0.08154792 0.08913061 0.14357784
-0.17713569 -0.08690176 0.17007495 0.007503494 0.0054477546 0.107778095 0.0061318027 -0.030869199
0.0678286 -0.012933301 0.009044722 -0.051921546 -0.045219474 0.17152411 0.0129646985 0.13849491
0.007271509 0.11132121 -0.005316896 -0.1403808 -0.15430276 -0.08720443 0.01924283 -0.035674267
0.009269514 -0.10985378 -0.030898118 0.11970259 0.14773294 -0.11579596 0.11404032 0.07687336
0.07359746 -0.10269313 -0.0849476 -0.046129767 0.021152576 -0.031330667 -0.11962669 -0.066196024
-0.10955041 0.04042177 0.120773464 -0.079574615 -0.054178376 0.013153576 0.09061846 0.04992431
0.072058365 -0.13863596 -0.019351369 0.13518119 0.091698766 -0.00083168433 -0.17516144 0.078235336
0.024795206 0.048891645 -0.36371556 -0.024678662 -0.011960375 -0.20209602 0.033562895 -0.019987365
-0.012709429 0.030836254 -0.07793767 0.0084312605 0.0015987293 0.004668335 -0.045169227 0.08363718
-0.0779854 0.098677166 -0.099318445 -0.033506826 -0.031673424 0.054304313 0.0032887992 -0.05014805
-0.0044087498 0.051234633 -0.048818804 -0.020773921 -0.006555584 -0.078088395 0.014428588 -0.07534272
-0.01959118 0.03198091 0.019121703 0.00045803213 0.04446837 -0.14681968 0.0073827244 0.03393624
0.11523354 -0.06857838 0.1838756 -0.015782943 0.10946019 -0.032932367 -0.09591985 0.07180464
0.010768783 -0.04358906 0.028325351 -0.0026985677 -0.038338136 0.25518233 0.035613157 -0.023165539
0.36909166 -0.03407622 -0.06517594 0.011235337 -0.103427716 0.0892952 0.017372312 0.0032225926
0.08372296 -0.08246863 -0.015167416 0.12475794 0.2185517 -0.13090798 0.006500063 -0.06128567
0.04796758 -0.15913732 -0.096062526 -0.09343585 0.03244124 0.012099094 -0.040678058 -0.17883253
-0.025414852 -0.013783069 -0.19375248 -0.102945656 -0.115927115 0.2089846 -0.16629292 -0.108939886
0.02768643 -0.22306658 0.30283013 0.03847826 0.22735578 -0.2061981 -0.097007066 0.07867687
0.054555904 0.113199435 -0.19499251 -0.111665 -0.07908246 -0.053302497 0.5042915 -0.20852388
-0.06881292 0.045591053 -0.12007678 0.22044727 0.09074275 -0.036374897 -0.045594186 0.09489961
0.049125172 -0.0872802 0.057735026 -0.022577286 -0.07643155 -0.051180083 -0.019403491 -0.057949305
0.057561986 -0.49610367 -0.22675788 0.2736014 -0.19516605 0.15637372 0.13413356 0.03253374

net.4.bias f4 [64]
00000000: 8eb9 73bd e7dd 763d 3ca0 d23a 727b 6f3e
00000010: f780 e3bd 193b 123e c53c 463e f931 bbbd
00000020: 2e7f e9bd 6ce4 c5bd f07b d73b 85eb ccbd
00000030: 151c 81bc b2be 073e a9c8 dd3d afb3 423e
00000040: df29 a1bb 146d 1f3e e5be 34bd 1624 c23d
00000050: 4ea9 8e3c e05b c6bc ba48 06be bb53 45bc
00000060: 60c4 b3bd 4031 15be 95fc b53c 5ce5 d93d
00000070: 495c 8fbd 81ae e4bd 5397 17be 7122 80bd
00000080: 4024 abbd fec2 e93c cbf8 c63d c0d2 403e
00000090: 3480 f2bc 6c3c 6fbe 3206 163d d9cd ec3d
000000a0: 87b0 4fbc 4aa0 3abd 4ac0 9a3e 1c23 28be
000000b0: 6bcf 7cbd cdb2 2fbe d576 973e 79d7 c7bd
000000c0: 43df d6be f392 d7bc 9267 03be f5dc 12bc
000000d0: 4f69 08be 5186 4f3d 3bb3 ad3c ec3e 01be
000000e0: 54d1 46be 129c 63be 05b4 8dbd db99 d33e
000000f0: 04a7 bd3d 6a5f e43d 7e4c 1a3e c77f 9dbd
-0.05950313 0.060270216 0.0016069482 0.23386934 -0.111085825 0.14280356 0.19359119 -0.09140391
-0.11401211 -0.09662709 0.006576054 -0.10005859 -0.01576046 0.13256338 0.108292885 0.19013856
-0.0049183215 0.15568954 -0.044127364 0.09479539 0.017414715 -0.024213731 -0.1311368 -0.012043889
-0.0877769 -0.14569569 0.022215167 0.1063945 -0.07000024 -0.111660965 -0.1480382 -0.06256569
-0.083565235 0.028535362 0.09715422 0.18830395 -0.029602148 -0.23362893 0.036627002 0.115627
-0.012676365 -0.04556302 0.3022483 -0.16419643 -0.061721247 -0.17158051 0.2958285 -0.09757895
-0.4196721 -0.026315188 -0.12832478 -0.008963813 -0.13321422 0.050665203 0.021203628 -0.12621659
-0.1941579 -0.22227505 -0.069191016 0.4132832 0.09260371 0.11151011 0.15068242 -0.07690387

net.6.weight f4 [6, 64]
00000000: f270 48be e7b6 00bf 80df b2be 3e2b 86be
00000010: 32e5 813d d3cc 883d e096 333e 9ffb 763e
00000020: a6ac d93c 9594 c53d 45ac 48be 2e23 5b3e
00000030: 6550 25be 8d92 e23e 5b38 863e cc2b 2bbe
00000040: 9516 c23e 2d34 883d 459f 923d e8f2 34be
00000050: f18a 44be b4dd 7c3e e4dc afbb 56e4 a5be
00000060: e32d c83e 4916 68be a355 0fbe 85f7 14be
00000070: ac62 8fbe 994e 0a3e b15d 513e bbb0 9fbe
00000080: 969a 68bd 3459 0fbe 2384 c9bc c601 d33e
00000090: 9604 9bbb 2e5c 543c 75a8 05bc 32a1 e73d
000000a0: 672b 2f3d eae0 03bf 8000 39be 9b87 c83e
000000b0: c02c 643e de68 25be a201 2a3f e6cd 2b3e
000000c0: 7b97 203d 77ae 9abe 5971 a53e 336f ffbd
000000d0: 473d a13e f456 dd3e 8e77 85be b47d f73d
000000e0: dab6 e73e 0e79 a1bd 5d38 813e 71a8 2f3d
000000f0: 325f 7b3d e1cf 853e 145d 19be 63ef 38bf
00000100: 294d be3e 10c9 5b3d 4239 05be fa67 cf3d
00000110: 5f47 453f 85a5 e63e 1f23 9d3d f8ea db3d
00000120: ecd6 a9be e406 78be febb 1f3f a5e4 24be
00000130: e4ec a2be 7aba c13d fc30 db3e 1937 023e
00000140: 33e3 94be 202e d7be ee30 00bf aca5 8a3f
00000150: 61a7 2b3c 52b8 833c 3257 cd3d 8cde a6be
00000160: dbf2 a4be b59c 1b3f ea81 293f 4b2a 0f3f
00000170: 25c2 a93f 1762 0b3f d9f3 213e 3d34 983d
00000180: 5225 c0be 0871 283f fcad 213f 9eca 153e
00000190: 59c1 203f ddd6 01bf 6e90 ed3c 113d 33bf
000001a0: 70b4 ee3c af25 dc3e 2242 273f 0d28 abbf
000001b0: 9632 19bf 071c c3bd d7cd d63d bcc1 1cbf
000001c0: 5546 0fbe bf25 81be 6b05 0fbe c799 25be
000001d0: ebe7 0cbf f0e3 2bbe ea8d 3d3f f635 f2be
000001e0: 405b 773d f257 ca3d 5384 febc 2f38 bfbe
000001f0: f377 283f c31b 943e 3314 283f 3976 a53e
00000200: 3eba a63f 9f58 c93e ba05 f0bd 041a 8d3f
00000210: d2cd 3fbf 01d9 d83e 506e 1f3e 6ec1 7bbf
00000220: 968b 4cbd 2c9d f7be c89f e0bd c30f d73e
00000230: 0696 3f3f d540 013e 5cfc 43bf 2a91 9d3d
00000240: b24f fbbe 7e36 803e 41f1 513e 2e88 ccbd
00000250: 0320 113e 5bf6 803f 7b7a 62bf d9e0 413f
00000260: 2582 a7bf e7e1 8c3f 8f7f e23d 4342 a83e
00000270: cf83 223e afcc bd3e 0bd9 7f3d 03de a4be
00000280: 111f f13d 1fea f8bd 01d6 d13e 26e2 39bf
00000290: 764e 13bf b2b1 8f3e 73f3 83bd 0810 fabd
000002a0: 3405 b7be 749e e33f 37ca db3d f7fc 6d3f
000002b0: e631 68bd 41d2 503f 277c 7ebf 71af b23d
000002c0: 328c b1bc bf8d 7d3f 649d 11bf b6b8 863b
000002d0: 6a7d bdbd 0399 993c 5ce1 1c3f eb23 6ebe
000002e0: 567f 41bd 1eb6 ab3d 89ea 503f 120a a93f
000002f0: 3471 dbbe 8837 9cbe 3cdf 8b3e cbba 503f
00000300: 20fe 5b3c 4125 a53d f0f2 81be cf7a b03d
00000310: 6704 e1bd 2d5d a03e 4130 063f 3a7b a13d
00000320: a92b c93d 51ae abbe 0929 a3be ebfa ffbe
00000330: abe9 94bd e2c4 5d3e 66f6 e93c 6607 593f
00000340: 977e 7b3e 78e3 0a3f eef9 0e3f a2ef 53bf
00000350: 0927 293f 73cc 433e 8781 84be ed6b a0bd
00000360: 827f 9ebd 1128 983d 7a84 a4bd 173e 223e
00000370: db0b c7be 9040 89be 011a 083e 9ccf d0be
00000380: dbbc 07bc 21f4 43be e1c3 c13d f91f cabc
00000390: 70a2 e9bd e4b3 2abe 8823 1a3f fd1c 993e
000003a0: 1290 583e 5845 893d f0c9 033f 6f3b 2d3f
000003b0: a27c dc3d 04de 90be 72b6 7c3e 365f 8dbc
000003c0: 3de4 9bbf a337 0cbc 9372 bdbd 150f 29bd
000003d0: af54 c93d 75ae 863e 5958 fdbd 5760 00be
000003e0: c6e4 c0be c0c5 43bf 6404 453c dd9f 803e
000003f0: ae8d 1fbd cf5e a53e a636 91be 2362 d8be
-0.19574335 -0.50279087 -0.34936142 -0.26204866 0.06342544 0.06679692 0.17538023 0.24119423
0.026571583 0.096474804 -0.19596966 0.21400139 -0.1614395 0.44252434 0.2621487 -0.16715926
0.37907854 0.06650577 0.071592845 -0.17670786 -0.19193627 0.24693948 -0.0053669084 -0.3240077
0.3909751 -0.22664751 -0.13997512 -0.14547546 -0.28004968 0.13506545 0.20445897 -0.31189522
-0.05678805 -0.13998872 -0.02459914 0.4121229 -0.0047307713 0.0129614305 -0.008157839 0.113100424
0.042766 -0.51515067 -0.18066597 0.3916596 0.22282696 -0.16153285 0.6640874 0.16777763
0.039206963 -0.3021123 0.3231304 -0.124723814 0.31492063 0.43230402 -0.26067775 0.12084523
0.45256692 -0.078844175 0.25238314 0.042885248 0.061370082 0.26135162 -0.14976913 -0.72240275
0.37168244 0.053658545 -0.13010123 0.10127254 0.7706203 0.45048156 0.076727144 0.10738176
-0.33171785 -0.24221379 0.6239623 -0.16102846 -0.31821358 0.09459396 0.4281081 0.1271633
-0.2907959 -0.42027378 -0.5007466 1.0831809 0.010476918 0.016079102 0.10026397 -0.32591665
-0.32216534 0.6078599 0.6621386 0.5592391 1.3262373 0.5444655 0.15815677 0.07431839
-0.37528473 0.6579747 0.63156104 0.14628074 0.62795025 -0.5071848 0.028999534 -0.70015055
0.029138774 0.429975 0.65335286 -1.3371598 -0.59842813 -0.0952683 0.104884796 -0.61233115
-0.13991673 -0.2522411 -0.1396691 -0.16171943 -0.5504138 -0.1678617 0.7404467 -0.47306794
0.060389757 0.098800555 -0.031068956 -0.37347552 0.6580803 0.2892743 0.6565582 0.3231676
1.3025587 0.39325425 -0.11719842 1.1023564 -0.7492343 0.4235306 0.15569425 -0.98342025
-0.049937807 -0.483621 -0.10967976 0.42004213 0.7483829 0.12622388 -0.76556945 0.076937035
-0.4908424 0.25041574 0.20502187 -0.09986912 0.14172368 1.0075182 -0.8846814 0.75733715
-1.3086592 1.100644 0.11059486 0.32863054 0.15870593 0.37070224 0.062462848 -0.32200631
0.117735036 -0.1215403 0.40983585 -0.726107 -0.57541597 0.28065258 -0.06442919 -0.12210089
-0.35746157 1.7782731 0.10731929 0.9296412 -0.05668821 0.8157082 -0.9940819 0.08724869
-0.021673296 0.9904441 -0.56880784 0.0041113747 -0.092524365 0.01874972 0.6128137 -0.23255889
-0.047240578 0.083843455 0.8160787 1.3206198 -0.42859805 -0.30511117 0.27318752 0.81535023
0.013427287 0.08063746 -0.2538066 0.08617174 -0.10987168 0.31321087 0.5241738 0.07884832
0.09822781 -0.3353143 -0.31867245 -0.49996123 -0.07271131 0.21657136 0.028559875 0.84776914
0.24560009 0.5425334 0.5585011 -0.82787526 0.6607519 0.1912096 -0.25880072 -0.07833085
-0.07739164 0.07429517 -0.080330804 0.15843998 -0.38876233 -0.2680707 0.1329117 -0.40783393
-0.008284773 -0.19136097 0.09461189 -0.024673449 -0.114079356 -0.16670185 0.60210466 0.2990493
0.21148708 0.067026794 0.5148001 0.67668813 0.10765959 -0.28294384 0.24678972 -0.017257314
-1.2179028 -0.008558187 -0.09250369 -0.04127415 0.09830605 0.26304975 -0.123703666 -0.1253675
-0.3767454 -0.7647362 0.012024973 0.25121966 -0.038953476 0.32298896 -0.28362006 -0.42262372

net.6.bias f4 [6]
00000000: 0ea0 0300 b614 a63e 2db7 0380 9b8f da3e
00000010: 627f 4d3e 627f 4d3e
3.32923e-40 0.32437676 -3.41218e-40 0.42687687 0.20068124 0.20068124
