training/nn-medium.pth (torch, 43363 bytes, 8 tensors)

net.0.weight f4 [64, 21]
-0.49244437 -0.31601763 0.60066074 0.005978379 0.013973972 0.010433693 -0.0065942174 -0.02403081
-0.021407153 -0.02313107 0.008533784 -0.17533986 -0.5370333 -0.34837794 0.3656578 0.54832906
0.21542501 0.009096379 -0.0296685 -0.05998012 -0.0024417464 0.38027546 -0.029176304 -0.71695244
-0.03524878 -0.009025268 -0.0014844432 0.009775589 0.02421759 0.031643216 -0.00018477814 -0.024206763
0.08696981 0.13325074 0.36304775 0.35894388 -0.17680518 -0.44795257 -0.16296148 0.06252641
0.014672291 -0.00032453416 1.1500822 -0.13644879 0.3255266 -0.053336423 -0.012586558 0.014815044
-0.002548268 -0.0033086836 0.00085091224 0.011432562 0.007902173 0.8883631 -0.9514531 -0.90869385
-0.02562785 0.11762606 0.029208636 -0.01094092 -0.032346133 0.09160991 0.0094935605 0.5047545
0.20258978 -0.0014027728 0.10147767 0.07602303 0.033383463 0.020291371 -0.0089765275 -0.032943014
0.00936951 -0.03387504 0.26450112 0.10259829 -0.024186127 -0.03417315 -0.06606086 -0.11776185
-0.10322945 -0.01309257 0.09125349 -0.10148991 0.121166535 0.16617644 -0.38849136 -0.043765403
0.010129173 0.025745194 0.016780011 0.0010889779 -0.008437523 -0.012232587 0.016037667 7.251102e-05
0.08575717 0.22160183 0.17212024 0.016684031 -0.14477544 -0.30601206 -0.3993297 0.0060068816
-0.02711245 -0.34294704 -0.050834816 0.012157786 0.09193001 0.13830823 0.14962953 0.08936589
0.042440962 0.02689173 0.0064705405 0.019973502 -0.069136366 -0.0605805 -0.019045401 0.004938844
0.039904054 0.074890114 0.102423 -0.010648633 0.0048046443 0.0017591665 0.45003387 0.047440987
-0.7617858 0.050568763 0.082583055 0.09916162 0.09909489 0.1441085 0.1645845 0.14072311
0.22372144 -0.03269139 0.10569411 -0.024436167 0.025936231 0.04600717 0.009235902 0.024388425
-0.020886106 0.091836855 0.09130133 0.032807354 -0.007669926 0.024183193 -0.022726865 -0.011101325
-0.002870635 -0.014807047 -0.013117441 -0.011477612 -0.020307718 -0.06795203 0.025741031 0.001186168
0.004030027 0.013731488 0.010403669 0.010663629 0.041618235 0.08882047 -0.0032650668 -2.4484417
-0.70884794 -0.20725805 -0.35316315 0.17018832 0.09544733 0.059066802 0.038513064 0.037897646
0.013989862 -0.008059291 -0.029393803 -0.34206817 -0.24093086 -0.15128854 0.04655476 0.1980923
0.19235867 0.108155765 -0.18474227 -0.08233973 -0.0067924173 -0.14797401 -0.15118298 -0.19221465
-0.026230384 -0.07284202 -0.069557 -0.0069419206 -0.01434696 -0.02737267 0.018539343 0.06419834
0.00093429245 0.01889078 -0.04255004 0.015988536 0.06908158 0.0889787 0.07917615 0.20655149
-0.037697077 -0.13733843 0.14683749 0.058477778 -1.1751685 0.02859098 -0.091971554 -0.05593939
-0.030063529 0.009522711 0.012026552 0.057669144 0.030907942 0.06662325 -0.0076151295 0.095044166
-0.013553351 0.0042898664 0.02339081 -0.029729072 -0.053190157 -0.18928906 -0.0074174833 0.14762902
0.16909032 -0.5422959 -0.042996936 0.013180925 0.005736582 -0.005384711 -0.022782775 -0.018311681
-0.044008072 -0.018665703 0.020498438 0.12809409 0.4078891 0.47866768 -0.22273156 -0.82983845
-0.34093326 0.35956758 0.021933869 -0.024658568 -0.43230963 0.07967349 -0.3244163 -0.0571109
00000000: ab21 fcbe 10cd a1be e7c4 193f 47e6 c33b
00000010: 16f3 643c 15f2 2a3c 4e14 d8bb 43dc c4bc
00000020: 0e5e afbc 5f7d bdbc 49d1 0b3c 4b8c 33be
00000030: 047b 09bf 985e b2be 8037 bb3e 4b5f 0c3f
00000040: 6098 5c3e fb08 153c 5b0b f3bc b7ad 75bd
00000050: b505 20bb 77b3 c23e 2503 efbc 328a 37bf
00000060: 0661 10bd b8de 13bc a691 c2ba cb29 203c
00000070: f863 c63c 519c 013d 01c1 41b9 434d c6bc
00000080: 3a1d b23d e272 083e 65e1 b93e 7ec7 b73e
00000090: 6b0c 35be 0a5a e5be 60df 26be d90d 803d
000000a0: 0d64 703c 3d26 aab9 e535 933f 3bb9 0bbe
000000b0: 6cab a63e 4b77 5abd da37 4ebc ccba 723c
000000c0: d800 27bb 80d6 58bb c10f 5f3a a44f 3b3c
000000d0: 1e78 013c c46b 633f 6e92 73bf 29a0 68bf
000000e0: 7ff1 d1bc efe5 f03d f346 ef3c 8b41 33bc
000000f0: 617d 04bd fa9d bb3d e18a 1b3c 9737 013f
00000100: b273 4f3e 3fdd b7ba 86d3 cf3d f6b1 9b3d
00000110: 19bd 083d 173a a63c 4912 13bc 41ef 06bd
00000120: 9382 193c 8ec0 0abd b16c 873e 0d1f d23d
00000130: fc21 c6bc 25f9 0bbd eb4a 87bd 202d f1bd
00000140: f669 d3bd 3882 56bc 1ce3 ba3d f1d9 cfbd
00000150: 2926 f83d 282a 2a3e 57e8 c6be 5a43 33bd
00000160: d5f4 253c 96e7 d23c 3c76 893c 09bc 8e3a
00000170: 893d 0abc 306b 48bc 6d61 833c 0f11 9838
00000180: 75a1 af3d 97eb 623e 4a40 303e f3ac 883c
00000190: 0340 14be 9dad 9cbe f174 ccbe 60d5 c43b
000001a0: ee1a debc c196 afbe 2b38 50bd 7331 473c
000001b0: cd45 bc3d aca0 0d3e 7c38 193e 7705 b73d
000001c0: 93d6 2d3d 0c4c dc3c d406 d43b 789f a33c
000001d0: 5e97 8dbd 4223 78bd 1a05 9cbc 07d6 a13b
000001e0: 6f72 233d fd5f 993d 26c3 d13d 9b77 2ebc
000001f0: 4770 9d3b d593 e63a d76a e63e 7b51 423d
00000200: 6504 43bf 3121 4f3d 4e21 a93d 3f15 cb3d
00000210: 43f2 ca3d 2e91 133e d788 283e b819 103e
00000220: 3c17 653e 68e7 05bd 2776 d83d 5b2e c8bc
00000230: 3878 d43c 0472 3c3d 2e52 173c 3cca c73c
00000240: 5719 abbc f614 bc3d 31fc ba3d 0161 063d
00000250: 0154 fbbb d51b c63c b12d babc 55e2 35bc
00000260: 4321 3cbb 4299 72bc 89ea 56bc 980c 3cbc
00000270: 5f5c a6bc 6f2a 8bbd dbde d23c 3279 9b3a
00000280: 510e 843b 09fa 603c 2774 2a3c 80b6 2e3c
00000290: e277 2a3d 82e7 b53d bbfa 55bb 45b3 1cc0
000002a0: 0f77 35bf 743b 54be cdd1 b4be d945 2e3e
000002b0: e479 c33d 08f0 713d e0bf 1d3d 903a 1b3d
000002c0: bc35 653c 1e0b 04bc 46cb f0bc 8f23 afbe
000002d0: 94b6 76be 62eb 1abe 34b0 3e3d b5d8 4a3e
000002e0: acf9 443e c580 dd3d 142d 3dbe bba1 a8bd
000002f0: ed92 debb 8086 17be b6cf 1abe ebd3 44be
00000300: 1ae1 d6bc 322e 95bd e773 8ebd 0d79 e3bb
00000310: 830f 6bbc a63c e0bc d2df 973c 6b7a 833d
00000320: 4eeb 743a d6c0 9a3c f348 2ebd 64fa 823c
00000330: a57a 8d3d 773a b63d 1b27 a23d 3c82 533e
00000340: 4068 1abd 72a2 0cbe 915c 163e 6586 6f3d
00000350: ec6b 96bf a237 ea3c 955b bcbd b420 65bd
00000360: ca47 f6bc 2505 1c3c 040b 453c 7b36 6c3d
00000370: a732 fd3c c571 883d 5688 f9bb 84a6 c23d
00000380: e00e 5ebc 0292 8c3b 159e bf3c 628a f3bc
00000390: ecdd 59bd fed4 41be 5c0e f3bb 102c 173e
000003a0: 0326 2d3e e7d3 0abf 8e1d 30bd cef4 573c
000003b0: f0f9 bb3b 3b72 b0bb f1a2 babc 6102 96bc
000003c0: cf41 34bd d1e8 98bc 57ec a73c 192b 033e
000003d0: d7d6 d03e ee13 f53e be13 64be 4b70 54bf
000003e0: ce8e aebe 3e19 b83e a8ae b33c c400 cabc
000003f0: b057 ddbe db2b a33d e519 a6be 1eed 69bd

net.0.bias f4 [64]
1.3256358 -1.2087259 -0.24694675 -0.17072733 0.1757217 0.6979294 -0.15474397 -0.25213706
0.25621828 0.101222225 0.13124356 0.44424236 0.43775028 -0.15824774 -0.3833864 -0.07595305
-0.9008174 0.442355 0.16205643 0.038496926 -0.6864259 -0.42483664 0.18209806 -0.8126212
0.5688876 -0.4604403 0.34260073 0.27891707 0.3983902 0.011023212 -0.93538356 -0.43087608
0.12467671 0.20889707 -0.12432591 -0.049533766 0.32129797 -0.33510885 -0.48149982 0.43186232
0.015178306 0.38919306 0.033588238 -0.27914917 -0.12845089 -0.08209668 -0.42030662 0.18228717
0.35422716 1.1181899 0.31127858 0.09626882 1.159554 0.64710206 -0.31413725 0.55439544
-0.16171192 0.5004525 -0.7487809 -0.9991016 -0.19132686 -0.7244486 0.5355815 1.1450675
00000000: 6fae a93f 88b7 9abf 9cdf 7cbe 25d3 2ebe
00000010: 64f0 333e 80ab 323f 3475 1ebe 1c18 81be
00000020: 0b2f 833e 994d cf3d b664 063e bc73 e33e
00000030: ce20 e03e b20b 22be 394b c4be 468d 9bbd
00000040: f89b 66bf 5b7c e23e 1ff2 253e f4ae 1d3d
00000050: 9cb9 2fbf 3084 d9be ea77 3a3e f107 50bf
00000060: 9ea2 113f d5be ebbe 5d69 af3e 38ce 8e3e
00000070: cdf9 cb3e b49a 343c 4c75 6fbf ca9b dcbe
00000080: 8156 ff3d 1de9 553e 959e febd ebe3 4abd
00000090: 2b81 a43e 6393 abbe 2587 f6be 0f1d dd3e
000000a0: 6eae 783c 5044 c73e d293 093d a4ec 8ebe
000000b0: a188 03be 4e22 a8bd 6e32 d7be 7da9 3a3e
000000c0: 435d b53e d920 8f3f e85f 9f3e 9628 c53d
000000d0: 446c 943f 7ba8 253f 99d6 a0be dcec 0d3f
000000e0: cf97 25be a81d 003f 1bb0 3fbf 1fc5 7fbf
000000f0: 30eb 43be 7775 39bf df1b 093f 9291 923f

net.2.weight f4 [64, 64]
0.042550705 0.09677049 -0.17142816 -0.00039553636 -0.007154144 0.03574923 0.020000333 0.08245245
0.052074462 0.03237606 0.02337189 0.007849085 -0.005873792 -0.43562183 -0.078682974 -0.056512743
0.02886301 -0.042372584 -0.085500136 -0.06399521 0.025237037 0.1719853 -0.13813454 -0.03925102
-0.17615688 -0.033434466 0.06378388 -0.00991341 -0.2912537 0.004469692 0.100774676 0.057405133
-0.10891213 -0.11015779 0.39862192 -0.11285046 -0.06823047 0.48019418 -0.0574051 -0.016671479
0.03993248 0.08603747 -0.043794967 -0.36542788 0.061624072 -0.011247119 -0.036154233 0.13421348
-0.06777636 -0.18507117 -0.054569725 -0.16487704 -0.17847864 -0.11004716 0.19696309 0.34039035
0.11627196 -0.019333135 0.10513141 0.10273618 0.003964029 0.0676597 -0.018044667 -0.019999491
0.105357654 0.029293397 -0.09652222 -0.1912169 0.052749917 0.009254407 -0.11618251 -0.034650948
0.053246338 0.0009778829 -0.010861836 -0.01966271 0.10293777 -0.097435184 -0.24365404 0.033585217
-0.11051609 -0.106563024 -0.039776713 0.011857632 -0.08697241 0.031991106 -0.11091011 -0.051452707
-0.21704991 -0.14245713 0.18797873 -0.3634936 -0.10722198 0.23080988 0.026227763 -0.11820525
-0.08077514 -0.14049305 -0.0067116795 0.007374337 -0.09143459 0.053071007 -0.06274391 0.029567003
0.051434133 0.009077722 -0.16405661 0.0025160208 -0.022546034 0.16169886 0.012858824 0.13035242
0.077622995 -0.032472998 0.15006992 -0.16083746 0.16003467 0.04083042 -0.09346327 0.056684162
0.09551629 0.14340451 -0.09135429 -0.17592517 0.2498937 0.031475298 0.11213301 0.0005408109
-0.043672822 -0.07952114 0.25686088 0.093317546 -0.06104025 -0.015874887 -0.17673945 0.026898261
-0.13267747 -0.09556146 0.09004861 0.0780078 -0.2580025 0.11272205 0.18545112 -0.1862622
-0.21425681 0.007827395 -0.1412302 -0.012078602 -0.072015956 0.04926724 0.23091209 0.037709113
0.19599783 0.15526798 0.036914483 -0.17618994 0.15595247 -0.025919931 -0.11288433 -0.14314906
-0.029477535 0.03805124 -3.8356236e-05 0.035663288 0.06640587 -0.03670346 -0.06634695 0.08580706
-0.06900255 0.040660247 0.22992538 0.14979167 -0.005647442 -0.07947842 -0.03500557 -0.041138124
0.0819367 0.5444827 -0.35970396 0.13711381 -0.11488045 -0.13864698 0.12500586 0.05703563
-0.17584513 -0.17951715 0.09365228 0.1634235 -0.17712922 0.012333697 -0.056025967 0.12708546
0.0023359042 -0.042536497 0.0035623002 -0.06266906 -0.09886307 0.036738068 -0.012403682 -0.018382585
-0.0012622011 0.024160147 0.052180428 0.04829404 0.034679025 -0.2614892 -0.03128238 -0.05678961
0.047755886 0.017364347 0.22167382 -0.041495774 -0.0252744 0.113548614 0.09019958 -0.06514123
-0.05941232 -0.032118294 -0.0053443694 0.06976203 0.038026314 -0.00031161454 0.04265796 -0.0032533845
0.043173324 -0.0188142 0.12363123 0.011946148 -0.0050895577 0.02260696 0.12108153 0.011063285
-0.16575564 0.1882902 -0.049445696 0.12755293 -0.06183307 -0.004902489 -0.19304632 -0.08452049
-0.009782305 0.02940351 0.09681424 -0.12119073 0.01176311 0.08482018 0.22871661 -0.004357446
-0.027655052 0.06596431 0.015973717 -0.15688483 -0.036586232 -0.042551737 0.021035362 0.07997407
00000000: a649 2e3d 9b2f c63d dd8a 2fbe fe5f cfb9
00000010: 4f6d eabb c96d 123d bdd7 a33c d5dc a83d
00000020: 084c 553d c29c 043d 6876 bf3c 7399 003c
00000030: f078 c0bb d309 dfbe 8a24 a1bd e879 67bd
00000040: 1f72 ec3c e08e 2dbd b21a afbd ec0f 83bd
00000050: e7bd ce3c ea1c 303e 2473 0dbe adc5 20bd
00000060: 7862 34be 94f2 08bd 1fa1 823d db6b 22bc
00000070: 341f 95be 7e76 923b f462 ce3d a521 6b3d
00000080: 530d dfbd 689a e1bd 2c18 cc3e 241e e7bd
00000090: 6bbc 8bbd 03dc f53e 9c21 6bbd a092 88bc
000000a0: 3d90 233d 6a34 b03d 5a62 33bd 5d19 bbbe
000000b0: 8669 7c3d d645 38bc 7616 14bd 426f 093e
000000c0: 55ce 8abd 4c83 3dbe 8184 5fbd 87d5 28be
000000d0: 1bc3 36be 6860 e1bd b1b0 493e a547 ae3e
000000e0: fe1f ee3d 8660 9ebc 234f d73d 5967 d23d
000000f0: afe4 813b 2b91 8a3d 69d2 93bc f9d5 a3bc
00000100: c1c5 d73d b5f8 ef3c 71ad c5bd 5dce 43be
00000110: 4c10 583d cc9f 173c 19f1 edbd 27ee 0dbd
00000120: d518 5a3d 4e2c 803a d8f5 31bc b113 a1bc
00000130: 0ad1 d23d 198c c7bd 7280 79be a790 093d
00000140: 4356 e2bd b73d dabd e8ec 22bd 8346 423c
00000150: 971e b2bd 1b09 033d d724 e3bd 13c0 52bd
00000160: 5542 5ebe 48e0 11be 7f7d 403e d51b babe
00000170: 3397 dbbd 6d59 6c3e 9bdb d63c 9815 f2bd
00000180: 706d a5bd 69dd 0fbe a6ed dbbb 6ca4 f13b
00000190: 0f42 bbbd fc60 593d e17f 80bd 8036 f23c
000001a0: 99ac 523d baba 143c 75fe 27be d3e3 243b
000001b0: 76b2 b8bc 6394 253e d1ad 523c 1b7b 053e
000001c0: cef8 9e3d 6802 05bd eeab 193e 93b2 24be
000001d0: 21e0 233e cc3d 273d ac69 bfbd a72d 683d
000001e0: 0b9e c33d a2d8 123e f517 bbbd ba25 34be
000001f0: 22e4 7f3e 3eec 003d fea5 e53d 35c5 0d3a
00000200: 46e2 32bd fbdb a2bd 4583 833e 451d bf3d
00000210: 5705 7abd 0d0c 82bc 30fb 34be be59 dc3c
00000220: 9adc 07be bab5 c3bd 686b b83d 8ec2 9f3d
00000230: e718 84be d1da e63d e6e6 3d3e 85bb 3ebe
00000240: 2366 5bbe 793e 003c a69e 10be 54e5 45bc
00000250: 1a7d 93bd 72cc 493d 3874 6c3e df74 1a3d
00000260: a8b3 483e 92fe 1e3e a433 173d 236b 34be
00000270: 01b2 1f3e 0956 d4bc e62f e7bd ab95 12be
00000280: df7a f1bc 9edb 1b3d b2e0 20b8 ab13 123d
00000290: cdff 873d 5e56 16bd e9e0 87bd 9dbb af3d
000002a0: 3551 8dbd 5c8b 263d 8f71 6b3e fd62 193e
000002b0: 2d0e b9bb 95c5 a2bd 0062 0fbd 7380 28bd
000002c0: 6ece a73d 3863 0b3f 1e2b b8be 9067 0c3e
000002d0: 7146 ebbd 79f9 0dbe 8901 003e 319e 693d
000002e0: bf10 34be 58d3 37be c4cc bf3d 7d58 273e
000002f0: 5d61 35be 4613 4a3c 7c7b 65bd b122 023e
00000300: f815 193b c03a 2ebd 7b75 693b a358 80bd
00000310: b978 cabd a87a 163d d038 4bbc 1397 96bc
00000320: 7170 a5ba 80eb c53c 25bb 553d f9cf 453d
00000330: 980b 0e3d eae1 85be f421 00bd 399c 68bd
00000340: ad9b 433d ad3f 8e3c 76fe 623e 79f7 29bd
00000350: 420c cfbc 2d8c e83d 8fba b83d c468 85bd
00000360: 555a 73bd 798e 03bd d21f afbb 65df 8e3d
00000370: 7bc1 1b3d 3260 a3b9 1dba 2e3d bc36 55bb
00000380: 83d6 303d 3d20 9abc 5f32 fd3d c7b9 433c
00000390: 4ec6 a6bb 3b32 b93c 98f9 f73d c842 353c
000003a0: d9bb 29be 25cf 403e 9287 4abd 3c9d 023e
000003b0: ac44 7dbd 0fa5 a0bb efad 45be 1419 adbd
000003c0: f645 20bc a1df f03c 8b46 c63d d832 f8bd
000003d0: 0fba 403c 34b6 ad3d b034 6a3e e8c8 8ebb
000003e0: d98c e2bc 4c18 873d 50db 823c 6ba6 20be
000003f0: 72db 15bd bb4a 2ebd 5a52 ac3c 72c9 a33d

net.2.bias f4 [64]
0.048022803 0.029056177 0.038199402 0.2996622 -0.025321828 0.04278847 -0.119315274 -0.041763954
-0.062600195 -0.19481857 -0.1095865 0.021478849 0.0255916 -0.07630163 -0.23443621 0.11635643
-0.00017137273 0.056957446 -0.34654894 -0.2644207 -0.1907929 0.09276849 -0.045065027 -0.16553406
0.030803405 0.2104009 0.20929529 0.15242472 -0.32669887 -0.18722738 -0.117484055 -0.056493502
0.035852816 -0.10409991 0.02066342 0.13171323 -0.14791144 0.07283953 0.098284476 -0.13535482
-0.011137573 -0.12949695 -0.29546678 -0.15509273 0.23699568 0.11690785 -0.21136023 0.22120552
-0.00857999 -0.25094277 -0.30419633 -0.17444126 0.16180474 0.047915604 -0.11564154 0.07986955
-0.2982057 0.1703293 0.024262818 -0.057613127 -0.0666867 0.14528434 -0.08258096 0.061787922
00000000: 8fb3 443d 3807 ee3c fa76 1c3d 536d 993e
00000010: b96f cfbc f642 2f3d 915b f4bd ae10 2bbd
00000020: 8834 80bd 857e 47be e36e e0bd 69f4 af3c
00000030: 7aa5 d13c 0744 9cbd 0c10 70be 484c ee3d
00000040: 84b2 33b9 364c 693d dd6e b1be 2662 87be
00000050: 375f 43be 68fd bd3d 1b96 38bd c381 29be
00000060: 6c57 fc3c 5573 573e 8151 563e 3a15 1c3e
00000070: 1345 a7be 89b8 3fbe 7b9b f0bd bb65 67bd
00000080: 67da 123d 5532 d5bd 5546 a93c d5df 063e
00000090: 1976 17be e42c 953d 5f49 c93d 749a 0abe
000000a0: 5e7a 36bc d99a 04be 6c47 97be a1d0 1ebe
000000b0: ffae 723e 626d ef3d d16e 58be b383 623e
000000c0: 1693 0cbc 927b 80be 9fbf 9bbe bba0 32be
000000d0: 24b0 253e 2743 443d 79d5 ecbd a692 a33d
000000e0: 6bae 98be ce6a 2e3e d1c2 c63c befb 6bbd
000000f0: 0993 88bd 6bc5 143e 3520 a9bd 5515 7d3d

net.4.weight f4 [64, 64]
-0.09942907 -0.15324336 0.09083805 -0.06893363 -0.09534628 -0.077676676 0.1444141 -0.031945486
0.075338475 -0.05180535 -0.23045851 -0.13160859 0.06843648 0.16841485 0.16477883 -0.19099593
-0.17308941 -0.24797961 0.06273548 -0.03404339 0.13937372 -0.003964947 -0.043254513 0.011924013
-0.07146935 0.18854661 0.19087715 -0.10080318 -0.09123904 -0.08379251 -0.16002686 -0.27152038
-0.11996618 0.03827368 -0.18587784 -0.13081011 -0.07344774 0.004322084 0.26617035 -0.23473796
-0.095034346 0.28818426 -0.050623313 -0.11970829 -0.1410685 -0.054944597 -0.17124334 -0.10787043
-0.060452413 -0.08627402 0.39332527 -0.030015025 -0.15154018 -0.02829548 0.18589781 -0.16963206
-0.34437534 -0.3361471 0.28365323 0.49514177 0.062018998 0.10193644 0.0007052442 -0.2191803
0.039619695 -0.0015825793 -0.020893665 0.06145541 0.048880477 -0.07034425 0.094674975 0.13436303
-0.23366071 -0.096907064 0.18780963 -0.03128047 -0.00072670577 0.074707195 0.01704617 -0.0483865
0.0781887 0.0070614996 -0.009304416 0.016020862 -0.07791176 0.0644127 0.020181702 0.05356997
0.0114963995 0.111238115 -0.029273838 -0.16035445 -0.13386512 -0.047870304 0.012925467 -0.031813662
-0.032644268 -0.10733831 -0.012955102 0.129736 0.15407369 -0.12652257 0.10508312 0.037010673
0.12361951 -0.11427774 -0.08578825 -0.0034495646 -0.029188978 -0.04215068 -0.07980385 -0.07088132
-0.15275986 -0.034744002 0.10516251 -0.1111287 -0.0050156317 0.015766053 0.05038968 0.019175947
0.14042664 -0.11139267 -0.01681654 0.07574518 0.06797208 -0.003325196 -0.16938578 0.091046736
0.048990525 0.0019535285 -0.40511003 -0.026026638 -0.0033047383 -0.2996138 0.1337552 -0.0022404818
-0.051440533 0.028483765 -0.043129735 0.051301885 0.0146596925 -0.056499343 -0.054309983 0.07539148
-0.04465595 0.08511214 -0.09847394 -0.020384787 -0.05071104 0.00014653066 -0.0569323 -0.03389961
0.043666303 0.015752986 -0.08586228 -0.032039765 -0.0032914614 -0.08016507 0.029314432 -0.124201804
0.019675113 -0.026799489 -0.0037413123 -0.0022881802 0.037123702 -0.16259208 -0.02458708 0.008812183
0.10179088 -0.14992431 0.18117715 0.063189015 0.13663658 0.041672196 -0.086157985 0.028499326
0.01599686 -0.025173156 0.0588163 -0.023619702 -0.10928193 0.23152164 0.0013886144 -0.0186793
0.46535158 -0.006659776 -0.05731337 -0.011426032 -0.09483902 -0.012521497 0.051676136 0.04953679
0.08787806 -0.06766499 0.005541741 0.093192026 0.23266484 -0.15511975 -0.0004284799 -0.086086705
0.019878339 -0.12288 -0.1118252 -0.055211034 0.030701425 0.017100582 -0.027365623 -0.20325856
-0.07250373 -0.048837464 -0.1538526 -0.06597477 -0.11335197 0.24108987 -0.17609431 -0.12114706
0.015241286 -0.2267914 0.28532004 0.021948786 0.2318708 -0.21616508 -0.11678506 0.062403955
0.037765443 0.10883214 -0.18664451 -0.100239225 -0.07588795 -0.04154672 0.49621248 -0.14466093
-0.06229786 0.09740495 -0.11232351 0.23429967 0.10217114 -0.045390084 -0.033510514 0.061672874
0.07218107 -0.08379251 0.069560796 -0.003628525 -0.10175882 -0.03631129 -0.0070723225 -0.053538024
0.03563757 -0.5036137 -0.2167707 0.31618968 -0.13604227 0.17558445 0.12305904 0.033662036
00000000: 78a1 cbbd d4eb 1cbe 4d09 ba3d 132d 8dbd
00000010: e944 c3bd f314 9fbd 4ae1 133e 45d9 02bd
00000020: 0f4b 9a3d d931 54bd 51fd 6bbe 67c4 06be
00000030: 6d28 8c3d f174 2c3e c8bb 283e 7094 43be
00000040: 5a3e 31be 5eee 7dbe 767b 803d 1571 0bbd
00000050: fcb7 0e3e 63ec 81bb a52b 31bd ef5c 433c
00000060: 865e 92bd 5d12 413e 4d75 433e e671 cebd
00000070: 89db babd 689b abbd 15de 23be b804 8bbe
00000080: d4b0 f5bd ddc4 1c3d c356 3ebe 16f3 05be
00000090: c56b 96bd 45a0 8d3b 7b47 883e 265f 70be
000000a0: 5ea1 c2bd e38c 933e 645a 4fbd 9f29 f5bd
000000b0: 4374 10be 960d 61bd 6a5a 2fbe 2ceb dcbd
000000c0: f39c 77bd 6fb0 b0bd ee61 c93e 12e2 f5bc
000000d0: 592d 1bbe eccb e7bc ff5b 3e3e 07b4 2dbe
000000e0: f751 b0be 791b acbe ff3a 913e 3983 fd3e
000000f0: a207 7e3d 0dc4 d03d 23e0 383a cd70 60be
00000100: 4348 223d 8d6e cfba 3129 abbc abb8 7b3d
00000110: e536 483d a510 90bd f4e4 c13d 7696 093e
00000120: c144 6fbe 3677 c6bd 2b51 403e f31f 00bd
00000130: 6680 3eba 1600 993d 69a4 8b3c ec30 46bd
00000140: 6621 a03d 2764 e73b 8d71 18bc 2f3e 833c
00000150: 3390 9fbd ceea 833d 1954 a53c 2f6c 5b3d
00000160: 655b 3c3c cfd0 e33d b0cf efbc f533 24be
00000170: f013 09be a713 44bd 57c5 533c 0b4f 02bd
00000180: ffb5 05bd 30d4 dbbd a341 54bc 84d9 043e
00000190: 7ec5 1d3e 228f 01be d235 d73d 8198 173d
000001a0: 3a2c fd3d 730a eabd c0b1 afbd 1712 62bb
000001b0: b91d efbc 31a6 2cbd 3370 a3bd 3a2a 91bd
000001c0: 156d 1cbe ba4f 0ebd 715f d73d 7297 e3bd
000001d0: 2b5a a4bb cf27 813c 6965 4e3d e016 9d3c
000001e0: 00cc 0f3e d721 e4bd d7c2 89bc 4a20 9b3d
000001f0: f234 8b3d 88eb 59bb 7773 2dbe b676 ba3d
00000200: 4aaa 483d c506 003b 956a cfbe d135 d5bc
00000210: 4f94 58bb fb66 99be 20f7 083e 0cd5 12bb
00000220: 4fb3 52bd c956 e93c cea8 30bd ed21 523d
00000230: 352f 703c db6b 67bd 2574 5ebd d966 9a3d
00000240: 28e9 36bd 464f ae3d b4ac c9bd fffd a6bc
00000250: 61b6 4fbd 06a6 1939 d831 69bd 51da 0abd
00000260: 70db 323d 680c 813c 90d8 afbd 213c 03bd
00000270: 8fb5 57bb 962d a4bd d224 f03c 845d febd
00000280: b42d a13c 9a8a dbbc ce30 75bb 4bf5 15bb
00000290: 060f 183d 8a7e 26be d86a c9bc f960 103c
000002a0: bd77 d03d c285 19be 8186 393e 3e69 813d
000002b0: 76ea 0b3e 77b0 2a3d 9973 b0bd 6b77 e93c
000002c0: d90b 833c ef37 cebc 5ce9 703d 1b7e c1bc
000002d0: 34cf dfbd 0214 6d3e 2b02 b63a 5505 99bc
000002e0: 9042 ee3e 403a dabb 6dc1 6abd 4034 3bbc
000002f0: f63a c2bd f726 4dbc 5baa 533d 17e7 4a3d
00000300: 6af9 b33d f193 8abd 7e97 b53b 76db be3d
00000310: b13f 6e3e b6d7 1ebe 99a5 e0b9 3a4e b0bd
00000320: e6d7 a23c 82a8 fbbd 9c04 e5bd f724 62bd
00000330: 8e81 fb3c 8516 8c3c df2d e0bc 0323 50be
00000340: d67c 94bd cb09 48bd 898b 1dbe c81d 87bd
00000350: 1425 e8bd 43e0 763e 1152 34be f31b f8bd
00000360: 96b6 793c 013c 68be 7815 923e f1cd b33c
00000370: 8a6f 6d3e 615a 5dbe 012d efbd 4a9b 7f3d
00000380: f0af 1a3d 63e3 de3d bd1f 3fbe 394a cdbd
00000390: 246b 9bbd e52c 2abd 900f fe3e ff21 14be
000003a0: 0a2c 7fbd 3f7c c73d de09 e6bd 41ec 6f3e
000003b0: 1a3f d13d f4ea 39bd 5242 09bd b29c 7c3d
000003c0: abd3 933d 689b abbd e475 8e3d 8ccc 6dbb
000003d0: ee66 d0bd 26bb 14bd f1be e7bb b04a 5bbd
000003e0: b3f8 113d d4ec 00bf 23f9 5dbe 9de3 a13e
000003f0: aa4e 0bbe 69cc 333e 6106 fc3d 34e1 093d

net.4.bias f4 [64]
-0.060735464 0.055185486 0.002836362 0.19241151 0.004774382 0.2227699 0.13002408 -0.10576007
-0.15197027 -0.1026275 0.017918749 -0.15004888 0.04421004 0.16080078 0.08704244 0.18787304
0.038082503 0.17369989 -0.0699877 0.117788255 0.027320882 -0.010338618 -0.1378502 -0.022562526
-0.06672018 -0.12158843 0.039769772 0.14582922 -0.04530342 -0.12767176 -0.19490127 -0.0845738
-0.13049658 0.038522962 0.12241038 0.16524248 -0.042289853 -0.23373014 0.030722838 0.082754605
0.024548616 -0.025119035 0.31020933 -0.17708714 -0.015785981 -0.24770613 0.27720448 -0.06720736
-0.41882804 -0.030691026 -0.13248055 0.023424964 -0.15463218 -0.007271864 0.06216119 -0.13846448
-0.17157342 -0.21807408 -0.05794495 0.4243273 0.10348583 0.14079039 0.17501156 -0.05989487
00000000: c0c5 78bd 2d0a 623d 42e2 393b 8607 453e
00000010: 6b72 9c3b cb1d 643e 0825 053e bc98 d8bd
00000020: 189e 1bbe 5e2e d2bd 57ca 923c 6aa6 19be
00000030: 9615 353d f6a8 243e 4f43 b23d ca61 403e
00000040: 66fc 1b3d 62de 313e b655 8fbd f83a f13d
00000050: 0bd0 df3c 4f63 29bc 9a28 0dbe 0cd5 b8bc
00000060: 97a4 88bd 5b03 f9bd a1e5 223d 4154 153e
00000070: 1490 39bd 63bc 02be 3394 47be 0735 adbd
00000080: e5a0 05be 41ca 1d3d 4bb2 fa3d 5335 293e
00000090: 2038 2dbd f456 6fbe 76ae fb3c 3f7b a93d
000000a0: 2e1a c93c 6fc6 cdbc c2d3 9e3e 5556 35be
000000b0: 9a51 81bc ada6 7dbe bfed 8d3e 03a4 89bd
000000c0: a170 d6be bf6b fbbc fba8 07be b6e5 bf3c
000000d0: e657 1ebe d148 eebb bb9c 7e3d a2c9 0dbe
000000e0: f1b0 2fbe d04e 5fbe af57 6dbd 6e41 d93e
000000f0: 61f0 d33d 5b2b 103e 3b36 333e 5354 75bd

net.6.weight f4 [6, 64]
-0.19814436 -0.44219086 -0.3326081 -0.25133708 0.14483011 0.1911443 0.022497918 0.23880327
0.0068152766 0.14852677 -0.15574984 0.16663656 -0.14406222 0.4607332 0.25496948 -0.12721714
0.3633198 0.08027785 -0.002918821 -0.1384643 -0.1961721 0.23795915 -0.0009029168 -0.3024728
0.36784923 -0.2628409 -0.12203683 -0.12557083 -0.274608 0.055726103 0.23191363 -0.35906616
-0.05222372 -0.153945 -0.012417407 0.4606749 -0.015688876 -0.030173283 0.0142494505 0.11312116
0.052107282 -0.502299 -0.21238007 0.41374204 0.25031003 -0.061852697 0.62042147 0.06086036
0.02464125 -0.27270058 0.23591743 -0.1430684 0.32182214 0.5780719 -0.20561364 0.07226065
0.38414478 -0.05855934 0.19166192 0.09324496 0.064290725 0.31093717 -0.17502049 -0.7140401
0.2754062 0.06748609 -0.22351445 0.073937625 0.6328771 0.43490827 0.0106798615 0.095830865
-0.28160256 -0.18893465 0.555469 -0.13835956 -0.21215612 0.10518975 0.36313447 0.105373606
-0.2670806 -0.36039633 -0.5022755 1.0511718 0.005577293 0.02679852 0.10801116 -0.32936805
-0.29167482 0.5434777 0.607665 0.47448945 1.2880443 0.39963496 0.12082742 -0.01942786
-0.44907194 0.63708353 0.6117389 0.027015641 0.58614165 -0.45709857 -0.0059420783 -0.69539225
-0.0066639255 0.42846057 0.63663584 -1.3152833 -0.5224202 -0.13095292 0.039159447 -0.62236416
-0.06324728 -0.29475585 -0.16999653 0.07576837 -0.4997992 -0.019576978 0.70420456 -0.49548364
-0.014375805 0.099457696 -0.02808197 -0.45077053 0.6706433 0.30419996 0.6447662 0.30410224
1.2241156 0.30003372 -0.12908672 1.1089865 -0.57897884 0.2809179 0.052427147 -0.9541531
-0.021577338 -0.48705652 -0.14669886 0.5726202 0.8312596 0.032159656 -0.72249514 0.009579573
-0.52772456 0.18512161 0.24095392 -0.10245113 0.22920066 1.0325232 -0.8701732 0.7502619
-1.3079236 1.1527727 0.12869352 0.40230408 0.17964247 0.27118427 0.18247987 -0.21545249
0.1134239 -0.14003244 0.46547243 -0.6639565 -0.5485716 0.28135106 -0.13070206 -0.13892917
-0.31585214 1.6937072 0.06273996 0.8804425 -0.06457363 0.4883194 -1.0274335 0.08080139
-0.03054758 0.9966911 -0.42289096 -0.03869161 -0.23870093 0.13971505 0.547549 -0.13394232
-0.23525545 0.078822605 0.9338781 1.2526048 -0.46741578 -0.24946551 0.26701763 0.8343841
-0.010487377 0.00419373 -0.18750416 0.07507651 0.07241954 0.4040092 0.4934684 0.09840567
0.057446536 -0.43776518 -0.3253183 -0.41275477 0.011926173 0.2395233 0.00013044928 0.82526374
0.17918824 0.586716 0.5280718 -0.77245164 0.63427305 0.19373047 -0.25201014 -0.06090566
-0.083278656 0.051971927 -0.11782304 0.15154114 -0.3718433 -0.32941383 0.18806225 -0.32981586
0.013665723 -0.1781852 0.16467482 -0.036535203 -0.16657196 -0.080136664 0.5458833 0.29422244
0.21607777 0.053618584 0.46376032 0.67321885 0.15807152 -0.45223704 0.16279875 -0.019263148
-1.1991787 0.00037976477 -0.0023398176 -0.06684419 0.19307035 0.12971282 -0.03590795 -0.10244749
-0.30953276 -0.7806042 -0.00521455 0.31413227 -0.03783057 0.33570704 -0.29803422 -0.3949001
00000000: 5be6 4abe d766 e2be 9c4b aabe 41af 80be
00000010: 584e 143e 55bb 433e 8e4d b83c d888 743e
00000020: af52 df3b 6717 183e e37c 1fbe c6a2 2a3e
00000030: 0c85 13be 39e5 eb3e 5c8b 823e 3645 02be
00000040: 0e05 ba3e b768 a43d b149 3fbb 96c9 0dbe
00000050: 57e1 48be 90ab 733e b9b1 6cba b7dd 9abe
00000060: bc56 bc3e 1593 86be 72ee f9bd a495 00be
00000070: 6b99 8cbe 0e41 643d c47a 6d3e 85d7 b7be
00000080: 8ae8 55bd c2a3 1dbe 6172 4bbc 95dd eb3e
00000090: f585 80bc f62d f7bc 8776 693c 11ac e73d
000000a0: 726e 553d ab96 00bf 297a 59be ffd5 d33e
000000b0: a328 803e 4159 7dbd f1d3 1e3f b648 793d
000000c0: 72dc c93c 699f 8bbe 5794 713e 8680 12be
000000d0: dfc5 a43e 85fc 133f 628c 52be 64fd 933d
000000e0: a0ae c43e ebdb 6fbd 0643 443e 37f7 be3d
000000f0: dbaa 833d 2833 9f3e 9238 33be 55cb 36bf
00000100: 0b02 8d3e 2636 8a3d f9e0 64be 9c6c 973d
00000110: 3c04 223f 4cac de3e 96fa 2e3c f942 c43d
00000120: 362e 90be 1678 41be 3733 0e3f 21ae 0dbe
00000130: 743f 59be b96d d73d c3ec b93e 1ece d73d
00000140: cabe 88be de85 b8be 2195 00bf cc8c 863f
00000150: bac1 b63b 9288 db3c f434 dd3d eea2 a8be
00000160: 6756 95be 5b21 0b3f ef8f 1b3f 48f0 f23e
00000170: a3de a43f f49c cc3e 5e74 f73d 2d27 9fbc
00000180: c2ec e5be e817 233f ec9a 1c3f e84f dd3c
00000190: 610d 163f d308 eabe c4b5 c2bb 3a05 32bf
000001a0: 0f5d dabb 2f5f db3e 91fa 223f 345b a8bf
000001b0: 55bd 05bf 8618 06be a865 203d 4253 1fbf
000001c0: ca87 81bd 3dea 96be 9213 2ebe 722c 9b3d
000001d0: aee5 ffbe e65f a0bc c046 343f 08b0 fdbe
000001e0: 7f88 6bbc 7ab0 cb3d 290c e6bc 65cb e6be
000001f0: 48af 2b3f 19c0 9b3e 660f 253f 4ab3 9b3e
00000200: d2af 9c3f 059e 993e 4f2f 04be 45f3 8d3f
00000210: f537 14bf 79d4 8f3e d9bd 563d 6143 74bf
00000220: f5c2 b0bc 795f f9be 3a38 16be 3d97 123f
00000230: 6ecd 543f d8b9 033d 71f5 38bf a4f3 1c3c
00000240: f518 07bf 8590 3d3e a0bc 763e e6d1 d1bd
00000250: 94b3 6a3e b829 843f acc3 5ebf 2a11 403f
00000260: 0a6a a7bf 0e8e 933f 3cc8 033e cdfa cd3e
00000270: 32f4 373e aad8 8a3e 01dc 3a3e 949f 5cbe
00000280: ca4a e83d aa64 0fbe 6752 ee3e 0ef9 29bf
00000290: 306f 0cbf 3f0d 903e c3d6 05be 7343 0ebe
000002a0: 5fb7 a1be 66cb d83f cf7d 803d ae64 613f
000002b0: 2e3f 84bd 0005 fa3e f182 83bf 337b a53d
000002c0: eb3e fabc 2627 7f3f 2a85 d8be 187b 1ebd
000002d0: 046e 74be 7611 0f3e 2c2c 0c3f 2d28 09be
000002e0: cee6 70be bf6d a13d a312 6f3f 5b55 a03f
000002f0: 1f51 efbe e373 7fbe 89b6 883e 329a 553f
00000300: 3fd3 2bbc 8f6b 893b 1701 40be b7c1 993d
00000310: b250 943d 4bda ce3e e4a7 fc3e e988 c93d
00000320: 0f4d 6b3d c222 e0be 1f90 a6be 9854 d3be
00000330: ff65 433c 9945 753e 36c9 0839 7c44 533f
00000340: 1f7d 373e 0533 163f b72f 073f 64bf 45bf
00000350: b85f 223f 4861 463e 7907 81be 3778 79bd
00000360: 008e aabd 84e0 543d 354d f1bd 9a2d 1b3e
00000370: 3f62 bebe eea8 a8be 6493 403e a0dd a8be
00000380: 32e6 5f3c 2e76 36be 84a0 283e f0a5 15bd
00000390: d791 2abe b11e a4bd 02bf 0b3f 53a4 963e
000003a0: 7e43 5d3e 299f 5b3d fe71 ed3e 1258 2c3f
000003b0: 80dd 213e 9d8b e7be b7b4 263e c0cd 9dbc
000003c0: b07e 99bf 2a1b c739 a057 19bb 9be5 88bd
000003d0: 3cb4 453e 70d3 043e 3714 13bd fdcf d1bd
000003e0: 147b 9ebe add5 47bf d1de aabb f2d5 a03e
000003f0: 3af4 1abd cbe1 ab3e f197 98be 5930 cabe

net.6.bias f4 [6]
-9.0444e-41 0.34291944 -1.928e-42 0.43244344 0.21018606 0.21018606
00000000: 1ffc 0080 2393 af3e 6005 0080 3a69 dd3e
00000010: 043b 573e 043b 573e
