training/nn-medium.pth (torch, 43363 bytes, 8 tensors)

net.0.weight f4 [64, 21]
-0.4724184 -0.28452572 0.6028657 0.0025799219 0.020371938 0.013637189 -0.0110557545 -0.034444988
-0.023377845 -0.015320288 0.0070353267 -0.120783165 -0.5165685 -0.4064621 0.286515 0.5376322
0.24702685 0.0067236996 -0.013365396 -0.04216386 -0.01331483 0.25349218 -0.11292948 -0.9255253
-0.059336346 -0.01126049 0.011336618 0.00091510144 0.02361641 0.04228033 -0.003975794 -0.024184488
0.08515 0.12908323 0.274741 0.36615917 -0.07417433 -0.40956986 -0.21601963 0.046982784
0.022592733 -0.0006920086 1.16193 -0.1271772 0.3006681 -0.09258965 -0.030566616 -0.0024059748
-0.0077602826 -0.0014220335 0.011660853 0.03273694 0.0022613986 0.9618101 -0.9377255 -0.966553
-0.053067572 0.13779911 0.041418504 -0.015581807 -0.027455864 0.101610065 -0.011811635 0.5029893
0.2901881 -0.019369395 -0.02190908 0.028681941 0.02908315 0.0019021574 -0.016211951 -0.017209794
0.007480491 0.03649808 0.25296104 0.15486114 0.038188845 -0.018834332 -0.1029685 -0.083995804
-0.042900458 0.028078793 0.09807622 -0.09343203 0.19715783 0.26796883 -0.40032983 -0.040633067
0.028113607 0.029893689 0.017781068 0.013064767 -0.0089745065 -0.020107422 -0.0015315271 0.024027549
0.01852856 0.14952497 0.18205118 0.07387872 -0.1134244 -0.3060873 -0.35915285 0.009321304
-0.021834476 -0.30675188 -0.015700145 0.02772031 0.066502795 0.11161254 0.11270963 0.045554053
0.016050033 0.015518653 0.015992977 0.052962728 -0.14027768 -0.08502966 -0.025178635 -0.014123272
0.016806968 0.11707653 0.16253047 -0.012079376 -0.0190402 0.000118469674 0.41653407 0.07964841
-0.75829285 0.057438277 0.057455093 0.08039754 0.09087768 0.14342709 0.18783176 0.15747212
0.21132994 0.0122953225 0.12192988 -0.009743279 0.0047462694 0.022875475 0.01991397 0.04779054
-0.028699387 0.10391652 0.085299976 0.045281183 -0.0010259916 0.036812153 -0.028296066 -0.014627591
-0.0019836512 -0.009885168 -0.01392058 -0.015488529 -0.020610552 -0.05821338 0.034698837 0.008601966
0.008829207 0.014668421 0.012863544 0.013985952 0.02828875 0.06962574 -0.0016685281 -2.4313798
-0.73849463 -0.19491895 -0.28043005 0.11080834 0.09078068 0.052602857 0.031932287 0.030718833
0.010034537 -0.019744854 -0.019884765 -0.34254032 -0.24779801 -0.16851094 0.05684185 0.21612316
0.1721377 0.067387044 -0.18803571 -0.061699186 -0.0035547237 -0.2403533 -0.19210544 -0.17538255
-0.07370781 -0.07465664 -0.050010834 0.014143961 0.03174455 0.029714637 0.02651096 0.019648809
-0.06525674 0.012541722 -0.054682694 -0.025690068 0.037129793 0.04120498 0.075985566 0.25490227
-0.036395714 -0.13493374 0.1875927 0.038975053 -1.093636 0.008477661 -0.07355656 -0.047369782
-0.017333906 0.024774443 0.033330113 0.06074765 0.035487168 0.07790943 0.067101166 0.16544992
-0.012878869 -0.03275719 -0.00228177 0.0006862718 -0.048077576 -0.19770144 -0.0005518413 0.16292803
0.29347733 -0.5785253 -0.03665718 0.0037843108 0.0029573145 -0.0045380755 -0.013754964 -0.023551336
-0.053804204 -0.018331192 -0.047322985 0.13096884 0.44839373 0.4100237 -0.32358068 -0.8251133
-0.28464812 0.3994596 0.016536463 -0.0104950415 -0.49284685 0.036200486 -0.28344166 -0.05593043
00000000: d3e0 f1be 5bad 91be 6855 1a3f e813 293b
00000010: 0de3 a63c 846e 5f3c 3223 35bc 3016 0dbd
00000020: e582 bfbc f201 7bbc 9988 e63b 2a5d f7bd
00000030: d53d 04bf cd1b d0be 18b2 923e 44a2 093f
00000040: 9bf4 7c3e 7b52 dc3b 89fa 5abc 03b4 2cbd
00000050: 7226 5abc bac9 813e 9247 e7bd 3aef 6cbf
00000060: ab0a 73bd eb7d 38bc 39bd 393c 6be3 6f3a
00000070: 3477 c13c 242e 2d3d 6147 82bb 8c1e c6bc
00000080: 2063 ae3d 652e 043e daaa 8c3e 3779 bb3e
00000090: b6e8 97bd 24b3 d1be 4034 5dbe 0571 403d
000000a0: 6514 b93c e967 35ba 1fba 943f bd3a 02be
000000b0: 2bf1 993e a49f bdbd d766 fabc 8fad 1dbb
000000c0: f849 febb 8763 baba 2a0d 3f3c 2b17 063d
000000d0: f933 143b 3039 763f c70e 70bf 0470 77bf
000000e0: 625d 59bd 361b 0d3e 73a6 293d d64a 7fbc
000000f0: 1feb e0bc f018 d03d 9785 41bc e8c3 003f
00000100: 8993 943e 91ac 9ebc ac7a b3bc 64f6 ea3c
00000110: c93f ee3c d051 f93a edce 84bc 8efb 8cbc
00000120: e81e f53b 037f 153d 1c84 813e eb93 1e3e
00000130: e86b 1c3d 754a 9abc 26e1 d2bd fe05 acbd
00000140: 64b8 2fbd 7f05 e63c 2fdc c83d 4b59 bfbd
00000150: bee3 493e 3633 893e 08f8 ccbe dc6e 26bd
00000160: 824e e63c 9ce3 f43c 9aa9 913c 9b0d 563c
00000170: cf09 13bc 52b8 a4bc 86bd c8ba 6cd5 c43c
00000180: 35c9 973c 131d 193e a06b 3a3e ba4d 973d
00000190: 0d4b e8bd 79b7 9cbe e2e2 b7be 62b8 183c
000001a0: 37de b2bc 950e 9dbe 979d 80bc b415 e33c
000001b0: 9e32 883d 1e95 e43d 4ed4 e63d e396 3a3d
000001c0: 5c7b 833c f341 7e3c b403 833c 72ef 583d
000001d0: f4a4 0fbe 0824 aebd 6d43 cebc 4c65 67bc
000001e0: c4ae 893c d2c5 ef3d 636e 263e 93e8 45bc
000001f0: 32fa 9bbc ec72 f838 f443 d53e b51e a33d
00000200: 7b1f 42bf 6644 6b3d 0856 6b3d 77a7 a43d
00000210: 141e ba3d 8dde 123e f856 403e 5f40 213e
00000220: e066 583e 5272 493c 5fb6 f93d 46a2 1fbc
00000230: 9886 9b3b 5965 bb3c 9f22 a33c 03c0 433d
00000240: fa1a ebbc 2fd2 d43d c1b1 ae3d c378 393d
00000250: 917a 86ba 57c8 163d 27cd e7bc 90a8 6fbc
00000260: 2500 02bb 66f5 21bc 2513 64bc 99c3 7dbc
00000270: 76d7 a8bc 2771 6ebd 5e20 0e3d 43ef 0c3c
00000280: 61a8 103c d153 703c 9dc1 523c 5625 653c
00000290: cfbd e73c f197 8e3d 83b2 daba ba9b 1bc0
000002a0: fc0d 3dbf d598 47be 8794 8fbe 7cef e23d
000002b0: 39eb b93d 1876 573d 6ecb 023d 10a6 fb3c
000002c0: e667 243c f6bf a1bc 60e5 a2bc 7261 afbe
000002d0: c3be 7dbe 228e 2cbe 00d3 683d 644f 5d3e
000002e0: dd44 303e 3802 8a3d 6f8c 40be 49b8 7cbd
000002f0: 5ef6 68bb 2d1f 76be 4ab7 44be 7c97 33be
00000300: 1ff4 96bd 95e5 98bd 29d8 4cbd 12bc 673c
00000310: 9306 023d 1c6c f33c 832d d93c 8af6 a03c
00000320: 53a5 85bd cb7b 4d3c f6fa 5fbd fa73 d2bc
00000330: 6915 183d 8ec6 283d 529e 9b3d 8d82 823e
00000340: ac13 15bd 122c 0abe 4d18 403e 4ea4 1f3d
00000350: 44fc 8bbf e3e5 0a3c d2a4 96bd d106 42bd
00000360: d6ff 8dbc c6f3 ca3c 2885 083d 87d2 783d
00000370: fe5a 113d fb8e 9f3d 566c 893d b46b 293e
00000380: e401 53bc 672c 06bd c089 15bb ece6 333a
00000390: feec 44bd 3f72 4abe 71a9 10ba 9bd6 263e
000003a0: a942 963e 3c1a 14bf d725 16bd 3302 783b
000003b0: 81cf 413b 23b4 94bb 805c 61bc bbee c0bc
000003c0: cc61 5cbd 4c2b 96bc bfd5 41bd b21c 063e
000003d0: dd93 e53e a0ee d13e 5eac a5be a03a 53bf
000003e0: 66bd 91be f885 cc3e 7a77 873c 65f3 2bbc
000003f0: 6c56 fcbe f646 143d 441f 91be 4e17 65bd

net.0.bias f4 [64]
1.3362312 -1.2593974 -0.3025381 -0.7472778 0.09196507 0.5833024 -0.1914708 -0.26875153
0.19187048 0.4322803 0.11246723 0.46572104 0.47583607 -0.14870496 -0.39229068 -0.15433423
-0.90879726 0.5732215 0.2100527 0.18313389 -0.6617768 -0.23882364 0.120584995 -0.6581351
0.39062545 -0.54707414 0.31273472 0.27128935 0.44751084 -0.0020760142 -0.9599468 -0.3969076
0.1294718 0.17485851 -0.21528976 0.06102091 0.6323845 -0.27842313 -0.4030292 0.47746855
0.1396063 0.3855909 0.19728054 -0.24529387 -0.17631373 -0.1258805 -0.40209797 0.019313518
0.52376467 1.0193396 0.52436614 0.18095432 1.1996855 0.56083 -0.09900543 0.6284369
-0.2418395 0.4584617 -0.6668107 -0.83130646 -0.055092998 -0.70893997 0.6331327 1.1701828
00000000: a009 ab3f ef33 a1bf 46e6 9abe 994d 3fbf
00000010: 2f58 bc3d 4e53 153f ec10 44be cd99 89be
00000020: b279 443e d853 dd3e 3855 e63d fd72 ee3e
00000030: c9a0 f33e 1d46 18be 53da c8be cb09 1ebe
00000040: f0a6 68bf a5be 123f 0e18 573e 7387 3b3e
00000050: 346a 29bf 2f8e 74be 44f5 f63d 8b7b 28bf
00000060: 0f00 c83e 0d0d 0cbf c41e a03e 70e6 8a3e
00000070: 2420 e53e bd0d 08bb 13bf 75bf 7937 cbbe
00000080: 4194 043e 1c0e 333e eb74 5cbe 10f1 793d
00000090: f3e3 213f 7a8d 8ebe d859 cebe c276 f43e
000000a0: f4f4 0e3e 2c6c c53e e903 4a3e 512e 7bbe
000000b0: 968b 34be d1e6 00be c9df cdbe 6237 9e3c
000000c0: 7115 063f b879 823f dc3c 063f 174c 393e
000000d0: 4b8f 993f 8e92 0f3f 5cc3 cabd 3ee1 203f
000000e0: c6a4 77be 7ebb ea3e 1bb4 2abf 80d0 54bf
000000f0: 32a9 61bd 177d 35bf fc14 223f 8dc8 953f

net.2.weight f4 [64, 64]
-0.07968322 0.13468488 -0.14875712 0.15391812 -0.042541843 0.03230698 0.06979985 0.08674294
0.05611313 -0.010444789 -0.019071687 -0.00703489 -0.05413793 -0.38478497 -0.08192503 -0.06313064
-0.0824287 -0.047855407 -0.066248216 -0.048832018 -0.017711217 0.16061704 -0.09142275 0.06156891
-0.1419173 -0.028485196 0.109003186 -0.05582262 -0.2139519 0.033218075 0.09026583 0.08137461
-0.07352106 -0.12206942 0.42566925 -0.3295752 -0.17494603 0.4918025 -0.10406819 0.020706281
-0.017921599 0.062268924 0.06408564 -0.273503 0.12295014 -0.03872579 -0.020771746 0.073130056
-0.038583588 -0.12532648 -0.022871958 -0.15987155 -0.2971294 -0.15602647 0.06521889 0.42715892
0.03026028 -0.013991185 0.1441073 0.03909797 0.075534225 0.0049328264 -0.023197345 0.00080349407
0.053423677 0.050859097 -0.14102347 -0.13691412 -0.031560525 0.07827864 -0.12430606 -0.013457264
0.087629296 0.090636775 -0.044824332 0.033314254 0.13113716 -0.099364415 -0.22125424 -0.11991418
-0.111980826 -0.109101124 0.022003232 0.055936065 -0.091168724 0.051877722 -0.09878711 -0.008157607
-0.17842071 -0.11174703 0.19651203 -0.4066477 -0.056781583 0.15872747 -0.0048056818 -0.20082676
-0.005593714 -0.20266381 -0.041475788 0.018193388 -0.109805055 -0.0035305363 -0.12363013 -0.0027155515
0.06505633 0.021768942 -0.055569742 -0.06966993 -0.03299829 0.17919591 -0.0010066441 0.07690666
0.12770909 0.026405059 0.18220598 -0.17464918 0.15000628 0.052446462 -0.043555565 0.042608477
0.11564608 0.08126905 -0.08131896 -0.19941284 0.25996372 0.06719209 0.103511035 0.100697346
-0.22020072 -0.011535822 0.19088644 0.18158473 -0.026261907 -0.023897897 -0.12248617 0.026703803
-0.0937745 -0.052727494 -0.008561501 0.23991834 -0.2654001 0.06654589 0.24315102 -0.17838025
-0.18141781 -0.00947944 -0.11972519 -0.056480266 -0.091749154 0.06353715 0.15569514 0.07926561
0.15080775 0.1371538 0.058964133 -0.13311456 0.17847358 0.15102933 -0.1326404 -0.10382374
-0.06089886 0.064361714 0.06376006 -0.0052663744 0.19153954 -0.011470686 -0.05055656 0.18804164
-0.069436826 0.06672533 0.15525402 0.1038451 0.10461174 -0.16338687 -0.07212754 -0.043678287
0.17751378 0.44486806 -0.38123167 0.06022022 -0.18763268 -0.067500666 0.06813402 0.07465022
-0.15047842 -0.33037364 0.062317155 0.24174953 -0.14940847 0.038381603 -0.043726332 0.024442688
0.03550041 -0.042375956 0.0067771943 -0.11938507 -0.04535491 0.042699352 -0.0064093536 0.0016689114
-0.00801517 0.08556202 0.04393444 0.083056994 0.06612241 -0.17313527 -0.021069113 -0.091628216
0.023160525 0.08899958 0.18552552 -0.0505543 -0.044041354 0.1903634 0.027252667 0.0080709895
-0.036283366 -0.059298106 -0.020468144 0.018156812 0.070301674 0.013697187 0.042017706 -0.01898472
0.03573829 0.050391514 0.12310727 0.04237353 -0.016626954 0.0792162 0.14518513 0.012135345
-0.12348849 0.2153973 0.030650813 0.15490924 -0.020333994 0.010551363 -0.2038201 -0.09941154
0.025118427 0.007612483 0.035474982 -0.07199421 0.026005067 0.049080554 0.21761262 0.06493667
-0.016307216 0.09634073 -0.004425416 -0.08572044 0.030858153 -0.033883337 -0.0452949 0.052272603
00000000: f530 a3bd d5ea 093e c953 18be b69c 1d3e
00000010: 5b40 2ebd 5354 043d 39f3 8e3d 48a6 b13d
00000020: e2d6 653d 9f20 2bbc 3a3c 9cbc ef84 e6bb
00000030: bcbf 5dbd 8902 c5be 4fc8 a7bd a34a 81bd
00000040: 61d0 a8bd 0804 44bd 25ad 87bd 1504 48bd
00000050: 1d17 91bc cb78 243e da3b bbbd ae2f 7c3d
00000060: c552 11be c959 e9bc 103d df3d 42a6 64bd
00000070: 3516 5bbe ad0f 083d 4bdd b83d bba7 a63d
00000080: 3692 96bd 88ff f9bd 52f1 d93e 15be a8be
00000090: 0d25 33be 8acd fb3e b421 d5bd 38a0 a93c
000000a0: 51d0 92bc b30d 7f3d 553f 833d 9608 8cbe
000000b0: 48cd fb3d ef9e 1ebd 8229 aabc 36c5 953d
000000c0: d309 1ebd 9655 00be f95d bbbc 5eb5 23be
000000d0: 5821 98be 67c5 1fbe 7b91 853d 93b4 da3e
000000e0: 68e4 f73c 493b 65bc dd90 133e 3125 203d
000000f0: b0b1 9a3d 8ca3 a13b 5c08 bebc 93a1 523a
00000100: c9d2 5a3d a151 503d 7568 10be 3733 0cbe
00000110: 9c45 01bd 8d50 a03d 2d94 febd db7b 5cbc
00000120: fd76 b33d c69f b93d b899 37bd 8774 083d
00000130: d248 063e 927f cbbd 7990 62be 9195 f5bd
00000140: 3456 e5bd 6970 dfbd 1f40 b43c 371d 653d
00000150: abb6 babd bc7d 543d e550 cabd 7ca7 05bc
00000160: ebb3 36be a0db e4bd 733a 493e 2134 d0be
00000170: ce93 68bd 7489 223e fb78 9dbb 88a5 4dbe
00000180: 794b b7bb 1a87 4fbe 84e2 29bd 4d0a 953c
00000190: 79e1 e0bd 9260 67bb cb31 fdbd 65f7 31bb
000001a0: 413c 853d c854 b23c 199d 63bd 1caf 8ebd
000001b0: 3729 07bd 227f 373e 5ff1 83ba 3d81 9d3d
000001c0: 2cc6 023e 6c4f d83c 3494 3a3e 3cd7 32be
000001d0: 3f9b 193e 1ad2 563d 5267 32bd 3a86 2e3d
000001e0: dad7 ec3d 6370 a63d 8e8a a6bd e132 4cbe
000001f0: f719 853e 029c 893d 98fd d33d 693a ce3d
00000200: 4c7c 61be bf00 3dbc bc77 433e 59f1 393e
00000210: 3623 d7bc 86c5 c3bc 07da fabd efc1 da3c
00000220: d80c c0bd c9f8 57bd 8a45 0cbc 27ad 753e
00000230: 86e2 87be 3649 883d 95fc 783e 50a9 36be
00000240: 97c5 39be a74f 1bbc 7b32 f5bd da57 67bd
00000250: fbe6 bbbd c41f 823d 8c6e 1f3e 0256 a23d
00000260: 596d 1a3e 0c72 0c3e 6084 713d 2f4f 08be
00000270: c7c1 363e 6fa7 1a3e e3d2 07be 8aa1 d4bd
00000280: 1571 79bd 13d0 833d a294 823d 8d91 acbb
00000290: f122 443e 8bef 3bbc 6514 4fbd fd8d 403e
000002a0: e534 8ebd 4aa7 883d e9fa 1e3e bdac d43d
000002b0: ae3e d63d e34e 27be 9bb7 93bd 01e8 32bd
000002c0: 2cc6 353e bfc5 e33e cc30 c3be 7aa9 763d
000002d0: c822 40be ca3d 8abd d989 8b3d 37e2 983d
000002e0: 0417 1abe bc26 a9be 4640 7f3d 308d 773e
000002f0: 89fe 18be 0736 1d3d 621a 33bd 083c c83c
00000300: e168 113d 6992 2dbd 3a13 de3b 2980 f4bd
00000310: 12c6 39bd 84e5 2e3d 8e05 d2bb 60bf da3a
00000320: 0f52 03bc 243b af3d 99f4 333d c919 aa3d
00000330: 306b 873d 5f4a 31be 2299 acbc 93a7 bbbd
00000340: 24bb bd3c 6945 b63d 67fa 3d3e 0712 4fbd
00000350: b564 34bd a0ee 423e fc40 df3c 2f3c 043c
00000360: de9d 14bd 92e2 72bd cfac a7bc 98bd 943c
00000370: 53fa 8f3d 2b6a 603c c21a 2c3d d885 9bbc
00000380: 5062 123d 5567 4e3d aa1f fc3d de8f 2d3d
00000390: 4035 88bc 1a3c a23d 69ab 143e 53d3 463c
000003a0: 89e7 fcbd 1c91 5c3e 6a17 fb3c 87a0 1e3e
000003b0: 7a93 a6bc a0df 2c3c 37b6 50be 4798 cbbd
000003c0: 29c5 cd3c 2372 f93b 374e 113d b371 93bd
000003d0: 9408 d53c b108 493d d8d5 5e3e 84fd 843d
000003e0: b696 85bc 4a4e c53d 1403 91bb 338e afbd
000003f0: 3dca fc3c 41c9 0abd 2587 39bd cc1b 563d

net.2.bias f4 [64]
-0.016620662 0.04621538 0.03515055 0.31043902 0.0019179021 0.07246075 -0.09682199 0.025584832
-0.07311475 -0.20064218 -0.10851373 0.05275215 0.05390024 0.0017323404 -0.21891981 0.21750349
-0.059379958 0.10191272 -0.33764207 -0.3325053 -0.36581397 0.08407062 -0.040554397 -0.1668741
0.02512168 0.17634764 0.21083087 0.0664643 -0.25798145 -0.20800589 -0.17262432 -0.074187726
0.02982245 -0.12307661 0.043686613 0.09682109 -0.123229586 0.037185133 0.0603337 -0.19219434
-0.023237478 -0.06548947 -0.15061346 -0.14906594 0.12767738 0.13076432 -0.19407547 0.1320431
0.053496268 -0.14264981 -0.28661025 -0.13238339 0.13398577 0.039014842 -0.13681065 0.069213726
-0.32143435 0.16530602 0.043729506 -0.07225703 -0.056211933 0.14724948 -0.024488151 0.048584472
00000000: 0e28 88bc 574c 3d3d 06fa 0f3d ddf1 9e3e
00000010: 1e62 fb3a 4d66 943d 9c4a c6bd 4897 d13c
00000020: 30bd 95bd 2575 4dbe 723c debd a312 583d
00000030: 80c6 5c3d b30f e33a 842c 60be 3cb9 5e3e
00000040: 6638 73bd 9eb7 d03d 6cdf acbe 223e aabe
00000050: f84b bbbe 382d ac3d 5e1c 26bd 0be1 2abe
00000060: fbcb cd3c 7a94 343e 0ce4 573e 6f1e 883d
00000070: 2516 84be 7fff 54be 6ec4 30be bcef 97bd
00000080: 364e f43c 970f fcbd bcf0 323d 234a c63d
00000090: cb5f fcbd 704f 183d 7820 773d 98ce 44be
000000a0: 865c bebc 581f 86bd 6a3a 1abe bea4 18be
000000b0: dcbd 023e 15e7 053e b8bb 46be 4e36 073e
000000c0: e71e 5b3d cb12 12be 94be 92be 838f 07be
000000d0: 9133 093e 07ce 1f3d 1718 0cbe edbf 8d3d
000000e0: 0b93 a4be fb45 293e b61d 333d 7efb 93bd
000000f0: 7c3e 66bd 91c8 163e 609b c8bc 8300 473d

net.4.weight f4 [64, 64]
-0.00089220586 -0.23117892 -0.0073914784 -0.07216875 -0.15430406 -0.09683537 0.07758621 -0.032337543
0.019356187 -0.06807996 -0.058383204 -0.1670978 0.10982818 0.14440598 0.14868599 -0.099721454
0.025987789 -0.1221305 0.07137642 0.0014367476 0.18851046 0.055758785 -0.12890008 0.06869306
-0.037917387 0.086789146 0.08771995 -0.004653429 -0.021528818 -0.14063339 -0.2043151 -0.13023913
-0.08510493 -0.037118908 -0.18731609 -0.1384007 0.032454263 -0.0021962347 0.24223253 -0.16308396
0.035288077 0.24901378 -0.011264628 -0.016052613 -0.18311395 -0.09198608 -0.10047117 -0.09676549
0.065203056 0.022098763 0.28171676 -0.0035151115 -0.0741844 0.043523844 0.14477426 -0.03694578
-0.56930774 -0.37936634 0.24107495 0.3972634 0.062065784 -0.0937586 -0.16785446 -0.091796406
-0.081567615 0.0041132076 0.055934787 0.05199296 0.05822342 -0.0715886 0.104650445 -0.009393654
-0.23547308 -0.08625626 0.033695735 -0.05000569 -0.013086402 -0.010133284 -0.002284083 -0.0914182
-0.028282661 0.05811456 -0.020326795 0.102004625 -0.080728255 0.059397493 0.025204904 0.00549721
-0.11091272 0.09793798 -0.03289215 -0.058005467 -0.24579096 0.016730692 0.07567567 -0.008971327
-0.03867707 0.018201951 0.023339204 0.020938711 0.1365617 -0.108939014 -0.036066253 -0.06382994
0.047624644 -0.10875882 -0.024774365 -0.12019585 0.044671137 -0.050987843 -0.053815898 -0.023093257
-0.048422676 -0.052554924 0.026625922 -0.03589945 0.014502374 0.004747206 0.045645174 -0.042916857
0.05093143 -0.02875336 -0.0035667268 0.057206575 0.09035312 0.045188908 -0.12144176 0.08774824
0.063100606 -0.020716421 -0.35597694 0.0063566314 0.04606544 -0.23470744 0.08349842 0.08205726
-0.036258157 -0.034706026 -0.060945213 0.08523593 -0.020683846 -0.04797429 -0.091306895 0.120439656
-0.10668482 0.2593173 -0.07791399 0.057988573 -0.18215841 -0.039429087 0.0677753 0.010711871
0.0125908 -0.005485232 -0.16797444 0.029010974 0.0360839 -0.10807042 0.080818 -0.22079508
0.027062101 -0.032026596 -0.021088319 0.016314322 -0.0046356497 -0.11148387 -0.07385876 0.098317236
0.12660839 -0.08312921 0.071066625 -0.0149125075 0.15746729 0.00021801188 -0.037140395 0.019868324
0.0058462475 0.034161005 -0.026484018 0.0013433419 -0.09918934 0.14443795 0.026822066 0.01135645
0.5149262 0.038154386 -0.094573475 -0.033318266 -0.08191181 0.054435678 0.03551398 0.03167128
0.11028254 0.002259712 -0.09286669 0.044302262 0.27234772 -0.16222881 0.02587179 0.0064024297
0.05814602 -0.030500121 -0.07116534 -0.09740867 0.07333888 0.022724815 -0.032117147 -0.1281545
-0.14575529 0.03314915 -0.1421966 -0.06665497 -0.1414313 0.1029965 -0.111662604 -0.08858483
0.045684654 -0.18252121 0.35405365 -0.016048143 0.24385113 -0.19336203 -0.106991634 -0.013306021
0.006440348 0.05749043 -0.14472099 -0.06498795 -0.03739975 -0.0045085023 0.46860138 -0.15162984
-0.1674722 0.073327295 -0.11897942 0.3587043 0.09388834 -0.072311416 -0.10146667 0.09668365
0.11354593 -0.054148592 0.18056622 -0.03740731 -0.09751067 -0.10213034 0.05529015 0.010789795
0.03605996 -0.5081685 -0.2491476 0.2984534 -0.09029634 0.1752901 0.17149659 -0.033145856
00000000: ece2 69ba 2bba 6cbe 3734 f2bb 36cd 93bd
00000010: e201 1ebe 9f51 c6bd 85e5 9e3d 5f74 04bd
00000020: de90 9e3c 826d 8bbd 3a23 6fbd b01b 2bbe
00000030: 99ed e03d 29df 133e 2441 183e c33a ccbd
00000040: 58e4 d43c 8e1f fabd cd2d 923d 4051 bc3a
00000050: e308 413e 5363 643d 62fe 03be f2ae 8c3d
00000060: 434f 1bbd 82be b13d 84a6 b33d cb7b 98bb
00000070: 345d b0bc 3302 10be fa37 51be 685d 05be
00000080: 7e4b aebd ff09 18bd cacf 3fbe eab8 0dbe
00000090: c3ee 043d b4ee 0fbb ce0b 783e 7bff 26be
000000a0: 3b8a 103d 78fd 7e3e 468f 38bc c580 83bc
000000b0: 3982 3bbe 3363 bcbd d4c3 cdbd fc2c c6bd
000000c0: 2e89 853d 7708 b53c 2e3d 903e c95d 66bb
000000d0: feed 97bd 0f46 323d b43f 143e 7554 17bd
000000e0: 27be 11bf 4e3c c2be 5adc 763e 1c66 cb3e
000000f0: b138 7e3d 8204 c0bd 0ae2 2bbe c1ff bbbd
00000100: ec0c a7bd 16c8 863b e01b 653d 92f6 543d
00000110: ae7b 6e3d 0b9d 92bd f952 d63d d7e7 19bc
00000120: db1f 71be 1fa7 b0bd 8a04 0a3d c4d2 4cbd
00000130: 5968 56bc 1306 26bc 8eb0 15bb 7739 bbbd
00000140: 0ab1 e7bc 8809 6e3d 6184 a6bc cde7 d03d
00000150: db54 a5bd c94a 733d 847a ce3c f121 b43b
00000160: 3526 e3bd b593 c83d ebb9 06bd 2497 6dbd
00000170: a0b0 7bbe ce0e 893c d8fb 9a3d 79fc 12bc
00000180: d96b 1ebd 421c 953c dc31 bf3c a987 ab3c
00000190: d5d6 0b3e 6b1b dfbd 35ba 13bd 46b9 82bd
000001a0: 0f12 433d f2bc debd 9cf3 cabc 3e29 f6bd
000001b0: 15f9 363d a1d8 50bd 0f6e 5cbd 122e bdbc
000001c0: db56 46bd d543 57bd 9b1e da3c 4d0b 13bd
000001d0: 5e9b 6d3c 738e 9b3b 6ff6 3a3d 96c9 2fbd
000001e0: 7a9d 503d 2b8c ebbc bfbf 69bb 7151 6a3d
000001f0: 0e0b b93d 0118 393d 75b6 f8bd 59b5 b33d
00000200: e43a 813d 7cb5 a9bc 9c42 b6be 4a4b d03b
00000210: 1daf 3c3d 2657 70be 3801 ab3d a30d a83d
00000220: 6f83 14bd e827 0ebd b0a1 79bd 2d90 ae3d
00000230: 2b71 a9bc b080 44bd 1cff babd 11a9 f63d
00000240: 927d dabd 3dc5 843e 5f91 9fbd 6d85 6d3d
00000250: bc87 3abe 6580 21bd c7cd 8a3d d880 2f3c
00000260: a549 4e3c 76bd b3bb 7e01 2cbe 6ca8 ed3c
00000270: b6cc 133d 0654 ddbd e883 a53d 1b18 62be
00000280: 57b1 dd3c 522e 03bd 69c1 acbc 9da5 853c
00000290: a6e6 97bb a851 e4bd 4343 97bd 8c5a c93d
000002a0: a1a5 013e a63f aabd 618b 913d 9753 74bc
000002b0: 1b3f 213e 1e9a 6439 8720 18bd e5c2 a23c
000002c0: e191 bf3b 69ec 0b3d 03f5 d8bc 1313 b03a
000002d0: c823 cbbd 8be7 133e f3b9 db3c 6710 3a3c
000002e0: 34d2 033f c647 1c3d bdaf c1bd bc78 08bd
000002f0: 61c1 a7bd f2f7 5e3d 1b77 113d beb9 013d
00000300: d0db e13d ad17 143b e430 bebd 4a76 353d
00000310: 2971 8b3e 4f1f 26be 13f1 d33c 79cb d13b
00000320: 852a 6e3d 64db f9bc 22bf 91bd 327e c7bd
00000330: b232 963d 6429 ba3c 458d 03bd ef3a 03be
00000340: e040 15be 67c7 073d fc9b 11be 6782 88bd
00000350: 5ed3 10be d4ef d23d 5daf e4bd f76b b5bd
00000360: d51f 3b3d d7e6 3abe 8546 b53e 6577 83bc
00000370: 1cb4 793e b200 46be 6e1e dbbd 7f01 5abc
00000380: 8e09 d33b 167b 6b3d bd31 14be 6718 85bd
00000390: 7b30 19bd 0fbc 93bb 85ec ef3e da44 1bbe
000003a0: d57d 2bbe 9f2c 963d 7bab f3bd 17a8 b73e
000003b0: 8848 c03d 0218 94bd c2cd cfbd 1402 c63d
000003c0: c58a e83d eaca 5dbd 5ae6 383e 6838 19bd
000003d0: adb3 c7bd b629 d1bd ed77 623d aec7 303c
000003e0: 9cb3 133d 5517 02bf 8c20 7fbe e2ce 983e
000003f0: 4aed b8bd 3f7f 333e cd9c 2f3e f3c3 07bd

net.4.bias f4 [64]
-0.048401512 0.026738767 0.025986338 0.115512654 0.046732914 0.17805456 -0.07473931 -0.23496674
-0.16248655 -0.19662975 -0.025371157 -0.3070656 0.06789531 0.111572556 0.07284556 0.17148523
0.05606317 0.16070029 -0.13236803 0.21265686 0.10476056 -0.022361638 -0.15120369 0.023254856
-0.037202474 -0.18265617 0.024727037 0.11530289 -0.058598362 -0.20097491 -0.26704863 -0.16197817
-0.071294256 0.05875053 0.09757672 0.15065932 0.00086317136 -0.14366324 0.014272235 0.061708886
-0.03209188 -0.014133239 0.3049257 -0.17633659 0.04298585 -0.2416647 0.22471453 -0.059866328
-0.42460084 -0.06376915 -0.110828765 0.09349873 -0.16487715 -0.006640383 0.04853453 -0.087481484
-0.18987058 -0.228152 -0.0037450374 0.39244598 0.05039942 0.17684528 0.15641126 -0.040305275
00000000: aa40 46bd 420b db3c 4de1 d43c e691 ec3d
00000010: 036b 3f3d ef53 363e ec10 99bd 1f9b 70be
00000020: e062 26be 4f59 49be 2cd7 cfbc b437 9dbe
00000030: b20c 8b3d 2780 e43d 0e30 953d d399 2f3e
00000040: 7fa2 653d 9e8e 243e 7c8b 07be b8c2 593e
00000050: b48c d63d c12f b7bc 24d5 1abe f880 be3c
00000060: 9f61 18bd 380a 3bbe 5b90 ca3c ec23 ec3d
00000070: d604 70bd 5ecc 4dbe 99ba 88be 9bdd 25be
00000080: b902 92bd 65a4 703d 4ed6 c73d 7046 1a3e
00000090: 7346 623a 751c 13be 18d6 693c 75c2 7c3d
000000a0: c672 03bd 1a8f 67bc 391f 9c3e 9491 34be
000000b0: ee11 303d f376 77be 911b 663e 6536 75bd
000000c0: 4865 d9be 6699 82bd 31fa e2bd 437c bf3d
000000d0: 8ed5 28be 9297 d9bb 25cc 463d 7e29 b3bd
000000e0: 6f6d 42be aea0 69be 4d6f 75bb aeee c83e
000000f0: 9f6f 4e3d ee16 353e 462a 203e 2517 25bd

net.6.weight f4 [6, 64]
-0.28331786 -0.39125422 -0.29867154 -0.27298206 0.16786644 0.15554039 0.1911148 0.34156397
0.03845073 0.076416686 -0.12155473 -0.21883291 -0.19864944 0.42546943 0.26296815 -0.23523489
0.24346693 0.032124527 0.0014274154 -0.24609922 -0.054708216 0.17059155 0.057284564 -0.3371103
0.3737278 -0.36103573 -0.10244817 -0.17519924 -0.19087331 -0.13821605 0.21480212 -0.2698509
-0.019569136 -0.1945048 -0.029103855 0.4711901 0.013072149 -0.026476633 0.03467909 0.08362309
0.0052334024 -0.44742435 -0.27601403 0.40983748 0.4035151 0.0067216717 0.46743193 0.0055195927
0.04877895 -0.24167413 0.13174196 -0.2742576 0.21859443 0.5145306 -0.12658809 0.14504816
0.37466824 0.009941017 0.39517725 0.39276895 0.06987766 0.04957642 -0.16400763 -0.63607675
0.051659077 -0.10016429 -0.263804 0.07421844 0.49173313 0.47208607 -0.14334877 -0.07298652
-0.27439666 -0.2379781 0.58722895 -0.09784791 -0.12191353 0.13135198 0.19540405 0.14498492
-0.13879015 -0.37054935 -0.4383111 1.1461614 -0.023360163 0.012364797 0.07055429 -0.29014212
-0.28763866 0.45003366 0.6622488 0.31123793 1.3091938 0.42663863 0.1515135 -0.056056894
-0.4856105 0.6145918 0.6007999 0.03258599 0.43933237 -0.39362267 0.048294436 -0.7315758
-0.03983775 0.5341449 0.73668367 -1.2044756 -0.39434847 -0.29834148 0.027952423 -0.59089947
-0.25264582 -0.23194967 0.033882033 -0.16655543 -0.53382033 0.1297944 0.737605 -0.49810517
-0.0320097 0.09480857 0.11652579 -0.5925524 0.6298168 0.34751847 0.5207249 0.25258172
1.0381868 0.115654506 -0.2966665 1.1446166 -0.5576355 0.11150151 0.29272547 -1.1037908
-0.06582287 -0.38302428 -0.17475206 0.95173776 0.8024436 -0.1897307 -0.79923344 -0.06655805
-0.70919096 0.23914431 0.17800361 -0.2019571 0.09503526 1.0708332 -0.9289077 0.798394
-1.3126917 1.3096697 0.13392615 0.594033 0.07314509 0.19821 0.16283707 -0.45335916
0.043188483 -0.2741724 0.48684514 -0.6213146 -0.7113167 0.031249974 -0.10963813 -0.09128355
-0.21869168 1.5257136 0.18182299 0.8692992 -0.3171602 0.45160857 -0.9637269 0.17959787
-0.084516235 1.0782344 -0.38149887 -0.15160763 -0.15038344 0.09837292 0.30396435 -0.16338865
-0.27388957 0.0018616766 0.79886776 0.76868814 -0.50596815 -0.07408337 0.29951897 0.7716073
-0.044775248 -0.058838703 -0.16383007 0.06952578 0.10778216 0.25871408 0.36498109 0.10242014
0.04517697 -0.5255017 -0.32384023 -0.38028875 0.011608427 -0.03852731 0.011097273 0.91413146
0.027190272 0.5414844 0.6122252 -0.70725715 0.86660874 0.124848254 -0.27206865 -0.027429724
-0.08080789 -0.015479836 -0.1297694 0.09656001 -0.30708197 -0.57701325 0.15562384 -0.20289572
0.0030592866 -0.1616192 0.19724797 -0.06280504 -0.04235723 -0.032506693 0.47228873 0.2965034
0.1272982 0.07517675 0.1965619 0.61237663 0.26073197 -0.4556065 0.07311206 -0.074077606
-1.0425595 0.022404958 0.07641446 -0.21231093 0.1884419 0.13312238 -0.062068652 -0.080935925
-0.45282558 -0.8152088 -0.0058960915 0.49593365 -0.024901725 0.4532346 -0.28089672 -0.3430499
00000000: 0a0f 91be 7952 c8be 7aeb 98be 4ec4 8bbe
00000010: 2ee5 2b3e fb45 1f3e 99b3 433e 79e1 ae3e
00000020: 837e 1d3d 5a80 9c3d b0f1 f8bd bc15 60be
00000030: c26a 4bbe 21d7 d93e c3a3 863e 6ae1 70be
00000040: 654f 793e 0295 033d 1d18 bb3a 6f01 7cbe
00000050: b915 60bd 8daf 2e3e 38a3 6a3d b999 acbe
00000060: 4059 bf3e add9 b8be 59d0 d1bd 6e67 33be
00000070: 4b74 43be 8288 0dbe 16f5 5b3e e629 8abe
00000080: 744f a0bc 442c 47be 356b eebc d43f f13e
00000090: 912c 563c 86e5 d8bc a90b 0e3d 9542 ab3d
000000a0: f67c ab3b ce14 e5be b651 8dbe 38d6 d13e
000000b0: 8899 ce3e 7841 dc3b 3d53 ef3e b3dd b43b
000000c0: 70cc 473d 6c79 77be 5de7 063e 7e6b 8cbe
000000d0: 38d7 5f3e 47b8 033f 4fa0 01be 8187 143e
000000e0: 84d4 bf3e a6df 223c ac54 ca3e 0319 c93e
000000f0: 051c 8f3d a510 4b3d 9ef1 27be edd5 22bf
00000100: 7898 533d ef22 cdbd 5111 87be d6ff 973d
00000110: 72c4 fb3e 44b5 f13e 05ca 12be f579 95bd
00000120: b87d 8cbe 88b0 73be a354 163f 7c64 c8bd
00000130: cdad f9bd 2281 063e 0018 483e ed76 143e
00000140: 011f 0ebe a5b8 bdbe 506a e0be 6bb5 923f
00000150: d05d bfbc b895 4a3c c57e 903d 828d 94be
00000160: 6045 93be d06a e63e 2389 293f 945a 9f3e
00000170: aa93 a73f 6170 da3e 5b26 1b3e ea9b 65bd
00000180: f1a1 f8be e355 1d3f 06ce 193f e378 053d
00000190: 2cf0 e03e e988 c9be 63d0 453d 8d48 3bbf
000001a0: e92c 23bd b8bd 083f 4d97 3c3f 422c 9abf
000001b0: 0be8 c9be 37c0 98be 7bfc e43c 3045 17bf
000001c0: cb5a 81be 3784 6dbe e3c7 0a3d 828d 2abe
000001d0: 73a8 08bf d3e8 043e aed3 3c3f a407 ffbe
000001e0: 9a1c 03bd ff2a c23d 13a5 ee3d 84b1 17bf
000001f0: ac3b 213f f1ed b13e 3a4e 053f 6452 813e
00000200: 4ee3 843f 45dc ec3d ace4 97be cc82 923f
00000210: 33c1 0ebf e75a e43d 1de0 953e 0449 8dbf
00000220: 24ce 86bd c21b c4be 34f2 32be 16a5 733f
00000230: f26c 4d3f c448 42be 909a 4cbf 964f 88bd
00000240: 8a8d 35bf 3fe2 743e 9446 363e d8cd 4ebe
00000250: d9a1 c23d 1011 893f e5cc 6dbf 8d63 4c3f
00000260: 4806 a8bf 42a3 a73f f023 093e 8c12 183f
00000270: 18cd 953d 90f7 4a3e c3be 263e b11e e8be
00000280: 68e6 303d 5360 8cbe c443 f93e 790e 1fbf
00000290: da18 36bf f2ff ff3c f589 e0bd dff2 babd
000002a0: b6f0 5fbe 954a c33f ce2f 3a3e 648a 5e3f
000002b0: d262 a2be 3d39 e73e ceb6 76bf 81e8 373e
000002c0: d916 adbd 9603 8a3f d253 c3be 083f 1bbe
000002d0: 1efe 19be be77 c93d 37a1 9b3e 5b4f 27be
000002e0: 413b 8cbe 8003 f43a 9982 4c3f bfc8 443f
000002f0: 2187 01bf 06b9 97bd 8d5a 993e 0e88 453f
00000300: 4066 37bd da00 71bd 12c3 27be 8863 8e3d
00000310: e5bc dc3d 2c76 843e cdde ba3e a6c1 d13d
00000320: 7d0b 393d 4887 06bf 63ce a5be 35b5 c2be
00000330: 4631 3e3c d0ce 1dbd 56d1 353c 8504 6a3f
00000340: 22be de3c b99e 0a3f caba 1c3f ce0e 35bf
00000350: 12da 5d3f 71b0 ff3d 954c 8bbe 4db4 e0bc
00000360: 9b7e a5bd 239f 7dbc 45e2 04be 41c1 c53d
00000370: d939 9dbe 24b7 13bf db5b 1f3e e5c3 4fbe
00000380: 507e 483b 817f 25be 5ffb 493e ee9f 80bd
00000390: c67e 2dbd bd25 05bd d4cf f13e 4bcf 973e
000003a0: 765a 023e 45f6 993d 8647 493e b7c4 1c3f
000003b0: a97e 853e 4145 e9be c7bb 953d 00b6 97bd
000003c0: 9772 85bf 9a8a b73c 2f7f 9c3d 0968 59be
000003d0: eaf6 403e 3c51 083e b33b 7ebd bcc1 a5bd
000003e0: c1d8 e7be 86b1 50bf 0034 c1bb 04eb fd3e
000003f0: b4fe cbbc 5e0e e83e b2d1 8fbe 3da4 afbe

net.6.bias f4 [6]
-2.02548e-40 0.36271048 5.4124e-41 0.5605557 0.16898927 0.16898927
00000000: 9f34 0280 30b5 b93e e096 0000 9480 0f3f
00000010: 860b 2d3e 860b 2d3e
