training/nn-small.pth (torch, 17055 bytes, 6 tensors)

net.0.weight f4 [48, 21]
0	0x3f8413e4	1.031857
1	0xbe15bc0a	-0.14622512
2	0x3c87bbcd	0.016569043
3	0xbde657c6	-0.1124721
4	0x3f414c72	0.7550727
5	0x3fb068a9	1.378194
6	0x3e9843b3	0.2973915
7	0xbf68b772	-0.90904915
8	0xbf4a7a73	-0.7909309
9	0xbe34f833	-0.17672805
10	0x3d446903	0.04795171
11	0x3c2d8c33	0.010592508
12	0xbc9648af	-0.018345205
13	0xbce2b147	-0.027672423
14	0x3c91bd3a	0.017790426
15	0x3d1e2f23	0.03861917
16	0x3c15be49	0.009139606
17	0x3c3769ba	0.011194641
18	0xbc5d45b9	-0.013505393
19	0xbc75cc52	-0.015002327
20	0x3d2d6db8	0.042340964
21	0xbfa1e05d	-1.2646595
22	0x3e08c563	0.13356547
23	0xbe5699f9	-0.20957173
24	0x3db7144e	0.0893942
25	0x3c30d09f	0.010791927
26	0xbd0ef252	-0.034899063
27	0xbd1447f0	-0.036201417
28	0xbcddc391	-0.027070792
29	0xbcf9e487	-0.030504478
30	0xbc47a0cb	-0.012184332
31	0x3c552921	0.013010294
32	0xbf4be16e	-0.79640853
33	0xbfa3cafe	-1.2796323
34	0x3eac3438	0.3363359
35	0x3f94432f	1.1583003
36	0x3f28fb2d	0.66008264
37	0x3df52850	0.119705796
38	0xbd3f9ce7	-0.046780493
39	0xbd232f67	-0.03984013
40	0xbec820dc	-0.3908757
41	0x3cec8a28	0.028874472
42	0x3eae0ab5	0.33992544
43	0x3f510ca2	0.816599
44	0xbe94f6a6	-0.29094428
45	0xbe0c9f9f	-0.13732766
46	0xbd956a2c	-0.07295641
47	0xbd044d21	-0.03230012
48	0xbc160e8c	-0.009158742
49	0xbbe1281d	-0.006871237
50	0xbbc249d8	-0.005929213
51	0xbccc4f9b	-0.024940303
52	0xbd0e0601	-0.034673695
53	0x3de1a1b3	0.1101717
54	0xbd2203fd	-0.039554585
55	0xbd35b075	-0.044357736
56	0xbc8dea5d	-0.017323667
57	0xbbbe58f1	-0.0058089425
58	0x3c20063a	0.0097671095
59	0x3cdd69d4	0.027028002
60	0x3ce31123	0.027718132
61	0xbc834d09	-0.016027944
62	0xbbf0f7ec	-0.0073537733
63	0xbf3569c9	-0.7086454
64	0x3b5bf123	0.0033560477
65	0x3eef31d2	0.46717697
66	0xbcf8bbb1	-0.030362936
67	0x3d377015	0.044784624
68	0x3d280ed7	0.041029777
69	0x3c817e95	0.01580743
70	0xbd0b7cf6	-0.03405472
71	0xbd5c99ee	-0.053857736
72	0xbd76e783	-0.06027938
73	0x3d4beb02	0.049784668
74	0xbdd4c48d	-0.103890516
75	0xbd573222	-0.052538045
76	0x3dac09ab	0.084002815
77	0x3def7543	0.11692288
78	0x3d82ed5c	0.06392929
79	0xbd888ad8	-0.06667107
80	0xbe4cabc8	-0.19987404
81	0xbecd19a0	-0.40058613
82	0xbd1b486d	-0.037910867
83	0x3e4521e3	0.19251208
84	0x3e6bf381	0.23042108
85	0x3e7c1830	0.24618602
86	0x3ef7c8e7	0.48395464
87	0xbdaba9b5	-0.083819784
88	0xbd9f2b6b	-0.07771953
89	0xbd68f18d	-0.056870986
90	0xbd46d178	-0.04853961
91	0xbd517f2f	-0.051146682
92	0xbd8400c1	-0.06445456
93	0xbd2fb7f5	-0.042900044
94	0xbcd8a4fd	-0.02644586
95	0x3ce315f8	0.027720436
96	0x3e63a643	0.22231393
97	0x3e89fd02	0.26950842
98	0x3eb22ea9	0.34801224
99	0x3e9604f6	0.2930066
100	0x3e124878	0.14285457
101	0x3c7abfcf	0.01530452
102	0xbda1abbe	-0.07894085
103	0x3ccaf2e8	0.02477403
104	0xbdd87d41	-0.10570765
105	0xbf1c703c	-0.61108756
106	0x3bc1c4c7	0.0059133503
107	0x3f9f58bc	1.2448955
108	0xbd4e2eb0	-0.050337493
109	0x3c085697	0.008321426
110	0x3ba0eb57	0.004910867
111	0x3c818731	0.015811535
112	0x3d0e3d6f	0.034726556
113	0x3d07a77a	0.033118702
114	0xbd1c6cff	-0.038189884
115	0xbd0f263f	-0.034948584
116	0x3e1ea15e	0.15491244
117	0x3d33e643	0.043920767
118	0x3e21f5c5	0.1581641
119	0x3e1d3fb3	0.1535633
120	0x3d7b848c	0.061405703
121	0xbce8d90c	-0.028423809
122	0xbc3fb3ef	-0.011700614
123	0x3d8c796a	0.068590954
124	0x3cd9b006	0.026573192
125	0xbc2764ea	-0.010216931
126	0xbf150d30	-0.5822325
127	0xbd574533	-0.052556228
128	0xbe210a77	-0.15726648
129	0xbdd4f9f2	-0.10399236
130	0xbce80e02	-0.028326992
131	0xbcde38db	-0.02712672
132	0x3ad6f180	0.0016398877
133	0x3b998a24	0.004685657
134	0xbca42f48	-0.020042077
135	0xbd065bab	-0.032802265
136	0x3c077339	0.008267217
137	0x3e9b7935	0.3036591
138	0xbeed2c82	-0.4632302
139	0xbf8d7e08	-1.1054087
140	0xbefcbb52	-0.49361664
141	0x3edaa015	0.42700258
142	0x3f173265	0.5906127
143	0x3e84444d	0.2583336
144	0x3c7f0988	0.015566237
145	0x3d481b0a	0.04885391
146	0x3c9f7c1a	0.019468356
147	0xbe691c65	-0.22764738
148	0xbdbe9840	-0.09306383
149	0xbc7ca64d	-0.015420509
150	0x3b75a454	0.003748198
151	0x3ab96984	0.0014145826
152	0x3c60fff2	0.013732897
153	0x3cefc0a6	0.029266667
154	0x3cbdcea7	0.023169829
155	0x3c8ad8fe	0.016949173
156	0x3b970b35	0.0046094903
157	0xbc850bbf	-0.016240953
158	0xbe6f9383	-0.23396115
159	0xbded0a38	-0.11574215
160	0x3b9b91c8	0.004747603
161	0x3ddfe202	0.109317794
162	0x3e8103e8	0.25198293
163	0x3e96f3a3	0.29482755
164	0x3e25c9d3	0.16190271
165	0xbbc0ecab	-0.005887588
166	0xbd73fef7	-0.059569325
167	0x3bc0b6c2	0.0058811614
168	0x3edaa676	0.42705125
169	0x3de8d13b	0.113680325
170	0xbea7218a	-0.32642776
171	0x3e09d80e	0.13461325
172	0xbd0b0944	-0.033944383
173	0xbcba4366	-0.022737216
174	0x3ba1ae5c	0.0049341153
175	0x3c379d41	0.011206926
176	0x3c745d6b	0.014914851
177	0x3d2abe2e	0.041685276
178	0x3c9dfb6f	0.019284932
179	0xbe019f57	-0.1265844
180	0x3c05430c	0.008133661
181	0x3ed6cf23	0.41954908
182	0x3f082f22	0.5319692
183	0x3e5110b0	0.20416522
184	0xbe42afc6	-0.19012365
185	0xbe88feb5	-0.26756826
186	0xbddcacea	-0.10775168
187	0xbd0ea448	-0.03482464
188	0xbb3b8b94	-0.002861713
189	0xbf08d9b7	-0.53457206
190	0x3f69d613	0.91342276
191	0x3e7503d3	0.2392724
192	0x3faaad06	1.3334053
193	0x3d4d6d2c	0.050152943
194	0xbc78d5c8	-0.015187688
195	0x3cb868ad	0.02251085
196	0x3d19001d	0.037353624
197	0x3ce563c5	0.028001675
198	0x3cd5566a	0.026042182
199	0x3d33ecfe	0.043927185
200	0xbf074a97	-0.5284819
201	0x3dca00d5	0.0986344
202	0x3d11d42a	0.035602726
203	0xbd81857a	-0.06324287
204	0xbd9ae899	-0.07563896
205	0xbd54f725	-0.051993508
206	0xbcca84c3	-0.024721509
207	0x39af4524	0.00033430115
208	0x3e6c8207	0.23096476
209	0x3c2936d4	0.010328013
210	0xbee8c239	-0.4546068
211	0xbf408625	-0.7520469
212	0x3ef9f9d6	0.48823422
213	0x3d46a4b3	0.048496913
214	0x3c6ace15	0.01433136
215	0x3dc18c7e	0.09450625
216	0x3c89b731	0.016810985
217	0xbeaa5e06	-0.3327486
218	0xbf2fbf22	-0.6865102
219	0xbf11dde5	-0.5697921
220	0x3db7ac69	0.089684315
221	0xbd862db9	-0.0655169
222	0x3d441344	0.047869936
223	0x3d00bf7f	0.031432625
224	0xbc57b7ad	-0.01316635
225	0xbcfa93c5	-0.03058804
226	0xbc1850d4	-0.009296615
227	0xbc2e9258	-0.010655008
228	0xbdc4bec8	-0.09606701
229	0x3c832277	0.016007645
230	0xbd663655	-0.05620416
231	0xbc2291ce	-0.009922458
232	0xbf54fd8d	-0.8319939
233	0x3e53f5da	0.20699254
234	0x3eaf0e49	0.34190586
235	0x3e0573e9	0.13032497
236	0x3d8523dd	0.06500981
237	0x3d074b18	0.0330306
238	0x3c87eed2	0.01659337
239	0x3bbe80ec	0.0058137085
240	0xbba7d904	-0.005122306
241	0xbbea81ab	-0.007156571
242	0xbe98ddc7	-0.29856703
243	0x3c47e3a6	0.012200272
244	0xbc5d1585	-0.0134939
245	0x3bd506f4	0.006501073
246	0xbc254130	-0.010086343
247	0xbd2b34c6	-0.041798376
248	0xbd704cec	-0.05866711
249	0xbd91b242	-0.07114078
250	0x3d76e340	0.060275316
251	0xbd53d1af	-0.05171364
252	0x3f74a8b6	0.9556993
253	0xbe49fdc3	-0.19725709
254	0xbf3ff376	-0.74980867
255	0x3e697553	0.22798662

net.0.bias f4 [48]
0	0x3f457327	0.77128834
1	0x3ea342e3	0.31886968
2	0xbf360b3a	-0.7111088
3	0x3daf2d2a	0.08553536
4	0x3ea2ce5d	0.31798068
5	0xbef4e564	-0.4783126
6	0x3ec528ab	0.3850759
7	0xbf2b7029	-0.6696802
8	0xbfcadb55	-1.5848185
9	0x3ea53ed3	0.32274494
10	0xbf30bcb7	-0.69037956
11	0xbebf67bb	-0.37383828
12	0xbdc32fab	-0.09530576
13	0xbf838612	-1.027529
14	0x3eedfa4a	0.46480018
15	0x3f48a1d3	0.78371924
16	0x3eb6f6d2	0.35735184
17	0x3f0ea1ad	0.5571545
18	0x3f13aad8	0.5768256
19	0x40263371	2.5968897
20	0xbf60d683	-0.8782732
21	0xbdded812	-0.10881056
22	0x3ed5cc35	0.4175736
23	0xbf4aa332	-0.79155266
24	0xbe135f86	-0.14391908
25	0xbf084320	-0.53227425
26	0x3f5113cb	0.81670827
27	0x3ca8f288	0.02062346
28	0x3fb899f3	1.4421982
29	0xbdc02933	-0.09382858
30	0xbf848fec	-1.0356421
31	0xbea54e4c	-0.32286298
32	0xbf5901d0	-0.8476839
33	0x3feb3bf2	1.8377669
34	0x3f245d6f	0.6420507
35	0x3f6d65c2	0.92733395
36	0x401a7d76	2.4139075
37	0x3fc0c172	1.5059035
38	0xbddb68b2	-0.107133284
39	0x3e6beb03	0.23038869
40	0xbef337af	-0.4750342
41	0x3f0cb21c	0.54959273
42	0x3e2c9781	0.16854669
43	0xbf00444c	-0.5010421
44	0x3e3c4a63	0.18387751
45	0xbf007986	-0.5018543
46	0xbf4b0013	-0.7929699
47	0x3f0592df	0.5217723

net.2.weight f4 [48, 48]
0	0xbcd1e28e	-0.025620725
1	0xbd98e736	-0.07465975
2	0xbcff0513	-0.03113035
3	0xbdbe2df4	-0.092861086
4	0x3ebc4770	0.36773252
5	0xbe96dcc6	-0.29465312
6	0xbd2ff15e	-0.042954795
7	0xbede3a19	-0.434037
8	0xbedc1ab5	-0.42989126
9	0x3e1060cc	0.14099425
10	0xbdae348e	-0.08506118
11	0xbe90cf70	-0.28283262
12	0xbd441a83	-0.047876846
13	0xbdde5953	-0.10856881
14	0x3d1cd4f9	0.038289044
15	0x3d512232	0.051058
16	0xbe196009	-0.14978041
17	0xbd55e83d	-0.052223433
18	0xbcb90a07	-0.02258779
19	0x3e47237c	0.1944713
20	0xb9f4aedf	-0.00046669596
21	0xbdbea83b	-0.09309431
22	0xbda9e475	-0.08295528
23	0x3e6a3252	0.22870758
24	0xbb32f53f	-0.0027306823
25	0x3e7c8144	0.24658686
26	0x3c1af6f8	0.009458296
27	0xbd32cadf	-0.043650504
28	0xbecf9d7f	-0.40549847
29	0x3c9ace91	0.018897327
30	0x3e4c0d7c	0.19927019
31	0x3c23f804	0.010007862
32	0x3c00db59	0.007864797
33	0x3cde0b45	0.027104983
34	0x3cd4f297	0.025994582
35	0x3ca52a53	0.020161783
36	0x3e3f6ff6	0.18695053
37	0x3e850b33	0.25985107
38	0x3e063494	0.13105994
39	0x3f1bf348	0.6091809
40	0xbd8127d6	-0.06306426
41	0xbe9cdac0	-0.30635643
42	0xbe80e08a	-0.2517131
43	0xbc374bdb	-0.011187519
44	0xbde84a80	-0.11342335
45	0x3e4ae659	0.19814433
46	0xbd75bd3a	-0.059994914
47	0xbdb18bf8	-0.08669275
48	0xbcbbd856	-0.022930305
49	0xbf47bed0	-0.7802553
50	0xbe118dac	-0.142142
51	0x3e71d5df	0.23616742
52	0xbdffa54d	-0.124827005
53	0x3ecb074c	0.39654005
54	0xbf3478b8	-0.704967
55	0x3d322791	0.043494765
56	0xbf1eb8cb	-0.6200072
57	0xbc13fa57	-0.009031854
58	0x3e01a930	0.12662196
59	0xbdce84e6	-0.10083942
60	0xbda5b1fd	-0.08090589
61	0xbe3e923a	-0.18610469
62	0x3dcffd6c	0.10155758
63	0x3cca1498	0.024668023
64	0x3d7cabf2	0.061687417
65	0xbdc7949c	-0.09745142
66	0x3e88f763	0.2675124
67	0x3f4e97d5	0.8070043
68	0xbe08735c	-0.13325256
69	0x3d4417c8	0.047874242
70	0x3f615123	0.8801443
71	0x3e13d244	0.14435679
72	0xbf59c161	-0.850607
73	0x3e8e5051	0.27795652
74	0x3dc91dbb	0.09820124
75	0x3e85f183	0.2616082
76	0x3d9e799b	0.07738038
77	0xbe540400	-0.20704651
78	0x3e3aa8dd	0.18228479
79	0xbdeef4c9	-0.11667783
80	0xbcf2513b	-0.02957975
81	0xbdc0c11c	-0.09411833
82	0x3e228d73	0.15874271
83	0x3e7b5cdc	0.24547142
84	0x3f9ce552	1.2257483
85	0x3d8d81ce	0.06909524
86	0x3d598be1	0.053111915
87	0x3da84a3b	0.08217283
88	0xbd9208d3	-0.07130589
89	0xbe3bb6d0	-0.18331456
90	0xbe5af811	-0.21383692
91	0x3c36664b	0.011132787
92	0x3ddfe8e4	0.10933092
93	0x3e79ee66	0.24407348
94	0xbe823b43	-0.25435838
95	0xbf7c7204	-0.98611474
96	0xbe51f2f4	-0.20502836
97	0x3bf2d675	0.007410819
98	0xbcd6569f	-0.026164351
99	0xbe926206	-0.2859041
100	0xbe80bcec	-0.25144136
101	0x3d86f4c1	0.06589652
102	0x3db1ab36	0.08675234
103	0xbd1644ca	-0.036686696
104	0x3dae8665	0.085217275
105	0xbe64d24e	-0.2234585
106	0x3ebfe6dc	0.3748082
107	0x3e63e838	0.22256553
108	0xbe954828	-0.29156613
109	0x3cfd10f9	0.030891882
110	0x3e174656	0.14772925
111	0xbe8e15ab	-0.27750906
112	0xbe3957ea	-0.18099943
113	0xbd07d698	-0.033163637
114	0xbd81d959	-0.06340284
115	0xbb05182f	-0.0020308604
116	0x3e1c353c	0.15254682
117	0xbcb12495	-0.021623889
118	0xbda08684	-0.07838157
119	0xbc42a448	-0.011879988
120	0xbe15f2aa	-0.1464335
121	0x3da2fc75	0.079583086
122	0xbecc83b4	-0.39944232
123	0xbd9ac653	-0.075573586
124	0x3cc02b91	0.023458274
125	0x3f258961	0.6466275
126	0x3d4cedf9	0.050031636
127	0x3cbb92c8	0.02289714
128	0x3de6abc5	0.11263231
129	0x3eb3c3ad	0.35110226
130	0xbbe69d80	-0.0070378184
131	0x3d89b1b7	0.067233495
132	0x3a53bec8	0.000807744
133	0xbdd7feec	-0.10546669
134	0xbe15728b	-0.14594476
135	0x3e091762	0.13387826
136	0x3f0def83	0.5544359
137	0x3dc04fca	0.093902186
138	0xbc511593	-0.012761491
139	0x3defb922	0.11705233
140	0x3d85e422	0.065376535
141	0xbd28359b	-0.041066747
142	0x3eb7fcf5	0.35935178
143	0x3da727e8	0.081619084
144	0xbf66cc65	-0.9015563
145	0x3be310b3	0.006929481
146	0xbe0e9544	-0.13924128
147	0x3d1d303a	0.03837607
148	0x3de1758c	0.110087484
149	0xbe6d4fe9	-0.23175015
150	0xbd8fdcf2	-0.07024564
151	0x3e2974cb	0.16548459
152	0x3e49294c	0.1964466
153	0x3e5e0c12	0.21684292
154	0x3ebae869	0.3650544
155	0xbe337c63	-0.17527919
156	0xbee47b50	-0.4462533
157	0x3daf71c1	0.08566619
158	0xbe4c4a62	-0.1995025
159	0xbf894014	-1.072268
160	0x3e3b870f	0.1831324
161	0xbb6973ac	-0.0035621924
162	0x3e1a3457	0.15059029
163	0x3e9e720f	0.30946395
164	0x3e30dfdc	0.17272896
165	0x3d3e45ab	0.04645316
166	0xbd23031e	-0.039797895
167	0x3e56ee6e	0.20989391
168	0xbe5ad870	-0.21371627
169	0x3d09dd6e	0.033658437
170	0xbf1af2a5	-0.60526496
171	0xbd8f167f	-0.06986713
172	0x3e02eb56	0.12785086
173	0xbeed9e48	-0.46409822
174	0xbce4fdde	-0.027953085
175	0xba92196e	-0.0011146495
176	0x3f668208	0.9004216
177	0x3f4c8c5b	0.79901665
178	0x3d85dd6e	0.06536375
179	0x3ec16a64	0.37776482
180	0x3e103b9f	0.14085244
181	0x3d47c0ea	0.04876796
182	0x3dd60f93	0.10452189
183	0x3c85882a	0.01630028
184	0xbea9cbfa	-0.33163434
185	0x3eab0de9	0.3340905
186	0xbc30bfb2	-0.010787891
187	0x3f665a27	0.8998131
188	0x3dfd772f	0.12376248
189	0xbdaf119c	-0.085482806
190	0xbec5fede	-0.3867101
191	0xbd0e0b92	-0.034679003
192	0x3ed44113	0.41455898
193	0xbcfd7acd	-0.030942345
194	0x3e381d31	0.17979886
195	0xbd246e3a	-0.040144183
196	0xbc260cce	-0.010134889
197	0xbe41d086	-0.18927202
198	0x3bf016a5	0.007326918
199	0xbe4011d5	-0.18756802
200	0x3c71678d	0.014734161
201	0x3c0c5472	0.008565055
202	0xbf0b611f	-0.5444507
203	0x3f01649d	0.5054415
204	0x3ea0936a	0.31362468
205	0xbd087bdf	-0.033321258
206	0x3e8afab6	0.27144402
207	0x3f0fbcc6	0.5614742
208	0xbd98c163	-0.074587606
209	0x3c47e680	0.012200952
210	0xbe29546a	-0.16536108
211	0xbdd05891	-0.10173143
212	0xbf533d8f	-0.82515806
213	0x3d310987	0.043221977
214	0x3d505996	0.050866686
215	0xbea2d221	-0.3180094
216	0x3e6d6b7d	0.23185535
217	0xbc873f49	-0.016509669
218	0x3ee6b7ae	0.4506201
219	0x3e9294d2	0.28629166
220	0xbda1c855	-0.078995384
221	0xbeed91c4	-0.46400273
222	0x3d9b3ad5	0.07579581
223	0x3d315162	0.043290503
224	0xbf0df8c5	-0.5545772
225	0xbeee41ef	-0.46534678
226	0xbe224123	-0.1584516
227	0xbe0ba832	-0.1363838
228	0xbe1df695	-0.15426095
229	0xbe458181	-0.19287683
230	0x3d338bae	0.04383438
231	0x3d660c2a	0.056163944
232	0xbe53c886	-0.20681962
233	0xbea49dc3	-0.32151613
234	0xbd507233	-0.05089016
235	0xbed4a04a	-0.4152854
236	0xbeb2b30d	-0.3490223
237	0x3c1286d4	0.008943278
238	0xbe32548d	-0.17415066
239	0x3d0fb8ac	0.035088226
240	0xbdf0bd62	-0.11754872
241	0xbc8af32d	-0.016961658
242	0xbcc09cd3	-0.02351228
243	0x3e26884c	0.1626293
244	0x3c50701b	0.0127220405
245	0xbe9c69c1	-0.30549434
246	0x3c34c8b1	0.011034177
247	0x3da82af2	0.08211316
248	0x3d45b6a8	0.048269898
249	0xbdb0af7d	-0.08627222
250	0x3e3e0691	0.18557192
251	0xbe0072bc	-0.12543768
252	0xbe3ef127	-0.1864668
253	0x3ead9c0e	0.33908123
254	0xbe7e9558	-0.24861658
255	0xbde195c0	-0.11014891

net.2.bias f4 [48]
0	0xbe1b94f7	-0.15193544
1	0x3e72c8ef	0.23709463
2	0xbeb229c1	-0.3479748
3	0x3db43c40	0.08800554
4	0xbf19defc	-0.6010587
5	0x3dfbe5ef	0.12299716
6	0x3dc02e64	0.09383848
7	0x3dfbbe6d	0.1229218
8	0xbf244083	-0.6416094
9	0x3f01d373	0.5071327
10	0x3dfad25d	0.12247155
11	0xbe64e0a8	-0.22351325
12	0x3e21c8db	0.15799277
13	0xbe0f0bda	-0.13969365
14	0x3e876f13	0.2645193
15	0xbe83484d	-0.256411
16	0xbeae0c30	-0.33993673
17	0xbd42eb4d	-0.04758768
18	0x3eb09eb8	0.34496093
19	0xbce50800	-0.027957916
20	0xbe9637a3	-0.29339322
21	0xbd7a6c00	-0.061138153
22	0x3edb7997	0.42866203
23	0x3e8fba24	0.28071702
24	0xbec474d0	-0.3837037
25	0x3ee0f59c	0.43937385
26	0xbd8b329d	-0.06796763
27	0x3e26f779	0.16305341
28	0xbea01a6c	-0.31270158
29	0xbe30898e	-0.17239973
30	0x3e97d001	0.29650882
31	0xbe5b099a	-0.21390381
32	0x3d7ee1eb	0.06222717
33	0xbcc6930d	-0.024240041
34	0x3e8c11e3	0.27357396
35	0x3e6406dc	0.22268242
36	0x3e1ea4cd	0.15492554
37	0xbe61be97	-0.2204536
38	0xbdd81259	-0.105503745
39	0x3dad2cd1	0.08455814
40	0xbec56670	-0.38554716
41	0xbd7a8046	-0.061157487
42	0x3cd78677	0.026309235
43	0xbedc36f5	-0.4301068
44	0x3df6d55b	0.12052413
45	0x3e95e600	0.2927704
46	0xbdcc308b	-0.09970196
47	0x3f32bcd6	0.6981939

net.4.weight f4 [6, 48]
0	0x3e0b783f	0.13620089
1	0xbe96a994	-0.29426253
2	0xbe75355e	-0.23946139
3	0x3ebe3b56	0.37154645
4	0xbea53349	-0.3226569
5	0x3e4821e8	0.19544184
6	0xbe8a4002	-0.2700196
7	0xbe819055	-0.2530543
8	0x3f03dc21	0.51507765
9	0x3f2ee14e	0.6831254
10	0x3e9fba5f	0.31196877
11	0x3d61394a	0.054986276
12	0xbe30e329	-0.17274155
13	0xbdb95144	-0.09048703
14	0x3e1d1f88	0.1534406
15	0xbe2f76c1	-0.17135145
16	0xbd3d3da9	-0.04620138
17	0x3f0456e3	0.5169508
18	0x3e73d8c0	0.23813152
19	0xbcdb7d62	-0.026793186
20	0xbd090d72	-0.033460088
21	0x3dbb0731	0.09132231
22	0x3e4f9a29	0.20273651
23	0x3ea7cff6	0.3277585
24	0xbeb5dc64	-0.35519707
25	0xbe889cdc	-0.26682174
26	0xbc94e22b	-0.018174252
27	0x3f4f2b4c	0.8092544
28	0xbf843ad8	-1.0330458
29	0xbca7482c	-0.020420156
30	0xbeee9eab	-0.4660543
31	0xbe8e032d	-0.27736798
32	0x3e64248f	0.22279571
33	0x3ef932d7	0.486716
34	0xbe7b5d34	-0.24547273
35	0xbe55b03b	-0.20868008
36	0x3e67fc08	0.22654736
37	0x3e098c59	0.13432445
38	0xbecb97c4	-0.39764225
39	0x3f46bf5b	0.77635735
40	0x3cde0be4	0.02710528
41	0x3e39acdd	0.18132348
42	0xbecd52f9	-0.40102366
43	0x3ea93c6d	0.33053914
44	0xbe90a000	-0.2824707
45	0x3e7b57eb	0.24545257
46	0x3e54df00	0.20788193
47	0xbe3f3a2d	-0.18674536
48	0xbf846194	-1.0342278
49	0x3fa3a1b3	1.2783722
50	0xbd419195	-0.04725798
51	0x3eae9833	0.34100494
52	0xbec7dba4	-0.3903476
53	0x3da0f966	0.07860069
54	0xbe850381	-0.25979236
55	0x3f83aa81	1.0286409
56	0xbe7dfb5f	-0.24802922
57	0x3ec62b64	0.3870498
58	0x3eb7dba1	0.3590975
59	0xbec98b19	-0.39363936
60	0xbf109670	-0.5647955
61	0x3a14a439	0.0005670223
62	0x3f71bfe5	0.9443343
63	0xbf14cccf	-0.58125013
64	0xbf4c0537	-0.7969546
65	0xbe3bc39f	-0.18336342
66	0xbf5ce8d6	-0.8629278
67	0x3e9f02f9	0.31056955
68	0xbf50a7ce	-0.8150605
69	0x3f0c95cb	0.54916066
70	0xbf953faa	-1.1660054
71	0xbf1292ef	-0.5725545
72	0xbee0d15c	-0.4390973
73	0x3fbab423	1.4586223
74	0x3f06c9e8	0.52651834
75	0x3cc31ff8	0.023818955
76	0x3fcb8e90	1.5902882
77	0xbe879cbb	-0.26486763
78	0xbea6b5d5	-0.32560602
79	0x3facfb05	1.3514105
80	0xbf4e079f	-0.8048038
81	0xbf8271cd	-1.0190979
82	0x3d3dc4e1	0.046330336
83	0xbdabcac1	-0.083882816
84	0x3ef0b84a	0.470156
85	0x3d9b0b61	0.0757053
86	0xbdf53d2c	-0.11974558
87	0xbf7208dd	-0.94544774
88	0xbf4191fb	-0.75613374
89	0xbdd2b1af	-0.10287797
90	0xbc819d9e	-0.015822228
91	0xbf509422	-0.8147603
92	0x3f640ba6	0.89080274
93	0x3f192c28	0.59833
94	0xbf3b551c	-0.7317674
95	0xbd0f869f	-0.035040494
96	0x3e9397c6	0.2882673
97	0xbf4b0de0	-0.79318047
98	0x3f8f831c	1.1211886
99	0xbfc5a9cf	-1.5442446
100	0x3f8c5f08	1.0966501
101	0xbf903c0d	-1.1268326
102	0x3eb1e059	0.34741476
103	0xbec9949d	-0.39371195
104	0x3e961eaa	0.2932027
105	0xbf3788a3	-0.71692866
106	0xbf19c9b9	-0.6007343
107	0x3f9dabb8	1.2318029
108	0x3f56dc00	0.83929443
109	0xbd6bca8c	-0.05756621
110	0x3e5eb22b	0.21747653
111	0x3f5d4868	0.8643861
112	0xbe279f2f	-0.16369317
113	0xbfaaa80a	-1.3332531
114	0xbf30fcfa	-0.6913601
115	0x3fa34193	1.2754387
116	0x3e50bca9	0.20384468
117	0xbeb1a67c	-0.3469733
118	0x3ede709d	0.43445292
119	0x3fa5c8fc	1.295196
120	0x3f50886c	0.81458163
121	0xbe116558	-0.14198816
122	0xbe81ecb5	-0.25375906
123	0x3d416910	0.047219336
124	0x3f123798	0.5711608
125	0xbea4cad3	-0.32185993
126	0x3ffb986d	1.9655892
127	0xbeab78ab	-0.334905
128	0x3e98f6ea	0.2987588
129	0x3a3f8bf8	0.0007306929
130	0xbe942925	-0.2893764
131	0x3fa9f320	1.3277321
132	0xbe926611	-0.28593495
133	0x3f1860a1	0.59522444
134	0x3fbdb194	1.4819818
135	0xbf0bdfba	-0.54638255
136	0x3ed0d32a	0.40786105
137	0xbf4cdfd4	-0.80029035
138	0x3fbc9499	1.4732848
139	0xbeffde02	-0.49974066
140	0xbdd4acea	-0.10384543
141	0xbede0d73	-0.43369636
142	0x3f9623a8	1.1729631
143	0x3f4ad968	0.79237986
144	0x3f0c1d50	0.5473223
145	0xbea6c747	-0.32573912
146	0x3b7c7752	0.003852327
147	0x3db57fdd	0.088622786
148	0xbddd4555	-0.1080424
149	0x3cb48614	0.02203659
150	0x3d543975	0.051812608
151	0xbf9e85af	-1.2384547
152	0xbf92a500	-1.1456604
153	0x3dadc25c	0.08484337
154	0xbcf0d911	-0.02940038
155	0x3ecd0a0c	0.40046728
156	0xbd4b68f3	-0.049660634
157	0x3f4fde85	0.8119891
158	0x3ed8dea2	0.42357355
159	0xbe2ec4f9	-0.17067327
160	0xbd5da3d3	-0.054111313
161	0x3dc2b222	0.095066324
162	0x3d4cf445	0.05003764
163	0x3e3a8698	0.18215406
164	0xbee50a47	-0.44734403
165	0x3db1fca0	0.086907625
166	0x3fa0099b	1.2502931
167	0x3efc0fa2	0.49230677
168	0x3d65e47e	0.05612611
169	0xbf77a8ad	-0.96741754
170	0xbd162640	-0.03665757
171	0x3f3a7e70	0.7284918
172	0xbf046eb0	-0.51731396
173	0x3f82b2f0	1.0210857
174	0xbe06e9ab	-0.13175075
175	0xbed8a6bb	-0.42314705
176	0x3f772a42	0.96548855
177	0x3e09291d	0.1339459
178	0xbecb0cf0	-0.39658308
179	0xbd02172a	-0.031760372
180	0xbd789b31	-0.060694877
181	0x3e7a9409	0.24470533
182	0xbdba2238	-0.09088558
183	0x3eb1e716	0.34746617
184	0xbf475d8b	-0.7787711
185	0x3dfc61c2	0.12323333
186	0xbe118651	-0.14211394
187	0xbebdd036	-0.37072915
188	0xbe012279	-0.12610807
189	0x3e303b5f	0.17210148
190	0x3e9f5f4b	0.3112739
191	0x3bdb26c2	0.00668797
192	0xbd84e984	-0.06489852
193	0xbe268283	-0.16260724
194	0x3b525cc7	0.0032098757
195	0xbda5eddd	-0.081020094
196	0x3d924098	0.071412265
197	0x3c8d3d73	0.017241215
198	0x3f26dc4d	0.651799
199	0x3e065b20	0.13120699
200	0xbd9b89cc	-0.07594642
201	0x3e3444dc	0.17604393
202	0xbf048042	-0.51758206
203	0xbd984b9b	-0.074362956
204	0x3d3e5813	0.046470713
205	0xbd4eab25	-0.050456185
206	0x3d052853	0.03250916
207	0x3d30fef3	0.04321189
208	0x3f94334b	1.1578153
209	0xbdf189a3	-0.1179383
210	0xbe132938	-0.14371192
211	0xbe9d0bc6	-0.30673045
212	0x3ddca5bb	0.10773798
213	0xbda84f4d	-0.082182504
214	0xbda8080c	-0.0820466
215	0xbdab214a	-0.08355959
216	0x3ec2f062	0.38074023
217	0xbd283f1f	-0.041075822
218	0xbedb9a95	-0.42891374
219	0x3e0f3352	0.13984421
220	0x3d89c54c	0.067270845
221	0x3d7d5a84	0.0618539
222	0x3dc34ee4	0.095365316
223	0x3da0a975	0.07844821
224	0x3d79b8d5	0.060967285
225	0x3d67c9a1	0.056588773
226	0x3f9fe47f	1.2491606
227	0x3c91c3ce	0.017793562
228	0xbdb7e4c7	-0.08979183
229	0xbf38d481	-0.72199255
230	0xbd949754	-0.07255426
231	0xbd66860d	-0.056280185
232	0x3eb97ec7	0.36229536
233	0x3d8fea24	0.07027081
234	0x3cca9d75	0.024733284
235	0xbe57241e	-0.21009871
236	0x3dcb13d2	0.0991589
237	0xbd4aa233	-0.04947109
238	0xbce61d5e	-0.028090175
239	0x3cb8ee81	0.022574665
240	0x3e08f16f	0.1337335
241	0x3c64aaa9	0.013956704
242	0x3c9e92fc	0.019357197
243	0xbe3426ab	-0.17592876
244	0xbcaf385c	-0.021389179
245	0x3d195b79	0.03744075
246	0x3d014116	0.03155621
247	0x3c489c6f	0.012244328
248	0xbdf464c5	-0.11933283
249	0x3dbd232c	0.09235224
250	0x3d96a646	0.07355933
251	0x3c0ce973	0.0086005805
252	0x3ddf9702	0.10917474
253	0x3ddacf7c	0.10684106
254	0xbd0e72e4	-0.034777537
255	0x3aea6769	0.0017883602

net.4.bias f4 [6]
0	0x000195a7	1.4552e-40
1	0x3f122283	0.5708391
2	0x80069a7e	-6.06434e-40
3	0x3f67a40f	0.9048471
4	0x3ee44820	0.44586277
5	0x3ee44820	0.44586277
