training/nn-small.pth (torch, 16863 bytes, 6 tensors)

net.0.weight f4 [48, 20]
000000 ed 88 d1 3f d5 46 b3 3e 50 06 cb 3e cd db ae 3d
       1.6369911 0.35014978 0.39653254 0.085380174
000010 33 d5 f7 bd b5 de 7c be 42 66 d0 bd 44 09 f3 3d
       -0.121012114 -0.24694331 -0.10175754 0.11867002
000020 9b 4e 43 3e f7 52 f8 3d 67 b9 24 bf 1b 26 af be
       0.19072954 0.12125199 -0.643454 -0.3420876
000030 b2 af 3b 3d 05 bf 43 3e ae f9 fb 3d 2e 86 37 bd
       0.045821853 0.19115837 0.12303482 -0.044805698
000040 40 b8 0e bd 95 80 0b 3e b7 d3 0c be 7b e6 42 3e
       -0.034843683 0.13623269 -0.13752638 0.19033234
000050 84 7e 2c bf 72 79 93 be 56 1a 5d 3e ac 35 a2 3e
       -0.6738055 -0.28803593 0.21592078 0.31681573
000060 51 8a 18 3d 0e c1 31 be 71 fb d3 be 65 55 03 bf
       0.037241284 -0.17358801 -0.41402772 -0.51302177
000070 ca 6f 8a be 22 58 93 3d b1 03 13 3e 42 e4 55 bd
       -0.27038413 0.071945444 0.14356877 -0.052219637
000080 9f a0 b6 3d 1f ff d7 3d dc 29 cb bc 02 5e c6 bd
       0.08917355 0.10546707 -0.024800234 -0.09685899
000090 28 22 78 bd c2 93 39 3d 6a 1f 02 3e bc e1 85 bd
       -0.06057945 0.04530693 0.12707296 -0.06537196
0000a0 d7 48 84 be 9d e1 50 bf 5a 27 e5 be c4 68 84 3f
       -0.25836822 -0.8159426 -0.44756585 1.0344472
0000b0 f4 db 18 3f 99 7c b6 3e 25 56 dc 3d 53 b2 0d be
       0.5971062 0.35641935 0.10758618 -0.13837557
0000c0 e3 4f 57 be cf 2d 46 be 99 b1 a6 3e 95 bd 3e bd
       -0.21026568 -0.19353412 0.3255737 -0.04656752
0000d0 73 05 22 be 4c 80 c9 bc 17 d4 61 3d bd 00 a1 3d
       -0.15822391 -0.02459731 0.055133905 0.07861469
0000e0 80 da 1c 3c a9 48 78 bd a7 6d 9b 3e 83 42 5d bd
       0.009573579 -0.06061617 0.30357096 -0.05401851
0000f0 49 6f f4 be d5 08 9b be 4a 6d 86 3c e8 d1 1e bd
       -0.47741154 -0.30280176 0.016409535 -0.0387744
000100 c3 3c 02 be b4 4f c8 bd 77 a6 87 bd c6 8d 57 bd
       -0.12718491 -0.09780827 -0.066235475 -0.05262544
000110 96 cf bd bd 55 bc 70 be f5 f6 6a 3d d8 97 95 bc
       -0.092681095 -0.23509343 0.057364423 -0.018260881
000120 21 05 8b 3c 6a d9 30 bb 3d 79 51 bd dd 5b 62 bd
       0.01697022 -0.0026985058 -0.051141012 -0.05526339
000130 ce ae 12 3c a3 e7 be 3d 10 28 91 3c ae dc f8 bd
       0.0089528095 0.09321525 0.017719299 -0.12151466
000140 31 d0 16 3f 7d e2 29 c0 c8 5c c2 3c 4b 5a 38 be
       0.58911425 -2.6544487 0.023725882 -0.18003194
000150 8c 14 80 bd ee c1 71 3c fa 06 31 bb bd ca 6e bd
       -0.06253919 0.014755709 -0.0027012215 -0.058298815
000160 84 2f 6a bd df c7 24 bc 03 77 8c 3e 51 b2 0a 3f
       -0.05717422 -0.010057419 0.2743455 0.5417834
000170 fb 36 8a 3d f2 ca 9c be 2a a3 9b be 77 ea 17 be
       0.06748768 -0.30623585 -0.30397922 -0.14835535
000180 75 ce d8 bc fa 5c 1a 3d e9 17 08 3e ad 8e 24 bd
       -0.026465634 0.037686326 0.13290371 -0.04017513
000190 ce dd 7d bf 88 3f 07 40 de 54 c5 3c 7a d8 3d 3e
       -0.9916657 2.1132526 0.02408832 0.1853961
0001a0 9a 7f 6f bc c3 1f cd bd cf 52 af bd 38 5d 0f bd
       -0.014617825 -0.10015824 -0.08560716 -0.03500101
0001b0 d7 10 d0 3c e5 6b 98 bc ba 20 9f 3e 62 e2 7d be
       0.025398655 -0.018606136 0.31079656 -0.2479339
0001c0 c5 7f 4d bf 02 7b 2e bf 07 03 10 be f9 b3 93 3e
       -0.80273086 -0.68156445 -0.14063655 0.28848246
0001d0 3a 45 a8 3e 73 61 5d 3d 18 fd 01 3e 2a ca 1b 3c
       0.32865316 0.054048013 0.12694204 0.009508649
0001e0 df 87 b9 3f 79 35 82 3f b2 e6 71 bf 14 6f 98 bf
       1.449459 1.0172569 -0.9449264 -1.1908898
0001f0 d3 98 d5 bd ad 27 00 bb 05 6a 80 bc 3c e1 e2 bb
       -0.104295395 -0.0019554899 -0.015675554 -0.0069238227
000200 11 62 fa 3b 03 e9 e9 bb d5 8b 74 3e e5 ee c5 3d
       0.007641085 -0.007138373 0.23881467 0.09664706
000210 9b 6c 31 bd c0 a9 55 bb f0 b2 70 bd a0 6b d2 bd
       -0.043316465 -0.00326024 -0.058764398 -0.10274434
000220 4c 39 ca 3c 5c 20 ef 3c 80 04 13 bf e0 fb 4b be
       0.024685524 0.029190235 -0.5742874 -0.19920301
000230 e6 76 4d bf 25 38 0e 40 3f ee 8a 3c 8d 60 0e 3c
       -0.8025955 2.2221768 0.016959308 0.008690012
000240 31 f8 22 bd ce 6c 8d bc 57 90 6b 3d cf 7a d1 3d
       -0.039787475 -0.017263796 0.0575107 0.10228502
000250 73 27 1f 3d 2d 33 4c 3c d0 39 0d be e7 17 ad 3e
       0.03885598 0.012463373 -0.13791585 0.338073
000260 53 85 12 3f a7 79 4b 3e 9d 33 fc be fa 50 46 bf
       0.57234687 0.19870625 -0.49258128 -0.7746731
000270 a5 fb be be 87 64 11 3e f7 c7 b2 3c de 3c 63 3d
       -0.37301365 0.14198504 0.021823866 0.05547797
000280 3b 8f 3f 3f fe c7 f6 bd a6 db c7 3d e8 ce e6 bd
       0.7482793 -0.12049864 0.097586915 -0.11269933
000290 a8 64 86 3c 86 be 58 3d 67 e9 3f bd 48 c1 9a bd
       0.016405419 0.052916072 -0.04685345 -0.07556397
0002a0 9e 83 c2 bc 7e 70 5b bd 29 13 33 bc 69 bf 03 bd
       -0.0237444 -0.053574078 -0.010929861 -0.032164965
0002b0 a3 34 d6 bd ae a1 b4 bd c8 5f e4 3c a7 13 70 3e
       -0.104592584 -0.088199005 0.027877703 0.23444997
0002c0 4e f3 ca 3e 71 99 c4 3e 66 dc a6 bb f7 5f 9b bd
       0.39638752 0.38398317 -0.0050921915 -0.07586663
0002d0 2e ba 68 bf 2c 15 0d c0 23 91 d9 3d ae 58 86 bc
       -0.9090909 -2.2044172 0.10623386 -0.016399708
0002e0 23 e7 0e bc 1c 60 ee 3c 3f 3c c1 3d c2 a7 29 3d
       -0.0087220995 0.029098563 0.09435319 0.041419752
0002f0 3e ff bb bd 56 36 7d bd 1c 5b d0 bd 7e bb ad be
       -0.09179543 -0.061819397 -0.10173628 -0.33932108
000300 42 33 05 bf 8c 46 b6 be 1d 34 8e 3d 85 82 b1 3e
       -0.5203134 -0.35600698 0.069435336 0.3466989
000310 27 9b 7f 3e e6 73 00 3d a7 8f 11 bd 2d 33 4d 3d
       0.2496153 0.03136053 -0.03553739 0.050097633
000320 6d 03 04 3f ee 55 a9 be 9f f5 91 3e 47 ff b4 3e
       0.5156773 -0.33073372 0.28507707 0.3535101
000330 67 c2 a4 3e fd 6d ad 3e 89 7c f9 3d 22 31 62 be
       0.32179567 0.33872977 0.12181956 -0.22089055
000340 8d fa ef be 53 dd c8 be 8f 43 9f bd 0f 9b bd bd
       -0.46870843 -0.39231357 -0.07776558 -0.09258091
000350 b7 b5 b5 bc 93 6c 85 bd 41 f6 c0 bc fb 35 c9 3d
       -0.022181375 -0.065148495 -0.023554923 0.09824749
000360 7d a9 ab 3d 60 d3 e3 bc df ca cb 3d 14 1d 30 3d
       0.08381937 -0.027810752 0.09950804 0.04299648
000370 6e 28 fc bf 21 b4 64 3f 44 fb ff be 9b e1 2f be
       -1.9699838 0.89337355 -0.49996388 -0.17175905
000380 c3 b0 f3 3c 67 09 97 3d f0 4f e4 3c 3a e9 7e bd
       0.029747372 0.0737484 0.027870148 -0.06223414
000390 a9 2d bb bd 6a a9 3c 3d 83 c3 4e 3e 9b da d7 3c
       -0.09139568 0.046060003 0.2019177 0.026349356
0003a0 14 96 3c 3b 24 3f f2 3b 69 09 d9 3b 21 3a b9 3c
       0.0028775977 0.007392781 0.006623436 0.022610726
0003b0 df 6f 3e 3d 05 62 e9 bb 44 3d a5 bd 7e 36 c5 bc
       0.046493407 -0.0071222805 -0.08068326 -0.024073835
0003c0 1f 13 a5 bf ea ad 11 bf 3e 03 26 3d 6b 54 17 3d
       -1.289646 -0.56905997 0.040530436 0.03694574
0003d0 20 b7 12 3d 24 2f 38 3d 0f 01 1c 3d 2a ea e8 bc
       0.035819173 0.04496683 0.038086947 -0.02843197
0003e0 4b 7b 57 bd fd d6 67 3c ee ca a8 bd 18 63 2d bf
       -0.052607816 0.014150378 -0.08241831 -0.6772933
0003f0 fd 65 3d bf 5a df 73 be 01 6a c3 3e 7a 1b 1d 3f
       -0.73983747 -0.2381567 0.38166812 0.6137005

net.0.bias f4 [48]
000000 49 41 a1 3e c9 bf 52 be 3d ac d3 bd b8 58 80 3f
       0.3149512 -0.20580973 -0.10335586 1.0027075
000010 22 60 bd bf ca 24 3c 40 8f 2a 0b 3e e7 a9 47 3f
       -1.4794962 2.9397454 0.13590454 0.77993625
000020 b2 d6 37 bf 65 1d 60 3d 8d 27 02 be 4f 55 a7 bf
       -0.71811974 0.054715533 -0.127104 -1.3072909
000030 56 ed 14 3f da 4c b6 bf 6b f9 01 bf 01 da ac 3f
       0.58174646 -1.4242203 -0.50771207 1.350403
000040 a1 48 54 3f 6e 72 cb 3f 03 cc 76 bf 50 f2 b7 3f
       0.8292332 1.5894296 -0.9640505 1.4370823
000050 94 d8 09 bf 68 0a f2 bd 96 af 00 3d bb 4c 03 3f
       -0.53846097 -0.11818391 0.03141745 0.51288956
000060 e2 b9 c8 3d eb 08 f7 bf 55 eb 38 bc f9 5e aa 3e
       0.09801079 -1.9299597 -0.011286576 0.33275583
000070 ce 9a 1f 40 08 84 05 3e ef 94 ff 3f 28 e5 ba 3e
       2.4938235 0.13038647 1.9967326 0.36502957
000080 50 01 d1 3e a8 4c 32 3f 78 9f e2 3e 56 66 69 be
       0.40821314 0.6964822 0.4426229 -0.22792944
000090 3a c6 10 3f ca 47 8e bf 38 66 1e 3f f0 90 86 3f
       0.5655247 -1.1115658 0.61874723 1.0512981
0000a0 dd 02 3f be fa 14 89 3f f8 60 b9 be a7 d0 92 be
       -0.18653436 1.0709527 -0.36206794 -0.28674814
0000b0 4f 65 15 bf 8d da b1 bf a4 c4 7c 3f be e0 57 be
       -0.5835771 -1.3894821 0.9873755 -0.21081826

net.2.weight f4 [48, 48]
000000 14 27 3e 3e 45 6e 0d be f4 a3 a8 bd e3 fe be 3d
       0.18569595 -0.13811596 -0.082343966 0.093259595
000010 12 cd 8f bf e3 18 03 bf d4 13 33 3d 20 43 b9 3d
       -1.1234457 -0.5120985 0.04372008 0.09046006
000020 e5 71 7c 3d 66 f2 82 3e ea 1e a3 3d e7 f2 21 be
       0.061632056 0.2557556 0.07964881 -0.15815316
000030 48 15 d3 3e 76 4d d2 3b bd b1 11 bf 65 a3 3e 3e
       0.41227174 0.0064179255 -0.5691183 0.18617018
000040 47 64 2e bd 3c ae f3 3d 2d 24 f1 be 74 d0 2c 3e
       -0.0425761 0.11898467 -0.47097912 0.16876394
000050 d4 7d 77 3f 0b 55 8a be 11 5d a4 be e2 d7 cc 3d
       0.96676373 -0.27018008 -0.32102254 0.10002114
000060 2b f8 2b 3e 08 93 95 3e 72 3e 89 3e 61 54 a9 bd
       0.16793887 0.29213738 0.26805454 -0.08268047
000070 7f c5 86 be cf 3a 81 bc 8d d9 c8 be 11 c5 cd be
       -0.26322553 -0.015775112 -0.39228478 -0.40189412
000080 54 39 ed 3d 82 39 85 3f 26 34 5a 3e 07 18 42 bd
       0.115832 1.0408175 0.21308956 -0.047386196
000090 d8 5e 59 be 62 6d b4 3d 5b ba f9 3e 17 46 03 3e
       -0.21227586 0.088099256 0.4877499 0.12819706
0000a0 81 45 b9 3e 7e d4 73 3e 33 69 08 bf 2b 3a dc 3e
       0.3618584 0.23811528 -0.5328552 0.4301313
0000b0 95 14 15 be 99 85 f6 3d f9 8d e5 bc 91 d6 75 3e
       -0.14558633 0.120372005 -0.0280218 0.24007632
0000c0 fd e7 f2 3d e2 02 d1 bd 66 e1 88 3e 3e ea d7 3d
       0.118606545 -0.10205628 0.26734465 0.10542725
0000d0 38 49 01 3f 0a 99 59 bf 95 5e 0e bf 1a a7 56 be
       0.5050235 -0.84999144 -0.5561307 -0.20962182
0000e0 39 c0 02 bd f2 26 1e be 1d 87 56 be 2f c2 e6 3e
       -0.0319216 -0.15444544 -0.20949979 0.45070025
0000f0 a3 78 49 3e b1 0c 14 3c 06 e2 12 bf 2f 3f 18 3e
       0.19674926 0.009036229 -0.57376134 0.14867853
000100 1f 04 41 3c 1d 4a 0a bf 5f fb 9b be dd 82 06 3f
       0.011780768 -0.5401934 -0.30465218 0.5254343
000110 bb b2 56 3d 85 37 c0 3d a4 53 3a be 4f f0 72 3f
       0.052416544 0.093855895 -0.18195969 0.9489793
000120 51 d6 02 3e 50 38 49 bf d6 47 ed be f4 45 a3 3e
       0.12777068 -0.7860155 -0.4634387 0.31889307
000130 8d 95 87 3f 26 88 9c be 0c 93 72 bd 81 c7 34 3f
       1.0592514 -0.30572623 -0.059222266 0.7061692
000140 0c b8 69 3e fb 88 e9 bd 27 8d b8 3e c6 c9 aa 3c
       0.22824115 -0.1140308 0.3604519 0.020848166
000150 47 cd ff 3d 04 9b a4 3e a1 a2 d2 be f4 a9 1f bf
       0.124903254 0.32149518 -0.411397 -0.623687
000160 fb 81 90 3e 5c 06 0c 3e d7 b7 52 3e 19 30 48 3d
       0.28224167 0.13674301 0.20577942 0.048873994
000170 e6 c3 c7 be 04 6e d7 3d 95 02 4e 3e 62 ae cb 3c
       -0.39016646 0.10519031 0.20118172 0.024863426
000180 05 bb 0e bf 7d 73 8d bd 2b 52 6d be 72 f8 fd 3d
       -0.5575412 -0.06906793 -0.23175876 0.12400903
000190 eb 7f d6 be 4a a1 33 3d 46 4d 90 3e 78 76 f8 bd
       -0.4189447 0.04385499 0.28183955 -0.12131971
0001a0 ec 87 17 3d 23 39 9d be b7 54 59 be ac b9 31 bf
       0.03699486 -0.30707654 -0.21223722 -0.6942394
0001b0 c8 75 3b be b8 11 21 3c 45 74 f6 be 2b 47 96 be
       -0.18306649 0.009830885 -0.48135582 -0.29351172
0001c0 e9 12 55 3e a6 16 88 3e 05 2e a8 3e 37 ce 1e be
       0.20807995 0.2657978 0.3284761 -0.15508352
0001d0 ae e3 7a be bd 2d f0 3e 62 60 96 bd 9c d3 82 bd
       -0.24500915 0.46909896 -0.07342602 -0.063880175
0001e0 30 0a d2 bc 13 34 3a 3e 7b e2 af 3d d7 bb 7c 3e
       -0.025639623 0.18183927 0.085881196 0.2468103
0001f0 e1 23 ab be 59 df db be 42 77 fd be fb c3 02 3e
       -0.3342581 -0.42943838 -0.4950505 0.12770073
000200 72 a8 07 bf ff a7 02 bb e1 a6 8e bc 43 f2 68 bb
       -0.529914 -0.001993656 -0.017413558 -0.003554479
000210 cc c3 78 3e 1b 51 8f be 7d 96 31 be 7f cb 3b 3e
       0.2429344 -0.27991566 -0.17342563 0.18339346
000220 d7 60 a4 3e 9c 51 9c 3b c8 71 fb bc 12 d7 01 3e
       0.32105133 0.004770471 -0.030693904 0.12679699
000230 83 60 84 3d 43 65 5b 3e 28 0b 62 3d 42 d4 74 3b
       0.06463721 0.21425347 0.05518642 0.003735796
000240 13 9c 36 be 70 1e d8 3d 5c 96 62 3c fd 39 2e be
       -0.17832975 0.105526805 0.013829794 -0.17014308
000250 e0 2f f8 3d cd 85 ed bd d9 8e e1 bb 87 52 a1 bd
       0.121185064 -0.11597786 -0.006883484 -0.07877069
000260 82 a9 e5 bd 4d c3 95 bd 36 40 81 3e 6a dd 5b be
       -0.11213972 -0.07312641 0.25244302 -0.21471182
000270 73 58 1c be 15 76 35 3f a1 c4 83 bd 9b 5e 3d 3d
       -0.15268116 0.70883304 -0.06433988 0.0462328
000280 82 25 39 3d 10 00 4b 3e 15 50 9d bd 4d fd 48 be
       0.045201786 0.19824243 -0.0768129 -0.19627877
000290 74 77 a7 3d 45 8f ee 3d d4 76 c4 3d 1a 53 3f bd
       0.08177081 0.1164842 0.09592977 -0.04671011
0002a0 02 67 eb 3d 1b 5c 7b be e9 e1 02 bd 52 59 82 be
       0.114942566 -0.24546854 -0.031953726 -0.2545877
0002b0 77 95 91 bd a6 22 84 3d bc fc 7c 3e 5b 5a cd bb
       -0.07108586 0.06451921 0.24705786 -0.0062668747
0002c0 d3 d6 4a 3f bb e1 e4 3e e5 cb 71 3e f3 05 a4 be
       0.79234046 0.4470347 0.23612936 -0.3203579
0002d0 d4 a3 0b 3d 1b 6f 52 bd cc 2b 43 3e 9f f7 08 3e
       0.034091786 -0.05137549 0.19059676 0.1337571
0002e0 0a 25 0f be 82 a1 cd bc a8 f3 f2 bd eb 32 92 3b
       -0.13978973 -0.025101427 -0.1186288 0.0044616363
0002f0 f9 30 d6 bd 51 e8 a7 be 83 8c c0 be 1f c3 20 bf
       -0.104585595 -0.3279443 -0.37607202 -0.6279773
000300 eb b5 a7 3e ca 4d f3 3d 99 89 48 3e b2 ea 86 3d
       0.3275598 0.118800715 0.1958374 0.06587733
000310 09 89 db 3e 5e d1 a7 bf 7a 4d 30 be 43 7e 46 be
       0.42877987 -1.3110769 -0.17217055 -0.19384103
000320 87 b0 05 3d 0a 8d 06 bd 79 71 c3 bd 76 c6 4d 3e
       0.032639053 -0.03284935 -0.095431276 0.20095238
000330 75 59 16 3f a5 98 68 3d 3d 5b 26 bf c8 8e b2 3e
       0.5873025 0.0567862 -0.6498297 0.34874558
000340 05 d0 b5 3d bd 96 ea be fa 77 1e be 8b 24 8a 3d
       0.08877567 -0.4581813 -0.15475455 0.06745251
000350 42 b4 9d 3e 88 86 2a bd 81 5f e8 be ad 4b 3f 3f
       0.30801588 -0.041632205 -0.45385364 0.7472485
000360 00 fd 92 3e 31 46 99 be a3 65 a0 be d6 76 ae 3e
       0.2870865 -0.29936364 -0.31327543 0.3407504
000370 67 8f d2 3e 6b a6 19 be 6e 40 c1 bd 66 fb 9b 3e
       0.41125032 -0.1500489 -0.09436117 0.3046524
000380 e1 5c e6 bc 28 fa 84 3f a1 70 6a 3e ef 3e bc 3c
       -0.02812046 1.0388842 0.22894527 0.022979228
000390 8d 62 89 be 1b a5 ad 3e 32 bf 57 be e9 d3 a9 be
       -0.26833 0.33915028 -0.21069029 -0.33169487
0003a0 9b cc 2f 3e fe 64 11 3d 5f 85 36 3c 6b fd 8b 3d
       0.17167895 0.035496704 0.011140197 0.06835445
0003b0 15 81 01 be a8 29 89 3d 0f 92 3f 3e 33 5c de 3d
       -0.12646897 0.066973984 0.1870806 0.10857429
0003c0 ef 72 e3 be ab eb f1 be 07 ea 4f be be ce 69 be
       -0.44423625 -0.47250113 -0.20304118 -0.22832772
0003d0 06 43 32 3e 72 b5 48 3d a4 8e 7c 3e 63 cc a6 bd
       0.1740838 0.049001165 0.24663788 -0.081444524
0003e0 ad 5c 4c 3c bc f8 d5 be ce 63 7e bb f3 e2 06 bf
       0.0124732675 -0.41791332 -0.0038816812 -0.5269005
0003f0 58 90 ba bd 48 a9 b0 3d 5c 8a b3 be eb 72 7d bf
       -0.09109563 0.08626038 -0.35066497 -0.99003476

net.2.bias f4 [48]
000000 81 ac 71 3e b1 16 de bd 14 c9 12 bf 82 cc 13 3e
       0.23600961 -0.10844172 -0.5733807 0.14433482
000010 8e b3 e6 bd 96 c7 a3 be 95 fa ce be 9c 08 cc 3c
       -0.11264716 -0.3198821 -0.40425554 0.024906449
000020 b3 2b cf be 37 a1 8a 3d 95 3b 88 be 1f 3c 91 3e
       -0.40463027 0.067690305 -0.26607957 0.2836618
000030 06 d6 8b be d3 eb 83 3d ea da 26 3e f6 9f 8d bd
       -0.27311724 0.06441464 0.16294447 -0.06915276
000040 91 bb 24 3e 0a aa 1e bf 4a 17 de 3d 5e e4 ff bd
       0.16087176 -0.6197821 0.10844286 -0.124947295
000050 7b 68 d2 3e 37 8e 16 be 00 e9 0e be 3c 2b 26 3f
       0.41095337 -0.14702688 -0.1395607 0.6490972
000060 be 27 a2 3d 58 19 27 be 49 f4 d1 be 21 57 02 bf
       0.079177365 -0.16318262 -0.41006687 -0.509142
000070 36 a2 b3 3e 28 f8 19 3e d7 ad f7 be b1 1b 52 3f
       0.35084695 0.1503607 -0.48374817 0.82073504
000080 08 e5 3d 3f 8d a1 60 be 23 5d 99 3f 54 55 c1 be
       0.741776 -0.21936627 1.1981548 -0.37760413
000090 02 c6 a1 be af 8d fc 3d 80 87 61 3f b3 e1 6b 3f
       -0.3159638 0.123317115 0.8809738 0.92141265
0000a0 d8 34 e5 be ee a2 4c 3f 00 22 4b 3c d4 04 5d ba
       -0.4476688 0.7993611 0.012398243 -0.00084312004
0000b0 29 1d c0 3e a6 f5 f2 bd a5 47 bb 3e 37 3f 7a bd
       0.37522247 -0.1186326 0.36578098 -0.061095443

net.4.weight f4 [6, 48]
000000 c9 e4 cd 3e eb c1 2d 3c a3 9b 7f 3e 61 3c 8c 3e
       0.40213612 0.010605316 0.24961714 0.27389815
000010 f8 1a 17 bf 41 77 4e 3e 2c a7 ac be 90 5b 4a 3f
       -0.59025526 0.2016268 -0.33721292 0.79045963
000020 8b 84 8a be 9d 4c 9d 3d fe 5a 2d bf 78 54 77 bd
       -0.27054247 0.076806284 -0.6771697 -0.06038329
000030 2d 9c 8e be 3f 86 3c be 59 7a a9 bc f2 ff 97 3b
       -0.27853528 -0.18410586 -0.020688223 0.0046386654
000040 ee 7c ac bd a1 20 b0 3d 22 df 22 be d0 c6 50 bd
       -0.08422266 0.085999735 -0.15905431 -0.050970852
000050 b7 06 71 be f5 69 1a 3c ba f3 6b 3e 6b 1b 71 3e
       -0.23537718 0.009424676 0.23042193 0.23545615
000060 60 04 0c bf 2e a6 da 3d 0d 2f e0 3d 12 ad 50 3e
       -0.54694176 0.106762275 0.10946474 0.20378521
000070 d5 ff 97 3e 04 fb 82 3e 32 fd 35 be 0a 7c 86 3f
       0.29687372 0.25582135 -0.17772368 1.0506604
000080 98 de 78 be 2b 00 89 3d 2a da 50 be f6 ac 5d be
       -0.24303663 0.06689485 -0.20395723 -0.2164801
000090 96 87 a7 be 04 0c 0e be d3 47 d4 3e 16 f7 6e be
       -0.3272063 -0.13871771 0.41461048 -0.23336443
0000a0 44 5f ea bd 16 fa c0 bd af 3a 76 3e 35 81 98 3e
       -0.11443952 -0.094227 0.24045824 0.29786077
0000b0 24 10 25 3d 40 34 94 3e 44 20 22 be df ab cf bd
       0.040298596 0.28946114 -0.15832621 -0.10140204
0000c0 48 0c b9 be 9e 56 96 be d5 28 b8 3d 1f de 62 bd
       -0.36142182 -0.2936296 0.08992163 -0.055387612
0000d0 91 61 c5 3e 4f 4f 5f bc 4a ac 1d 3e d0 5c ff be
       0.38551 -0.0136297485 0.15397754 -0.49875498
0000e0 1f b8 4f 3e 52 3c f1 bd da c0 42 bf 30 32 a8 3e
       0.2028508 -0.11779083 -0.7607552 0.3285079
0000f0 93 39 0a 3d 46 d2 58 3e 21 f4 53 bd 9c 35 d3 bc
       0.033746313 0.21173963 -0.05174649 -0.025782399
000100 f7 f4 04 3e 8a 98 4c 3d cb 79 46 3e a1 0d 34 bd
       0.12984072 0.04995016 0.19382398 -0.04395831
000110 28 be a8 3d 2b f5 fc 3c 4a d8 5f bd de 07 b8 be
       0.082393944 0.030878624 -0.05464963 -0.35943502
000120 f5 5a f8 3d 25 b9 98 be d6 bf b9 bd aa 5c 07 bf
       0.12126724 -0.29828754 -0.09069793 -0.5287577
000130 10 90 83 3d 6e ec eb bd 22 f9 be be df b3 d9 3d
       0.06423962 -0.11519705 -0.37299448 0.10630011
000140 69 cd c6 be 42 ae 45 bc de 4b e7 bd dc 51 af 3d
       -0.3882859 -0.012065472 -0.112937674 0.08560535
000150 ce 11 0d 3d 09 a4 df bd 15 32 89 3d f5 26 af 3b
       0.034440808 -0.10919959 0.066990055 0.00534522
000160 4d 20 58 3e 0f 8e 21 3e d7 a7 40 3c 3d 49 0f be
       0.21106072 0.15776847 0.011758766 -0.13992782
000170 9e b1 8e 3c db 95 ff 3d 41 3a ed 3c 80 0f 8c be
       0.017418679 0.124797545 0.028958442 -0.27355576
000180 05 2f 51 3f 63 2c 01 bf 44 d8 87 bf 1d 80 b7 bf
       0.8171237 -0.50458354 -1.0612874 -1.4335972
000190 7c 0c 8d 3e 71 ee 8e bf fa a6 08 bf cc dd a4 be
       0.27548587 -1.1166517 -0.53379786 -0.32200468
0001a0 fe 4a 40 3f 5b 48 0e 3e 93 f5 ea 3d 94 09 a8 3e
       0.7511443 0.13894789 0.11472621 0.32819808
0001b0 5a 8a 87 3f fc 86 1e bf 2a 35 ba 3c ee 2a b0 bd
       1.0589097 -0.6192472 0.022730429 -0.08601938
0001c0 69 57 3e be 69 c2 86 3e 12 60 ea 3c 64 e4 41 be
       -0.18588032 0.26320198 0.028610263 -0.1893478
0001d0 62 60 99 3f df c0 b6 3f 8e 2b 34 bf eb 67 ca be
       1.1982539 1.427761 -0.7037896 -0.39532408
0001e0 e6 53 a8 3f fb 64 a3 bf 91 d4 28 3c f3 93 0b 3f
       1.3150604 -1.2765192 0.010304586 0.5452263
0001f0 cd 11 97 bf 54 4b a2 bf b6 b7 f5 be 0f 11 0a 3e
       -1.1802307 -1.2679238 -0.47991723 0.1348307
000200 ca e7 00 bf 87 21 fb 3d d1 40 ba 3d 10 4d 46 bf
       -0.5035368 0.12262254 0.09094394 -0.7746134
000210 05 cb ef 3f 82 00 a1 be c4 b5 bc bb 05 1c a5 3f
       1.8733832 -0.314457 -0.005758973 1.2899176
000220 53 b5 3d be 6a 51 8d bf cb 42 80 bf 6e 4c c4 bf
       -0.18526201 -1.1040471 -1.0020384 -1.5335824
000230 07 63 b5 bc 2e 92 8e bf dc 44 54 3d 48 6b 79 be
       -0.022141946 -1.113836 0.051823482 -0.24357331
000240 4b 29 bc bf 71 19 c9 bf de 11 39 3f f5 e6 e3 3c
       -1.4700102 -1.5710889 0.7229289 0.02782009
000250 97 ab 82 3f 1d d1 5c 3d d6 db 2c 3f 8c d2 68 3f
       1.0208615 0.053910363 0.67522943 0.9094627
000260 7a ab a7 3f 53 dd 16 3e 33 18 40 3e 02 24 1a 3d
       1.3099205 0.14732866 0.18759231 0.037631996
000270 dd e2 38 3e b4 57 eb be 4e c4 f8 3f f9 cd 20 c0
       0.18055291 -0.4596535 1.9434907 -2.5125716
000280 c3 90 f9 bd 7d 4f 11 40 fd 2b 94 bf 91 2f 9d 3f
       -0.12185814 2.2704766 -1.1575924 1.2280141
000290 f8 7f 54 be 42 32 bd 3e 2b d2 a7 3c fa 98 c7 bf
       -0.20751941 0.36952406 0.020485958 -1.559356
0002a0 a6 d0 bd be 3b ac 95 3e 62 9a b4 bf f0 84 7b 3d
       -0.3707325 0.29232964 -1.4109614 0.061406076
0002b0 31 91 d5 bd e2 30 21 3e c6 1e 82 3f 91 19 f2 be
       -0.10428084 0.15741304 1.0165641 -0.4728513
0002c0 04 a4 4a c0 cd 85 b1 bf fd 33 c9 bf 68 ae 2b 3f
       -3.1662607 -1.3868958 -1.571899 0.67063
0002d0 17 d5 2f 3d f0 18 07 c0 06 b4 c6 3f d6 22 3e 3d
       0.042927828 -2.110897 1.5523689 0.04641994
0002e0 c6 4c cb 3f f8 ae 42 bf 21 d7 a1 bd 64 60 49 3e
       1.5882804 -0.7604823 -0.07902361 0.19665676
0002f0 ed e9 e1 bf c2 4f d7 bd cc 7c ec bf d8 01 c5 bf
       -1.7649513 -0.105132595 -1.8475585 -1.5391188
000300 27 4c 88 be 76 40 68 3d 5e ba e0 3b 56 7f ea 3b
       -0.266206 0.0567021 0.006858154 0.007156293
000310 e8 07 76 3d 1c 5c 9a bb 87 7f 26 3e a9 c1 c2 bc
       0.060066134 -0.0047106873 0.16259585 -0.023773985
000320 18 7c 45 3d 16 dc 16 bd 75 3f a3 bd 19 9a 33 bf
       0.04821405 -0.036830984 -0.07971088 -0.7015701
000330 fa 5a c5 3c 85 55 d7 3c 00 83 d5 3c e5 af 96 bd
       0.024091233 0.026285896 0.026063442 -0.07357768
000340 8f c8 06 bb f6 a7 71 3d d8 de a5 bd 05 d5 0b 3c
       -0.002056632 0.05899807 -0.08099145 0.0085346745
000350 cd 87 10 bc b3 5c a6 bb 56 8b 65 3c ad 43 02 3d
       -0.00882144 -0.0050769686 0.014010271 0.031802822
000360 f9 d2 a6 bb cf 0e 12 bf b4 85 46 3c ef e4 46 bf
       -0.005091068 -0.57053846 0.012116838 -0.77693075
000370 07 ed 14 be 6c 65 1f 3a 6d 58 09 3f 8f 89 f5 bd
       -0.14543544 0.00060804817 0.5365055 -0.11989128
000380 a7 a8 6f 3d a7 ee 27 be 16 94 e8 3e 6b cd 24 3e
       0.05851045 -0.16399632 0.4542548 0.16093986
000390 5f 7d 6b 3c 82 ec 2e 3d 6c 6a 8c 3d 62 02 22 3d
       0.0143731525 0.04270602 0.06856236 0.039553054
0003a0 3e 04 37 be e0 9e 44 bb f0 c4 6d 3c 30 44 7d bc
       -0.17872712 -0.0030001923 0.014512286 -0.015458152
0003b0 2b 0c 69 bc d4 14 f4 bd 39 2d df bc 1b da 92 3c
       -0.0142240925 -0.11918035 -0.027243244 0.017926266
0003c0 19 40 d9 3c 52 27 1a bd 21 8b 67 3d 5c cf 31 bd
       0.026519822 -0.037635155 0.056529168 -0.043410644
0003d0 b6 20 58 bc d1 3c 3d bd 56 41 37 3d 25 71 92 3d
       -0.013191393 -0.046200577 0.044740044 0.07150487
0003e0 e8 00 a9 3c e9 80 18 3f fb 99 7d b9 47 cc 53 3a
       0.020630315 0.595717 -0.00024185322 0.0008079451
0003f0 42 c7 7e bc 83 6f a9 bf 4a e7 92 bc a3 39 81 bc
       -0.015550436 -1.3237156 -0.017932553 -0.015774554

net.4.bias f4 [6]
000000 7e 78 20 bf e0 4d ba 3f 97 b2 e6 bc ac 0d c0 bf
       -0.62683856 1.4555016 -0.02816133 -1.5004172
000010 6f 38 b1 3d d7 01 b9 3e
       0.08653342 0.36134216
