training/nn-xsmall.pth (torch, 9959 bytes, 6 tensors)

net.0.weight f4 [32, 20]
00000000: dd27 a1be d203 0a3e a373 1b3e 52a6 6b3d
00000010: 84f0 c9bb 51f6 6dbc 6c3a 0a3b 79ed 063b
00000020: 24f1 92bc 4a30 743b 9a1e a8bd 5c89 4dbd
00000030: dc6b 993c c9ee 913d b63f a83d 78c1 323c
00000040: b318 1ebe 9bc0 a5be 9f27 bf3c fb71 d93d
00000050: d413 dc3f a6c2 6b3e 22e1 1140 82f1 a23d
00000060: 6fdf 8a3d cb5b 973c b7c5 dfbb e246 863b
00000070: 579a b83c 3746 173e d50e 8fbf 1688 72be
00000080: b68c 26be ca2a d2bd 217e 3abd 8810 343b
00000090: 88f7 cf3c d85c b13c bf75 c3bb cdd0 353b
000000a0: b845 4cbf 981a ca3d 9f9c 8140 8b07 93be
000000b0: 04f7 c63c fcd2 76bb 50c5 c0bc 8974 f93b
000000c0: aa76 0fbd 93b7 6ebd 328c 71be f630 11bb
000000d0: 7be3 f1bc 0208 71bb 2b01 773d 37c8 cc3d
000000e0: 97c4 603d 3ca0 97bd f403 df3d 8f66 a93b
000000f0: 5e80 123e 33cb 1abd aee4 8dbd 9d35 12bd
00000100: 1ae6 7abd d465 aabd 0f0d c7bd 91d2 c0bd
00000110: c981 54bd 5c1b 303c 8cd9 833d d1b8 043d
00000120: 3b27 123c c4c0 8ebd a9af 06be 1fa5 04be
00000130: de82 68bd 4b85 ec3c e969 83bc c2cc 063d
00000140: 02b9 13be d44e 223e 586c 8a3e 5846 8dbc
00000150: 0e6f b6bd 1d2c 14bd c750 2c3c 1fc5 98bb
00000160: 85a8 f9bc 1e6c 023d aaef 6fbd 8067 e5be
00000170: 7e47 c8be 1539 11be 87f2 033e 4013 7b3e
00000180: ead6 123e 9790 afbd 7058 e7bc d24c d63b
00000190: 0dbe 80bf 39b0 2dbf 76db 3f3e e2cb f6bc
000001a0: d283 b5bb e71b 943d e4c4 f33d 291a 063e
000001b0: b77b ed3c a9f5 05be 1ed2 673d b446 103d
000001c0: e617 90bd 20b1 d9bd 4d73 2abe 8781 91be
000001d0: 5747 91be ee1f fcbd 3c2a 4c3d b9e6 053c
000001e0: 4762 c43f 3d14 04be 5ca8 be3d 0309 55bd
000001f0: 8df0 e7bc 4057 1f3d 7cb4 373d 3a46 ac3c
00000200: 7ff3 193c b075 2f3d 56cc 27c0 d228 7bbe
00000210: bda9 0a3e 2046 e83d ec39 013d f04c 2c3c
00000220: d8d5 5b3c 6e2a 1d3d 1ef2 a1be b78a 9cbb
00000230: 4ce0 3e40 011f 00c0 5cac 023f 959b 67bf
00000240: b8dd 49bf f788 14bf fe97 aebe 34da 50bd
00000250: 57cd e13d 8629 fa3d 4883 29be 935c 89bc
00000260: 0ccd 05bd 10e2 c0bd e0db e5bd 4785 a6bd
00000270: f373 0bbd bd49 043c 112e 22be d143 6d3d
00000280: 53e1 0e40 9516 8e3e 522a 4b3f d4d9 babe
00000290: 56a7 04bf 294b dabe 5b21 4abe 47a6 7d3d
000002a0: 453a 453e f57b 163e e60e 30be 15de 0fbe
000002b0: 8288 31bd e7e2 063b 2f4c 113c 4b80 03bd
000002c0: 5255 36bd 4332 0dbc f4fa a1bb bd10 f33d
000002d0: fa96 0fc0 8d7d d0be d512 ce3f 0f1e 273f
000002e0: 7eda 1ebd aae3 443d be51 c83d 1dd8 ea3d
000002f0: 64f3 c43d bcd4 b73c 1514 7fbd 1ae4 2e3d
00000300: ea5c 8d3d 9281 213c 2626 59bd 932c b3bd
00000310: dc9d 52bd 2089 8fbd 89ed 153f e431 9abd
00000320: ee58 0ec0 284d d0bf 91ad 49bd 5371 4c3c
00000330: a964 0bbb b2dd 0b3b 8356 693d 9ead 703d
00000340: 8a21 253a 82be 02bc e9fc f03e 3edd 07be
00000350: fb73 8abf 5f4c a8bf d3b9 3ebf eaed 223d
00000360: dd62 023f c205 de3e d7cf 013e 3d93 c33d
00000370: 6099 0e3f 49a4 973e be37 80bd 7421 4cbd
00000380: 85d0 883c 2938 5a3d 0e8d 0e3e fed9 713e
00000390: 937e 733e 44f4 033e daa6 1fbe 905c cdbc
000003a0: 4528 5c3d 0eca 933c 2d09 4fbc 4002 34bd
000003b0: e721 6fbd 6b5c 38bd 4d1b a0bd 00e5 d13d
000003c0: 11d7 f93f ea0b 9cbf ab04 ebbc 2983 f8bc
000003d0: 99a0 b1bd caa9 f2bd 6cf7 70bd da35 293d
000003e0: 8277 1f3d bac3 e03d 5a6b 5dbf 9023 dbbf
000003f0: d509 1abf 253c 74bd 0856 053e 3245 373c
-0.31475726 0.1347802 0.1518083 0.057531662 -0.006162705 -0.014524058 0.002109195 0.0020588322
-0.01793725 0.0037260228 -0.08208962 -0.050179824 0.01872819 0.07125623 0.08215277 0.010910384
-0.1543911 -0.3237351 0.023334322 0.10617443 1.7193551 0.23023471 2.279366 0.0795622
0.06780898 0.018476387 -0.0068289894 0.0040978054 0.022534532 0.14772879 -1.1176401 -0.23684725
-0.16264614 -0.102620676 -0.045530442 0.0027475674 0.025386587 0.021650717 -0.005964964 0.0027742863
-0.7979388 0.098683536 4.050369 -0.28716692 0.024287708 -0.0037662378 -0.023531586 0.007612769
-0.035025276 -0.05828054 -0.23588637 -0.0022154427 -0.029527416 -0.0036778455 0.06030385 0.099991255
0.054874983 -0.07403609 0.10889426 0.0051696966 0.1430678 -0.037791442 -0.06928383 -0.03569566
-0.0612546 -0.083202034 -0.097192876 -0.09415162 -0.051881585 0.0107487105 0.06437978 0.032402817
0.008920486 -0.06970361 -0.13152947 -0.12953614 -0.05676543 0.028872153 -0.016041713 0.032910116
-0.14426044 0.15850383 0.27035785 -0.017245457 -0.08907901 -0.036174882 0.010517306 -0.0046621705
-0.030475864 0.03184139 -0.05857817 -0.44805527 -0.39117044 -0.14181931 0.12885486 0.24519062
0.14339796 -0.085725 -0.028240412 0.0065399194 -1.0057999 -0.6784702 0.18736061 -0.030126516
-0.005539396 0.072318844 0.11902788 0.13095917 0.028989656 -0.13081993 0.056596868 0.035223678
-0.07035808 -0.10629487 -0.16645546 -0.28419134 -0.2837474 -0.123107776 0.049844965 0.008172684
1.5342492 -0.12898345 0.09309456 -0.052010547 -0.028312946 0.038901567 0.044849858 0.02102958
0.009396433 0.042836845 -2.6218467 -0.2452729 0.13541313 0.113415 0.03154938 0.01051639
0.013417684 0.038370542 -0.31630033 -0.0047772783 2.98244 -2.0018923 0.5104425 -0.90471774
-0.7885394 -0.5802149 -0.34100336 -0.050989345 0.110254936 0.12214951 -0.16553986 -0.016767776
-0.03266625 -0.09418118 -0.112235785 -0.081308894 -0.034046125 0.008074221 -0.15837885 0.057926003
2.2325027 0.27751604 0.7936145 -0.36494315 -0.51817834 -0.42635468 -0.19739287 0.061926153
0.1926051 0.14695723 -0.17193183 -0.14049561 -0.043343075 0.0020582022 0.008868261 -0.03210477
-0.04451496 -0.00861794 -0.004943246 0.11868427 -2.2435899 -0.40720788 1.6099497 0.6528024
-0.03878259 0.04806868 0.09781216 0.114670016 0.096167356 0.022440307 -0.06227501 0.042698003
0.069024876 0.009857552 -0.053014897 -0.08748736 -0.051420078 -0.070085764 0.58565575 -0.07529047
-2.2241778 -1.6273546 -0.04923779 0.0124781905 -0.0021269715 0.0021341858 0.05696727 0.058759324
0.0006299248 -0.007979991 0.47067955 -0.13267991 -1.0816644 -1.3148307 -0.74502295 0.039777674
0.50932103 0.43363768 0.12676941 0.09549568 0.5570278 0.29617527 -0.06260632 -0.04983659
0.016700992 0.053276215 0.13920996 0.23618314 0.23778753 0.12886149 -0.15590993 -0.025068551
0.05374934 0.018040683 -0.012636465 -0.04394746 -0.05838194 -0.04501001 -0.07817707 0.102487564
1.9518758 -1.2191136 -0.02868875 -0.03033598 -0.0867321 -0.11848791 -0.05882971 0.041311122
0.03893233 0.10974832 -0.8649193 -1.7120228 -0.6017125 -0.05962767 0.130211 0.011185931

net.0.bias f4 [32]
00000000: 0345 55be 4909 75bf 66ed db3e ea0a 323d
00000010: 3780 503f 6672 cdbe f76e ec3d 0d2e 113f
00000020: 3805 953e e16d 3bbf 0c21 e33f c88b efbe
00000030: b5b7 073f e317 213e 8122 94be 3ce1 303e
00000040: c711 c23f 1731 1ac0 33fc 9c3f b8a0 3dc0
00000050: 6b96 a9bf 2860 efbd b4a7 be3e b982 85bf
00000060: c76d 0ebf c2ef 6bbe 908a 42bf 9119 0a3f
00000070: 05e6 6cbe 58a6 9b3f 56c2 2d3f 2018 8a3f
-0.20827107 -0.95717293 0.42954558 0.04346744 0.8144564 -0.40126342 0.11544602 0.5671089
0.29105544 -0.73214537 1.774446 -0.46786332 0.5301469 0.15731768 -0.28932574 0.1727342
1.5161675 -2.4092462 1.2264465 -2.9629345 -1.3249029 -0.11688262 0.37237322 -1.0430518
-0.55636257 -0.23040679 -0.7599268 0.5394526 -0.2313462 1.2160139 0.6787466 1.0788612

net.2.weight f4 [32, 32]
00000000: 8bec dcbd 394b 053f e0c4 11bf 13a7 5bbe
00000010: 7d72 a1bd 5773 a43e f7df 723e 7f1f 473e
00000020: 2c71 263e 249b c63e 994f c2be 43fd d33d
00000030: 536d f53e 4e59 083f 1050 d83d d0b8 5d3d
00000040: d6a9 8fbe 3c4e f6be 9de9 e8be ead5 023e
00000050: 8b0c fcbe 606a 8f3e e4a6 a43d 7ee5 873d
00000060: 9d69 2b3e 783d b23e e4b7 f0bd f0e4 58be
00000070: a4a7 ee3e c583 4ebe ffea 51be 114b c1bd
00000080: 9e26 87be 024e 893b 33d9 203e a572 583e
00000090: 3b03 d7bd 86e2 8f3e 17c9 053e 60a1 a3bd
000000a0: 08a4 f03e dade f6bd 7b76 d0bd 7f15 e4be
000000b0: d111 153d eaac 8cbe bb2f b53e 8681 b9be
000000c0: 5e59 e1bd 407e 6dbe 6451 e83e 9fa9 943e
000000d0: 6e16 60be b4a8 143f 49a1 00bf 15ee c1bd
000000e0: 740d cd3d ddaf bebe cbee 7fbf 9452 27bf
000000f0: 1ea3 9b3e 08bd 83bf 3889 bbbd 3a84 d93c
00000100: b1f9 a23e 7685 78be 0dba b0be e19e 463f
00000110: 1879 2c3e 2210 3dbd 6c83 10be 148a b8bc
00000120: c526 d9be 3c02 20bf f9c1 2bbe 8233 dc3d
00000130: d064 db3c 3730 61be 32e5 e5be ee87 f1be
00000140: 724d 01bf 701f b3be 0101 6ebe b135 7b3e
00000150: 193b 4cbd 3125 8fbe 6ada 233d 187c 523e
00000160: b02f 47be 604d 053f 2ca4 46be 00eb d73d
00000170: 5488 b7bd 6eb5 233f 0815 7d3e c420 923e
00000180: 6d09 1a3e 27d2 30bd 10a4 ce3f 25b0 96bd
00000190: 33a4 9fbd 8160 e5be 2557 80be 3ac1 2a3e
000001a0: a7b4 42be c53e 6a3f 0174 823e 1351 acbe
000001b0: 6214 94be 6d58 dfbe 0ca2 593f 4811 403d
000001c0: 4a2d 853c e0ae 7c3e 3f9b 47be 2321 ccbf
000001d0: 524b 0ebf f545 55bf d67c 513e 46f0 c83c
000001e0: 6640 173d 2a41 423e 6b75 2fbf 8e5d 2bbf
000001f0: 3238 32bf 4926 c1be f489 b4be eb8d efbe
00000200: a80f c43d 5e89 5fbe 0510 9f3e 4aeb 9cbd
00000210: d8db 0f3e c0a4 32be 6391 973c 2bb0 583d
00000220: 720b a23c 190c 8d3e 20e6 92bb d082 52be
00000230: be6c 94bd 3cdf 0fbe ab7a ae3d 0cd8 ad3d
00000240: 1d32 853c 3fc1 3d3d eee6 de3e 0cbc 98bd
00000250: 223b 86bb 8da1 1ebe 73ee e53c 003b e43d
00000260: 0632 9f3d 9c57 c0be cabe 67bd 1c9d c5bc
00000270: ddc2 f4bd 037c 75be 3ce4 e23c a6b9 57bd
00000280: 879c a9be 9ef1 f4be c40a 373e 5735 ebbe
00000290: c214 27be 6bac bbbe 15bd 133d ad0c 1a3e
000002a0: aece 143e 302d 813d c0af 853e 7e21 b33f
000002b0: 6794 833e a582 64be 8116 ce3d 51e9 0dbf
000002c0: 3cdf d5bd 14e0 5e3e 0c20 c93e a29c c1bd
000002d0: 79a2 e1be 156f 393e 6feb 37be 5855 b7bd
000002e0: c53e 88bd 7093 91be fe76 debe af0c 8bbe
000002f0: 8629 f93e 82a9 0bbf 6884 813e 2dd8 6cbc
00000300: f92b 03be 55ef 39be e4ca 46bd 2654 853e
00000310: 4dae 72be 9a3f cfbc d13a 963d 0df6 153e
00000320: cde8 233f c0e4 013f ca4c bbbd 1216 86be
00000330: 2c97 153e dae8 9c3e 44c2 843e 5577 c9be
00000340: 9e32 793c e20a 0a3e 5233 bf3d dd96 83be
00000350: 5ab8 24bd a655 943e 8803 8ebe f470 56be
00000360: b364 b23d 593d bf3c fb07 353e ff0f 04bf
00000370: c71b 913e a381 523e f5d1 61be e400 683e
00000380: e711 15be e268 6bbf 24c6 06bf f8c8 ce3e
00000390: c1b1 b53d 7a7e 23be 0762 8ebf 854e bb3e
000003a0: c80c 893e f10d 00bf 44dc b9bd 639e 323e
000003b0: e3cf 033f 5ea1 ce3e de2c b63e efbf 68bd
000003c0: 3c80 a4be 51ef fbbd 180b da3e 92c4 a2bf
000003d0: 6f55 7cbd b3e8 1a3f fb7d 4dbe f2b3 91be
000003e0: 85dd 5d3e d1d2 9dbe f798 873e f0f8 c23d
000003f0: 1e52 04bf 546e a2bd c216 353f 4a5c 3cbe
-0.107873045 0.52067906 -0.5694103 -0.21450453 -0.07883165 0.32119247 0.23718248 0.19445609
0.16254109 0.38790238 -0.37951353 0.1035104 0.4793497 0.5326127 0.10562146 0.05413133
-0.28059262 -0.48106563 -0.45490733 0.12776914 -0.4922832 0.28010845 0.08039644 0.06635569
0.16739507 0.34812522 -0.11753824 -0.21181083 0.46612275 -0.20167454 -0.204998 -0.09438146
-0.2639665 0.0041902075 0.15707855 0.21137483 -0.10498663 0.2810251 0.13064991 -0.07989764
0.47000146 -0.12054224 -0.10178848 -0.4454765 0.036393944 -0.27475673 0.35387978 -0.3623163
-0.110033736 -0.23192692 0.45374596 0.2903566 -0.21883556 0.5806992 -0.502461 -0.09469239
0.100123316 -0.37243548 -0.99973744 -0.6536038 0.30397886 -1.0292063 -0.09157032 0.026552308
0.31831124 -0.24269661 -0.34516945 0.7758618 0.16843069 -0.046157964 -0.14112633 -0.022526778
-0.4241239 -0.6250341 -0.16773213 0.10752012 0.02678147 -0.21991049 -0.44901425 -0.4717402
-0.505088 -0.34984922 -0.2324257 0.245322 -0.049861047 -0.27958062 0.040003218 0.2055515
-0.19451785 0.5207119 -0.19398564 0.105428696 -0.089615494 0.63948715 0.24715054 0.28540623
0.15042658 -0.043169167 1.6143818 -0.07357816 -0.077949904 -0.4480019 -0.25066486 0.16675273
-0.19014226 0.9150203 0.2547913 -0.33655605 -0.289218 -0.4362215 0.8501289 0.04689148
0.016256947 0.24676085 -0.19492815 -1.5947613 -0.5558368 -0.8330987 0.20457777 0.024528634
0.03692665 0.1897017 -0.6853854 -0.6693963 -0.69617 -0.37724522 -0.352615 -0.46787962
0.09573299 -0.21829745 0.3106691 -0.07662065 0.14048707 -0.1744566 0.018501943 0.052902382
0.019780848 0.27548292 -0.0044829994 -0.20557714 -0.072473034 -0.14050001 0.08519491 0.08488473
0.016259247 0.046326872 0.4353556 -0.07457742 -0.0040964046 -0.15491314 0.028067803 0.11144066
0.07773213 -0.3756684 -0.056578435 -0.024122767 -0.1195123 -0.23973088 0.027696721 -0.052667283
-0.33127233 -0.4784059 0.178752 -0.45939133 -0.16316512 -0.36654982 0.036068995 0.15043898
0.14531967 0.06307447 0.2611065 1.3994596 0.2569916 -0.22315462 0.10062886 -0.5543414
-0.10442969 0.21765167 0.39282262 -0.094537035 -0.4406927 0.1810878 -0.17960905 -0.08951825
-0.06652597 -0.28432798 -0.4345016 -0.27158114 0.48664492 -0.54555523 0.2529633 -0.014455837
-0.12809743 -0.18157704 -0.048533335 0.26040763 -0.23699303 -0.025298882 0.07335437 0.14644642
0.640271 0.5073967 -0.09145506 -0.26188713 0.14608449 0.30646402 0.25929463 -0.39348856
0.015209822 0.13480714 0.093359604 -0.25701037 -0.040214874 0.28971595 -0.2773707 -0.20941526
0.08710613 0.023344683 0.17678826 -0.5158691 0.28341505 0.20557265 -0.22052749 0.2265659
-0.1455761 -0.91956913 -0.5264609 0.40387702 0.088717945 -0.15966216 -1.1123666 0.36583343
0.26767564 -0.5002127 -0.090752155 0.17443232 0.51489085 0.40357488 0.35581106 -0.056823667
-0.32129085 -0.12301505 0.4258659 -1.2716238 -0.061604913 0.6051132 -0.20067589 -0.284576
0.21666534 -0.30824903 0.2648389 0.09520137 -0.516878 -0.079312 0.7073785 -0.1839458

net.2.bias f4 [32]
00000000: 971b 0bbf 38f8 823f c05c b9be 88d4 a5bc
00000010: 435c 963c e62e 0d3f 8560 b23e 97b9 423e
00000020: a26c 5abf fded 2b3f 2197 98bc cd81 40bf
00000030: db57 083f c81a fb3e 4615 0e3f bd9a 3dbf
00000040: 4452 073e c7b2 5bbe 237a 673e fe34 67bf
00000050: a06a bebf 4a43 3e3f da83 b93e be6b f13e
00000060: 168c 8cbd 3044 873f a212 f5be 2599 943e
00000070: 0163 1fbf a0a9 76be 2261 09bf 7127 aabe
-0.54338974 1.0232 -0.36203575 -0.020242944 0.01835454 0.55149686 0.34839264 0.1901611
-0.8532201 0.67160016 -0.018626751 -0.7519806 0.53259057 0.4904387 0.5550121 -0.74064237
0.13214976 -0.21454917 0.22605185 -0.90315235 -1.4876289 0.74321425 0.36233407 0.47152513
-0.06862657 1.0567684 -0.47865778 0.2902309 -0.6226044 -0.24088144 -0.5366384 -0.33233216

net.4.weight f4 [6, 32]
00000000: 8ac7 163e b911 adbe 461d bfbe 0440 84be
00000010: 9796 cebe 6f69 563e 9430 87be 1822 583a
00000020: d989 1ebe f5ac 82bd 038c 0dbf cec4 1f3f
00000030: cb35 02bf d7d3 eabe 1e67 b33e 540a 0dbf
00000040: 0386 2cbe a11d 48bd c5be 4cbb c39c 05be
00000050: 1867 97be 0ddd e13e 3fa5 27be 31d1 953e
00000060: 46f5 0fbe c97b cfbe ba71 9d3c af21 173e
00000070: 6c38 aebe 2127 423e 4743 713e 5630 863e
00000080: 9584 86be 4661 303e 8aab 0abe 4e17 13be
00000090: b742 87bf d19b b3bd 35ce d13d 7886 26bd
000000a0: 3ebc e73e b113 293e 7f5b 703d 9d94 22be
000000b0: e090 ca3e 8d0b 3a3f dd50 27be d401 2638
000000c0: 6994 1ebe 6c84 453d 03b8 debe e175 28be
000000d0: 257a 183e f6f4 3cbe b191 3ebe fd8e 01be
000000e0: bea2 66be 34bf a13e afae a63e 05fb e9bd
000000f0: 9ac2 873c 0405 31be 28bd 983e 9852 dcbc
00000100: fdb0 3a3f bb0a e93f bab6 f53f 0923 9ebe
00000110: b46a 2cbe c001 96bf cac3 923f 47ef 45be
00000120: a4a4 0a3e 0c90 72bf e2e0 a83f 40a8 d2bf
00000130: 7129 0cbf 98d2 52bf 9dfd c0bf f4c9 ed3f
00000140: ed5b 30be 3108 f83d 1cec 05bf 8d69 9bbe
00000150: 0e3d f0be a71d 943f 3ba5 b5be 9110 babf
00000160: 8029 0abf c294 f53f aa35 393d 226c 94bf
00000170: 7e29 b43f 1122 8bbf bfaa f83e cae3 bd3e
00000180: d57d 9abf 7192 a1be 741f 1e3e 92ca 31c0
00000190: 2ea5 143e 9b53 f13d b17b e9bd 4ac6 5640
000001a0: 11b9 6d3f 3e68 afbf 7ce6 a2be 145c c0bd
000001b0: d74e acbe 1053 13bf 26f7 5b3e 4771 4bbd
000001c0: 8e93 e5bf a750 9e3d 2ed7 7b3f bbfb 1ec0
000001d0: ae4b 2d40 4a0d 01c0 aa99 f2bf c1f4 073d
000001e0: 9542 ffbf 8a18 673d 51e1 6140 715c 85be
000001f0: d89f 7e3d a138 143e 1464 1840 857d dbbf
00000200: e77f d43d 0efe c8ba 8ab4 31bd 5180 b1bc
00000210: fd6e 4ebc 5d7c 443b 06f3 763c 94cd 163e
00000220: 11f0 14bf ea2c 9e3c 7b75 72bc df72 27be
00000230: 986c d7bd a1cc cc3c 2ad4 d63c e94c 283b
00000240: cd2f 35bd c608 613c 8a92 aabd 6e14 7e3d
00000250: c481 103e 1ca7 d4be 23e3 98bd 48dc 1f3d
00000260: 3dd2 debc d816 f9bd d44d 24bd 07d4 d63c
00000270: 9c05 253c 4cde d63e cc64 1d3c 35d4 873d
00000280: cff5 17be 5622 13be 37c2 4c3d 1371 693d
00000290: 3054 dfbe 82f2 0f3d 1f2a febe addd 493e
000002a0: 5808 62bd 1e84 00bf 35ba 33be b53e 13be
000002b0: 3337 50bd f6d6 33be 0518 273e eeec 113d
000002c0: 43ae 1e3d 93ff 07bf 2ae7 833d 335c e53d
000002d0: 7824 26bd 36fc 403d 05aa 723e c340 173e
000002e0: 7e29 74bd 405e 28be 6b96 733d aaf6 a0be
000002f0: 8245 acbb a36b 863d dcca d6bc f66b c13d
0.14724556 -0.33802584 -0.3732702 -0.2583009 -0.40349266 0.20938657 -0.2640425 0.00082448265
-0.15482272 -0.06380645 -0.55291766 0.62409675 -0.5086333 -0.45864746 0.3503961 -0.55093884
-0.16847996 -0.04885638 -0.0031241637 -0.13048081 -0.29570842 0.4411396 -0.1637163 0.29261163
-0.14058408 -0.40524128 0.019219268 0.14758943 -0.3402742 0.18960239 0.2356082 0.26208752
-0.26273027 0.17224607 -0.13542 -0.14364359 -1.0567235 -0.08769954 0.10244409 -0.040655583
0.45260805 0.16511418 0.058681007 -0.15877004 0.39563656 0.72673875 -0.1633944 3.9579187e-05
-0.15486301 0.04822199 -0.43499765 -0.16451217 0.14890344 -0.1845282 -0.18610264 -0.12652202
-0.22523019 0.3159119 0.32555148 -0.11424831 0.016572285 -0.1728707 0.29831815 -0.026894853
0.7292631 1.82064 1.9196389 -0.30886105 -0.16837579 -1.1719284 1.1466 -0.19329558
0.13539368 -0.9475105 1.3193629 -1.6457596 -0.54750735 -0.8235259 -1.5077397 1.8577256
-0.17222567 0.121109374 -0.523134 -0.30353966 -0.4692158 1.1571549 -0.35477623 -1.4536306
-0.53969574 1.9186022 0.045217194 -1.15955 1.4075162 -1.0869771 0.4856777 0.37087852
-1.2069651 -0.31557038 0.15441686 -2.777989 0.14516136 0.117835246 -0.114005454 3.3558526
0.92860514 -1.3703687 -0.3181647 -0.093925625 -0.336539 -0.5754862 0.21480998 -0.049668577
-1.7935655 0.07730227 0.98375213 -2.4841144 2.7077441 -2.016436 -1.8953145 0.0331924
-1.9942194 0.056419887 3.5293772 -0.2604709 0.062164158 0.14474727 2.3811083 -1.714768
0.10375958 -0.0015334503 -0.043385066 -0.021667631 -0.012599704 0.0029981353 0.01507259 0.1472686
-0.5817881 0.019308526 -0.014798517 -0.16352414 -0.105187595 0.024999918 0.026224215 0.0025680608
-0.04423504 0.013735002 -0.08328731 0.062031202 0.14112002 -0.41533744 -0.07465198 0.039028436
-0.027199859 -0.1216256 -0.040113285 0.02622415 0.010072138 0.41966474 0.009606551 0.06632272
-0.14839862 -0.14368567 0.049989905 0.0569926 -0.43618917 0.035143383 -0.4964151 0.19713469
-0.05518374 -0.50201595 -0.17551501 -0.1437939 -0.050833892 -0.1756247 0.16317756 0.035626344
0.038740408 -0.5312435 0.064405754 0.11199226 -0.040562123 0.047115527 0.2369767 0.14770798
-0.059609883 -0.16442204 0.05946962 -0.3143819 -0.0052573094 0.06563499 -0.026219778 0.0944442

net.4.bias f4 [6]
00000000: e5f9 e43e 86aa 903f d849 e0be 48b5 ccbf
00000010: ef44 353f 2ab0 643f
0.44721904 1.130204 -0.43806338 -1.5992823 0.7080831 0.89331305
