training/nn-xxlarge.pth (torch, 821675 bytes, 10 tensors)

net.0.weight f4 [256, 21]
000000 50 b9 9d 3e 0c 50 d1 bd 21 9d 80 3d 26 a9 95 3d
       0.30805445 -0.10220346 0.0627997 0.07307653
000010 23 23 56 3d 3d 69 74 3d d0 13 56 3d 71 b5 8f bb
       0.052279603 0.059670676 0.05226499 -0.004385643
000020 94 6e 88 bd 83 13 0d bc df f6 b3 3a 7a ed 02 bd
       -0.06661716 -0.008610609 0.001373019 -0.031964757
000030 a0 46 52 bc 41 2b de 3c 9b 43 c6 3d c6 76 1a bc
       -0.012834221 0.027120234 0.096808635 -0.009427732
000040 f0 b1 af bd 53 9c 9f bd ca c1 f6 bc 08 f3 91 bd
       -0.08578861 -0.07793488 -0.030121703 -0.07126433
000050 70 30 45 bc cb cb 72 be 41 e2 85 3c 3a 01 32 3f
       -0.012035474 -0.23710553 0.016343238 0.6953312
000060 7e ab 29 3d 96 14 ad 3d 46 ac b9 3d b4 ea c0 ba
       0.041423313 0.08451192 0.09066062 -0.0014718384
000070 5f a3 b1 bc 66 8d f0 bc 35 0f 44 3c ba d4 84 bc
       -0.021684347 -0.029364299 0.011966516 -0.016214717
000080 30 56 6d 3d 0d 26 d9 3d 08 b5 08 3e 33 da 03 3e
       0.057943523 0.10602961 0.13350308 0.12876205
000090 39 03 b1 3d 55 57 46 3d b3 59 8c 3c c0 78 c8 3d
       0.08643193 0.04842313 0.017132616 0.09788656
0000a0 42 c3 32 3d 35 72 9c bc ce cd f5 3d e9 f1 7d bc
       0.043643244 -0.019097427 0.12002145 -0.01549957
0000b0 f8 a2 ff 3d 5e 45 62 3e e6 9b e1 3d a5 58 a6 bd
       0.12482256 0.22096774 0.110160634 -0.08122376
0000c0 45 9a ce be 00 12 98 be d1 23 c5 3d dd 15 36 3e
       -0.40352073 -0.29701233 0.09625972 0.17781778
0000d0 e3 4f ee 3d e4 3f 25 bd 1c 27 57 bd 70 4e da bc
       0.11636331 -0.040344134 -0.052527532 -0.02664873
0000e0 c2 57 85 3a 77 b0 33 bc d9 42 ec bb ec 8a 1f 3c
       0.0010173249 -0.0109673655 -0.0072101173 0.009737711
0000f0 2b ff 9c bb f8 35 82 3c d9 c0 04 be c6 97 7a 38
       -0.0047911606 0.015894875 -0.1296419 5.9745995e-05
000100 81 e7 71 b8 a8 37 f3 b8 0b fc 85 b9 e9 6d 95 39
       -5.7674482e-05 -0.0001159751 -0.00025555523 0.00028501384
000110 b0 94 89 b9 d0 80 84 b9 68 2b 40 38 75 d7 ad 39
       -0.00026241457 -0.00025272975 4.5816792e-05 0.0003315766
000120 60 23 dc 36 18 3e 82 b8 25 cb bd 39 a2 4d 89 b8
       6.560629e-06 -6.210449e-05 0.00036200244 -6.547129e-05
000130 ef 1e f6 b8 18 a2 da b9 d0 ad 5c 39 cc 3e b6 39
       -0.00011735956 -0.0004170097 0.00021045585 0.00034760532
000140 7b 8a 07 39 1a af 16 b8 dd 5c f0 b8 36 7f 36 b9
       0.00012926191 -3.5925863e-05 -0.00011461389 -0.00017404262
000150 5f ad c6 38 a1 46 99 b8 b8 06 36 b9 b2 f8 9b b9
       9.4736686e-05 -7.308764e-05 -0.00017359375 -0.00029749196
000160 78 f2 95 39 c5 73 f7 b8 5e f7 87 b9 60 f7 e7 37
       0.00028600148 -0.000117994416 -0.0002593351 2.7652539e-05
000170 78 53 8b 39 34 b2 9a b7 67 1a 5a 39 8e 1d 84 39
       0.00026574335 -1.8441213e-05 0.00020799936 0.00025199022
000180 8f 34 d6 b5 a2 65 87 b9 d0 ee 85 b9 f0 f6 81 39
       -1.5959539e-06 -0.0002582493 -0.00025545666 0.0002478878
000190 db 31 45 39 21 bb 08 39 8b 6f 17 b9 68 aa a8 b8
       0.00018805957 0.00013039682 -0.00014442035 -8.042605e-05
0001a0 63 44 f4 b8 47 c2 2f bd b0 e2 16 bd 69 40 1b be
       -0.00011647565 -0.042909887 -0.03683728 -0.1516129
0001b0 c7 a3 ff bd b1 ff 1f 3e 47 f8 40 3e 0f 1a f8 3c
       -0.1248241 0.15624882 0.1884471 0.030285863
0001c0 bc d3 08 3c b9 8d ab 3b aa 7c dd bc 91 af 2d bd
       0.008351263 0.0052354005 -0.027036984 -0.04240376
0001d0 b4 5a d3 bc 19 51 1a 3a f1 ba 4e 3c 04 25 d1 ba
       -0.025800087 0.0005886718 0.0126178125 -0.0015956466
0001e0 20 f5 10 bc 7b f7 76 bc 27 86 1a bc e1 7a 9c 3b
       -0.008847505 -0.015073652 -0.0094313985 0.0047753905
0001f0 66 e5 0c bd ab 37 d1 bd 71 23 b7 bd 8f 4b 37 bd
       -0.03439846 -0.10215696 -0.08942307 -0.044749793
000200 66 e6 1e 3e fe 63 11 bb d4 ef 3e 3e f2 14 b6 3b
       0.15517578 -0.0022184844 0.18646175 0.005556696
000210 7c ba 51 be 60 40 dc bd 9a dc 65 3c 75 9b 41 bc
       -0.20481294 -0.10754466 0.014029646 -0.011816849
000220 ec 3d 8a bd f7 33 4e bc 8c 02 ac bc 7b f7 cb bc
       -0.06750092 -0.012585632 -0.020997308 -0.024898281
000230 a0 bc be bc fa c8 29 3d da b2 19 3b b9 f0 a5 bd
       -0.023283303 0.04145143 0.002345255 -0.08102555
000240 d7 c3 b8 3c 9d 91 0d 3d f7 7e 1a bd 5f 17 10 be
       0.022554321 0.034562696 -0.03771874 -0.14071415
000250 59 3c 01 3e 48 bb 1c bd 56 ab b0 bd 07 b8 82 bd
       0.12620677 -0.038264543 -0.0862643 -0.06382757
000260 00 19 3a bd 83 bf 90 37 f4 6e d9 3b b3 92 0b 3c
       -0.045433998 1.7255317e-05 0.006635541 0.008518863
000270 4c 16 8d 3c 2b 39 a5 3b 8c 10 e6 3d ea 31 c4 3d
       0.017222546 0.0050422153 0.11233625 0.09579833
000280 18 8b fa 3d d7 00 b6 3d 1a ad ca bd 59 4f ba be
       0.12233561 0.08886879 -0.09896298 -0.36388662
000290 7a b6 ec be f7 8e dc 3d e8 40 a6 3c 3f b6 1e bc
       -0.4623297 0.10769456 0.020294622 -0.009687006
0002a0 7b d3 b0 38 e8 c9 42 b8 23 75 5b b8 fa d9 87 b9
       8.431725e-05 -4.6441244e-05 -5.232276e-05 -0.00025911612
0002b0 4b 52 ad 39 f9 f1 75 b9 13 56 2b b9 c1 84 ad b8
       0.00033058444 -0.00023455163 -0.00016339896 -8.27401e-05
0002c0 d9 c4 22 39 9f b8 d2 b7 de 71 ca b7 40 6f 88 39
       0.00015522855 -2.5119922e-05 -2.41333e-05 0.0002602283
0002d0 94 ac a4 b6 d7 86 a5 b8 e6 6a e7 b9 7e ae ea 38
       -4.9076716e-06 -7.892929e-05 -0.000441394 0.00011190491
0002e0 d5 90 90 39 d8 bf 10 39 7a a6 5b 38 1e a7 0c b9
       0.0002757373 0.00013804378 5.2368712e-05 -0.00013413696
0002f0 df b9 c2 b8 6e 53 9d 3d 53 c1 45 bd b6 da 9a 3e
       -9.285262e-05 0.076819286 -0.04828007 0.30244988
000300 d7 d2 0c 3e 9a d3 d0 3d 3f 31 a8 3c bd 76 48 be
       0.13752304 0.1019661 0.020531295 -0.19576545
000310 a2 c1 66 be c6 b3 99 bd ac c5 1a 3e 29 62 cf 3d
       -0.22534803 -0.07504992 0.15114468 0.101261444
000320 0a 85 16 3d 44 1a 11 3d 5e ee 67 b9 3d 4b 96 bd
       0.03674797 0.03542544 -0.00022118675 -0.07338569
000330 3e 09 15 be aa 5b 9d bd 6c 93 c0 3d 20 bc 34 3d
       -0.14554307 -0.07683499 0.094031185 0.044124722
000340 db 44 3f 3d 03 63 6e bc 04 31 ff 3c a4 27 99 bd
       0.046696525 -0.014549973 0.031151302 -0.07478264
000350 21 10 5f be fc c7 02 bd 9c 6c 7d 3e b1 f9 b4 3c
       -0.21783496 -0.031929 0.24748462 0.022091718
000360 90 b5 41 be 33 4b a4 bd b7 68 ae 3d 5d 3d 66 3d
       -0.18916917 -0.080221556 0.085160665 0.056210864
000370 b5 d7 f7 bc 64 f0 f5 bc f1 4a 06 3c 9c ce 02 3b
       -0.030254224 -0.030021854 0.008196578 0.0019959575
000380 2a e9 73 3b aa 99 e2 3c af 65 b0 3c b0 d2 c1 3b
       0.0037217834 0.027661163 0.021532862 0.0059150085
000390 8d 41 9d bc 8c c3 f0 3c df be 39 3a 2e b8 3a be
       -0.019196296 0.029390119 0.0007085632 -0.18234321
0003a0 df 71 e8 bc 4f 93 b0 3d 56 88 af bd 98 d3 29 bd
       -0.02837461 0.08621847 -0.08570926 -0.041461557
0003b0 77 82 99 bc 17 f4 7f 3c ac e7 87 3d 30 b7 99 3d
       -0.018738968 0.01562216 0.06635985 0.07505643
0003c0 3b 59 91 3d 0c b2 46 bc 28 32 ec 3a a4 b1 57 3d
       0.070970975 -0.012127411 0.0018020319 0.052659646
0003d0 ac 1d 45 3d 92 a9 91 3c 48 f8 c5 3c 71 e4 05 3d
       0.048124 0.017781053 0.024166241 0.03268856
0003e0 16 63 55 3d 47 c0 15 3d 28 e8 92 ba c9 56 0a 3d
       0.05209645 0.036560323 -0.0011208104 0.03377417
0003f0 eb 89 3a 3e 9e 64 f2 b8 0b 4d 04 be c8 c4 11 3e
       0.18216674 -0.00011558201 -0.12920015 0.14235222

net.0.bias f4 [256]
000000 ce af b5 3e 8b 4b 0d 3e 36 cd 9b be 14 a2 a0 b8
       0.3548569 0.13798349 -0.3043 -7.659584e-05
000010 71 93 df b6 86 86 26 3e c0 f5 2b be b8 22 4d 3e
       -6.6630823e-06 0.16262254 -0.16792965 0.20032775
000020 1a 47 f1 b8 4b a3 ba 3e 78 75 08 3e 3e d1 19 be
       -0.00011505019 0.36452708 0.13326061 -0.15021226
000030 55 61 29 bd 0f 91 02 bd d0 b6 1e bd 09 5e a2 be
       -0.04135259 -0.03187662 -0.038748562 -0.31712368
000040 36 d0 09 bd 52 fc f3 3d fc 44 b6 3e 0c fb bf bd
       -0.03364583 0.11913361 0.35599506 -0.09374055
000050 32 18 26 be cc b6 1b 3e 2d 04 57 bd 12 64 d8 bd
       -0.16220167 0.1520645 -0.052494217 -0.10565962
000060 c2 8e 11 3e d9 38 93 3e 91 32 54 3d f6 7c 22 bd
       0.14214614 0.2875431 0.051806036 -0.039669953
000070 47 92 c3 bd 8d fd ca 38 26 68 3b be 16 2a 97 3c
       -0.095493846 9.679338e-05 -0.18301448 0.018452685
000080 9d 2a fd 3a eb 06 84 be 90 b0 51 39 a4 25 3c 3d
       0.0019315068 -0.25786528 0.00019997568 0.045934334
000090 44 47 2a bd f4 0d 0a 3e 1a 7a 15 3e 1a 67 98 3e
       -0.04157187 0.13481885 0.1459736 0.2976616
0000a0 43 5a 71 bd 4b 8e c7 38 d6 91 5d 3e 20 11 a2 bd
       -0.05892397 9.5155636e-05 0.21637663 -0.079134226
0000b0 7c 9e ff bd 73 44 a4 3c 76 03 a2 3d c7 3a bc bc
       -0.124814 0.02005217 0.07910816 -0.022977246
0000c0 b1 6c eb 3d fe 1d 6c bd 53 9b 91 3e 1c 1e 4c 3e
       0.114953406 -0.05764579 0.28438815 0.19933361
0000d0 7e 73 c2 3d 63 00 14 be 89 d6 0b 3e 34 a7 24 be
       0.09494685 -0.14453273 0.13656057 -0.16079408
0000e0 86 e3 e4 bd 97 d9 6f be a3 24 9e 3d 75 81 cc 3c
       -0.11176209 -0.23422848 0.07721832 0.024964074
0000f0 d1 3c 30 be 72 3f 39 3e 13 4e 02 3e fb fb ea bc
       -0.172107 0.18090609 0.12725095 -0.028684607
000100 b1 f7 ab 3e f6 60 7b 3d d2 9b 7d b7 d5 c5 dd bc
       0.3358741 0.061371766 -1.5116255e-05 -0.027071873
000110 36 96 04 3d 79 bc 05 be b3 33 ae bc 33 f5 ba bd
       0.032369815 -0.13060178 -0.021264886 -0.09128799
000120 bc 4a 0d be 08 64 0f be c2 52 a4 be bb e3 e3 3d
       -0.1379804 -0.14003003 -0.3209439 0.111274205
000130 3e 55 06 be 1e 78 2f be b5 9b 98 3d bd 1d 0a bf
       -0.13118455 -0.17135665 0.07451574 -0.53951627
000140 a7 04 19 39 b0 01 11 be 77 5f 2c be ea d0 58 3d
       0.0001459295 -0.141608 -0.16833292 0.05293361
000150 a6 85 15 3f e7 12 39 3b be e7 19 39 99 28 d0 3b
       0.58407056 0.0028240026 0.00014677548 0.006352496
000160 d5 6d 15 be 34 82 18 3e d1 2c df b6 a6 e9 af bc
       -0.14592679 0.14893419 -6.651135e-06 -0.021473717
000170 15 6a 08 3f 21 c4 c7 3d fd e0 34 3e 61 a5 2a be
       0.5328687 0.097542055 0.17663951 -0.1666465
000180 db d1 45 bd 1c 8a ba 3d 39 4d 41 bd cd 91 37 be
       -0.048295837 0.091083735 -0.047192786 -0.17926712
000190 d0 ef 94 3c ad 7b 00 bd 76 71 25 be 61 40 2a 3d
       0.018180758 -0.031367946 -0.16156563 0.041565303
0001a0 1b a1 77 bd c9 08 24 3e 76 06 09 be da 73 e7 3e
       -0.060456377 0.16018976 -0.13381371 0.45205575
0001b0 d5 9d 84 3d 6b cb 15 3e 25 67 21 b8 bb 0d 69 3e
       0.064754166 0.14628379 -3.8481452e-05 0.22759144
0001c0 03 2e 9a be 5f 1e 3a 3d d4 29 26 39 da 97 d4 bd
       -0.3011323 0.04543912 0.00015846576 -0.10380526
0001d0 4e 3e d3 be df 29 78 3d 7b cc 0c 3e e9 f6 07 be
       -0.41258472 0.060586806 0.13749878 -0.13277782
0001e0 ed f5 50 3e 99 56 b4 3d 9a 51 73 bb c1 97 a2 3e
       0.20406313 0.0880558 -0.0037127496 0.31756404
0001f0 70 b6 09 be 87 aa 1a be d6 03 2f 3e cb f6 e8 bd
       -0.134485 -0.15104114 0.17091307 -0.11375197
000200 9f a6 af be 89 dc bc 3e 48 0a 98 3e c5 1d ad 3d
       -0.3430681 0.36887005 0.29695344 0.08452944
000210 ee f4 11 3e 91 8b a2 3d db 5d ed bd 1d ee 66 3d
       0.1425359 0.079367764 -0.11590167 0.056379426
000220 c9 36 30 bd 6f 05 79 be 66 25 01 be bb 2e b8 3c
       -0.043020997 -0.24318479 -0.12611923 0.02248322
000230 f9 a3 8a 3d 95 10 06 b8 b6 42 14 3e 8c b0 a1 3e
       0.067695566 -3.1963533e-05 0.14478573 0.31580007
000240 ed 66 9f be da 38 45 bd c3 1b 0b 39 fa 0d 05 be
       -0.31133214 -0.04814992 0.00013266415 -0.12993613
000250 b9 0f 8b 3d cd fb 95 3b 5e d5 5c be 4f 7b ee 3d
       0.06790108 0.004577136 -0.21565768 0.11644613
000260 73 37 9c 3d 20 02 dc bd 2c 9d 4a 3e 06 e4 0c be
       0.076277636 -0.10742593 0.19786519 -0.13758859
000270 b5 ef 10 3c d2 3a f9 bd 41 b1 59 3e 48 df 18 3e
       0.008846213 -0.12169422 0.21259023 0.14928925
000280 d5 77 0a be da 7c d4 bb 35 df 89 bd ec 09 2f 3d
       -0.13522275 -0.00648461 -0.067320265 0.04273407
000290 74 eb 27 39 92 f7 4e be 06 47 5c be c4 04 5a bc
       0.00016014074 -0.20211628 -0.21511468 -0.0133068
0002a0 11 7a 42 be 2e ba 2f be 6d d3 91 3e f4 99 23 be
       -0.18991877 -0.17160866 0.28481618 -0.15976697
0002b0 70 76 da 3c c6 43 ca bc 35 65 9f 3e e8 aa 77 be
       0.026667804 -0.02469052 0.31131902 -0.2418629
0002c0 58 9c ff 3d 00 98 1b 3e 63 83 61 b9 ed 7e 92 bd
       0.12480992 0.15194702 -0.00021506617 -0.071531154
0002d0 0f cc cf 3e c2 12 db be 0d 97 0f 3e 91 2b 0b be
       0.40585372 -0.4278775 0.14022465 -0.13590838
0002e0 0d e5 5e bd 97 36 ef bd 6b ab 85 3e 2c b4 09 be
       -0.05441766 -0.11680334 0.26107344 -0.13447636
0002f0 d6 52 a4 be f6 6f f2 3e 57 29 7a 3e 02 a1 55 be
       -0.3209445 0.47351044 0.24429832 -0.20862201
000300 e6 1d 91 3e 81 ab 84 be 7d 7a 60 3e 78 6f 64 3d
       0.28343123 -0.25912097 0.21921726 0.055770367
000310 d7 a1 f0 3d da e8 98 3e 05 f5 f6 bd c5 c0 0f be
       0.117496185 0.29865152 -0.120584525 -0.1403838
000320 5b f0 ef 3c 34 a6 7f be e6 13 0a bf 45 bf 0a be
       0.029289415 -0.24965745 -0.5393661 -0.13549526
000330 62 c8 07 be 2a aa 6f b9 f3 c6 1b 3d 69 17 f1 3e
       -0.13260034 -0.00022856207 0.03803153 0.47088173
000340 e3 00 76 be c2 6c 97 be 67 6b 8b 3d 1b 25 e8 3c
       -0.24023776 -0.29575163 0.06807595 0.028338006
000350 dd 94 85 bc 92 8c af 3d e0 33 13 be 79 09 3f 3e
       -0.016306335 0.085717335 -0.14375257 0.18655957
000360 e6 e5 de 3d e4 c1 4f 3e b3 74 08 be 1f 3a 85 3e
       0.108836934 0.20288807 -0.13325767 0.26020905
000370 d4 3f 9e b8 c2 93 05 39 d5 40 bf 3d c9 77 1c b9
       -7.545916e-05 0.00012738912 0.093385376 -0.00014921943
000380 e1 fc 5d bd 53 9a 98 3d c9 20 49 3d 28 17 02 39
       -0.054196242 0.0745131 0.049103532 0.00012406392
000390 26 ef d8 be a7 cd e4 b8 3c ba 67 bd 8b cf c7 3e
       -0.42369956 -0.00010910193 -0.05657409 0.3902553
0003a0 ef 36 4f be 36 a0 aa 3d d1 b1 09 be 9e 80 46 bd
       -0.20235799 0.08331339 -0.13446738 -0.048462503
0003b0 64 6c 82 bc dc ba 8f 3e 4a 21 3e bd 49 63 4e be
       -0.015920825 0.2807225 -0.046418466 -0.20155062
0003c0 07 4c a4 bd 0c 98 07 bf 51 54 a3 3b 77 ea 26 be
       -0.080223136 -0.5296638 0.0049844165 -0.16300379
0003d0 0b df 4f be a5 78 0f be a0 59 15 3d 46 fc a5 bd
       -0.20299928 -0.14010866 0.036462426 -0.08104758
0003e0 80 01 27 39 6b b5 95 3e ee db 54 3d 0a 30 fb 3d
       0.0001592692 0.29239973 0.051967554 0.12265022
0003f0 0d 1b ac be 46 89 b8 be 59 54 ae 37 0e 53 a4 3e
       -0.33614388 -0.3604223 2.0781694e-05 0.32094616

net.2.weight f4 [256, 256]
000000 7f 99 e1 3d 31 a7 02 3e 9a 53 06 be bc 69 b4 b8
       0.11015605 0.12759091 -0.13117829 -8.6027634e-05
000010 5d 69 66 38 c7 82 9b 3c ee 8e 69 bd 9f e4 e6 3b
       5.49344e-05 0.018983258 -0.057021074 0.0070462967
000020 f2 eb 8e b8 25 18 b0 3d 64 0c 8a bd a3 e7 e5 bc
       -6.815036e-05 0.08598355 -0.067406446 -0.028064555
000030 99 9f b8 3c 4a 50 1a bc c2 5c 02 be f4 cd cf 3b
       0.02253704 -0.0094185565 -0.12730697 0.00634169
000040 f0 be 62 bd 05 f1 c3 3d 18 ee 39 bd ab 18 ac 3a
       -0.055357873 0.09567455 -0.04539308 0.001312991
000050 ac 39 bf 3c 80 bb bf bc 94 75 24 bb 41 8a 27 3b
       0.02334293 -0.023404837 -0.0025094496 0.0025564583
000060 8e 2d 0f 3d 6a a0 d5 3d 69 ad fb 3b 85 c9 7d bc
       0.034955554 0.10430987 0.007680584 -0.0154899405
000070 27 ab 9a bd 31 f1 b3 b8 30 5d 2a bd 13 44 61 bd
       -0.07552176 -8.5803105e-05 -0.041592777 -0.05499656
000080 8a 7f 0d 3d 77 45 87 bd 48 97 d0 b8 85 93 85 3a
       0.03454546 -0.06605046 -9.946391e-05 0.0010191059
000090 7d 30 ee bd 55 42 03 bc 13 85 97 bd 89 dc be 39
       -0.11630342 -0.00801142 -0.07398429 0.00036403936
0000a0 b6 32 95 bd e9 ff b0 38 e8 13 ae 3c e2 41 90 bc
       -0.07285063 8.440001e-05 0.021249726 -0.01760954
0000b0 35 78 88 3d 88 44 ca 3c 7f 73 53 3c 79 42 27 3d
       0.06663553 0.024690881 0.012905954 0.040834878
0000c0 a0 7c 5a 3c bf 46 5a bc bf 57 d9 3d 8f 7c a1 3d
       0.013335377 -0.013322531 0.10612439 0.07885086
0000d0 1d a6 c2 3c 0b c3 87 bd 2e d5 ba 3c 76 dc 95 bc
       0.02376085 -0.06628998 0.02280673 -0.0182936
0000e0 79 e9 47 bc 05 f1 3f bb 28 7a b0 3c ea 85 1f 3a
       -0.01220166 -0.0029287946 0.021542624 0.00060853234
0000f0 b8 8f 5c 3c fc 5a f9 bc af b6 22 3d 25 8d 8b 3c
       0.013462 -0.030438893 0.039725002 0.017035076
000100 21 b7 b3 3d 4e bc 71 3c c2 9f ad 37 d6 1c a5 bc
       0.087751634 0.014754368 2.06976e-05 -0.020155352
000110 e1 b2 73 3d e6 84 8e bd 0c 81 33 bc ba bb 14 3c
       0.059496764 -0.06958942 -0.01095606 0.009077961
000120 3f cf 71 bc d5 47 f4 ba df 39 b9 bd 9d d7 36 3d
       -0.014758884 -0.001863713 -0.09044241 0.04463922
000130 a4 3e 4f bc 70 55 86 bc 35 9c fc 3b 7c e3 06 be
       -0.012649212 -0.016398162 0.007709051 -0.13172716
000140 a4 da cc 38 c0 15 83 bd d3 89 0f bd 0c 41 85 bb
       9.768203e-05 -0.06400633 -0.03504355 -0.004066592
000150 8f 67 85 3e 46 be 20 3d bb 89 10 39 60 17 74 bd
       0.2605557 0.03924396 0.00013784219 -0.059592605
000160 d0 12 95 bc fc e3 95 3d f7 b1 1f 39 f4 67 9f 3d
       -0.018197447 0.07318875 0.00015229719 0.07783499
000170 c4 cd bf 3d 7f 8f 6a bc e0 97 c8 bd d5 da e3 bc
       0.093654186 -0.014316439 -0.09794593 -0.027814308
000180 0a a3 5d ba 5e ea b4 3c 76 7c 16 bd c8 22 77 bd
       -0.00084547757 0.022084411 -0.03673979 -0.060335904
000190 d2 d8 4f bd b0 c7 4d bd 4b c6 8e bc 56 70 40 3c
       -0.050743885 -0.050239265 -0.017428538 0.011745533
0001a0 fa c6 20 bd a1 89 2f 3d fb 9b 8a bc b5 f2 00 3e
       -0.03925226 0.042855863 -0.01692008 0.12592585
0001b0 9a 4f a7 bb 37 fb 43 bc f9 6d 33 b9 c7 bd 3c 3d
       -0.005105925 -0.01196175 -0.00017111738 0.046079423
0001c0 4b 2f 3e 3d 84 52 96 bb a6 96 cf 38 a7 65 de 3c
       0.04643182 -0.0045874733 9.8985896e-05 0.027148081
0001d0 62 9b 1b be ad fe c9 3d 17 97 ef bb 0a f6 60 bc
       -0.15195993 0.09863029 -0.0073117125 -0.013730535
0001e0 dd 03 13 3d f9 68 4d 3d 6e 28 8d 3c ad d6 9a ba
       0.035892356 0.050148938 0.017231192 -0.0011813246
0001f0 3e 59 9a 3c d7 a2 80 b9 e3 0b a8 bc 7b f4 8a bd
       0.018841382 -0.00024535388 -0.02051348 -0.06784912
000200 63 2f f0 bd 1e 1d 17 3e 8f e9 1d 3d 4b 57 8f 3c
       -0.11727788 0.14757201 0.038552817 0.01749768
000210 d4 91 16 3d 91 c7 3b 3c de 80 29 3d 4d 9f 27 bb
       0.036760166 0.011461155 0.041382663 -0.0025577128
000220 5f da ab bc d4 65 9d bd 4a ea db bc 53 d8 d5 3c
       -0.02097815 -0.07685438 -0.026845116 0.026104128
000230 36 96 33 3c 1e e4 8e 36 0a fd 1a 3d 28 84 93 3d
       0.010961106 4.258486e-06 0.037838973 0.07202941
000240 46 b1 70 bd 16 22 4d 3c 95 3b a1 38 37 6a 13 bd
       -0.05876281 0.012520334 7.688176e-05 -0.035989966
000250 2a f1 b6 3a d0 07 9f bc 90 83 b0 3d 4a d3 91 3c
       0.001395737 -0.019412905 0.086188436 0.017800946
000260 eb 2f df 3c 14 48 a4 3c 1f 74 95 3c 10 59 02 3c
       0.027244529 0.0200539 0.018243847 0.0079558045
000270 14 8e 6d 3c 87 23 1c 3d 6d 61 01 3c 49 d1 44 3d
       0.014499206 0.03811982 0.007896763 0.048051152
000280 2d f6 d5 b9 9c f2 3d 3d 43 ce 94 3c 6e c7 4e 3d
       -0.0004080994 0.04637395 0.01816476 0.05048316
000290 54 d0 ec 38 a2 7f 02 bc a1 d5 df bd 53 01 83 ba
       0.00011292161 -0.007965 -0.10929418 -0.0009994901
0002a0 88 2d fb 3c 63 12 e7 bd 3c 33 6f bd 0f 4e 98 3d
       0.03066136 -0.11282804 -0.05839847 0.074367635
0002b0 23 5b 29 3d db 34 5f bc 10 7e 37 3c 3a 55 02 bd
       0.04134668 -0.013623442 0.011199489 -0.03181956
0002c0 d7 24 4a 3c 9f 3d 09 3c ef b0 39 b9 44 23 0d 3c
       0.012337885 0.008376508 -0.00017708888 0.008614365
0002d0 1a d1 13 3c 80 72 45 bd f7 0d 41 3d 85 ea 08 bd
       0.009022022 -0.0482049 0.04713246 -0.03342678
0002e0 7f c0 70 3d 7c bb 79 bc 6e b7 ee 3d bb 59 8c 3b
       0.05877733 -0.015242454 0.1165608 0.0042831576
0002f0 b4 39 b9 bd 32 97 1f 3e 6c 2e 50 3d 22 90 9f bd
       -0.09044209 0.1558502 0.05082552 -0.07791163
000300 f0 9d 85 3d 3b 1c eb bb 51 7f 3e 3d 58 51 8a 3d
       0.06524265 -0.007174996 0.046508137 0.06753796
000310 19 f9 7c 3d ad 9c 16 3d b5 18 c2 bb 8a 37 87 3d
       0.061760996 0.03677051 -0.0059233555 0.0660239
000320 85 61 0b 3d f1 6c 42 bd cf 87 64 be 57 2d 94 bc
       0.03402855 -0.047467176 -0.22317432 -0.018088026
000330 01 4c 67 bc 65 1d 7b b9 ff 56 8f 3d 3e 0a 11 3e
       -0.014117242 -0.00023948176 0.06999015 0.14164063
000340 09 2f be bc a2 44 18 be 1a f7 eb 3c 0d 5d 8f 3d
       -0.023215787 -0.14869931 0.02880435 0.0700017
000350 ca 40 3a 3d 62 f9 d9 3c a3 fe cc b9 f4 9e c4 3d
       0.045471944 0.026608173 -0.0003909963 0.096006304
000360 74 97 1a 3c 45 6c ba 3d 8d df 99 bc 9b 63 04 3e
       0.009435523 0.09102682 -0.018783355 0.12928621
000370 b0 ea 71 b9 4a c9 bd 38 b4 ae 7d bd 63 0d eb b8
       -0.00023070979 9.049715e-05 -0.061934188 -0.00011208167
000380 a4 19 0e bd a5 af 5d 3c 49 de 5e bb f1 88 a1 38
       -0.03469242 0.013530646 -0.0034007004 7.7025856e-05
000390 20 62 58 be c2 6d 91 b8 0b 39 af bb d1 61 17 3e
       -0.21131182 -6.934583e-05 -0.005347376 0.14783408
0003a0 d6 1d 4b 3c d2 45 78 3d fc 7b 19 bd 40 f4 6e bd
       0.01239725 0.06061346 -0.037471756 -0.058338404
0003b0 6a f5 c8 3b b5 fd 0d 3d 00 33 de ba 64 a2 83 bd
       0.0061327713 0.034665782 -0.0016952455 -0.06427458
0003c0 4d de 2d bd 60 5a 67 be e8 07 ef bc 99 25 47 ba
       -0.04244833 -0.22593069 -0.029178575 -0.000759685
0003d0 11 7e ef 3b 5a 2e da 3b 5e e7 90 bd 09 9a d1 3c
       0.0073087295 0.0066583576 -0.0707538 0.025586145
0003e0 a4 d8 01 39 74 d6 57 3c c1 0b 97 bd a8 f8 8c 3c
       0.00012383104 0.013173688 -0.07375289 0.017208412
0003f0 f0 d0 ef bc 8d 29 1c b9 8b f8 63 38 b0 39 b9 3d
       -0.029274434 -0.00014892798 5.435249e-05 0.09044206

net.2.bias f4 [256]
000000 be 5b 17 3e 85 69 cd bd 3f e1 4c 38 6d 22 df 37
       0.1478109 -0.10029892 4.8847167e-05 2.6599702e-05
000010 08 4c a3 36 63 47 38 be 34 dd 23 bd 8e b5 04 b9
       4.8666298e-06 -0.17995982 -0.040005878 -0.00012656135
000020 82 55 14 39 36 8d 9b b8 bc 12 65 38 fe c8 78 38
       0.00014146234 -7.4172785e-05 5.4615302e-05 5.9314996e-05
000030 c1 30 0c bc 2b 58 10 be 8a 7a a2 bd 2d 58 10 be
       -0.008556546 -0.14096133 -0.07933529 -0.14096136
000040 28 fd 39 be 80 2c 8f 38 18 c8 80 3d da 4a 42 bb
       -0.18162978 6.82706e-05 0.06288165 -0.0029646666
000050 94 11 a9 38 a9 fc 6e b8 8e 8c 07 3d d0 21 93 3c
       8.061822e-05 -5.697893e-05 0.033093028 0.017960459
000060 28 58 10 be bc b1 d2 37 aa 50 96 38 49 f1 94 b8
       -0.14096129 2.5116715e-05 7.167582e-05 -7.102133e-05
000070 23 29 47 3d 1c 36 d4 3d 94 b8 a3 38 66 b7 88 38
       0.048623215 0.10361883 7.806826e-05 6.519146e-05
000080 3f 6f 07 3d 2e 5d f5 36 af 9a 93 b7 a2 4d 89 b8
       0.033065077 7.3124165e-06 -1.7595796e-05 -6.547129e-05
000090 6c 38 e8 b8 be 09 9e b8 b1 0a f7 3d 73 d5 b5 bd
       -0.000110731315 -7.535842e-05 0.12062586 -0.08878603
0000a0 b8 60 01 b9 cb ab 52 b8 1b ea ab b8 85 fe c8 38
       -0.00012338429 -5.0227896e-05 -8.197521e-05 9.584151e-05
0000b0 1e a2 e8 3b 86 06 db 3b 33 fb 82 bc 5f a9 9c bd
       0.007099404 0.0066841273 -0.015988922 -0.076494925
0000c0 38 d0 1e 3c 4e 39 1a 3d 30 58 10 be 49 f8 a2 bd
       0.009693198 0.037652306 -0.14096141 -0.07957513
0000d0 b0 7f da bc f2 e0 80 3d 48 9f 04 ba ab 01 88 38
       -0.026672214 0.06292905 -0.0005059135 6.485296e-05
0000e0 f5 88 25 38 6f 28 6d bc da 4b 3c bd 2b 92 d3 3c
       3.9466617e-05 -0.014474972 -0.045970775 0.025826534
0000f0 9d 1b 0e bd b6 5c 0b be 51 96 3a 3c 4c 75 27 bc
       -0.034694303 -0.13609585 0.011388377 -0.010220837
000100 ac a7 1a 38 c2 17 db 38 c7 52 0b b8 21 7f 41 bc
       3.6872618e-05 0.00010447159 -3.3217275e-05 -0.011810095
000110 fd 78 c7 3b c6 8a 7a bd 82 ec 80 bd 46 42 7f 3d
       0.006087421 -0.0611675 -0.0629511 0.062319063
000120 d1 a8 a0 b8 3e d9 82 bd f5 88 f7 bc 1d 85 b6 38
       -7.660839e-05 -0.06389092 -0.030216673 8.7032306e-05
000130 ad 79 50 38 e0 91 2f bd 1b b8 86 37 0a ae 13 b8
       4.9704384e-05 -0.042863727 1.6059776e-05 -3.5209618e-05
000140 4e 90 21 b8 96 f5 61 3c 2c dd 65 3d e2 61 aa 3c
       -3.8519785e-05 0.013791462 0.05611913 0.020798627
000150 2a 9b d7 3d 33 a5 b7 37 2b 6d bb 3c 74 d5 86 bd
       0.10527642 2.1892227e-05 0.022879204 -0.06583682
000160 3e 7f 21 bd f3 a3 8c 37 78 ad 55 3e e5 15 e1 bc
       -0.03942799 1.6765645e-05 0.20866954 -0.02747626
000170 70 32 c8 38 9d 54 00 be 2e 40 62 3d 28 58 10 be
       9.546138e-05 -0.12532277 0.055236988 -0.14096129
000180 a8 92 46 3c a4 d6 da bc 80 7a 57 be 99 82 06 b7
       0.0121199265 -0.026713677 -0.21042824 -8.0174295e-06
000190 6c c4 07 3c 26 31 13 b9 ae 6a 9a bd 6a b8 5f 3c
       0.008286577 -0.00014037322 -0.07539879 0.013654808
0001a0 c2 44 39 b8 37 f4 12 39 4b 3a af 38 92 44 9d b8
       -4.4171473e-05 0.00014014622 8.355508e-05 -7.4991156e-05
0001b0 8d b1 2d bd a3 7d ce b8 1b 5d fd 3c 0e 74 4e 38
       -0.042405654 -9.846247e-05 0.030928185 4.922231e-05
0001c0 dd 1e 94 bd 09 6d 09 3e 45 2f 30 bd 2d 58 10 3e
       -0.07232449 0.134205 -0.04301383 0.14096136
0001d0 a3 15 bf 38 e8 6a 85 b8 41 f2 92 38 98 66 05 38
       9.11162e-05 -6.361847e-05 7.006946e-05 3.180522e-05
0001e0 c3 a3 bc 3d 3f c5 d9 38 2e 58 10 3e ea 78 5e 3d
       0.092109226 0.00010384106 0.14096138 0.05431453
0001f0 28 58 10 3e ff 58 2b b8 ce a1 7a 3d 99 f9 da b7
       0.14096129 -4.085246e-05 0.061189465 -2.6103853e-05
000200 58 ec 81 37 70 b0 de bc 0c 30 32 3c 90 36 25 3e
       1.5488054e-05 -0.027183741 0.010875713 0.16134095
000210 45 17 02 bc a3 01 93 bb ef 0f 3b 3d d6 3b 9b bc
       -0.007940118 -0.004486279 0.045669492 -0.01894943
000220 85 2f 71 38 05 e0 ed 3d f1 a9 f5 b7 4a cd 33 3d
       5.7503134e-05 0.11614994 -2.9285411e-05 0.04389695
000230 71 22 39 38 46 d4 b5 b8 33 41 10 bc c9 5a 11 3c
       4.4139513e-05 -8.6702916e-05 -0.008804607 0.0088717425
000240 8a 84 8c bd ae ce 20 38 83 13 81 3d c4 7c be b7
       -0.06861217 3.8339458e-05 0.0630255 -2.2707864e-05
000250 b6 9b 13 37 99 2d f2 b8 b9 ca 9b b8 91 92 ed 38
       8.798137e-06 -0.000115479525 -7.428736e-05 0.00011328341
000260 9b b5 3a b8 6a 35 d2 bc 2a 58 10 be 63 98 73 bd
       -4.451499e-05 -0.025660235 -0.14096132 -0.0594715
000270 a2 21 bd bc 83 fe 0e 3d df a7 02 b7 bf e7 0c bd
       -0.023087326 0.03491069 -7.787689e-06 -0.034400698
000280 b5 b3 94 bd 9e c7 15 b9 00 72 a2 b8 5d 22 1d 3d
       -0.07260839 -0.0001428411 -7.745996e-05 0.03836285
000290 0a 08 40 38 70 a2 10 bd d7 26 89 bd 62 f7 22 b8
       4.5783854e-05 -0.035311162 -0.06696861 -3.8854203e-05
0002a0 60 40 39 bd 20 be 8e bd ba 6f bb bc cf 25 8e 38
       -0.04522741 -0.06969857 -0.022880424 6.77813e-05
0002b0 a0 ec 88 3d aa 6f 54 bb 82 6d 21 3c 26 90 3e 3d
       0.06685758 -0.003241519 0.009852769 0.04652419
0002c0 34 e8 d5 b8 be 0b 04 3d 3d 0f 82 3d bf 1d 7b bd
       -0.00010199883 0.03223776 0.06350563 -0.061307665
0002d0 27 58 10 3e dc 4c d6 bc 91 8a cf 3b 8c 4f f6 b8
       0.14096127 -0.026159696 0.006333657 -0.00011745011
0002e0 2c 3d 10 3e d9 43 a4 bd c7 cb 49 bc 1c ff 58 bd
       0.14085835 -0.080207534 -0.012316651 -0.052977666
0002f0 46 38 f1 bc e4 38 41 38 f0 ad a6 b6 2b 58 10 be
       -0.029445779 4.606777e-05 -4.9674345e-06 -0.14096133
000300 a1 37 02 b9 8e 83 c7 38 9c 44 89 3d 42 c3 00 bc
       -0.0001241849 9.5135634e-05 0.06702539 -0.007859053
000310 ea c0 87 b7 8f 2f 29 be 9e d1 c2 38 2c 58 10 be
       -1.6183087e-05 -0.16522048 9.289685e-05 -0.14096135
000320 2b f4 aa bd bd e1 00 3d be 25 d3 3d b5 1e a3 bd
       -0.083473526 0.03146528 0.10309933 -0.07964841
000330 2b 58 10 3e 28 58 10 be 37 c0 9e bd 7d 72 f0 bc
       0.14096133 -0.14096129 -0.07751506 -0.029351467
000340 53 84 b3 37 ad 18 ae bb 08 05 dd 3c 8b 73 48 b8
       2.1400081e-05 -0.005313 0.026979938 -4.7791324e-05
000350 3b 28 94 3c cb 0c 06 bd 50 8c 39 b8 61 63 fc 38
       0.01808559 -0.032727044 -4.4238113e-05 0.00012034807
000360 e0 2b e0 37 13 41 bd 3d f4 cf d7 bc da ea 46 38
       2.6723312e-05 0.092409275 -0.026344277 4.74256e-05
000370 8d a3 4f b8 3e 66 b8 3c 33 c2 14 3d 44 68 b1 bd
       -4.9504964e-05 0.02250969 0.036318015 -0.08662465
000380 cd 3d 49 3c b3 ba ca 3c 76 0d bb 3d fe fd b3 3a
       0.012282801 0.024747228 0.09133427 0.0013732312
000390 61 12 ee bd ca bd 08 b7 d6 96 b6 bc 20 34 83 bc
       -0.11624599 -8.15042e-06 -0.022288721 -0.016016066
0003a0 34 6f 5e bd 4a 15 0f 39 e5 6c 85 b8 41 dc 89 38
       -0.05430527 0.00013645474 -6.3622174e-05 6.5736946e-05
0003b0 5d a0 a9 b8 5e 95 7e bc 2b 3b b8 3c 05 57 40 38
       -8.088418e-05 -0.015538542 0.022489151 4.585741e-05
0003c0 d4 81 f6 bc 5e 0f 6d b8 cb 13 9d bd 01 09 da 3b
       -0.030091204 -5.6519515e-05 -0.07669791 0.0066539054
0003d0 4c 4c 7e 37 a7 11 00 bd 84 28 35 b8 56 3e 4e bc
       1.5157344e-05 -0.031266835 -4.3191496e-05 -0.012588104
0003e0 72 80 3c bd 71 4e 16 3d 00 67 92 b8 02 31 f1 35
       -0.046020932 0.0366959 -6.981008e-05 1.7970162e-06
0003f0 ec 57 b0 bc 6d b5 5c bd ea 95 91 38 a5 8d 8a b8
       -0.0215263 -0.05388396 6.9420625e-05 -6.606736e-05

net.4.weight f4 [256, 256]
000000 c1 3d a8 ba 35 a4 98 3c 80 ba 2f b9 ab dc 3a b9
       -0.0012835787 0.018632988 -0.00016758777 -0.00017820548
000010 d4 ab 1b 39 7a d8 92 3b 5e 57 76 3b 3d a7 2b 38
       0.00014845963 0.0044813724 0.0037588696 4.092533e-05
000020 af d3 86 b8 a0 95 e1 38 e1 dc 14 39 88 74 21 b9
       -6.429047e-05 0.00010756706 0.00014196664 -0.00015397568
000030 8b 97 a8 3b f4 0e 63 3d 04 71 81 3c fd 0e 63 3d
       0.0051450185 0.055434182 0.01580096 0.055434216
000040 44 cd 14 3c 52 5d 29 39 22 3a 95 bc e8 6d 68 b9
       0.009082142 0.0001615186 -0.018216196 -0.00022166187
000050 fb ec 4b b9 cd ca 06 39 e5 3c 7f ba 29 3f 13 bc
       -0.0001944787 0.00012854785 -0.0009736552 -0.0089872265
000060 f3 0e 63 3d 8a 60 08 39 a2 be 18 b9 72 94 d7 38
       0.05543418 0.00013005934 -0.00014566866 0.00010279649
000070 e6 6f 24 bc 3b 7b 35 bb a8 54 2d b9 fa 47 26 b9
       -0.010036444 -0.002769186 -0.00016530103 -0.00015857807
000080 f7 05 f4 bb 83 7f 13 b9 c5 a5 04 b9 59 fd e9 b7
       -0.007447 -0.00014066514 -0.00012650255 -2.7893739e-05
000090 7a 84 89 b7 25 4b 22 39 98 82 43 3c c7 55 aa 3c
       -1.6393362e-05 0.00015477517 0.011932991 0.020792855
0000a0 28 96 fc 38 b0 14 ef 38 c0 fd 0b b9 a6 3d 29 b9
       0.00012044265 0.000114002614 -0.00013350602 -0.00016140062
0000b0 64 24 dd ba 00 74 a4 ba 4d 72 cc ba 4e 78 9b 3c
       -0.0016871807 -0.0012546778 -0.0015598029 0.018978264
0000c0 82 d6 f0 bb 2f 96 9d bc f6 0e 63 3d 22 04 a5 3b
       -0.00734979 -0.019236652 0.05543419 0.005035893
0000d0 dc 84 8a 3a 9d 96 7f bc 20 f6 a9 bc 38 37 0b b9
       0.001056816 -0.015599874 -0.020747244 -0.00013276644
0000e0 98 0e 12 b9 90 82 c3 bb 4e 83 fe 3b cd 80 03 bc
       -0.00013929082 -0.005966492 0.0077671176 -0.008026314
0000f0 87 43 0f 3c 2b 4e ac 3c ac ce b0 3c 30 5b 4a 3c
       0.008744127 0.021033367 0.021582924 0.012350842
000100 ce eb 0a 39 ae 2e 08 b9 78 93 49 39 e9 1a 69 ba
       0.0001324855 -0.0001298736 0.0001922379 -0.00088922546
000110 0f 9f f5 ba 25 5d 19 3c 35 02 84 3c 40 a3 46 bb
       -0.001873942 0.009360586 0.016114334 -0.0030309707
000120 d1 51 16 b9 ae bc d8 3c c9 b1 53 bb 4e d4 00 39
       -0.00014335594 0.026457157 -0.0032302013 0.00012286121
000130 6d 78 84 38 e7 bc de 3b 9e ce 0d b9 96 81 2c 39
       6.3166815e-05 0.0067974213 -0.00013523779 0.00016451473
000140 4c 88 f4 38 62 e9 9f 3a be 52 ba bb 75 56 3c 3c
       0.00011660214 0.0012200291 -0.005686133 0.011495222
000150 4d 0a 0a bd 94 5b b9 b8 3b 54 48 bc 0f cd 8e 3c
       -0.03370123 -8.838545e-05 -0.012227113 0.017431764
000160 29 d1 50 bc 93 8d 05 b9 1c 54 10 bd 57 ea 63 3c
       -0.01274518 -0.00012736609 -0.035236463 0.013910851
000170 a6 70 8a b6 f4 7e 0e 3d 6d c8 21 bc f9 0e 63 3d
       -4.1258345e-06 0.03478904 -0.009874445 0.0554342
000180 93 9f 23 bc 97 12 85 3c 47 c4 14 3d ac a7 18 b9
       -0.009986776 0.016244216 0.036319997 -0.00014558312
000190 19 d1 28 bb bd 1c 98 38 54 01 09 3c 10 bc 0a 3c
       -0.0025759398 7.253278e-05 0.008362133 0.008467689
0001a0 fa 8e cd b8 0c cc 8e b8 f1 a7 61 38 9c 34 0f 39
       -9.801793e-05 -6.809094e-05 5.3800588e-05 0.00013657141
0001b0 66 45 4c 3c 47 8f e2 b8 0a 74 7f bc 1d e0 12 39
       0.012467718 -0.00010803207 -0.015591631 0.00014007134
0001c0 b6 36 c9 3c 32 c0 9e bc 8f 10 35 3c f9 0e 63 bd
       0.024562221 -0.019378755 0.011051311 -0.0554342
0001d0 ec f9 25 b9 84 c5 06 b9 b8 35 08 39 cc b8 28 b9
       -0.0001582873 -0.00012852816 0.00012989982 -0.0001609057
0001e0 ca a3 ed bc 80 a7 d3 38 f3 0e 63 bd 58 96 20 ba
       -0.029008765 0.00010092463 -0.05543418 -0.00061259186
0001f0 f5 0e 63 bd 4b ad e2 38 f9 fa 25 bd 61 59 00 b9
       -0.055434186 0.00010808798 -0.04052255 -0.00012240327
000200 e5 5e fe b8 4f 1c 8d bc 9f 2b c8 3b ca 7a 5b bc
       -0.00012129339 -0.017225413 0.0061087157 -0.013395974
000210 ee d3 c8 3b 75 a0 d5 3b 84 60 c0 bb a6 2a b3 bc
       0.0061287796 0.006519372 -0.0058708806 -0.021870922
000220 92 bb 0d 39 1e 43 15 3c 94 fa 13 b9 1f 69 fe bb
       0.00013516683 0.00911024 -0.0001411236 -0.0077639963
000230 aa 61 c2 38 93 86 15 39 42 fa 18 bc f7 1b 01 bb
       9.268832e-05 0.0001425988 -0.00933701 -0.0019700506
000240 67 f6 81 3c c7 54 00 39 1a 2a a3 bc cc 3e e9 b8
       0.015864564 0.00012238613 -0.019917537 -0.000111220026
000250 a9 11 1c b9 a9 6c 1c 39 09 2d f4 38 4d b9 7c 37
       -0.00014883898 0.00014917798 0.00011643215 1.5063514e-05
000260 e7 0c 31 39 eb 5c b1 3c f6 0e 63 3d e3 b3 91 3c
       0.00016884842 0.021650752 0.05543419 0.017785972
000270 01 e1 ce 3b 75 c4 79 bc 0e 93 16 b9 9d 9c 85 3c
       0.0063134436 -0.015244593 -0.00014359897 0.01631003
000280 87 39 03 3d 53 2c 91 38 35 fc 9c b8 fc 67 89 bb
       0.032037284 6.922395e-05 -7.485637e-05 -0.004193304
000290 7f b8 db b8 5c 35 61 3b cf 15 c1 3c 9f 79 08 b9
       -0.00010477099 0.003436408 0.02356997 -0.00013015278
0002a0 68 6f 18 3a a2 39 84 3c 8f a2 84 3b 92 a8 0b b9
       0.00058149407 0.016140763 0.004047699 -0.0001331887
0002b0 17 73 3e bc 9b 17 24 bb 8a e0 ad bb 84 e5 e4 bc
       -0.011624119 -0.0025038484 -0.005306308 -0.027941473
0002c0 1e cf 05 b8 4b fe 6a 39 90 bc 34 bb 82 99 4f 3b
       -3.1902564e-05 0.0002241071 -0.0027578212 0.003167719
0002d0 f4 0e 63 bd 44 e5 bd 3b 67 ea 68 3b dd 54 2c 38
       -0.055434182 0.005795153 0.0035540105 4.108703e-05
0002e0 34 d1 c0 bc df ac d2 3c c1 2f 38 3b 82 26 59 3c
       -0.023537256 0.025717197 0.0028104635 0.01325381
0002f0 95 87 40 3b 79 56 16 39 f2 45 11 39 f5 0e 63 3d
       0.0029377688 0.00014337328 0.00013854334 0.055434186
000300 c3 53 0e 39 f2 57 84 38 1b 70 5a bc 40 cc 0d 3c
       0.00013573379 6.3106316e-05 -0.013332392 0.008654654
000310 c7 6c 07 b9 54 da 00 3d 01 eb f4 38 fb 0e 63 3d
       -0.00012915126 0.031458214 0.000116785995 0.05543421
000320 39 32 dc 3b 69 83 18 bc b4 23 12 ba 16 b6 21 bc
       0.006719854 -0.009308674 -0.0005574778 -0.009870073
000330 f1 0e 63 bd f3 0e 63 3d 9e 47 14 3d 17 90 35 3b
       -0.05543417 0.05543418 0.036201112 0.0027704292
000340 52 17 42 b8 65 86 d3 3b 2a ff 3a 3b d4 f3 1b b8
       -4.6274923e-05 0.00645523 0.0028533437 -3.7181962e-05
000350 1f 24 5f bb 02 b7 19 3c 11 8f c4 b8 ad 22 82 37
       -0.003404863 0.009382011 -9.3726565e-05 1.5513355e-05
000360 e6 7f 0e 39 30 f4 ae bb a3 4f f1 ba 6b 5d b8 38
       0.00013589821 -0.005339168 -0.0018410574 8.791204e-05
000370 6a 43 eb b8 f6 aa 25 3b a1 93 8b 3b 58 a6 15 3c
       -0.0001121823 0.0025278903 0.004259542 0.009133898
000380 68 52 18 bc ee b6 8a bc a5 e6 d3 bc 8a f4 96 3b
       -0.009296991 -0.01693293 -0.025866816 0.004606788
000390 28 a9 6d 3c 4a 6f 19 b9 74 42 52 3c df 12 d0 3b
       0.014505662 -0.00014632675 0.0128332265 0.006349906
0003a0 f3 42 4b bb 61 b9 aa b8 35 e2 06 39 09 e0 e6 b8
       -0.0031015247 -8.140761e-05 0.00012863505 -0.000110089844
0003b0 f6 af 03 b9 a0 39 b3 3b e5 ae a9 bb e2 b0 24 b9
       -0.00012558684 0.005469516 -0.0051783198 -0.00015706153
0003c0 20 8b b4 bb 14 60 f0 b8 9f 2e 22 3c e4 19 30 bd
       -0.005509749 -0.00011461988 0.009898811 -0.04299344
0003d0 35 fb e1 b8 8e 21 93 3c 70 d1 10 b9 05 1a 68 bb
       -0.00010775627 0.017960336 -0.00013810932 -0.00354159
0003e0 67 ab 98 3b 4a e9 a8 bc 0a 0e 1c 39 68 33 05 b9
       0.0046591046 -0.020619053 0.0001488255 -0.00012703019
0003f0 b5 9b 1c 3b b1 a9 81 3c 57 e1 05 39 be ec b5 b8
       0.002389652 0.015827985 0.00012767814 -8.674849e-05

net.4.bias f4 [256]
000000 7d 7f d0 bd aa af dc b6 72 08 4b bc 3c 46 40 bd
       -0.101805665 -6.576961e-06 -0.01239215 -0.04694198
000010 62 b4 85 3d f0 33 4d b8 26 37 16 38 c6 2d 33 3d
       0.06528546 -4.892418e-05 3.5814148e-05 0.043744825
000020 e1 83 a0 b8 7f 3e 18 be 04 a5 27 38 50 6d 34 bd
       -7.653959e-05 -0.1486759 3.9969585e-05 -0.04404956
000030 3d 1a ff 38 39 5e 50 b7 e5 87 ed 3c ae 0c 1b 3d
       0.00012164235 -1.2419704e-05 0.028995464 0.03785389
000040 a8 b5 3a 37 09 47 77 b9 01 2a 7f 38 1b 9d 15 38
       1.1128759e-05 -0.00023582218 6.0835857e-05 3.5670684e-05
000050 cb 05 9f bc bc c2 e8 b7 d8 b9 51 bc 02 b3 e0 bc
       -0.019411942 -2.7747235e-05 -0.012800656 -0.027429108
000060 80 08 61 38 00 29 77 bd 28 00 f0 36 6c 25 cc 36
       5.3652097e-05 -0.060341835 7.1525756e-06 6.0840302e-06
000070 43 67 06 3e c2 71 d3 37 2c 5c 65 38 17 6e 89 38
       0.13125329 2.5206133e-05 5.4683696e-05 6.553175e-05
000080 7b df 10 3c 90 71 59 b8 40 09 2c bd 6e 66 93 3c
       0.008842344 -5.1842595e-05 -0.04200101 0.017993178
000090 fd 0f 58 3e 92 9e 65 3c 19 5f 9b bd 64 70 da bb
       0.21099849 0.014014857 -0.07586498 -0.00666623
0000a0 23 ae 19 3d ee 81 ff 3c 5a 34 27 3d e6 6a c0 bc
       0.037519585 0.031189885 0.04082141 -0.023488473
0000b0 f0 98 6a b8 7e 19 34 3d a4 8e a4 bd f4 48 32 bc
       -5.593238e-05 0.043969624 -0.08035019 -0.010881651
0000c0 ac 09 40 38 ab 52 07 3d e3 df 1e bd c3 1a 80 3d
       4.5785375e-05 0.033037823 -0.038787734 0.062551044
0000d0 01 f0 0e bd 8a 15 9f bc 64 47 63 b8 05 a9 d0 3d
       -0.034896854 -0.01941945 -5.4187505e-05 0.10188488
0000e0 43 d8 d0 3d 1a 7f 91 bd 9b 74 3c bc b8 9c b4 b8
       0.10197499 -0.07104321 -0.01150241 -8.61226e-05
0000f0 78 8b d0 3d 71 b7 eb b7 40 dd 8e 38 8e 62 61 38
       0.101828516 -2.8099605e-05 6.812299e-05 5.3735967e-05
000100 5d 99 91 bd d9 ba 55 b8 06 f6 d2 3d 02 09 f4 ba
       -0.0710933 -5.0957173e-05 0.103008315 -0.0018618407
000110 be ac 9b bd 05 cb aa b8 0a 82 c0 b8 2d d2 e9 b7
       -0.07601307 -8.144047e-05 -9.179495e-05 -2.7873635e-05
000120 31 d0 8f 38 f4 4b f5 bc 79 34 e9 3c 9b 22 3d b8
       6.85755e-05 -0.029943444 0.028467404 -4.509334e-05
000130 9f 4b 2b 33 54 8a a8 bc 80 b5 eb 37 31 b6 d0 3d
       3.9882817e-08 -0.020573772 2.80987e-05 0.10191
000140 ba cd 2e 3c 3e 21 12 b8 4c 23 6e 3c 4c d2 23 3d
       0.010669166 -3.484007e-05 0.014534783 0.039995477
000150 80 14 79 36 a5 c5 1b b8 e0 41 0a 3c 6d 88 45 3b
       3.7115824e-06 -3.713895e-05 0.008438557 0.003014113
000160 45 18 93 38 16 06 32 3d 35 34 f1 38 41 a8 ee bc
       7.014027e-05 0.043462835 0.000115015 -0.029132964
000170 be a8 d2 37 c6 51 eb 38 1f 25 24 3d 9e ac 45 b7
       2.5112528e-05 0.00011220905 0.040074464 -1.1782306e-05
000180 0a d8 7e 37 e0 59 2e b8 37 b7 69 bd c0 d7 8a 3c
       1.518988e-05 -4.1568535e-05 -0.057059493 0.01694858
000190 e1 b5 17 38 f8 af 45 3d fb 88 8c bd 46 7f 54 3d
       3.6170593e-05 0.04826352 -0.068620645 0.05187919
0001a0 90 f6 aa bd ad 10 ba 3c 00 92 82 bd e4 a8 80 3b
       -0.08347809 0.02271303 -0.063755035 0.0039263833
0001b0 e0 17 51 3d 28 2d e1 3b 17 6e 63 b8 e3 a3 c1 b6
       0.05104816 0.006871838 -5.4223547e-05 -5.770927e-06
0001c0 95 27 cb 3c 17 92 a5 37 24 75 93 bd e7 32 88 38
       0.024799148 1.9737561e-05 -0.07200077 6.494467e-05
0001d0 2b 39 32 b8 c1 d2 d0 bd 20 32 14 b8 fd d5 fb bb
       -4.249175e-05 -0.10196448 -3.5332632e-05 -0.0076854215
0001e0 42 d5 d0 bd 68 e8 88 3d 41 cd d0 3d 25 61 91 b8
       -0.10196926 0.06684953 0.10195399 -6.9322334e-05
0001f0 6f cf a9 3d fd 53 02 b8 22 6e 01 39 1c ba 8e ba
       0.08291518 -3.1072635e-05 0.00012343426 -0.0010889205
000200 6d c1 d0 3d 51 97 11 b8 ad ec 2a 3c 5e 6f 91 3c
       0.10193143 -3.471162e-05 0.0104324045 0.0177533
000210 ca a5 95 bd e7 47 ab 3c 85 5b 85 bc 16 8f 37 bb
       -0.073070124 0.02090831 -0.016278991 -0.002800887
000220 0a 61 fd 38 be 80 d5 bd 5b f5 0f b8 f1 62 70 bd
       0.00012082055 -0.10424946 -3.4322362e-05 -0.058688108
000230 c1 ab 67 3d 1c c9 f0 b6 23 57 1d 38 96 28 c2 3b
       0.05656028 -7.1759696e-06 3.751287e-05 0.0059252484
000240 5f 21 21 bd c2 f3 12 38 74 b6 2f bc 69 22 74 bd
       -0.039338466 3.503613e-05 -0.010724653 -0.05960313
000250 1c 7c 63 bc ba b7 4b 38 b6 48 69 38 ee 22 60 b8
       -0.01388457 4.857008e-05 5.5619246e-05 -5.3438293e-05
000260 dd 5f ca 37 bf fc 9e bd 3c 44 b2 bc 78 1f 72 b7
       2.4124916e-05 -0.07763051 -0.021761052 -1.4431651e-05
000270 c3 4b af 3c 89 5a c5 bd a9 0f 7f bc 5d 05 d0 3b
       0.02139843 -0.09636409 -0.0155676985 0.0063482956
000280 1c 65 16 be d5 c5 2f b8 63 11 68 38 da 9d f8 b5
       -0.14687008 -4.1907497e-05 5.5329303e-05 -1.8523381e-06
000290 18 d0 93 37 d1 a8 ba b7 e6 c6 b6 b8 ac 0c a8 38
       1.7620667e-05 -2.225154e-05 -8.715484e-05 8.0132246e-05
0002a0 bd 72 d6 38 d6 69 cf 3c 58 1e 30 3d 31 4f 8c 38
       0.00010225687 0.025319021 0.042997688 6.690471e-05
0002b0 17 3e d9 37 ec a1 9e bc 8b 88 e4 38 ad f0 22 39
       2.5897329e-05 -0.01936432 0.0001089732 0.00015539183
0002c0 ac 44 3d b7 dd 6b 8e b8 bd b2 16 38 6e 97 d8 38
       -1.1281267e-05 -6.791179e-05 3.592925e-05 0.000103278886
0002d0 93 4e 6c b8 5f 13 44 37 4a 43 b6 3b 1f c8 8a 3c
       -5.6339963e-05 1.1687021e-05 0.0055622207 0.016941128
0002e0 51 a6 83 bd b7 7d 5c b8 e4 0c de ba 0d 47 81 b8
       -0.06428207 -5.256917e-05 -0.0016941098 -6.1644336e-05
0002f0 e4 36 2e b8 3f 6e a6 36 11 1f 7e 3d 52 e8 81 bd
       -4.1535954e-05 4.96002e-06 0.062041346 -0.0634314
000300 4a 1f 79 3c d9 63 bb b7 69 17 61 38 87 0d 14 b8
       0.015205214 -2.2338632e-05 5.3665983e-05 -3.5298548e-05
000310 f2 dd 6a 38 84 69 01 b8 e4 c9 53 38 c2 18 86 bd
       5.599665e-05 -3.0854266e-05 5.0494345e-05 -0.06547691
000320 83 4a 2d 37 b0 a8 ed bb 97 93 c6 3c b5 87 21 b8
       1.0328952e-05 -0.007252775 0.024240298 -3.851178e-05
000330 22 2d df bb 5e dd 9d b8 51 72 de 3c e6 26 04 3c
       -0.0068108 -7.527576e-05 0.02715412 0.008065915
000340 15 bc 08 bd a6 5a 71 b7 ea 37 9c b8 1e 16 21 b8
       -0.033382494 -1.4385825e-05 -7.4490745e-05 -3.840599e-05
000350 4d d1 8b 3b 9b b4 c0 bc 42 ec bb b8 38 cf 26 3d
       0.004266894 -0.02352362 -8.960861e-05 0.040724963
000360 79 47 09 bd b1 95 8c bc 8c 40 38 b8 63 ce 13 b8
       -0.033515427 -0.017161222 -4.3929133e-05 -3.5239744e-05
000370 35 e1 85 3c db 7e f6 b7 b2 8c ba b8 87 99 14 b8
       0.016342739 -2.9384557e-05 -8.895378e-05 -3.5428933e-05
000380 30 f2 3f 3c e1 5d 06 3d 8a 1e e1 37 fd 0f 42 3a
       0.011715457 0.032804374 2.6836311e-05 0.0007402895
000390 9d 69 82 3c e8 f2 9d bb dc fc f4 3c a1 de 10 bd
       0.015919501 -0.0048202164 0.029905729 -0.035368565
0003a0 ed ff ee b6 da 33 22 b8 03 da b3 bc 1b 09 84 3b
       -7.1227464e-06 -3.86721e-05 -0.021954542 0.004029406
0003b0 8b e4 42 3b c1 38 a2 3d b6 94 1b 3d a9 d9 25 b8
       0.0029738273 0.07920981 0.03798362 -3.9541777e-05
0003c0 45 f6 82 3c 80 d3 df b7 38 00 ff b7 63 b0 e0 38
       0.015986571 -2.6682159e-05 -3.039847e-05 0.00010714007
0003d0 94 ce b3 bc cb 6e f2 37 86 1a cb bc d2 a1 c1 b8
       -0.02194909 2.890024e-05 -0.02479292 -9.2330985e-05
0003e0 a4 bc b4 3d 04 c1 d0 3d 44 6d 73 37 ba ec 12 3d
       0.08825043 0.10193065 1.4509369e-05 0.03587029
0003f0 24 2b 3b 3d 39 aa 05 37 af 01 c3 b7 f0 87 19 bc
       0.04569544 7.967051e-06 -2.3246595e-05 -0.009370789
