training/nn-xlarge.pth (torch, 557923 bytes, 8 tensors)

net.0.weight f4 [256, 21]
0	0x3c7075ca	0.014676521
1	0x3d3f8d6a	0.046765722
2	0xbe1d9873	-0.15390186
3	0xbe175fbe	-0.14782616
4	0xbdd089bb	-0.1018252
5	0x3e2254d7	0.15852676
6	0x3e503b70	0.20335174
7	0x3ddedc20	0.10881829
8	0x3d82ec37	0.06392711
9	0x3bb163ad	0.0054134936
10	0xbd402171	-0.046906892
11	0xbc51759b	-0.012784387
12	0x3bfe22a9	0.0077555967
13	0x3aef5b36	0.0018261436
14	0x3c0eea1c	0.008722808
15	0x3c36ba5c	0.01115283
16	0xbb60fd55	-0.0034330685
17	0x3ba0396b	0.0048896573
18	0xbca426b7	-0.020037992
19	0xbd0c060e	-0.03418546
20	0xbb8d83af	-0.0043186764
21	0xbe158f90	-0.14605546
22	0x3b174045	0.002307908
23	0x3d18eeab	0.037336987
24	0xbe018f88	-0.12652409
25	0xbe4ae751	-0.19814803
26	0xbd87f649	-0.06638772
27	0xbe24882a	-0.16067567
28	0xbdc6a1eb	-0.09698852
29	0xbdeda5e3	-0.11603906
30	0xbe015646	-0.12630567
31	0xbe1cdf91	-0.15319659
32	0xbce0f9e3	-0.027462905
33	0xbd621fc0	-0.05520606
34	0xbd470f61	-0.04859865
35	0xbd9c6e9f	-0.07638287
36	0xbdf393b4	-0.118934065
37	0xbe0e8199	-0.13916625
38	0xbe200cf0	-0.15629935
39	0xbdacdcd4	-0.08440557
40	0xbe14c908	-0.14529812
41	0x3d97442f	0.07386052
42	0xbcaa244e	-0.020769265
43	0x3e23aa52	0.15982941
44	0x3e63c71b	0.22243921
45	0xbf06643c	-0.52496696
46	0xbecb15dd	-0.39665118
47	0x3d346c5f	0.044048663
48	0x3e8b49e0	0.272048
49	0x3e7feda9	0.24993004
50	0x3d8d3998	0.06895751
51	0x3cc821ca	0.024430174
52	0x3d0ea113	0.03482158
53	0x3cd61d8b	0.026137134
54	0x3c736c21	0.014857323
55	0x3bbedd29	0.005824704
56	0xbb68d8f8	-0.0035529714
57	0xbc1a16f2	-0.009404885
58	0xbd059067	-0.032608416
59	0xbcc39b2c	-0.023877703
60	0x3cc99937	0.024609191
61	0xbe5e7d9b	-0.21727602
62	0x3b1a131d	0.0023509928
63	0x3d49a8c2	0.049233206
64	0xbd485dd9	-0.048917625
65	0xbdd68607	-0.104747824
66	0xbe36d23a	-0.17853633
67	0x3c5eda65	0.013601874
68	0x3d7bb2bd	0.061449755
69	0xbcea7fcf	-0.028625397
70	0xbd993971	-0.07481659
71	0xbcdc91ae	-0.026924934
72	0xbdb868c4	-0.090043575
73	0xbe4c733e	-0.19965836
74	0xbd4d32a4	-0.050097123
75	0xbcf09b45	-0.029370913
76	0xbba3c965	-0.0049983733
77	0xbd0710e3	-0.03297509
78	0xbcdcdc19	-0.02696042
79	0xbcbccec8	-0.02304782
80	0x3cae349f	0.021265326
81	0x3d49d00a	0.049270667
82	0xbd0dcc3e	-0.03461861
83	0x3b500cff	0.0031746028
84	0xbe9d1423	-0.30679426
85	0xbd96b89d	-0.07359431
86	0x3e29d7d2	0.16586235
87	0x3f8baf32	1.091284
88	0xbe6788f2	-0.22610834
89	0x3e127e53	0.14306001
90	0x3d034dab	0.03205649
91	0x3d0e686b	0.03476755
92	0x3c6886ea	0.014192322
93	0x3b2ffd1c	0.0026853746
94	0x3c125691	0.008931772
95	0xbf02f9bd	-0.5116232
96	0xbcce47ba	-0.025180686
97	0xbc405736	-0.011739543
98	0xbc0817fe	-0.008306501
99	0xbc91f779	-0.0178182
100	0xbb9b353b	-0.00473657
101	0xbc3d0f91	-0.011539356
102	0x3d22297d	0.039590348
103	0xbeba2163	-0.36353597
104	0xbb658b91	-0.0035025815
105	0xbed7644f	-0.42068717
106	0x3d98c363	0.07459142
107	0x3e34ac30	0.1764381
108	0x3c39a075	0.01132976
109	0xbd95d14e	-0.07315312
110	0xbbaddb84	-0.0053057093
111	0x3d9f3287	0.07773309
112	0x3d8f3051	0.069916375
113	0x389bf7b7	7.4371164e-05
114	0xbb5a88bf	-0.0033345667
115	0x3daf3f22	0.085569635
116	0x3d119161	0.035539035
117	0x3cd4609a	0.02592497
118	0x3daa440f	0.083137624
119	0x3da3385a	0.079697326
120	0x3d4b20b4	0.049591735
121	0x3d0bd9eb	0.03414337
122	0xbce17cad	-0.02752527
123	0xbc0e8e31	-0.008700893
124	0x3cc8b56d	0.024500573
125	0x3e1dacef	0.15398
126	0x3e462c04	0.19352728
127	0x3bdc2418	0.00671817
128	0xbf24671b	-0.64219826
129	0xbe070060	-0.13183737
130	0xbdb80316	-0.089849636
131	0xbce219e1	-0.02760023
132	0xbdba4278	-0.09094709
133	0x3e083bbb	0.13304035
134	0x3e17391c	0.14767879
135	0xbd86bad3	-0.06578603
136	0xbc9fd82d	-0.01951226
137	0x3a072acc	0.00051562185
138	0x3a0be7eb	0.00053369877
139	0x3c4213e3	0.011845562
140	0x3c7362fe	0.014855145
141	0xbcfe72f3	-0.031060671
142	0xbd1f18f9	-0.038842175
143	0xbd71ab21	-0.059001092
144	0xbb6446e1	-0.0034832286
145	0xbda2f2a2	-0.07956435
146	0xbc5e4f78	-0.0135687515
147	0xbca7f1ef	-0.020501105
148	0xbc48824e	-0.012238098
149	0xbe518b76	-0.20463356
150	0xbdbe188b	-0.09282025
151	0xbd912211	-0.07086576
152	0x3e8075cf	0.2508988
153	0x3e7fa156	0.24963889
154	0xbd9a65e1	-0.07538963
155	0xbe2a37ec	-0.16622895
156	0xbd0111e1	-0.03151119
157	0x3bbf9afd	0.0058473335
158	0xbcc66741	-0.024219157
159	0xbad9bd80	-0.0016612262
160	0x3b94d2d1	0.004541733
161	0x3bd86cab	0.006604751
162	0x3ba744d7	0.005104642
163	0x3b5632d2	0.00326841
164	0xbc222460	-0.009896368
165	0xbc756c85	-0.014979486
166	0xbcb684f0	-0.022280186
167	0xb8073cca	-3.2243122e-05
168	0xbc946d49	-0.018118517
169	0xbdef1ce2	-0.11675431
170	0xbd88693e	-0.06660698
171	0x3e60ff5a	0.21972409
172	0x3da60174	0.08105746
173	0xbe4fd0e5	-0.2029453
174	0xbda80cfb	-0.08205601
175	0x3e06ad88	0.13152134
176	0x3d3cf645	0.0461333
177	0xbe2433a3	-0.16035323
178	0xbe2e1118	-0.16998708
179	0xbaf03389	-0.0018325906
180	0x3bdb8700	0.006699443
181	0xbb427c72	-0.0029676226
182	0xbbd6c2c0	-0.0065539777
183	0xbc223660	-0.009900659
184	0xbc177165	-0.009243344
185	0x3be17e90	0.0068815425
186	0x3cc59af3	0.024121737
187	0x3d8b5ede	0.06805204
188	0x3d487d8e	0.048947863
189	0xbe12c1fd	-0.14331813
190	0x3d8dc485	0.06922249
191	0x3a66878a	0.00087940006
192	0xbe9002d3	-0.28127155
193	0xbceb32f6	-0.028710824
194	0xbd3d19ac	-0.04616706
195	0xbce589f7	-0.028019888
196	0xbd5ef540	-0.054433107
197	0xbd7c2c7f	-0.061565872
198	0xbc5c4215	-0.01344349
199	0x3d5f6094	0.054535463
200	0xbb278cd2	-0.0025566113
201	0xbb337731	-0.0027384276
202	0x3b047f80	0.0020217597
203	0xbc0abd61	-0.008468003
204	0xbc845b62	-0.016156856
205	0xbb136348	-0.0022489596
206	0xbca9bed5	-0.020720879
207	0xbc31dac9	-0.010855385
208	0x3c7898a4	0.015173111
209	0x3c4ba7dc	0.0124301575
210	0x3e98268b	0.29716906
211	0x3dad4614	0.08460632
212	0x3e9ac603	0.30229196
213	0x3dbe7e13	0.093013905
214	0x3da9cba7	0.08290797
215	0x3da0a2a3	0.078435205
216	0x3dbb5930	0.091478705
217	0x3d97d15b	0.07412978
218	0x3d9b0798	0.07569808
219	0x3e4d83e3	0.20069842
220	0x3ded5712	0.11588873
221	0xbd8a1677	-0.06742566
222	0xbc8ad5fd	-0.01694774
223	0xbb50a190	-0.003183458
224	0x3c3c4f47	0.011493511
225	0xbbcc0de3	-0.0062272414
226	0xbc1b3028	-0.009471931
227	0xbca8a3b8	-0.02058588
228	0xbd698b8b	-0.057017844
229	0xbc893f28	-0.016753748
230	0x3dc8bcc3	0.098016284
231	0x38bc6e5a	8.985093e-05
232	0xbd594315	-0.05304249
233	0xbe88969a	-0.266774
234	0x3c5db9f6	0.013533106
235	0xbe33f7bd	-0.17574973
236	0xbd8be9c5	-0.068316974
237	0x3eaad218	0.33363414
238	0x3e1ce26f	0.15320753
239	0xbe918c53	-0.2842737
240	0xbe86958a	-0.26285964
241	0x3c9ed1ab	0.019387087
242	0xbb8cccf8	-0.004296895
243	0x3aaf3400	0.0013366938
244	0x3aa77e7e	0.0012778786
245	0x3c64c197	0.013962171
246	0x3c23419e	0.009964375
247	0x3cccf0fe	0.025017258
248	0x3cf9875f	0.030460058
249	0xbab7088d	-0.001396434
250	0x3bb378d6	0.0054770513
251	0x3b9aa816	0.0047197444
252	0xbe48c39b	-0.19605868
253	0x3deae491	0.11469377
254	0xbecac8d1	-0.39606336
255	0xbd9a2f95	-0.07528607

net.0.bias f4 [256]
0	0x3e2280ef	0.15869497
1	0x3de0e952	0.10982002
2	0xbe8bc5e3	-0.27299413
3	0xbd24625a	-0.040132858
4	0xbdc190cc	-0.09451446
5	0xbe417e3d	-0.18895812
6	0xbeceff7e	-0.404293
7	0x3dec713a	0.11545034
8	0xbd2b5e4e	-0.041837983
9	0xbe431946	-0.1905261
10	0xbe20e38d	-0.15711804
11	0xbec2d9e0	-0.3805685
12	0xbef565c4	-0.47929204
13	0xbe426e5f	-0.18987416
14	0x3de9afb0	0.11410463
15	0xbeafd185	-0.34339538
16	0x3ca70191	0.02038649
17	0xbe09b45d	-0.1344771
18	0xbe882c8c	-0.26596487
19	0x3e237178	0.15961254
20	0x3e1206dc	0.14260429
21	0x3ee77bce	0.45211643
22	0x3ea5f9fa	0.3241728
23	0x3dd7e5fe	0.105419144
24	0x3e4e5b07	0.20151912
25	0xbe09efab	-0.13470332
26	0x3e1cdf56	0.15319571
27	0x3e104dc8	0.14092171
28	0xbefcb254	-0.49354804
29	0x3e634a3d	0.22196288
30	0x3e9ca2e2	0.3059302
31	0x3dfb6553	0.122751854
32	0x3c9bc53b	0.019014945
33	0x3f1b1e43	0.6059305
34	0xbe749a16	-0.23886904
35	0xbccf983f	-0.025341151
36	0x3eeecff9	0.46643046
37	0x3e621a42	0.22080329
38	0xbe207e01	-0.15673067
39	0x3e00671f	0.12539338
40	0xbe8ee66c	-0.27910173
41	0xbda88c3c	-0.082298726
42	0xbe21e95c	-0.15811676
43	0xbe0e5466	-0.13899383
44	0xbc3648ec	-0.011125784
45	0xbe7511b8	-0.2393254
46	0xbe50690e	-0.20352575
47	0xbf0c7500	-0.5486603
48	0x3e2d90e2	0.169498
49	0x3c760e69	0.015018084
50	0xbe1449db	-0.14481299
51	0xbcfa1e1d	-0.030531937
52	0x3e159fcf	0.14611743
53	0x3e74aa71	0.23893143
54	0x3e0e3d1b	0.13890497
55	0x3cd086d4	0.025454916
56	0xbe2ccf89	-0.16876043
57	0x3e13de22	0.14440206
58	0xbe35d044	-0.17755228
59	0xbdff0fb9	-0.12454171
60	0x3e38a60e	0.18032095
61	0x3e85ea96	0.26155537
62	0x3f048235	0.5176118
63	0xbc895e5c	-0.016768627
64	0x3e9b7d4a	0.30369025
65	0x3e15b5d8	0.14620149
66	0x3d0c5eb7	0.034270015
67	0xbe1e71b5	-0.15473063
68	0xbd0253e9	-0.031818304
69	0xbdf91aa7	-0.12163287
70	0x3e1b3c70	0.15159774
71	0x3e6231eb	0.22089355
72	0x3c28fd0b	0.010314236
73	0xbe122063	-0.14270167
74	0x3e01ae04	0.12664038
75	0xbccbf6bd	-0.024897927
76	0xbd9aa27e	-0.07550524
77	0x3dfc0ca5	0.12307099
78	0x3e815762	0.2526198
79	0x3e226b9b	0.1586136
80	0xbe322f8b	-0.17400949
81	0xbec2dffb	-0.3806151
82	0xbc4a9670	-0.012364969
83	0x3e934240	0.28761482
84	0x3e2208f4	0.15823728
85	0xbe1fa400	-0.15589905
86	0x3e90e5d6	0.2830035
87	0xbe34350a	-0.17598358
88	0xbda37d52	-0.07982887
89	0xbd8c58f2	-0.068529025
90	0xbe5af089	-0.2138082
91	0x3d450c0f	0.048107203
92	0xbdb11358	-0.08646268
93	0x3e4d33eb	0.20039336
94	0xbdfe7c0b	-0.12426003
95	0x3eac1b5b	0.3361462
96	0xbde21e88	-0.110409796
97	0xbeb9a1d8	-0.3625629
98	0x3ea7de76	0.32786912
99	0xbcbfeed1	-0.023429306
100	0x3e83f2c3	0.2577115
101	0x3e11ead6	0.14249739
102	0x3f0d124a	0.5510603
103	0x3eacbc73	0.33737525
104	0xbdc031c7	-0.09384494
105	0xbdffce0d	-0.12490473
106	0x3ea17b0c	0.3153919
107	0x3e04297e	0.12906453
108	0xbe16d941	-0.14731313
109	0xbd013da2	-0.03155292
110	0xbe22f5ec	-0.15914124
111	0x3e5061f6	0.20349869
112	0xbe066768	-0.13125384
113	0xbe093b4f	-0.1340153
114	0x3eaf2365	0.3420669
115	0x3df48ce2	0.11940934
116	0x3e464dd9	0.19365634
117	0x3e2b3a11	0.1672137
118	0xbdddbb4f	-0.10826742
119	0xbed3e18a	-0.4138301
120	0xbee16d69	-0.44028786
121	0xbdb8b3c1	-0.0901866
122	0x3eb83e9f	0.35985276
123	0xbcb14071	-0.021637173
124	0x3e70a7ef	0.23501562
125	0xbe074332	-0.13209227
126	0x3c7bb041	0.015361846
127	0x3ce13564	0.027491279
128	0xbe92fe73	-0.28709754
129	0x3e558796	0.20852503
130	0x3e067514	0.131306
131	0x3e3a7b43	0.18211083
132	0xbe09ee28	-0.13469756
133	0x3e9bd37a	0.3043478
134	0xbd95d1b0	-0.07315385
135	0x3e2a2408	0.16615307
136	0x3e6c7398	0.2309097
137	0x3dc33127	0.095308594
138	0x3e8178a7	0.25287363
139	0xbe85a053	-0.2609888
140	0x3e30ef1e	0.17278716
141	0x3ea90b69	0.33016518
142	0x3d55b978	0.05217883
143	0xbcbbf279	-0.022942768
144	0x3dad35b7	0.08457511
145	0xbe819164	-0.25306237
146	0xbe08739d	-0.13325353
147	0xbe9959e4	-0.29951394
148	0xbe5663e5	-0.20936544
149	0xbe5426d7	-0.20717941
150	0x3da7b04a	0.08187921
151	0x3dd166ab	0.102246605
152	0x3ded06dc	0.11573574
153	0xbdc449f4	-0.09584418
154	0xbe2ae588	-0.16689122
155	0x3b7545a6	0.0037425547
156	0xbe5cf3bb	-0.21577351
157	0x3dda5de4	0.106624395
158	0x3eace412	0.33767754
159	0x3e2991ea	0.16559568
160	0xbe1d57be	-0.15365502
161	0x3e905b30	0.2819457
162	0x3e1a00e1	0.15039398
163	0xbe10c9c2	-0.14139464
164	0x3e9b8055	0.30371347
165	0x3f18141e	0.59405696
166	0x3d59b47f	0.05315065
167	0x3ea5609f	0.3230028
168	0xbd84e9ea	-0.06489928
169	0xbd939ca2	-0.0720761
170	0x3d577286	0.052599452
171	0x3e288684	0.16457564
172	0x3db1cabd	0.086812474
173	0xbb92d822	-0.0044813314
174	0xbe579a68	-0.21054995
175	0x3e3074e3	0.17232089
176	0x3e47cb1c	0.19511074
177	0x3e7e98a5	0.24862917
178	0xbe08618b	-0.1331846
179	0xbe0cf364	-0.13764721
180	0x3d0686a0	0.032843232
181	0x3e3f40b9	0.18677033
182	0xbe8475a4	-0.25871003
183	0x3db3e475	0.08783809
184	0xbdf27511	-0.11838735
185	0xbeaf2384	-0.34206784
186	0xbe5ba7a9	-0.21450676
187	0xbbfdbdff	-0.0077435966
188	0x3eb33c16	0.3500678
189	0x3e81667d	0.25273505
190	0xbe1278f7	-0.14303957
191	0xbe3ef0ea	-0.18646589
192	0xbcf6708e	-0.030082967
193	0x3dea65e9	0.11445219
194	0xbd8c7d43	-0.06859829
195	0xbd796995	-0.060891706
196	0x3e780f53	0.24224596
197	0x3d6af3a9	0.05736128
198	0x3e92eaa3	0.2869464
199	0xbeae63da	-0.34060556
200	0xbe8be68c	-0.2732433
201	0x3e27f37f	0.1640148
202	0xbeaf3a1a	-0.34224015
203	0xbdd35ed1	-0.10320819
204	0xbc8dda11	-0.017315896
205	0xbe8b6735	-0.27227178
206	0x3e91b82a	0.2846082
207	0x3c8f24e1	0.01747364
208	0x3eaf2389	0.342068
209	0xbf3e4e69	-0.74338394
210	0xbe6cf038	-0.23138511
211	0x3da69bf0	0.081352115
212	0x3dcbef4d	0.099577524
213	0x3da8d5e7	0.08243924
214	0x3c88fcc4	0.01672209
215	0x3f19fc5f	0.6015071
216	0x3dfb4aff	0.12270164
217	0x3e877bef	0.2646174
218	0xbf038f1c	-0.5139024
219	0xbe34311a	-0.17596856
220	0xbf09b346	-0.53789175
221	0xbeaf237d	-0.34206763
222	0xbdc5e243	-0.096622966
223	0xbd94c400	-0.072639465
224	0x3e3c304e	0.18377802
225	0xbd0d5a8f	-0.03451019
226	0xbcefe97f	-0.029286144
227	0x3e00f951	0.12595107
228	0x3e7fbe43	0.24974923
229	0x3d230aa7	0.03980508
230	0x3e5aa304	0.21351248
231	0x3e8c8560	0.27445507
232	0xbe034650	-0.12819791
233	0x3c033dc3	0.008010331
234	0x3e1dc5d5	0.15407498
235	0xbec7aae2	-0.3899756
236	0x3d568a5a	0.052378036
237	0xbcd78e9a	-0.026313115
238	0xbe0b4acc	-0.13602751
239	0x3e83648f	0.25662658
240	0xbbf9c036	-0.0076217903
241	0xbe3f5bfe	-0.18687436
242	0xbe8351e8	-0.25648427
243	0xbe48c295	-0.19605477
244	0x3e944320	0.28957462
245	0xbe3112e4	-0.17292362
246	0x3ead65fb	0.33866867
247	0xbe007dc4	-0.12547976
248	0xbf0a0357	-0.53911346
249	0xbe563fa5	-0.20922716
250	0x3e1a70ab	0.15082042
251	0xbe28afa5	-0.16473253
252	0xbeb5c7c1	-0.35503963
253	0xbdf6e553	-0.12055459
254	0xbd9d9f9b	-0.07696458
255	0x3d780c38	0.060558528

net.2.weight f4 [256, 256]
0	0x3b640171	0.0034790898
1	0x3d4f56d3	0.05061991
2	0x3e524eb0	0.2053783
3	0x3d066a38	0.03281614
4	0xbec8262e	-0.3909163
5	0xbd6843da	-0.056705333
6	0x3e12c338	0.14332283
7	0xbc62dc28	-0.013846435
8	0xbd835a20	-0.06413674
9	0x3db5016f	0.08838164
10	0x3d2d146e	0.04225581
11	0xbc2ca43a	-0.010537202
12	0xbd48e3f8	-0.049045533
13	0x3cdc5a38	0.026898488
14	0x3c17a813	0.009256381
15	0xbd5fff2a	-0.054686703
16	0x3cdc8cfe	0.026922699
17	0x3c06f21f	0.008236437
18	0xbda6311c	-0.081148356
19	0x3b7b37c0	0.003833279
20	0xbd083311	-0.033251826
21	0x3d75cae9	0.060007963
22	0xbda2dafc	-0.07951924
23	0xbc59ce5d	-0.01329383
24	0x3e205ab9	0.15659608
25	0xbc44bd01	-0.012007953
26	0xbdd100b4	-0.10205212
27	0xbb97b354	-0.004629532
28	0x3de32d66	0.110926434
29	0xbe662ade	-0.2247729
30	0x3d2ded35	0.042462546
31	0x3d9d1a4a	0.0767103
32	0xbc8f7215	-0.017510453
33	0xbdbc2793	-0.09187236
34	0x3d821672	0.06351937
35	0x3e47ea5f	0.19522999
36	0xbe19d9a1	-0.15024425
37	0xbd447e2e	-0.047971897
38	0xbcba500d	-0.02274325
39	0xbc35391d	-0.01106098
40	0xbd62f9b4	-0.055413917
41	0x3db38508	0.08765608
42	0xbd60baf5	-0.054865796
43	0x3ce0ec80	0.027456522
44	0x3e230eec	0.15923661
45	0xbd2687a1	-0.04065669
46	0x3cf8bb05	0.030362615
47	0x3d823a0f	0.0635873
48	0x3dd50f4d	0.10403309
49	0x3b8aae79	0.0042322245
50	0x3cc4c9e4	0.02402205
51	0x3d867d5c	0.06566879
52	0xbcc4886e	-0.023990836
53	0xbdb2501a	-0.087066844
54	0xbc30e657	-0.010797105
55	0x3d3fa09d	0.046784032
56	0x3d1beeb6	0.03806945
57	0x3ec8b629	0.39201477
58	0x3cec9f8b	0.02888467
59	0x3da99bb2	0.0828165
60	0x3dcc62c0	0.099797726
61	0xbd501d3a	-0.050809123
62	0xbe490879	-0.19632138
63	0x3c2d0c14	0.010561962
64	0x3d8ef718	0.06980723
65	0xbecc9144	-0.3995458
66	0xbdae6e84	-0.08517173
67	0xbdca3ced	-0.09874902
68	0x3e088940	0.13333607
69	0x3cf816d6	0.030284327
70	0xbbda0099	-0.0066529033
71	0xbd99c045	-0.07507376
72	0xbdb16057	-0.086609535
73	0x3b1a4de5	0.0023544964
74	0xbe3b6ac6	-0.1830245
75	0x3df8bb73	0.12145128
76	0x3d993f40	0.07482767
77	0xbce32894	-0.02772931
78	0x3c05b772	0.008161413
79	0xb990c850	-0.00027615065
80	0x3c0a0193	0.008423227
81	0xbca1896c	-0.019718848
82	0xbdd97cbe	-0.10619496
83	0xbd5be434	-0.05368443
84	0x3da72004	0.08160403
85	0xbe032cda	-0.12810078
86	0x3c87b741	0.016566874
87	0xbd9e40aa	-0.077271774
88	0x3dc0dec4	0.09417489
89	0xbd105f8d	-0.035247374
90	0x3d7fcf0b	0.06245331
91	0xbe98ad1f	-0.2981958
92	0x3d47e0dd	0.04879843
93	0x3d454093	0.048157286
94	0x3c3c413c	0.011490162
95	0x3d228e9f	0.039686795
96	0x3d280e38	0.041029185
97	0x3c1ecfea	0.009693125
98	0x3ceb5892	0.028728757
99	0xbdad367a	-0.08457656
100	0x3e3876a4	0.18014008
101	0x3d978371	0.07398117
102	0x3cf0922b	0.029366573
103	0xbd54f934	-0.05199547
104	0x3db53867	0.088486485
105	0x3ec74f30	0.38927603
106	0x3da8b401	0.08237458
107	0xbc8e1095	-0.017341891
108	0x3c186972	0.009302484
109	0x3c98762b	0.018611034
110	0x3d990a66	0.074726865
111	0xbd10c8e1	-0.035347823
112	0xbe5b02cd	-0.21387787
113	0x3d6c2e29	0.05766121
114	0x3d46ba08	0.048517257
115	0x3d96e196	0.07367246
116	0x3d8f9208	0.07010275
117	0x3cfffb2b	0.031247696
118	0xbe1075e9	-0.14107479
119	0x3c8dafe8	0.017295793
120	0x3e1174ec	0.14204758
121	0xbeb62379	-0.35573938
122	0x3e31c69d	0.17360921
123	0x3bdd3b7d	0.0067514763
124	0x3c0d8ccb	0.008639525
125	0x3ced3f85	0.028960953
126	0x3daeaf5e	0.085295424
127	0xbb714bd6	-0.0036818883
128	0xbd83fbfc	-0.064445466
129	0xbd2ce6c2	-0.042212255
130	0xbc542675	-0.012948622
131	0xbcfd8d04	-0.03095103
132	0x3cb16c87	0.021658195
133	0xbe926a2f	-0.28596637
134	0xbd0dcaeb	-0.034617346
135	0xbbe391d4	-0.0069448743
136	0xbc95a504	-0.018267162
137	0x3d669436	0.05629369
138	0x3d146a84	0.036234394
139	0xba255013	-0.00063061825
140	0xbceb4eee	-0.02872416
141	0x3d40a2c4	0.047030225
142	0xbddcea93	-0.10786929
143	0x3da2a4dd	0.079416014
144	0x3c5e3b4c	0.013563942
145	0x3d384e27	0.044996407
146	0x3ccbabb7	0.024862153
147	0xbd395d0f	-0.045254763
148	0x3dc314be	0.09525441
149	0xbd5abad9	-0.053400848
150	0xbe37253c	-0.17885298
151	0x3dcf8bb5	0.10134069
152	0xbcb5aae7	-0.02217622
153	0x3d82a79c	0.06379625
154	0x3b357740	0.0027689487
155	0xbdb0e9d8	-0.08638352
156	0xbcd8467a	-0.026400793
157	0x3dced1b8	0.100985944
158	0xbce925a1	-0.028460326
159	0xbd811588	-0.06302935
160	0xbd92f757	-0.071760826
161	0x3cb1021e	0.021607455
162	0xbd49cf81	-0.049270157
163	0x3e0a64ba	0.13514987
164	0x3c3b44b7	0.011429957
165	0xbdfb6f8d	-0.12277136
166	0x3c54a928	0.012979783
167	0xbd5d4932	-0.054024883
168	0x3e0a1ef6	0.13488373
169	0x3b340172	0.0027466682
170	0x3c8070d7	0.015678806
171	0x3d478ea2	0.04872001
172	0xbd1a4233	-0.03766079
173	0xbd28e2dc	-0.041231975
174	0xbd03f607	-0.03221705
175	0xbd4e6a52	-0.050394364
176	0xbd424538	-0.047429293
177	0x3c6a2855	0.0142918425
178	0x3d4e1819	0.05031595
179	0x3c4f96cf	0.012670233
180	0x3d876b22	0.06612231
181	0xbdb72f49	-0.08944566
182	0x3d74bd29	0.05975071
183	0xbd9d3a88	-0.076771796
184	0x3ce2ff7c	0.027709715
185	0xbd46ba1a	-0.048517324
186	0x3c51ddec	0.012809258
187	0xbd9e731d	-0.077368
188	0x3d74d6c7	0.05977514
189	0xbcfbfba5	-0.030759642
190	0x3b92fa59	0.00448541
191	0xbc5db664	-0.013532255
192	0xbda9c1b6	-0.082889006
193	0xbd13bacf	-0.036066826
194	0x3d91e70f	0.07124149
195	0xbd87d5bf	-0.06632566
196	0x3d6a1e9c	0.057158098
197	0x3bee931c	0.0072807204
198	0x3d4d31e2	0.0500964
199	0x3cd3e983	0.025868183
200	0xbd3ae8c5	-0.045632143
201	0xbd3497ed	-0.0440902
202	0xbd46a6d2	-0.048498936
203	0xbc8bfcfa	-0.017088402
204	0xbd457939	-0.04821131
205	0xbd8588b4	-0.06520215
206	0xbd3eea22	-0.046610005
207	0xbd3a80a4	-0.045532838
208	0x3d46ba16	0.04851731
209	0x3e0ebbe3	0.1393886
210	0x3d7fe9f8	0.06247899
211	0xbcffcb4b	-0.031224867
212	0x3d5b4494	0.053532198
213	0x3d215e83	0.039396774
214	0x3db177af	0.08665406
215	0x3cca3a62	0.024686042
216	0xbd0327e2	-0.032020457
217	0xbd2b7b02	-0.041865356
218	0xbc37b112	-0.01121165
219	0xbd9bccd3	-0.076074265
220	0x3da781ee	0.08179079
221	0xbd46ba17	-0.048517313
222	0x3d5bd4a5	0.05366959
223	0xbdbc789e	-0.092026934
224	0x3be91e14	0.0071141813
225	0x3dbea48c	0.093087286
226	0x3db961ae	0.09051834
227	0xbc4e1204	-0.012577537
228	0xbb1a73fd	-0.002356767
229	0xbd9bb351	-0.07602561
230	0xbdac42f1	-0.084112056
231	0xbcc1287c	-0.023578875
232	0x3d3776d1	0.044791047
233	0x3d423e30	0.047422588
234	0x3df77663	0.12083127
235	0x3e0a8c3f	0.13530062
236	0xbd435d3c	-0.047696337
237	0x3e844bd9	0.25839117
238	0xbd01bbad	-0.031673122
239	0x3de76936	0.11299364
240	0x3d6fe65a	0.05856929
241	0xbe134f3b	-0.14385693
242	0x3d3f1209	0.04664806
243	0x3e19a32e	0.15003654
244	0xbd8b7f68	-0.0681141
245	0xbcbbb3b4	-0.022912838
246	0xbb7e2697	-0.0038780326
247	0x3d510e67	0.051039126
248	0xbd7aec04	-0.06126024
249	0xbce762ed	-0.028245414
250	0xbcdea2ff	-0.027177332
251	0x3d255766	0.040366553
252	0x3e7dd1ef	0.24787115
253	0x3d82735c	0.06369659
254	0xbcb4f065	-0.022087285
255	0x3e136ee0	0.14397764

net.2.bias f4 [256]
0	0x3d9267da	0.07148714
1	0x3ccde339	0.025132762
2	0x3a99b895	0.0011727983
3	0xbd3d64f7	-0.046238866
4	0xb6b3d6cf	-5.3596227e-06
5	0x3df959ab	0.12175306
6	0xbd8bdc23	-0.06829097
7	0x373be9ea	1.1200531e-05
8	0xb58c5e96	-1.0458341e-06
9	0x3e1b4313	0.15162306
10	0x3cb6d722	0.02231938
11	0xbd2fd527	-0.042927887
12	0xbda0a40a	-0.07843788
13	0x366623a9	3.4293428e-06
14	0xbd519845	-0.051170606
15	0x3d3fa785	0.04679062
16	0x3c628b33	0.013827133
17	0x36d3048f	6.2888207e-06
18	0xbd6292d1	-0.055315796
19	0xb698f1f9	-4.5581223e-06
20	0xbda8be53	-0.082394265
21	0x3d5e2c0d	0.05424123
22	0x3cdab462	0.026697341
23	0xbe2d4509	-0.16920866
24	0x3d56c89e	0.052437417
25	0xb5e2181f	-1.6845332e-06
26	0x3ca16ae1	0.019704284
27	0xbb93de2d	-0.0045125694
28	0xb70df691	-8.461663e-06
29	0xbdf94363	-0.12171056
30	0xbda38f02	-0.07986261
31	0xbd03e02e	-0.032196216
32	0xb748197e	-1.1926864e-05
33	0x3cb2cff2	0.021827672
34	0xbd447c97	-0.04797038
35	0x3c610a8b	0.013735424
36	0x36b6231c	5.42811e-06
37	0x3c8ad128	0.016945437
38	0xbcf5af79	-0.029990898
39	0x36dd6ad8	6.5987515e-06
40	0x3d488eba	0.04896424
41	0xbd0d0872	-0.034431882
42	0xb701897e	-7.721012e-06
43	0xb6fbe2b8	-7.5067765e-06
44	0xbc34bf64	-0.011031959
45	0x3e14441b	0.14479105
46	0xb7090536	-8.16705e-06
47	0x3df94c5c	0.121727675
48	0xbc144a90	-0.00905098
49	0xb743fb9c	-1.1681488e-05
50	0xb7068bc2	-8.019562e-06
51	0xbd89b4d4	-0.06723943
52	0x3d419359	0.047259662
53	0xb56d22d3	-8.8340056e-07
54	0x3d3f4710	0.04669863
55	0x3d65b4f3	0.05608077
56	0x3df95d16	0.12175958
57	0xb6408138	-2.8685445e-06
58	0x3dda8443	0.10669758
59	0xb6ce9c6b	-6.157488e-06
60	0x3cd2e32f	0.025743095
61	0xbe18ad65	-0.14909895
62	0xbdd3017f	-0.1030302
63	0xbd7aa236	-0.061189853
64	0xbda257dd	-0.07926915
65	0xbdd43b6b	-0.103628956
66	0x3df99c57	0.121880226
67	0xbdd5c9e3	-0.104388975
68	0xbda80ed6	-0.08205955
69	0xbd4c6542	-0.049901254
70	0xb5b91a76	-1.3791275e-06
71	0x3df9816d	0.12182889
72	0x361fc0b9	2.3805026e-06
73	0xbcb0020f	-0.021485357
74	0xbc3091f3	-0.0107769845
75	0x3d7d4bdb	0.06183992
76	0x3ba0f1e2	0.004911647
77	0xbb9882fe	-0.0046542874
78	0xbdc73898	-0.09727591
79	0xbdf8e8cc	-0.121537775
80	0x3d3d7f3c	0.04626392
81	0xbd2b116a	-0.041764654
82	0x3d03853a	0.032109477
83	0xbd1326ac	-0.035925552
84	0xbc0fc62c	-0.008775275
85	0x3d7a74cc	0.061146542
86	0x3d4630ce	0.048386388
87	0x3df927a2	0.121657625
88	0x3dad4908	0.08461195
89	0x3cff85b0	0.031191677
90	0xbd845fdf	-0.064635985
91	0x362f97da	2.6165421e-06
92	0x358b7fb9	1.0393479e-06
93	0xb6950bf4	-4.4419376e-06
94	0x3cd35252	0.02579609
95	0xbdf6f212	-0.1205789
96	0x3d89440f	0.06702434
97	0xbd3b0e01	-0.045667652
98	0x3ca647b1	0.020297857
99	0x3b304b5f	0.0026900393
100	0x3d152251	0.03640968
101	0xbc46fc7e	-0.01214516
102	0x3df95a5d	0.121754386
103	0x361683bc	2.2428421e-06
104	0xbd818af7	-0.063253336
105	0xbd837719	-0.064192005
106	0x3d795959	0.060876224
107	0x3d42efcc	0.04759197
108	0x3bc77605	0.006087067
109	0x3b010c74	0.001969126
110	0x3d15b643	0.03655077
111	0x3d73f8aa	0.059563316
112	0xb6332b72	-2.6698367e-06
113	0x3c510d28	0.012759484
114	0x3626c0bc	2.4848114e-06
115	0xbd125b4e	-0.035731606
116	0xbd2b63c0	-0.041843176
117	0x3bd5339b	0.006506396
118	0xbd4c829e	-0.049929254
119	0xbd576e78	-0.052595586
120	0x3e296a26	0.16544399
121	0xb658ecbc	-3.2324306e-06
122	0xb6120992	-2.1761266e-06
123	0xbd35f357	-0.04442152
124	0x3b2d364e	0.0026430073
125	0xbdccb03d	-0.09994552
126	0x3ce544fb	0.027986994
127	0x3654d16f	3.1712368e-06
128	0xb6702070	-3.5781668e-06
129	0x3da3ff24	0.080076486
130	0xb6aabd92	-5.0884637e-06
131	0x361f90fe	2.3777243e-06
132	0x3694e999	4.437938e-06
133	0x36258f5e	2.4670367e-06
134	0x3d4bc174	0.04974504
135	0xbc44bb8c	-0.012007605
136	0x360dadef	2.111188e-06
137	0xbe10a63b	-0.14125912
138	0x3667c4e2	3.4536283e-06
139	0x3d20712a	0.03917042
140	0xb4f1eb75	-4.5061066e-07
141	0xb6563015	-3.1916472e-06
142	0xb6f5b7da	-7.322972e-06
143	0x36182b62	2.2675017e-06
144	0xb60e929e	-2.1244991e-06
145	0x3d9bcdea	0.07607634
146	0x369c86a3	4.664836e-06
147	0x3bdc6fd1	0.0067271967
148	0xbd603edb	-0.054747444
149	0x3e668922	0.2251325
150	0x3d5257b7	0.051353183
151	0x3dd2d9f7	0.1029548
152	0x3ba43821	0.005011574
153	0xbd0ac273	-0.033876847
154	0x368f5d4b	4.272593e-06
155	0xbd85bfde	-0.065307364
156	0xb743824a	-1.1653241e-05
157	0x3647255e	2.9675061e-06
158	0xbd51771a	-0.051138975
159	0xb618b05f	-2.2752427e-06
160	0xbd5a5ca4	-0.053311005
161	0xb67d5b1b	-3.7752968e-06
162	0xbc0bfc4b	-0.008544038
163	0xbc3df014	-0.011592884
164	0xb6279c48	-2.4975907e-06
165	0x3e0407f3	0.12893657
166	0xb72f151f	-1.04357305e-05
167	0xbc0686d4	-0.0082108565
168	0x3cbfd048	0.023414746
169	0xb5e9713c	-1.7392808e-06
170	0x3e41342f	0.18867563
171	0x3cdc9fe1	0.026931705
172	0xb5eac426	-1.7491445e-06
173	0x3c3bfc23	0.011473688
174	0xbc5c3133	-0.013439464
175	0x3c133bd4	0.008986432
176	0x3e2bbe46	0.16771802
177	0xbdf918e1	-0.121629484
178	0xbe5ee8e3	-0.21768527
179	0xbd435efc	-0.047698006
180	0x37662d04	1.3719549e-05
181	0x3df99d35	0.12188188
182	0x35a1a6e9	1.2044012e-06
183	0xb696aab8	-4.4902226e-06
184	0x3c8889cc	0.01666727
185	0xbddc7fc6	-0.10766558
186	0x3d2ddf37	0.042449202
187	0xbdf76c62	-0.12081219
188	0xb7050959	-7.929594e-06
189	0x3df94d45	0.12172941
190	0xbaf416fd	-0.0018622574
191	0xb61b55b0	-2.3146677e-06
192	0x3d8e0c6d	0.06935964
193	0x3c75b237	0.014996103
194	0xbcdc52fa	-0.026895035
195	0x3d91ea1b	0.0712473
196	0xbd6b3727	-0.057425644
197	0xb71d9f09	-9.3949575e-06
198	0x3d8f552b	0.069986664
199	0x3c243345	0.010021989
200	0x363662b2	2.7177562e-06
201	0xbd8b8b22	-0.06813647
202	0x362948d0	2.5225345e-06
203	0xb6613326	-3.3557385e-06
204	0x3d2a5e5b	0.04159389
205	0x3cdda8c2	0.027058009
206	0x3d308ca1	0.043102864
207	0x3d1495ce	0.036275677
208	0xb69eba5f	-4.7304634e-06
209	0xb6a170d9	-4.811311e-06
210	0xbc82ad57	-0.015951796
211	0xbc5836b6	-0.013196638
212	0x3d2a9678	0.041647404
213	0xbc706cee	-0.014674408
214	0xb6b13c52	-5.2820333e-06
215	0x3e02abfb	0.12760918
216	0x3d336043	0.043792974
217	0xbc18e4df	-0.009331911
218	0x3a07a037	0.0005173715
219	0xb6f778d7	-7.3752412e-06
220	0xbd13b301	-0.036059383
221	0x3d36b1d1	0.044603173
222	0xbd24bfce	-0.04022198
223	0x3d3d0f8f	0.046157416
224	0x3d8cd9f2	0.06877507
225	0xbdf9864d	-0.12183819
226	0xbd72a880	-0.059242725
227	0x3b8b9151	0.0042592664
228	0x351abb56	5.764208e-07
229	0x3b66ed77	0.0035236755
230	0xbd94cf2f	-0.0726608
231	0xbd335f3c	-0.043791994
232	0x3d2a9154	0.041642502
233	0xbce77bef	-0.028257338
234	0x361783de	2.257751e-06
235	0x3d3b13e0	0.04567325
236	0xbb88fc1e	-0.0041804453
237	0xbd5c2257	-0.053743687
238	0x3d616606	0.055028938
239	0xb6ef213f	-7.1266254e-06
240	0xb6185556	-2.2699437e-06
241	0x3df8910d	0.12137041
242	0x3df9c6ce	0.12196122
243	0x3d3404c4	0.043949857
244	0x369ffdbb	4.7681074e-06
245	0x3d34e6c8	0.044165403
246	0xbc7e0c47	-0.015505857
247	0x3d5e1071	0.0542149
248	0xb663e52a	-3.3959027e-06
249	0xb6fd695d	-7.5522535e-06
250	0xbd37f058	-0.044906944
251	0xbc449a44	-0.01199967
252	0xbd46092c	-0.04834859
253	0x3d3c7741	0.046012167
254	0x3e09be56	0.13451514
255	0xbdad7540	-0.08469629

net.4.weight f4 [256, 256]
0	0x36af1285	5.2175624e-06
1	0x366c976a	3.5254875e-06
2	0x3518a384	5.686236e-07
3	0x3566d02e	8.598462e-07
4	0x31d70b2d	6.258594e-09
5	0x34945161	2.762636e-07
6	0xb63a44ca	-2.77562e-06
7	0xb1af0d61	-5.0946913e-09
8	0x314db9ac	2.9936968e-09
9	0xb5bbcdbe	-1.3992465e-06
10	0x36b9f54e	5.541987e-06
11	0xb67aaaa4	-3.735223e-06
12	0xb5df39ed	-1.6631653e-06
13	0xb1da4126	-6.3520416e-09
14	0xb609f0e9	-2.055482e-06
15	0x36145137	2.2100992e-06
16	0x363cce2b	2.8134189e-06
17	0xb1884704	-3.9661945e-09
18	0xb696cbcf	-4.494075e-06
19	0x31e81b8c	6.7552204e-09
20	0x3630c44b	2.6340301e-06
21	0xb6c3b905	-5.832992e-06
22	0x35353138	6.7499377e-07
23	0xb5643fb9	-8.502935e-07
24	0xb6877a98	-4.0375853e-06
25	0x316b3dbc	3.4232093e-09
26	0x36fd30ee	7.5456837e-06
27	0xb6b495f7	-5.3818762e-06
28	0x31d0c5ad	6.07607e-09
29	0xb49495f4	-2.7676253e-07
30	0x36905bba	4.302213e-06
31	0xb636813b	-2.7195335e-06
32	0x31d010e7	6.0555183e-09
33	0x3574ca87	9.11918e-07
34	0x35d76c96	1.6050351e-06
35	0xb3e7a0a3	-1.07859954e-07
36	0xb1d9781f	-6.3291874e-09
37	0x32e4651e	2.6588676e-08
38	0x362e28f1	2.5951852e-06
39	0xb1cbe833	-5.9344756e-09
40	0xb6699ca1	-3.4810876e-06
41	0x3653c4cc	3.1556e-06
42	0x31b7c960	5.3488947e-09
43	0x31a9b145	4.9387006e-09
44	0xb644316c	-2.9235043e-06
45	0xb6d0cc42	-6.222662e-06
46	0x31671047	3.3624177e-09
47	0x3494798b	2.7655582e-07
48	0x368e64ef	4.24368e-06
49	0x3152ed9a	3.0694083e-09
50	0x31c0ca84	5.610959e-09
51	0x3596f8e5	1.1248309e-06
52	0xb662237e	-3.3697283e-06
53	0x318ac605	4.038841e-09
54	0x37468b2c	1.1834123e-05
55	0x36138d42	2.198693e-06
56	0x3494471d	2.761889e-07
57	0x31ca6f4e	5.8916276e-09
58	0xb54318c4	-7.26792e-07
59	0x3185462f	3.8787884e-09
60	0x36e1c3ff	6.7283395e-06
61	0xb5ed9427	-1.7700994e-06
62	0x361ee67e	2.3677999e-06
63	0x35cc2000	1.5208498e-06
64	0xb6191c5c	-2.2815284e-06
65	0xb5d73bff	-1.603621e-06
66	0x34939500	2.7489295e-07
67	0x352a3d83	6.3419446e-07
68	0x36af6b12	5.227871e-06
69	0x3652d223	3.1414754e-06
70	0x31b03ae6	5.12897e-09
71	0x3493dd31	2.7541822e-07
72	0xb18555bd	-3.8805568e-09
73	0xb69af225	-4.617747e-06
74	0x36884cf8	4.062076e-06
75	0xb51bdf78	-5.806719e-07
76	0x371c9986	9.33407e-06
77	0x36d611d2	6.3797715e-06
78	0xb6555f38	-3.1794898e-06
79	0xb4959736	-2.7863433e-07
80	0x374e16da	1.2283877e-05
81	0xb3e30e7a	-1.05731445e-07
82	0x3663e248	3.395735e-06
83	0xb6134e7f	-2.1950398e-06
84	0x35f09295	1.7924054e-06
85	0xb66f2590	-3.563564e-06
86	0xb5db0615	-1.6318542e-06
87	0x3494e4ce	2.7733626e-07
88	0x35dbda14	1.6380241e-06
89	0xb623a055	-2.4382218e-06
90	0x366e5ad8	3.5517642e-06
91	0xb1bbb6e2	-5.4632077e-09
92	0xb0873acf	-9.839257e-10
93	0x31dbd959	6.3984484e-09
94	0x36985cd7	4.540761e-06
95	0xb49b3f20	-2.891693e-07
96	0x366dd663	3.5440542e-06
97	0xb691348e	-4.327455e-06
98	0xb721cf52	-9.644618e-06
99	0xb6de9db3	-6.634474e-06
100	0x369679ef	4.4845433e-06
101	0x36eab8a5	6.995239e-06
102	0x34944ee4	2.762455e-07
103	0xb10cf0c6	-2.0509545e-09
104	0x35bb9af7	1.3977686e-06
105	0x32665217	1.3406427e-08
106	0x370d552e	8.424087e-06
107	0x35db9be1	1.6362138e-06
108	0x3525b118	6.1724995e-07
109	0x36fcc5d8	7.5332173e-06
110	0xb5160549	-5.5887045e-07
111	0x36bccd25	5.6267186e-06
112	0x31c138f5	5.6235145e-09
113	0x35714abb	8.9888243e-07
114	0xb1ccca61	-5.9601892e-09
115	0x35d64685	1.5964766e-06
116	0xb770871a	-1.43365705e-05
117	0x351134ac	5.4093357e-07
118	0xb606d9ac	-2.0094258e-06
119	0x35f5f7fa	1.8326093e-06
120	0xb6627217	-3.3743033e-06
121	0x318b065e	4.0461563e-09
122	0x31697e0a	3.3977607e-09
123	0xb6e46ac8	-6.8073605e-06
124	0x3688a56c	4.0723735e-06
125	0xb6d11349	-6.2309305e-06
126	0xb64c7245	-3.0464882e-06
127	0x31e9b443	6.801686e-09
128	0xb182c785	-3.8061807e-09
129	0xb4a3e0d2	-3.0524694e-07
130	0x31c85458	5.830355e-09
131	0xb120ad6c	-2.3381643e-09
132	0xb1eb834d	-6.8543273e-09
133	0xb0f04b48	-1.7483694e-09
134	0xb6cd0cec	-6.1109804e-06
135	0x351571b6	5.5672297e-07
136	0xb16578a7	-3.3392469e-09
137	0xb641d61c	-2.888387e-06
138	0xb1dcc489	-6.425186e-09
139	0xb6b88a57	-5.499732e-06
140	0xb1084439	-1.9829385e-09
141	0x31d30698	6.141658e-09
142	0x31eac6a0	6.8328774e-09
143	0xb1ac1602	-5.008361e-09
144	0x312ce671	2.5160285e-09
145	0x363bf768	2.800918e-06
146	0xb1f3e747	-7.098524e-09
147	0xb6c52815	-5.8757237e-06
148	0x3409f625	1.2848666e-07
149	0xb68fe416	-4.288285e-06
150	0x36a8ad5f	5.026973e-06
151	0x353d9fd0	7.0640544e-07
152	0xb2a16ff0	-1.879377e-08
153	0x364da0bb	3.0640938e-06
154	0xb1b619c1	-5.299825e-09
155	0x35f246b3	1.8050981e-06
156	0x31d7723e	6.2703114e-09
157	0xb0c464fe	-1.4289581e-09
158	0xb65b1779	-3.2647206e-06
159	0x313bcee7	2.7329692e-09
160	0xb500847d	-4.787651e-07
161	0x31c76a13	5.8037215e-09
162	0x368d39f1	4.2088727e-06
163	0x36dc4dfa	6.5655886e-06
164	0x31ccff84	5.96623e-09
165	0x36780edc	3.696353e-06
166	0x31ccc1f1	5.95923e-09
167	0x35fc580f	1.8801092e-06
168	0x347a0a2d	2.3286766e-07
169	0x31bfab7a	5.5783262e-09
170	0x3747dac7	1.1912262e-05
171	0x330f350c	3.3343028e-08
172	0x31c24f27	5.6551417e-09
173	0xb611129b	-2.1617514e-06
174	0xb683d5ec	-3.929008e-06
175	0xb500e7a5	-4.8020803e-07
176	0x36887a1f	4.0673326e-06
177	0xb49510ea	-2.776572e-07
178	0x35814ee9	9.634215e-07
179	0xb732b878	-1.0652577e-05
180	0xb1e16554	-6.5598815e-09
181	0x349391ae	2.748688e-07
182	0xb1fcd258	-7.3580786e-09
183	0x31d2573c	6.121722e-09
184	0x368fc0d9	4.2841825e-06
185	0xb6835e8c	-3.915111e-06
186	0xb6b38534	-5.3501226e-06
187	0xb499dd8b	-2.8659665e-07
188	0x31bbb456	5.462918e-09
189	0x349476f3	2.7653695e-07
190	0x3643ef65	2.919661e-06
191	0x3122e4b6	2.370411e-09
192	0xb5ba60bc	-1.3886233e-06
193	0x370f64c1	8.546923e-06
194	0x359e3256	1.1786567e-06
195	0x359f116f	1.1851497e-06
196	0xb4352281	-1.6869491e-07
197	0x31af6c00	5.1054485e-09
198	0xb6bd2daa	-5.637955e-06
199	0x36534291	3.1480197e-06
200	0xb1c32492	-5.6794045e-09
201	0xb50025e3	-4.773885e-07
202	0xb1b5965e	-5.284888e-09
203	0x31da30e3	6.350193e-09
204	0xb62516c0	-2.4600158e-06
205	0x36b76b98	5.4663506e-06
206	0x3596ed6d	1.1244971e-06
207	0x36d91513	6.4695573e-06
208	0x30b849b7	1.3408713e-09
209	0x31d0d89a	6.0782215e-09
210	0x355774de	8.0263806e-07
211	0xb6ef94c0	-7.140072e-06
212	0x360e11eb	2.1170079e-06
213	0xb65e4346	-3.3119736e-06
214	0x31f1f9f3	7.042439e-09
215	0xb6b42396	-5.368561e-06
216	0x36cba771	6.069364e-06
217	0x3611dbb2	2.1734563e-06
218	0x36fb1613	7.4829527e-06
219	0x31a8dbab	4.914417e-09
220	0xb620f552	-2.3984653e-06
221	0xb6d0b4de	-6.2199388e-06
222	0x36874276	4.0310506e-06
223	0xb687fdb9	-4.0528507e-06
224	0xb5a1cb78	-1.2054652e-06
225	0xb493cea7	-2.7531243e-07
226	0xb5afeff2	-1.3108349e-06
227	0xb701c430	-7.734678e-06
228	0x30e355c9	1.6540805e-09
229	0xb746d80c	-1.1852022e-05
230	0xb70062ed	-7.6524275e-06
231	0xb66031de	-3.3407628e-06
232	0xb319959b	-3.5759154e-08
233	0xb5305284	-6.5685185e-07
234	0xb140c5f0	-2.8052192e-09
235	0x361f64b1	2.3751456e-06
236	0x36a17107	4.811332e-06
237	0xb6ce79cf	-6.153459e-06
238	0xb5bd24da	-1.4092323e-06
239	0x316ed5ef	3.4755165e-09
240	0x311ccaa8	2.2816184e-09
241	0x349692a5	2.8046375e-07
242	0x34931b7b	2.7400878e-07
243	0x3622a32f	2.4234866e-06
244	0xb190d126	-4.214729e-09
245	0x366b1495	3.502971e-06
246	0x35aa675f	1.2696072e-06
247	0xb5b1e052	-1.3252813e-06
248	0x31da1e45	6.3480763e-09
249	0x319d5cd9	4.579857e-09
250	0xb710d278	-8.632072e-06
251	0xb5158d7a	-5.57127e-07
252	0xb5e27c1f	-1.6874436e-06
253	0x372bcfca	1.0240774e-05
254	0x34b7ab28	3.421094e-07
255	0xb63370bf	-2.6738705e-06

net.4.bias f4 [256]
0	0xb5b2e031	-1.3327282e-06
1	0xbe73a670	-0.2379396
2	0xb589acfe	-1.0257643e-06
3	0xb601921b	-1.9307543e-06
4	0x35b9d055	1.3844207e-06
5	0xb5d34263	-1.5740046e-06
6	0xbce89a82	-0.028393988
7	0xb5dce5d4	-1.6458166e-06
8	0x359a62e8	1.150268e-06
9	0x358e6f77	1.0612265e-06
10	0x3ce3faf9	0.027829634
11	0xbc8aa20f	-0.016922979
12	0x3d61327e	0.054979794
13	0x3c5074b2	0.012723135
14	0x36074f00	2.0162552e-06
15	0x35b3c828	1.3394792e-06
16	0xbd71441c	-0.058902845
17	0xbd1066a8	-0.03525415
18	0xbb172bfa	-0.0023066984
19	0xbbea4181	-0.007148922
20	0xbd38d927	-0.045128968
21	0x35805e90	9.564264e-07
22	0xbd505997	-0.05086669
23	0x3c696a22	0.014246495
24	0x3d8af99a	0.06785889
25	0xb5bb7bfd	-1.3968671e-06
26	0x35e1c29a	1.6820443e-06
27	0x3cb5f94f	0.022213606
28	0xb56e8c7e	-8.886635e-07
29	0x3c9445dc	0.018099718
30	0x3cfb0c5c	0.030645542
31	0xbd5f94c8	-0.05458525
32	0xbc1e7b98	-0.009673022
33	0xbd65436c	-0.0559725
34	0x35cf7646	1.5457124e-06
35	0x3588fafe	1.0205838e-06
36	0x3c3a738b	0.011380087
37	0xbd91aa63	-0.07112577
38	0x3caebff9	0.021331774
39	0x359205b6	1.087951e-06
40	0xb5c370d9	-1.4561475e-06
41	0x3d80fa88	0.06297785
42	0xb5bf29a4	-1.4242728e-06
43	0x3dd3cef1	0.10342205
44	0xbbb902b5	-0.0056460747
45	0x359f7346	1.1879972e-06
46	0xb5976c32	-1.1281866e-06
47	0x3d348075	0.04406782
48	0xb60ca220	-2.0955995e-06
49	0xbd80ce7b	-0.06289383
50	0xb59fc31c	-1.1903207e-06
51	0x35648712	8.513317e-07
52	0xbd0fdde3	-0.035123717
53	0xb5962991	-1.1187968e-06
54	0xbd16a7a2	-0.03678096
55	0x3c5e5d53	0.013572055
56	0x35ef48aa	1.7828036e-06
57	0xb5552f77	-7.9417754e-07
58	0x3df2c452	0.118538514
59	0xb60a39fe	-2.0597358e-06
60	0x358125ba	9.622229e-07
61	0xbc3f3ece	-0.011672689
62	0x35d4f7f4	1.5867395e-06
63	0xbd494991	-0.049142424
64	0x35d8f484	1.6164418e-06
65	0xb549f9dc	-7.524193e-07
66	0xbb1237b0	-0.0022311024
67	0x3c30027a	0.010742778
68	0xbd0d38e2	-0.034478076
69	0x3a3e7d80	0.0007266626
70	0xbd0f2d91	-0.034955565
71	0x35c1e46f	1.4446103e-06
72	0xb59e772a	-1.1806599e-06
73	0x3d0cb3a6	0.034351014
74	0xbd2f216c	-0.042756483
75	0xbce4f2c5	-0.027947793
76	0x357d1147	9.4274986e-07
77	0xbd97f60c	-0.074199766
78	0x3dd73fed	0.1051024
79	0xbc661d3b	-0.014045055
80	0xb586ec8e	-1.0052624e-06
81	0x3d2794c3	0.040913355
82	0xb5c543c8	-1.4697371e-06
83	0xb9e61e29	-0.0004389149
84	0x35c8aad0	1.4950874e-06
85	0xbca3805a	-0.019958664
86	0xbd131c39	-0.035915587
87	0x35934e7a	1.0975193e-06
88	0xb5c27c8a	-1.4490372e-06
89	0x3c8b0aba	0.016972888
90	0xbd916c27	-0.071007065
91	0x3dd1bbe6	0.10240917
92	0x35f22bd9	1.8043166e-06
93	0x3ca2b47a	0.019861449
94	0x359adb9f	1.1537812e-06
95	0xbd83925a	-0.06424399
96	0xb585cd9f	-9.969116e-07
97	0xb608f772	-2.0409611e-06
98	0x3ce13275	0.02748988
99	0xbc11b610	-0.008893505
100	0xb5f9e12b	-1.8617478e-06
101	0x3a7e1986	0.00096931343
102	0x3554bc09	7.924978e-07
103	0x35e6a16a	1.7183313e-06
104	0xb58700f3	-1.005856e-06
105	0x35a9806f	1.262886e-06
106	0xbc3fec6c	-0.011714082
107	0xbd88a351	-0.06671775
108	0xb5624ab3	-8.430026e-07
109	0x36059e72	1.9910772e-06
110	0xbd6fef47	-0.058577802
111	0xb54a654e	-7.539828e-07
112	0x3598395f	1.134158e-06
113	0xb5cdf96f	-1.5346285e-06
114	0x3d9e7681	0.077374466
115	0xb58aa3ac	-1.0329436e-06
116	0xb573b7d2	-9.079205e-07
117	0x3588cf54	1.019313e-06
118	0xb4973b98	-2.8169302e-07
119	0xbb08f891	-0.002090011
120	0x3d110f18	0.035414785
121	0xbc10381e	-0.008802442
122	0x35c86c1d	1.4932626e-06
123	0xbdbaf170	-0.09128082
124	0x3ccad4e7	0.024759723
125	0x3d3a5844	0.045494333
126	0xbd848200	-0.06470108
127	0xbd8cd046	-0.068756625
128	0xbbcfe4a9	-0.006344397
129	0xb5d488f5	-1.5835091e-06
130	0xb46158b5	-2.098703e-07
131	0x35a87d60	1.2553464e-06
132	0xbcbd2328	-0.023088053
133	0xbcdb09b8	-0.026738033
134	0x3cb0d597	0.021586223
135	0xbc97579e	-0.018474396
136	0xb54e2878	-7.679987e-07
137	0xbd651faf	-0.05593842
138	0xbd98bc37	-0.07457774
139	0xb5decab0	-1.6599279e-06
140	0x3d08d9ec	0.03341095
141	0x3ca19a0a	0.019726772
142	0x35df8092	1.6652214e-06
143	0xbcde7475	-0.02715514
144	0x3602251e	1.9393115e-06
145	0xb581726f	-9.644554e-07
146	0x3d0dadda	0.034589626
147	0x3b808610	0.0039222315
148	0xb586bfef	-1.0039638e-06
149	0x3c4042e1	0.011734695
150	0x3d2c29b9	0.042031977
151	0x3da33cde	0.07970594
152	0x3605ea5f	1.9954966e-06
153	0x35d4fbc9	1.586851e-06
154	0x3c7034ac	0.014660995
155	0xbd53bac8	-0.0516918
156	0x3c7dcca0	0.015490681
157	0x360616f4	1.9980916e-06
158	0xb5d4a19a	-1.5842263e-06
159	0xb59f20ed	-1.1856006e-06
160	0xb5c017da	-1.4312056e-06
161	0x3590bf23	1.0784464e-06
162	0x3d31287f	0.04325151
163	0x3d1f3e28	0.038877636
164	0x360d63f4	2.1068818e-06
165	0xbd80889f	-0.062760584
166	0xb54027cc	-7.1583486e-07
167	0xb60deb72	-2.1147684e-06
168	0x3db2ed08	0.087366164
169	0xb5a893de	-1.256001e-06
170	0x3600f0bc	1.9213612e-06
171	0x3d4789a1	0.048715238
172	0xbc75e8cc	-0.015009116
173	0xbd1c6d80	-0.038190365
174	0xb5a307b9	-1.2146694e-06
175	0x3d037527	0.032094147
176	0x35c91f5d	1.4984795e-06
177	0xb5b05f99	-1.3140844e-06
178	0x36421dd7	2.8925622e-06
179	0xb631cff5	-2.6496102e-06
180	0xb5729cf4	-9.038042e-07
181	0xb60c707b	-2.0927098e-06
182	0x3d8e21b6	0.069400236
183	0x3c40b30c	0.011761438
184	0xbd41e353	-0.047335934
185	0xb5540966	-7.898983e-07
186	0x3cc41e2f	0.023940174
187	0xb5b10a75	-1.3190571e-06
188	0xb606a1b2	-2.0061675e-06
189	0x3d8d1c13	0.0689012
190	0x35b7cb80	1.3693789e-06
191	0xbdaaee1e	-0.083461985
192	0xbcc77472	-0.024347518
193	0xb5a50f6e	-1.2297949e-06
194	0xb5a08756	-1.1960317e-06
195	0x3607e267	2.024835e-06
196	0xbd26a749	-0.04068688
197	0x359f3aa3	1.1863489e-06
198	0x3d2d6990	0.042337
199	0x35a88eae	1.2558501e-06
200	0xb497a10c	-2.824312e-07
201	0x3ba96b9e	0.0051702997
202	0xbd2b7751	-0.041861836
203	0x386accd4	5.598071e-05
204	0x3c7366f5	0.01485609
205	0x3d3105c3	0.043218385
206	0x3cff2cee	0.031149354
207	0xbc1afee2	-0.009460183
208	0x3d857af5	0.06517593
209	0xbca2fe76	-0.019896727
210	0x3d64b240	0.055834055
211	0xb5af2dd2	-1.3051852e-06
212	0xbc5a598e	-0.013327016
213	0xbc276a17	-0.010218165
214	0xb60ae195	-2.0694908e-06
215	0xbd1a794e	-0.03771334
216	0xbd2a37f2	-0.04155726
217	0x3d8155e8	0.063152134
218	0x35ae8ea6	1.3005526e-06
219	0xb5e532f9	-1.7076665e-06
220	0xbdda5877	-0.106614046
221	0xbba4dcc0	-0.0050311983
222	0x3b9745a1	0.0046164547
223	0x3c9ab9d9	0.018887447
224	0xb5814e33	-9.634008e-07
225	0xb60a8a14	-2.0643974e-06
226	0xbc190a0d	-0.009340775
227	0x3c1c2ba5	0.00953189
228	0xb5a88bdf	-1.2557683e-06
229	0x35c26e16	1.4486166e-06
230	0xb5c5cffa	-1.4738173e-06
231	0x3cba22d8	0.022721693
232	0x3d6c5c54	0.05770524
233	0x3db08a67	0.08620148
234	0x3c4bca2b	0.012438337
235	0x3d0c407a	0.034241177
236	0xb6019cdd	-1.9313804e-06
237	0xb5f833db	-1.8492532e-06
238	0xb59f6918	-1.187701e-06
239	0xb549a7d2	-7.5122546e-07
240	0x3ccc8482	0.024965528
241	0x3d1ca006	0.038238548
242	0xbc809ce1	-0.015699806
243	0x3d68b6d3	0.05681498
244	0xbd2984e5	-0.041386504
245	0x35902863	1.074059e-06
246	0xbd89a4e4	-0.067209035
247	0x3d88a721	0.06672502
248	0xb428bdae	-1.5715224e-07
249	0xbd7debd0	-0.061992466
250	0xb546934c	-7.3975093e-07
251	0x3c02e333	0.007988739
252	0xb5c02635	-1.4316234e-06
253	0xbd5b78f7	-0.053582158
254	0xbd0db2be	-0.03459429
255	0x3aefebc5	0.0018304518

net.6.weight f4 [6, 256]
0	0xb691403d	-4.328815e-06
1	0xbe98825a	-0.2978695
2	0xb6a43148	-4.893318e-06
3	0xb626e533	-2.486934e-06
4	0x368c3c52	4.1793473e-06
5	0xb68bac73	-4.1625985e-06
6	0x3d2b886a	0.04187814
7	0xb67af0e8	-3.739313e-06
8	0x36a54052	4.924871e-06
9	0x3687c6d1	4.046459e-06
10	0xbe855206	-0.2603914
11	0x3dab9d04	0.08379558
12	0x3e8d4b84	0.27596676
13	0x3db5ce49	0.088772364
14	0x361589d9	2.2282968e-06
15	0x36a6deb3	4.973111e-06
16	0xbd079884	-0.033104435
17	0x3bb7cf1f	0.0056094076
18	0x3d8bb46f	0.06821524
19	0xbd62f2c8	-0.055407315
20	0xbde7eeb1	-0.11324824
21	0x3698de7d	4.555854e-06
22	0x3d4b89f9	0.049692128
23	0x3b67a025	0.0035343256
24	0x3acf1ecd	0.0015802026
25	0xb691d31f	-4.3459145e-06
26	0x363d9709	2.8251109e-06
27	0x3e31dcea	0.17369428
28	0xb6852765	-3.968295e-06
29	0x3b813d66	0.003944087
30	0xbd59a512	-0.05313594
31	0xbb01f66a	-0.0019830712
32	0x3e131944	0.14365107
33	0xbe50a29d	-0.20374532
34	0x367ea247	3.7943407e-06
35	0x3690c307	4.3142386e-06
36	0xbe7a31e0	-0.24433088
37	0xbe01b301	-0.12665941
38	0x3af0ea46	0.0018380366
39	0x3693fb42	4.4101917e-06
40	0xb68e47c7	-4.2402858e-06
41	0x3c773d14	0.015090246
42	0xb6926476	-4.3628343e-06
43	0x3e227792	0.15865925
44	0xbea6a821	-0.32550147
45	0x3694d515	4.4355497e-06
46	0xb68ecabf	-4.2555325e-06
47	0x3d229808	0.03969577
48	0xb5d57e63	-1.590652e-06
49	0xbc844feb	-0.01615139
50	0xb694d9e9	-4.436112e-06
51	0x368529bf	3.9685688e-06
52	0x3e6ccd79	0.23125257
53	0xb6926d0d	-4.3638343e-06
54	0x3e881e1d	0.26585475
55	0x3cf4132c	0.029794298
56	0x3649c430	3.006553e-06
57	0xb684e8bc	-3.9610004e-06
58	0xbe917c3c	-0.28415096
59	0xb5e14ff1	-1.6787072e-06
60	0x36519266	3.1228642e-06
61	0x3e6ffbc0	0.23435879
62	0x368987ac	4.0987125e-06
63	0xbd6669e9	-0.056253348
64	0x367938e8	3.7137015e-06
65	0xb684d08b	-3.958184e-06
66	0x3cdee813	0.027210271
67	0xbb7b3d6a	-0.0038336166
68	0x3cdd8d05	0.027044782
69	0x3eb682ee	0.35646766
70	0xbe6db124	-0.23212105
71	0x368867e8	4.065212e-06
72	0xb68479dd	-3.9480933e-06
73	0x3d2befbe	0.041976683
74	0x3eeb15de	0.4591512
75	0x3e07f576	0.1327723
76	0x3684b4c3	3.95495e-06
77	0xbe4a61e3	-0.19763903
78	0x3d1e2a68	0.03861466
79	0x3ebc5b63	0.36788473
80	0xb6804bf9	-3.8235416e-06
81	0xbe2ea0de	-0.17053553
82	0xb68e230e	-4.2360107e-06
83	0xbe8215a6	-0.2540714
84	0x364e7a6d	3.0767653e-06
85	0x3dec3bac	0.11534819
86	0xbe50f6f1	-0.204067
87	0x368e82ec	4.247171e-06
88	0xb6878a9f	-4.039451e-06
89	0x3dc22860	0.09480357
90	0xbdb34f11	-0.08755315
91	0xbe02ad8d	-0.12761517
92	0xb6d78a8b	-6.423628e-06
93	0xbea185a6	-0.31547278
94	0x369a559c	4.599524e-06
95	0xbc09998b	-0.008398424
96	0xb6855e4b	-3.974686e-06
97	0x3404fc1b	1.2385173e-07
98	0xbd88f16f	-0.06686675
99	0x3cb7b767	0.02242632
100	0xb62b824d	-2.555683e-06
101	0x3c857e31	0.016295524
102	0x3684e67c	3.9607385e-06
103	0x366acd1b	3.4988104e-06
104	0xb6859812	-3.981412e-06
105	0x3696d9ac	4.4956887e-06
106	0xbd206f03	-0.03916837
107	0xbb5a75b6	-0.0033334321
108	0xb6852312	-3.9677916e-06
109	0x3552eae0	7.8572884e-07
110	0x3e42ac56	0.19011053
111	0xb684cd67	-3.9578185e-06
112	0x368a2755	4.1172993e-06
113	0xb680ea9f	-3.8420108e-06
114	0xbe379ee6	-0.17931709
115	0xb686a303	-4.0124883e-06
116	0xb6850695	-3.964475e-06
117	0x36861e1a	3.9970155e-06
118	0xb6b1e827	-5.302037e-06
119	0xbd056166	-0.03256359
120	0x3e23061a	0.15920296
121	0xbf0f4b09	-0.5597387
122	0x364cc049	3.0510294e-06
123	0x3e6b2ae7	0.22965585
124	0xbe8c365b	-0.2738522
125	0xbea14573	-0.31498298
126	0xbbec362c	-0.007208606
127	0xbdcc2888	-0.09968668
128	0x3df0500d	0.117340185
129	0xb689b902	-4.104456e-06
130	0xb6b27723	-5.3186827e-06
131	0x36508a9b	3.1075094e-06
132	0x3c57c476	0.0131693985
133	0xbe01ba88	-0.12668812
134	0x3deb3e1d	0.114864565
135	0x3d884cf5	0.066553034
136	0xb684cd79	-3.9578267e-06
137	0x3e8ce929	0.27521637
138	0xbe799cb0	-0.24376178
139	0xb678a7ef	-3.705263e-06
140	0xbd462b47	-0.048381116
141	0xbe027343	-0.12739281
142	0x366c8187	3.5242135e-06
143	0xbe1cc2e4	-0.1530872
144	0x36305612	2.6276143e-06
145	0xb684a40d	-3.9530046e-06
146	0x3e5923f7	0.21205126
147	0xbe31e29b	-0.173716
148	0xb696bd31	-4.492373e-06
149	0x3cf03ffd	0.029327387
150	0x3d0f51f0	0.03499025
151	0x3eb50470	0.35354948
152	0x354af032	7.5600394e-07
153	0x3636e8e1	2.7255667e-06
154	0xbebfb9d7	-0.37446472
155	0xbdfa3df7	-0.1221885
156	0xbd4c2461	-0.04983938
157	0xb58c43e9	-1.0450577e-06
158	0xb48924fa	-2.5545143e-07
159	0xb69997c9	-4.5774254e-06
160	0xb6a637b4	-4.95367e-06
161	0x3693bffc	4.4032913e-06
162	0xbda7993a	-0.081835225
163	0x3cef1453	0.029184496
164	0x35f43cfd	1.8197167e-06
165	0xbca1e8e3	-0.01976437
166	0xb6a17497	-4.8117467e-06
167	0xb401ad48	-1.20771e-07
168	0xbd79b881	-0.060966972
169	0xb68d865c	-4.217769e-06
170	0x36325749	2.6574874e-06
171	0xbe034343	-0.12818627
172	0x3e899e54	0.26878607
173	0x3e3ff774	0.1874674
174	0xb68de10f	-4.2283277e-06
175	0x39cd6ab7	0.00039180156
176	0x3684acdb	3.9540296e-06
177	0xb689de5e	-4.108805e-06
178	0x36861ea4	3.9970782e-06
179	0x36d569c7	6.3602088e-06
180	0xb685115d	-3.9657302e-06
181	0xb5bd8feb	-1.4123483e-06
182	0x3c957bef	0.018247573
183	0x3e71a83f	0.23599337
184	0xbda99db1	-0.082820304
185	0xb684e0b8	-3.9600673e-06
186	0xbdbcddea	-0.09222014
187	0xb62fe02f	-2.6207524e-06
188	0xb6166627	-2.2411202e-06
189	0x3937a42c	0.00017513399
190	0x368532a5	3.9696047e-06
191	0x3dbff176	0.09372227
192	0x3e018f46	0.1265231
193	0xb6953451	-4.4466365e-06
194	0xb6906aa7	-4.3039504e-06
195	0x363f7c4d	2.853357e-06
196	0xbd8fe4e9	-0.07026083
197	0x3699a559	4.5790043e-06
198	0x3eedb041	0.46423534
199	0x36975d03	4.5109787e-06
200	0xb6b1e61b	-5.301799e-06
201	0x3d406f90	0.046981394
202	0xbe3c1fcb	-0.18371503
203	0xbd992ec2	-0.074796215
204	0xbe53aa11	-0.20670344
205	0xbdf5a865	-0.11995009
206	0x3e584886	0.21121415
207	0xbb95b076	-0.004568155
208	0x3eac7020	0.33679295
209	0xbdf98f49	-0.121855326
210	0xbe2075d5	-0.1566995
211	0xb690e735	-4.3184505e-06
212	0x3d26d932	0.040734477
213	0xbd32114b	-0.043473523
214	0x36bbf291	5.6012727e-06
215	0xbcb2fccf	-0.021849064
216	0x3e26c9af	0.16287874
217	0x3e207336	0.1566895
218	0x3695fec4	4.4702047e-06
219	0xb612d762	-2.1881065e-06
220	0xbe1f4d70	-0.15556884
221	0x3d8719ac	0.065966934
222	0xbddb5251	-0.1070906
223	0xbcd0ebb4	-0.025503017
224	0xb684b20a	-3.954633e-06
225	0xb5972ef5	-1.1264043e-06
226	0xbe72d56b	-0.23714225
227	0x3df13b18	0.11778849
228	0xb696fdb7	-4.4998847e-06
229	0x369b97e7	4.6370437e-06
230	0xb6850d55	-3.965261e-06
231	0x3e6fa050	0.23400998
232	0xbf034723	-0.5128042
233	0x3e3fdc43	0.18736367
234	0xbdc64014	-0.09680191
235	0xbe86cb5b	-0.26327023
236	0xb607c766	-2.0232633e-06
237	0xb6437624	-2.9126031e-06
238	0xb694d46a	-4.435472e-06
239	0xb684d7a3	-3.95901e-06
240	0xbe52a72a	-0.2057158
241	0xbd10e122	-0.035370953
242	0xbe52286d	-0.20523234
243	0xbdb7e3f6	-0.08979027
244	0x3caa4c79	0.020788418
245	0x36296f22	2.524765e-06
246	0xbb2723a1	-0.0025503414
247	0x3b59d852	0.003324051
248	0xb669fd69	-3.486721e-06
249	0x3e5d919c	0.21637577
250	0xb684a816	-3.9534743e-06
251	0xbc0141fc	-0.007889267
252	0xb68942a5	-4.0906766e-06
253	0xbe085b2d	-0.13316031
254	0x3eace391	0.3376737
255	0xbdf5b346	-0.11997084

net.6.bias f4 [6]
0	0x80062372	-5.63728e-40
1	0x3e7931ab	0.24335353
2	0x00033a31	2.96382e-40
3	0x3ea922aa	0.3303426
4	0x3df8d897	0.12150686
5	0x3df8d897	0.12150686
