training/nn-xsmall.pth (torch, 10087 bytes, 6 tensors)

net.0.weight f4 [32, 21]
00000000: c9ec 16bf 80b9 adbe fe52 abbc 8502 d6bd
00000010: 3696 c63c 3d88 523d 089e 58bc 28c9 9bba
00000020: 3645 923d 6754 863d 9562 123c 754a 8c3d
00000030: ae33 a7bc 1da8 07be 50a3 37be cf18 30be
00000040: 28e0 b5bd 3ff1 c0bc 3837 5cbd c3af 35bc
00000050: 4911 483d 1ae3 04bf e41f 85be 17f8 063f
00000060: b660 a03d 1850 5fbe d05f abbd 15ca babc
00000070: 1ef9 36bd 5d84 d3bd 4527 72bd cc4d 863d
00000080: 49ff cebd b255 e2bd 2c1b 63bd 5f55 f4bd
00000090: e569 31be 0310 29be 774d 05be f85c 93bd
000000a0: 7d71 d2bd 6e15 013d 4ea4 38be de67 5dbf
000000b0: 7c4e 3dbf 3ea8 5e3d 130f df3b 1b9e 8b3d
000000c0: 2376 af3c 81ef c0ba 98e9 1ebc 1914 d5bb
000000d0: 9abc 4a3c 46cd 6fbd 1644 623c 940d 033d
000000e0: d6b2 423c b933 34bc 2145 83bb 21ba cdb9
000000f0: 3006 10bc 48ba e6bc 36ef 343c a244 cfbf
00000100: 1c25 68be 71c5 a0bf 486d 86be 5df4 b53f
00000110: 86bd a93e 2047 9c3b e591 f13c 73d1 953d
00000120: 34d6 a53d 3c56 583d 5205 b3bd f2fa 553c
00000130: c16b 373c 006c a73c 6d9b d939 cd4d 9fbc
00000140: e7bd a4bc e316 93bc b018 d53e bafa 71bc
00000150: a61d cdbf f8a2 e6be 7b33 af3e 547f dd3f
00000160: a9b6 893f 89a0 e7be c640 abbe 15e4 8bbd
00000170: a303 da3c c171 39bb 420d 43bd 2596 a8bd
00000180: 3994 be3d f96a 483d 50fa 943a a0a7 05bd
00000190: a5a2 18bd 6486 1abd e0ca 97bd 0a41 4a3f
000001a0: 21db 3a3d 467b 8abf 0ba5 fcbe c2cc f93d
000001b0: c2d2 4e3e 8058 2dbf 31ca c0bf 7972 46bf
000001c0: a1ed 183f 149d 793f b82b db3e 4f56 99bd
000001d0: 3a53 3f3d 42c6 363c 399a 863c e5cc 7fbb
000001e0: ae2e dbbc 18f9 1cbd bb6b c5ba 85d9 3a3d
000001f0: 6e92 023d c66f 29bd f4d3 6cbe 9201 0d3d
00000200: d0f5 57be 1dd1 32bd a179 293d 917c 993c
00000210: e24a 92bc 28e0 57bd 49cf 8ebd bfc2 04be
00000220: 631c 8abe 466e 0f3d 649c e93c 0676 5d3c
00000230: d24d 69bb edd2 aebb 24fb 193b be19 613c
00000240: 0722 273c 2661 9b3c 3dd5 13be d2ea a03f
00000250: 2e97 de3d fba6 5cbf b793 cd3e e734 b6be
00000260: 6bdf 91be 35ad e6bd 9857 a0bd 8b64 bcbd
00000270: d07a 6ebd cb25 ad3c 10e4 90bd 1e38 a3bc
00000280: 8258 97bc dabc 7f3c 02c7 433d 5f40 743d
00000290: 9320 573d 168c c33c f587 51bb dce3 c03a
000002a0: bf9b b93e 549c 833f c522 75be cbef 45be
000002b0: b6c8 c4bc b164 513d 240f 9c3c 9ef7 27bc
000002c0: 0054 c0bc bc89 0ebd 98a8 58bc ceb5 c8bc
000002d0: aa11 85bc a009 52bc d246 1abc 6207 273c
000002e0: 998b d83c cc9a e93c ce8d 023d f84d 32bd
000002f0: 7788 33bc 297d 8f3e f541 e7be 9fcd 803e
00000300: 4d08 07bd e1e1 83bc cda2 b9bc 2fea 48bd
00000310: a7c2 46bd 9353 103c 501d a33d 20d0 143e
00000320: f6f9 2f3c f18e c9bd d651 aabd b21f 2cbd
00000330: 46b6 6cbd 579d 82bd 82a9 d3bc 9e94 723c
00000340: 2630 5437 81ec 413b 4312 e23e 00a2 6f3e
00000350: ee92 aa3e ec87 3cbd 11db 83bc 0ecc 7e3e
00000360: 1017 ca3e f85a a83e d3a4 e73d 9842 b5bd
00000370: ac35 f6bd e2cf ef3c 95a2 e13b 1951 6e3c
00000380: 4751 b7bc a116 bdbc 9ab4 d63b ddf8 3f3b
00000390: 1022 913a ad58 28bd 1621 b43c b83f a5be
000003a0: dec3 0d3f 9efa 04be 0f01 d8bd 7ec4 7b3a
000003b0: b2a7 903d b3d5 fd3d ca4e 1e3e 4451 143e
000003c0: 7639 a73d 08f8 b3bc 2d53 733c ed05 dcbc
000003d0: b925 eab9 c4ce 813c 3780 efbb 83d9 f6bc
000003e0: 182d d6bc 7d09 233b 4a71 5ebc 45ea ecbc
000003f0: 29b1 9f3d e52a 2cbd d859 d03d ce84 32bd
-0.58955055 -0.33930588 -0.020913597 -0.10449699 0.024241548 0.05139946 -0.013221271 -0.0011885511
0.07142107 0.06559067 0.008934637 0.06850139 -0.020410385 -0.13247724 -0.17933393 -0.17196964
-0.08880645 -0.023552535 -0.0537636 -0.011089268 0.04884461 -0.5190903 -0.26000893 0.52722305
0.07830946 -0.21807897 -0.08367884 -0.022801438 -0.04467117 -0.10327981 -0.05911948 0.06557807
-0.101072855 -0.11051501 -0.055445835 -0.11930346 -0.17325552 -0.16510014 -0.13017832 -0.07195467
-0.102755524 0.031514578 -0.18031427 -0.86486614 -0.7394788 0.054359667 0.006807217 0.068172656
0.021418637 -0.0014719815 -0.009699248 -0.00650264 0.012374068 -0.058545373 0.013810178 0.03199537
0.011883458 -0.01099866 -0.0040060435 -0.00039239324 -0.008790538 -0.028164998 0.01104336 -1.619282
-0.22670406 -1.2560254 -0.2625525 1.4215199 0.33152407 0.004769221 0.029488513 0.0731534
0.08097497 0.052816615 -0.08741249 0.013060318 0.011195124 0.02043724 0.00041505267 -0.019446278
-0.020110084 -0.01795525 0.41620398 -0.0147692505 -1.6024673 -0.4504621 0.34218964 1.7304482
1.0758868 -0.45239666 -0.33447856 -0.068306126 0.026613062 -0.0028296562 -0.047620066 -0.08231763
0.09305615 0.048930142 0.0011366103 -0.032630563 -0.037264485 -0.03772582 -0.07411742 0.7900549
0.045619134 -1.081887 -0.49344668 0.121972576 0.20197585 -0.67713165 -1.5061704 -0.7751842
0.5973759 0.9750531 0.42806792 -0.07487165 0.04671023 0.011155667 0.016430961 -0.0039032039
-0.026755657 -0.03832349 -0.0015062013 0.0456176 0.031877927 -0.04136636 -0.23127729 0.034425326
-0.21089864 -0.043656457 0.04137576 0.018736156 -0.017857973 -0.052704006 -0.0697313 -0.12964915
-0.26974782 0.035017274 0.028516956 0.0135169085 -0.0035599363 -0.005335203 0.0023495639 0.013739048
0.010200984 0.018967222 -0.14436813 1.2571661 0.10868679 -0.8619229 0.4015176 -0.35587236
-0.28490767 -0.11263505 -0.07829207 -0.091988645 -0.058222592 0.021136185 -0.070747495 -0.01992422
-0.018474821 0.015608991 0.04779721 0.0596317 0.0525213 0.02387051 -0.0031971906 0.0014716345
0.36251637 1.0282083 -0.23939045 -0.19329755 -0.024021488 0.051121417 0.019050188 -0.010251908
-0.023477554 -0.034799322 -0.01322379 -0.024500754 -0.016243774 -0.012819678 -0.009416299 0.010194631
0.026433753 0.028516196 0.031873517 -0.043531388 -0.010957829 0.28025177 -0.4516751 0.25156876
-0.0329669 -0.016098918 -0.022660637 -0.04905146 -0.04852548 0.008808988 0.07964575 0.14532518
0.010740748 -0.09841717 -0.0831639 -0.042022415 -0.057791017 -0.063776664 -0.025837664 0.014805941
1.2647395e-05 0.002959043 0.44154558 0.23401642 0.33315223 -0.046028063 -0.01609567 0.24882528
0.3947072 0.32881904 0.113107346 -0.088505924 -0.12021956 0.029273931 0.0068858364 0.014545702
-0.022377623 -0.02308208 0.006552291 0.0029292621 0.0011072773 -0.041100193 0.021988433 -0.32275176
0.55376995 -0.12986228 -0.10547077 0.000960417 0.07063235 0.123942755 0.15459743 0.14484125
0.08165257 -0.021968856 0.014851374 -0.026858294 -0.00044660064 0.015845664 -0.0073089856 -0.030133015
-0.02614455 0.0024877482 -0.013576815 -0.028920302 0.077974625 -0.042033095 0.10173386 -0.043583684

net.0.bias f4 [32]
00000000: f0e0 403f 01b4 44be 88b4 db3f d845 bfbf
00000010: b8a1 36be 1887 85bf ad1b 513f 0ffc 213f
00000020: f51c f83d 8348 0f3f 5d6b c53f 7d17 883e
00000030: d3bb 97bf 0daf 433f 66b2 f3bd d5ce 36be
00000040: 4f3f cebc 95f7 bcbf b6e9 683e 0ae1 f53f
00000050: 0073 c23d 3d49 65bf 4fce 79bd 9676 2640
00000060: b98a 4bbf 3fa0 9cbf 7e3e 183f 5f79 4c3f
00000070: 55d3 2c3c 6190 3ec0 5408 b13e deaf a0be
0.7534323 -0.19209291 1.7164469 -1.494319 -0.17835128 -1.0431852 0.81682855 0.63275236
0.12114898 0.5597002 1.542339 0.2658042 -1.1854194 0.7643898 -0.11899261 -0.17852338
-0.025176672 -1.4763056 0.22745404 1.9209301 0.09494591 -0.8956488 -0.060987767 2.600988
-0.7950855 -1.2236403 0.59470356 0.798727 0.010548432 -2.9775622 0.34576666 -0.31384176

net.2.weight f4 [32, 32]
00000000: b230 883d dee2 25be c544 113e e368 32bf
00000010: 8c40 77bf 014f 913d 9355 c7bd 6b61 8a3e
00000020: 0be0 fabd c5a6 35be 29c9 e7bd 9227 3e3e
00000030: cd17 0e3d 139b 04bf b27d 2cbf 885e 923c
00000040: a624 cdbd 4968 8e3e c031 a1bd 74f0 cb3e
00000050: 992e cdbe f270 0abf f7cf 7f3d e265 12bf
00000060: 7bcf 213d 2c87 43bd 53b0 553f 7749 da3e
00000070: 273c 323f 436c a73e c3aa c43c ca56 433f
00000080: 6029 e5bd 0e44 443e ab5f 3a3e 78bd 5dbe
00000090: 841d ffbd ee5c 63bf 9710 273e 0348 ae3c
000000a0: 2e6c 13bd 8a87 3abe c693 46bf f6af c83e
000000b0: b260 e23e ef28 2dbe 8f4f e5bd dfcc d33e
000000c0: 9bdd 733e 3b40 adbe 74b5 043f 2f35 533e
000000d0: 5027 293e 0f0e a1bc c6f9 483f e9e1 8dbf
000000e0: 5164 ce3e 5b91 66bf dcd2 893e 5fde e63e
000000f0: 4c14 dc3d 146c a03e 5c89 573e 735e 2f3e
00000100: 1ab2 45be 2325 19bd e18b bfbe 2b2e 91be
00000110: e816 a9be 69dd bcbd 14ed ecbe e4ea 743e
00000120: d367 54be 04d6 d13d 10f7 153f 7ef2 293e
00000130: c2fb 07bf 75d0 2cbe 9304 6bbe 7eaa d63d
00000140: bf4a a0be 7467 4bbe 435b 1dbe 9bae a9bc
00000150: 988b 2d3e bfaa 27be 03c7 cfbe a4eb f13d
00000160: 7dfb 30bc 7376 2cbe e30c bd3d 7f66 033e
00000170: c49b 9d3e c4ac 26bf 9c1a b53e e4c8 9c3e
00000180: 5456 0cbd 5d53 463e 886f afbe b13a cf3e
00000190: 2a27 8e3e b868 223d 7bb9 bd3e 01f8 39bd
000001a0: 2763 743e 36bb 49be cf84 8abe 421c 02be
000001b0: 6c60 633e be06 a23e 3281 c83e bfcc 443e
000001c0: b5b5 7b3d 4d0a 7e3e 414a 1b3e 3994 a7be
000001d0: 128e 71be 33de 6f3e d815 543e df49 193e
000001e0: 412b b23d 6dc8 953c 4558 1cbc 6399 c1bd
000001f0: 69d6 77be fc6e d63e 0d87 aab7 5abb 18bf
00000200: 6355 f63d 4424 8abd 6909 62be 85c6 f7be
00000210: 60e4 c3be 05a5 63be 835d 963d 5642 ea3e
00000220: e577 543d 7bd2 78bc 4632 aa3c e221 863e
00000230: 75a1 8e3d eecb d5bd ad44 eabe f0d4 413e
00000240: a861 2dbd b2dc b5bd 8b6d 053e 70c6 703e
00000250: d59d 72be 3815 cdbe edb7 803d 926d 43be
00000260: 6116 56bd 2034 2cbe f242 c83e 3455 fe3e
00000270: cbe1 af3e 5462 6f3e 2846 043b 269a d63d
00000280: 4973 903e 773b 33be 47e0 923e 1bbb 883f
00000290: f518 ba3e a781 9fbd 3d9f b23e 6506 f3be
000002a0: 8521 4bbd 03de 933e 4b73 c03e 18cc 603e
000002b0: 2c0b 1dbe bbac 933e be7f 973f d9d5 7c3e
000002c0: e78d f03b 4f37 00be 772c 903e 7ea8 8dbe
000002d0: 1a02 8e3e a64b 023f 03e9 743e 923f 1e3e
000002e0: 0192 e2bd e659 a53b 8e77 6ebe eb84 133e
000002f0: 4397 88bf 1e8e 18be a9d2 a4bd 1b5f 53be
00000300: ace4 073e 01da 41bd 0201 b4be 2531 5f3e
00000310: 7aa1 69bd b1ae debc e85b 6dbe 495b ff3d
00000320: 7dd8 163e 77b5 2cbd 89a2 0a3e b54e dd3e
00000330: ca56 88bd 5b4f c4bd 8837 a53d 6e58 ce3d
00000340: 2028 cbbd f376 21bd ae61 be3d b8c7 58bd
00000350: 5e01 86be 7012 c63d b2de 073f 5c0e b83d
00000360: 208b ce3c b729 d0bc 88bc 46bd 8585 143d
00000370: 070b 433e e921 4cbc 5538 96bc 6bc8 9cbe
00000380: cb5a 7fbd 410c 343c fa20 c53e aa49 9d3e
00000390: df2c 213e 2d4f 64be 9543 15bf 9a26 4dbe
000003a0: 8087 f93e bdff 9d3e 7f7a 533e e1de 31bd
000003b0: 8cfe f7be 577f 3ebd 35c8 ad3e 2ddc 1b3e
000003c0: 1abf 5cbe 7bd7 853e c97a 653e 72d0 44be
000003d0: f6a6 803e 33ee e13d a3d5 31bd cf59 e9be
000003e0: 35a1 003f d399 8fbd 44d4 6b3e 4b79 4e3e
000003f0: e81e 93be 4e15 0b3f e10a fe3d 9888 f8be
0.06649913 -0.16199824 0.1418639 -0.69691294 -0.96582866 0.07095147 -0.09733119 0.2702745
-0.12249764 -0.17739399 -0.11317665 0.18569782 0.034690667 -0.51799124 -0.67379296 0.017867342
-0.10016756 0.27813938 -0.07870817 0.3983189 -0.40074614 -0.5407859 0.06245419 -0.5718671
0.03950451 -0.04773633 0.83472174 0.42634174 0.69623035 0.32699785 0.024007207 0.76304305
-0.11189532 0.19166586 0.18200557 -0.21654308 -0.124568015 -0.88813674 0.16314922 0.021274572
-0.03599184 -0.18215767 -0.77569234 0.39196748 0.44214398 -0.16910146 -0.11196815 0.41367242
0.23815005 -0.33838066 0.51839375 0.20625757 0.16518903 -0.019660024 0.78506124 -1.1084567
0.4031091 -0.90065545 0.26918685 0.4509153 0.10746059 0.31332457 0.21048492 0.17125873
-0.19306222 -0.037388932 -0.37411407 -0.28355536 -0.3302529 -0.09221918 -0.46274626 0.23917729
-0.20742731 0.10245898 0.5858011 0.1659641 -0.53118527 -0.16876395 -0.22950964 0.104817376
-0.31307027 -0.19863683 -0.15366845 -0.020713141 0.16947782 -0.16373728 -0.4058152 0.11812523
-0.010802147 -0.1684206 0.092309736 0.12832068 0.30782902 -0.6510737 0.35371864 0.30622017
-0.034262016 0.19367738 -0.3426478 0.40474465 0.27764255 0.03965065 0.37055573 -0.04540253
0.23865949 -0.19700322 -0.2705445 -0.12706092 0.22204751 0.3164577 0.39161068 0.1921873
0.061452586 0.24808617 0.15165044 -0.32730272 -0.23589352 0.23424606 0.20711458 0.14969586
0.08699656 0.018284047 -0.0095425295 -0.09453084 -0.24202885 0.4188155 -2.0328467e-05 -0.59660876
0.12028005 -0.06745198 -0.22073902 -0.48393646 -0.38260174 -0.22230919 0.07342055 0.45753735
0.051872153 -0.015186901 0.020775925 0.26197726 0.06964389 -0.10439287 -0.4575552 0.18928885
-0.04232946 -0.08879985 0.13030069 0.23513198 -0.2369302 -0.4005525 0.06285081 -0.19084767
-0.052267436 -0.16816759 0.39113575 0.4967438 0.34351954 0.23377353 0.0020183418 0.1047862
0.28212956 -0.17503153 0.28686735 1.06821 0.36347166 -0.07788401 0.34887114 -0.47465816
-0.049592514 0.2888032 0.37587962 0.21952856 -0.15336293 0.2884272 1.1835859 0.24690951
0.007341135 -0.12521099 0.28158924 -0.27667612 0.27735978 0.5089668 0.23917012 0.15453938
-0.11063004 0.005046117 -0.23287794 0.14406173 -1.0671161 -0.14897963 -0.08047993 -0.20641749
0.13270825 -0.047327045 -0.3515702 0.21796091 -0.05703876 -0.027182909 -0.2317959 0.12468583
0.14731021 -0.042165246 0.13538565 0.4322411 -0.06657179 -0.09585448 0.08067232 0.100754604
-0.099197626 -0.03942008 0.09295975 -0.05292484 -0.26172918 0.096714854 0.5307418 0.08987114
0.025212824 -0.025410516 -0.04851964 0.036260147 0.19047175 -0.012459257 -0.018337408 -0.30621657
-0.062342446 0.01098925 0.38501722 0.30720264 0.15739773 -0.22295828 -0.58306247 -0.20034257
0.4873619 0.30859175 0.20652197 -0.043425445 -0.4843639 -0.04650816 0.33941808 0.15220709
-0.21557274 0.2614096 0.2241012 -0.1922014 0.2512738 0.11031761 -0.04341663 -0.4557633
0.5024598 -0.070117615 0.23030192 0.20163457 -0.28734517 0.54329383 0.12404419 -0.48541713

net.2.bias f4 [32]
00000000: 099e f9be 6948 81be 87d7 b23d 374b 503f
00000010: bcfe c6be f5ed b03c f2dd e8bd 0195 873f
00000020: b7e6 e93e c10c 14bf 361c c53c 6724 74bd
00000030: 6f26 07bf 53c9 47be 72b4 3bbe dd50 5dbe
00000040: 4e17 963e 4b50 ffbe 6e62 e7be 7b6e 2d3d
00000050: e750 fc3d 5d5f dc3e b264 083e 78d0 97bf
00000060: 513a b63e 6fe8 0d3f c61f cbbe b43e 8fbe
00000070: e524 d13b 293f 66bc 8812 b1bd 535c 063f
-0.48753384 -0.25250557 0.08732515 0.8136477 -0.38866222 0.021597842 -0.11370458 1.0592347
0.45683834 -0.5783196 0.024061304 -0.05960503 -0.5279302 -0.19510393 -0.18330553 -0.21612878
0.29314655 -0.49865946 -0.45192283 0.04234169 0.123201184 0.43041506 0.13319662 -1.1860495
0.35591367 0.5543279 -0.3967268 -0.27977526 0.006382572 -0.0140531445 -0.08646113 0.52484626

net.4.weight f4 [6, 32]
00000000: f0ac 163e dce2 e03e 9cff fbbe 10ca 40bf
00000010: eeae 333e 57f3 6cbe 9f5e 6abf d716 ad3e
00000020: c1c1 c13e 9b2f 633e 563d 65be 3de9 0bbe
00000030: 1ed1 11bf 2556 08bf 634b ca3e ef91 cebe
00000040: 4dfb a23d 6593 7abe a7be 003e caf1 59be
00000050: 8f25 463d 1f03 80bd 7bad 9ebe 721d dc3e
00000060: 43b2 073f df6a b7be 7f08 60be f13c 563f
00000070: 2904 34bf 9945 71be 11ba d0be 4ac7 1d3e
00000080: 28b8 12bf d344 3f3f db39 4e3d 8610 093f
00000090: c273 d33e 3c8b a0bf 9b8e 0fbf 32e5 ec3e
000000a0: b918 153f 4f07 053f fc54 b73d 6f46 d73e
000000b0: 1ebc 67bf eac1 d5be 1935 e93e 196f f8be
000000c0: 3b2f 023e 4a1d 54be 4a69 9cbc bab9 aabf
000000d0: 0079 76bf 49d3 95bf 60e1 f8bf f589 813d
000000e0: 341b 973f 777a 753f dd27 2bbe e3ea d93f
000000f0: c206 6fbf 693f 64bf c635 9cbf ba63 a33f
00000100: b914 503e 7e86 e5bf e210 8c3f b985 3b3f
00000110: c682 163f bfbe 9fbe 53a8 40bf 29a9 d6bf
00000120: 118a c6bf 7880 b93f f30c 5c3f 70f7 4f3e
00000130: c269 45be 3242 fabe ba4d c0bf ec8b 8b3f
00000140: 60e0 4bbe 8467 a83f e14b a3bf 9d61 b0be
00000150: bc6d 91bc 68a3 883d 01a5 c1be b1fb 06c0
00000160: c174 53bf 0db7 063f 7c18 573f b999 5e3e
00000170: c0d6 c73e 4d0e 8fbf 7321 313e 5e3a 633f
00000180: 55c5 03be 2854 2a3e d5be ec3e 6d0b 853f
00000190: 3960 d4bd 18c3 be3f 96ff 8c3e f228 e03c
000001a0: 83dd 9d3e d694 edbe 6a5a cabd b807 103e
000001b0: 17c5 7ebe 6cc9 aa3f 32cf 373d 1fe4 aabd
000001c0: f1fb 973f 6c77 51be e420 063e 6ea1 db3e
000001d0: a1d2 19bd 6600 3b3e cfe9 d03f fd1a 16be
000001e0: 3521 653d a81a 483e a71c 83bf f488 f7be
000001f0: df37 a43e ea66 af3e eadd a73e e970 62be
00000200: ec65 173d 3e74 d6bd e487 b2bc cc9f c63c
00000210: bf18 4bbd c9a1 4f3d 6711 023d bea8 05bd
00000220: b033 0dbe 023a 0ebd 305e 1c3d 4a43 ac3c
00000230: aadd c1ba 15d0 1c3c e079 9bbd 5cd8 003d
00000240: 69f8 99bd 1fed 343d 3e6e 8bbc 2187 543d
00000250: 0300 fc3c e7e2 083d 6030 803d 78c8 e63c
00000260: 5a70 c1bb 0d3d 103b 74a4 7d3d 3c40 66bd
00000270: 3ff6 233d 31de c6bb 7ddb 073c 4ad3 2ebc
00000280: b3c0 a63f b88e 95be 2d90 40be 9dc8 ff3b
00000290: fb55 59bf 8340 fe3c 8960 e4b9 c388 09be
000002a0: ad35 bcbc 31f8 4f3e 7050 82be 10e3 00bf
000002b0: 3061 1abf f7f5 a13d cd43 75be b0d5 903d
000002c0: 02d2 99be ac3f b1bd e3be 8b3e 7bb5 efbd
000002d0: f6fc dc3e 048a 5b3f aea2 1ebd 9d49 00bc
000002e0: 4b64 dbbb 7d57 8c3e 3015 a2bd a52d 993e
000002f0: 992b b7be 8868 043e 485b 593d babf 06be
0.14714408 0.4392308 -0.49218452 -0.7530832 0.17547199 -0.23139702 -0.9155063 0.33806488
0.37843135 0.22186129 -0.22386679 -0.13663192 -0.5695971 -0.53256446 0.3951064 -0.40345713
0.07958088 -0.24470289 0.12572728 -0.21283641 0.048375662 -0.06250595 -0.3099173 0.42991215
0.5300638 -0.35823724 -0.21878241 0.8368674 -0.7031885 -0.23561706 -0.40766957 0.15408054
-0.5731225 0.7471439 0.050348144 0.5354084 0.41299254 -1.2542491 -0.56076974 0.46268612
0.5824085 0.5196428 0.08951756 0.42045924 -0.9052142 -0.41749507 0.45548323 -0.4852226
0.1271333 -0.20714298 -0.019093174 -1.3337929 -0.9627838 -1.1705104 -1.9443779 0.06325141
1.1805177 0.9588999 -0.16714425 1.7024807 -0.93369687 -0.89159256 -1.220391 1.2764809
0.20320405 -1.7931669 1.0942652 0.7325092 0.58793294 -0.31200215 -0.7525684 -1.6770374
-1.5510885 1.449233 0.8595726 0.20309234 -0.19278625 -0.48878628 -1.502372 1.0902076
-0.19909811 1.315659 -1.2757531 -0.34449473 -0.01775252 0.06671792 -0.378212 -2.109112
-0.8260003 0.52623063 0.84021735 0.21738328 0.3903103 -1.1176239 0.17297916 0.88760936
-0.12868245 0.16633666 0.46239343 1.0394112 -0.103699155 1.4903288 0.27538747 0.027363274
0.30833063 -0.46402615 -0.09880526 0.14065444 -0.24879871 1.3342719 0.04487533 -0.08344292
1.1873761 -0.20455712 0.13098484 0.428966 -0.037554387 0.1826187 1.6321353 -0.14658733
0.05593987 0.19541419 -1.0243119 -0.48346674 0.32073876 0.34258205 0.32786494 -0.22113384
0.036962435 -0.1047139 -0.021793313 0.024246119 -0.049584147 0.0506914 0.031754877 -0.03263163
-0.13789248 -0.03472329 0.03817576 0.02102818 -0.0014790792 0.009571095 -0.07591605 0.031456336
-0.075180836 0.04417145 -0.017020341 0.05188668 0.030761724 0.033419516 0.06259227 0.028171763
-0.005903286 0.0022009045 0.061924413 -0.056213602 0.04002976 -0.0060689677 0.008292076 -0.010670492
1.3027557 -0.29210448 -0.18804999 0.0078058974 -0.8489682 0.031036621 -0.00043559473 -0.13431077
-0.022974813 0.20309521 -0.25451994 -0.5034647 -0.60304546 0.07908242 -0.23951645 0.07072008
-0.30043036 -0.086547226 0.27294073 -0.117045365 0.43161744 0.8575747 -0.038729362 -0.007830051
-0.0066953055 0.27410498 -0.079141974 0.29917637 -0.3577545 0.129305 0.05306557 -0.13159075

net.4.bias f4 [6]
00000000: dfeb 0080 96ef 413f f039 0000 209e 7d3f
00000010: c6de d83e c6de d83e
-8.4615e-41 0.75756204 2.0784e-41 0.99069405 0.42357463 0.42357463
