training/nn-xxsmall.pth (torch, 5169 bytes, 4 tensors)

net.0.weight f4 [32, 20]
-1.021837 -1.9809618 -0.12410179 -0.045222722 0.0013351282 0.0052731168 0.03531591 -0.0106152985
-0.13498123 0.0036142257 -0.14908653 -0.32920483 -0.25209907 -0.150829 0.031279963 0.264793
0.3134734 0.089790694 -0.109781615 -0.020471282 0.54858357 0.12741056 0.20436509 -0.12746853
0.0830857 -0.028897079 -0.07253682 -0.05712229 -0.060929928 -0.0019359568 -0.05032171 0.09957454
-0.09870436 -0.09700429 0.07156358 0.10114312 0.11474655 0.20696974 -0.034806915 -2.4075608
2.1215844 -0.76750827 0.4764665 0.039699417 0.0015354471 0.0029796006 -0.04781582 -0.014867221
0.05046624 0.07747779 -2.2401106 -0.52196145 -0.05045917 -0.050633885 -0.0650737 -0.03445962
0.006221874 0.11267747 -0.31839114 0.122026466 -0.9329551 -0.7680358 1.2277197 0.42032483
0.08243642 0.02650461 -0.004396825 -0.018708171 -0.021032082 -0.023856284 -0.027981825 -0.028365303
-0.030079173 0.03660334 0.04270506 0.0052015674 -0.037956998 -0.041862763 0.30806404 -0.038340185
-0.2243511 1.6483723 0.14357547 0.006950829 -0.053667217 -0.032332674 0.043693278 0.06854252
-0.024076788 -0.028202552 -0.036443047 0.17702939 0.21616264 0.14113078 -0.052149445 -0.24090494
-0.16431622 -0.02180699 0.041009326 0.05323355 -2.2987378 0.4152888 -0.5064425 0.011622679
0.015256198 0.009119766 0.046774723 0.0019050804 -0.06407395 -0.09636006 2.3111637 0.5819201
0.105066895 0.07620004 0.07336015 0.044520363 -0.0076449886 -0.09849203 0.35156938 -0.1191346
0.20828849 1.3169923 -0.5655118 -0.24953483 -0.10439604 -0.06697779 -0.009838452 0.03735846
0.0034305132 -0.045142207 -0.08633539 0.0052205916 0.117766365 0.0727687 -0.03842844 -0.124726325
-0.080784276 0.011885799 -0.20297574 0.08571008 0.33993825 0.6190662 0.21740037 0.08693534
0.04822838 0.025768185 0.054654885 0.019370517 -0.06770072 -0.040960304 0.13891175 0.12912582
0.015608314 -0.087339625 -0.10175791 -0.066831835 -0.035437837 -0.099259034 0.0698154 0.010551664
-0.4277877 -0.20319267 0.20739718 0.06014156 0.053543888 0.06774699 0.073238246 0.05863744
0.038410675 0.0008692529 -0.025234504 0.06632885 0.033307385 -0.021957168 -0.008890101 0.020387083
0.022994628 0.047458198 0.053219076 0.031040763 0.5381901 1.2735412 -1.0354434 -0.4010565
-0.11516212 -0.051638313 0.010149574 0.032948885 -0.002271381 -0.026279746 0.08167389 0.022184828
0.051919166 0.019348688 -0.0197398 -0.04901541 -0.025230855 0.008402734 -0.28183347 0.054502536
-0.3532458 -1.3412614 -0.026146341 0.055809297 0.0076297866 -0.02894619 -0.03672509 -0.049129754
-0.0373289 -0.018354684 -0.09897003 -0.14389831 -0.12014575 -0.1305757 -0.09791497 0.00662678
0.02342267 -0.07186513 -0.03306138 -0.009236509 1.780527 -0.7534854 -2.9289708 -0.19156766
0.0018030715 -0.017998453 0.012957945 0.03500685 0.034984425 0.060721204 0.40657493 -0.07644568
0.0458872 0.076799594 0.03495606 0.04425853 0.057621762 0.100059286 -0.2663929 -0.008746052
-1.4340767 -0.7933107 0.23857471 0.12352786 0.0069428408 -0.12531787 -0.19286877 -0.17035046
-0.09780254 -0.00019872228 -0.05098028 -0.10506352 -0.08644124 0.006843461 0.109885104 0.13649099
00000000: 8ecb 82bf 2890 fdbf 1429 febd 763b 39bd
00000010: 78ff ae3a 1cca ac3b 6aa7 103d caeb 2dbc
00000020: 8538 0abe a5dc 6c3b 24aa 18be 898d a8be
00000030: 2113 81be eb72 1abe 6b1f 003d f392 873e
00000040: 967f a03e 2fe4 b73d 2fd5 e0bd 64b3 a7bc
00000050: f96f 0c3f ea77 023e 1545 513e 1c87 02be
00000060: d628 aa3d 91b9 ecbc 2f8e 94bd 10f9 69bd
00000070: a991 79bd eebf fdba 231e 4ebd bded cb3d
00000080: 8325 cabd 2faa c6bd ed8f 923d 2024 cf3d
00000090: 3d00 eb3d e0ef 533e b291 0ebd 7a15 1ac0
000000a0: 0ac8 0740 6c7b 44bf 6bf3 f33e db9b 223d
000000b0: 0e41 c93a 6745 433b 85da 43bd a595 73bc
000000c0: b0b5 4e3d adac 9e3d f95d 0fc0 449f 05bf
000000d0: 46ae 4ebd 7a65 4fbd 5c45 85bd 8825 0dbd
000000e0: dde0 cb3b 72c3 e63d 2a04 a3be 03e9 f93d
000000f0: 25d6 6ebf ff9d 44bf eb25 9d3f d134 d73e
00000100: 6dd4 a83d 3220 d93c 3e13 90bb e141 99bc
00000110: 794b acbc 416e c3bc 243a e5bc 5a5e e8bc
00000120: 9968 f6bc 62ed 153d 80eb 2e3d e971 aa3b
00000130: cc78 1bbd 4a78 2bbd 92ba 9d3e 990a 1dbd
00000140: 4bbc 65be ddfd d23f 7305 133e c8c3 e33b
00000150: 28d2 5bbd 446f 04bd b9f7 323d 0560 8c3d
00000160: af3c c5bc 0a09 e7bc 4e45 15bd 3147 353e
00000170: bd59 5d3e 9684 103e a89a 55bd c9af 76be
00000180: 8342 28be 93a4 b2bc 65f9 273d 6c0b 5a3d
00000190: 851e 13c0 bca0 d43e 37a6 01bf 0d6d 3e3c
000001a0: 22f5 793c 126b 153c da96 3f3d e4b3 f93a
000001b0: 3439 83bd 6c58 c5bd 1bea 1340 b7f8 143f
000001c0: 502d d73d c40e 9c3d d93d 963d fc5a 363d
000001d0: d082 fabb 30b6 c9bd e700 b43e d7fc f3bd
000001e0: 9449 553e 3493 a83f 62c5 10bf 0f86 7fbe
000001f0: 97cd d5bd a72b 89bd 7531 21bc 2f05 193d
00000200: 76d2 603b 09e7 38bd 9cd0 b0bd 7f11 ab3b
00000210: 7e2f f13d c207 953d 2467 1dbd 8470 ffbd
00000220: 3a72 a5bd a7bc 423c dfd8 4fbe c488 af3d
00000230: 630c ae3e 1f7b 1e3f 349e 5e3e 280b b23d
00000240: 1f8b 453d cd17 d33c cddd 5f3d ebae 9e3c
00000250: ada6 8abd fec5 27bd e23e 0e3e 8f39 043e
00000260: 04ba 7f3c 1edf b2bd 7366 d0bd 21df 88bd
00000270: 4427 11bd 5248 cbbd 60fb 8e3d e3e0 2c3c
00000280: fd06 dbbe bd11 50be ed5f 543e ff56 763d
00000290: d650 5b3d efbe 8a3d effd 953d d02d 703d
000002a0: 8354 1d3d 93de 633a 97b8 cebc 6cd7 873d
000002b0: 536d 083d 85df b3bc c9a7 11bc d002 a73c
000002c0: 3b5f bc3c 8763 423d 3ffc 593d 3349 fe3c
000002d0: d4c6 093f 6603 a33f 6989 84bf 4757 cdbe
000002e0: 1eda ebbd b282 53bd 664a 263c 69f5 063d
000002f0: 73db 14bb 9f48 d7bc a444 a73d f5bc b53c
00000300: 31a9 543d 2481 9e3c 5cb5 a1bc 62c4 48bd
00000310: f0b0 cebc 9fab 093c 7a4c 90be 0d3e 5f3d
00000320: a2dc b4be 74ae abbf da30 d6bc 4a98 643d
00000330: 4a03 fa3b 8f20 edbc 0c6d 16bd 483c 49bd
00000340: 30e6 18bd 905c 96bc cdb0 cabd 145a 13be
00000350: fa0e f6bd a3b5 05be a587 c8bd 7625 d93b
00000360: e6e0 bf3c 062e 93bd 5f6b 07bd ba54 17bc
00000370: 4fe8 e33f 6be4 40bf 4274 3bc0 502a 44be
00000380: 0a55 ec3a 7e71 93bc 8f4d 543c 5863 0f3d
00000390: d44b 0f3d ccb6 783d 972a d03e 8d8f 9cbd
000003a0: 37f4 3b3d 1b49 9d3d 162e 0f3d 6f48 353d
000003b0: cc04 6c3d e2eb cc3d a664 88be 9a4b 0fbc
000003c0: d38f b7bf 6916 4bbf ee4c 743e 2dfc fc3d
000003d0: c580 e33b 5453 00be 647f 45be 5a70 2ebe
000003e0: b34c c8bd 1b60 50b9 b3d0 50bd 8b2b d7bd
000003f0: 1b08 b1bd 1d3f e03b 710b e13d 4bc4 0b3e

net.0.bias f4 [32]
-0.2432208 -2.3700657 0.16105951 1.5723029 0.1320255 -0.5532573 -0.88194793 -0.7185148
0.57635313 -1.9632877 -0.0059478004 2.2462254 0.2860996 0.98052114 2.1401 3.1028166
2.5154238 0.12693557 0.7519781 0.8926339 -2.2132964 1.2534076 1.0356596 0.027557265
0.15238348 1.0857469 -0.6516482 0.56464666 -1.0724726 -0.31377122 1.7353611 -1.0487953
00000000: e00e 79be 28af 17c0 c9ec 243e 3941 c93f
00000010: b131 073e 45a2 0dbf 57c7 61bf 96f0 37bf
00000020: e18b 133f 034d fbbf c4e5 c2bb 28c2 0f40
00000030: a67b 923e 6f03 7b3f 66f7 0840 8c94 4640
00000040: b4fc 2040 66fb 013e a381 403f a883 643f
00000050: a6a6 0dc0 a96f a03f 7e90 843f c6bf e13c
00000060: 6a0a 1c3e c1f9 8a3f 6bd2 26bf af8c 103f
00000070: c846 89bf 9fa6 a0be 5020 de3f ed3e 86bf

net.2.weight f4 [6, 32]
-0.4809971 -0.44956765 0.08731619 0.038691014 0.36431503 0.1973214 0.02627847 0.23894161
0.19728075 -0.11725039 0.65531176 0.041745007 -0.48772204 -0.5349956 -0.03588419 0.3040956
-0.041988876 -0.51537406 0.34912106 0.034863595 0.12514305 -0.10697011 0.14623421 -0.25702548
-0.10213512 -0.22234033 0.5147451 0.017108427 -0.35327506 -0.0105265835 0.14215548 0.06601387
0.0058965497 0.029967248 -0.058124308 -0.38390788 -0.3532103 -0.14250965 0.5845497 0.00014038269
0.12949054 -0.53367484 -0.34709927 -0.21852165 0.3388561 -0.13879132 -0.2805492 -0.16074847
0.21702936 0.17377058 -0.386189 -0.01072616 0.11213586 0.09179097 -0.16453765 -0.2085948
0.008013323 -0.26217824 0.6611288 -0.4014193 -0.41893086 0.14473133 0.38266766 -0.078112856
1.4016758 2.024259 -0.15475956 -0.05345718 -1.5248148 -0.446665 -0.54250544 1.3868093
-2.4683638 0.027702613 -1.5187103 -0.12569584 2.222444 2.1340964 -0.4351582 0.069673896
0.1422129 1.9640784 1.8090056 -0.04182016 0.538684 0.15827017 -0.834738 2.1204562
-0.4170034 -0.18708739 0.24468471 0.4804377 -2.0684752 0.8168168 0.44854948 0.16315386
-0.2425659 1.0790972 3.1729646 -2.6203797 -0.6857225 3.2673738 2.731438 -0.6122842
-1.5376455 -3.1387272 0.07202415 4.5276985 -0.43599126 -0.48287854 -2.6950655 -0.18477182
1.1745913 -0.39199692 -1.9824294 0.011150331 0.60462147 3.7583063 0.16781272 -0.29284194
0.85990363 -1.1060054 -2.1989987 1.2008423 -2.1116507 3.7783222 3.183374 0.8960896
0.1892025 0.05707366 0.2428531 0.12446703 -0.07025521 0.24607654 0.06762275 -0.32812828
-0.12610307 0.045944154 -0.13836855 -0.09353269 -0.42758727 0.02317497 -0.07484006 -0.19589336
0.040904302 0.14194708 0.20463572 -0.0014952602 -0.068004355 -0.3623428 0.38155875 0.044617046
0.17018744 0.008848587 -0.13948807 -0.041275583 -0.09995425 -0.24918707 0.030763783 -0.056773435
-0.17794347 -0.07854492 0.0071878717 -0.06206633 -0.21025686 0.03296595 0.22203715 0.31242242
0.21184711 -0.11149782 0.24631494 0.06591786 -0.15229525 0.12443874 0.013894933 0.038354535
0.02872224 -0.13958226 0.08613893 0.40820175 0.18762448 -0.069454245 0.074365556 0.054718506
-0.014444889 0.438394 -0.09667748 -0.41835818 -0.08055523 -0.09277587 -0.06309375 0.12187319
00000000: 4045 f6be bb2d e6be d5d2 b23d 787a 1e3d
00000010: 8087 ba3e 9f0e 4a3e f245 d73c 1cad 743e
00000020: f703 4a3e f920 f0bd 83c2 273f d0fc 2a3d
00000030: b4b6 f9be 79f5 08bf 4dfb 12bd 6bb2 9b3e
00000040: 87fc 2bbd 8eef 03bf ffbf b23e 21cd 0e3d
00000050: 8025 003e 2513 dbbd 6cbe 153e d898 83be
00000060: 382c d1bd 2fad 63be 56c6 033f f926 8c3c
00000070: 78e0 b4be b177 2cbc 3591 113e 4832 873d
00000080: d837 c13b e07d f53c c113 6ebd 938f c4be
00000090: fbd7 b4be 0dee 11be 0da5 153f b133 1339
000000a0: 2b99 043e ea9e 08bf ffb6 b1be 24c4 5fbe
000000b0: 8c7e ad3e 501f 0ebe 25a4 8fbe 3f9b 24be
000000c0: f23c 5e3e eaf0 313e 91ba c5be c7bc 2fbc
000000d0: 7ca7 e53d e7fc bb3d 8f7c 28be e099 55be
000000e0: 504a 033c 3a3c 86be bd3f 293f d586 cdbe
000000f0: 1b7e d6be 7334 143e 04ed c33e a2f9 9fbd
00000100: 1d6a b33f 768d 0140 4a79 1ebe eaf5 5abd
00000110: 222d c3bf 46b1 e4be a3e1 0abf f882 b13f
00000120: acf9 1dc0 97f0 e23c 1965 c2bf 69b6 00be
00000130: 863c 0e40 0995 0840 0ecd debe 30b1 8e3d
00000140: 42a0 113e ec66 fb3f 7f8d e73f 9e4b 2bbd
00000150: 32e7 093f 9311 223e 64b1 55bf 8eb5 0740
00000160: 7881 d5be d693 3fbe a18e 7a3e eefb f53e
00000170: e661 04c0 e81a 513f 47a8 e53e ce11 273e
00000180: 3263 78be db1f 8a3f da11 4b40 4db4 27c0
00000190: 828b 2fbf a71c 5140 e1cf 2e40 a8be 1cbf
000001a0: 91d1 c4bf e8e0 48c0 6681 933d e8e2 9040
000001b0: 3f3a dfbe db3b f7be f47b 2cc0 d334 3dbe
000001c0: 0259 963f d2b3 c8be 3fc0 fdbf e1af 363c
000001d0: 79c8 1a3f 1788 7040 19d7 2b3e 61ef 95be
000001e0: a522 5c3f 9691 8dbf 65bc 0cc0 33b5 993f
000001f0: 4925 07c0 08d0 7140 66bc 4b40 2166 653f
00000200: 4dbe 413e 12c6 693d 7cae 783e 92e8 fe3d
00000210: f7e1 8fbd 7dfb 7b3e cc7d 8a3d 6e00 a8be
00000220: 2a21 01be f02f 3c3d 7cb0 0dbe 118e bfbd
00000230: b8ec dabe 6fd9 bd3c bf45 99bd 4598 48be
00000240: 458b 273d 935a 113e 078c 513e 9bfc c3ba
00000250: de45 8bbd ff84 b9be ab5b c33e 5dc0 363d
00000260: 9e45 2e3e aaf9 103c f6d5 0ebe 9610 29bd
00000270: d0b4 ccbd e52a 7fbe 5404 fc3c 438b 68bd
00000280: d036 36be 29dc a0bd 3d88 eb3b 4439 7ebd
00000290: 934d 57be 4e07 073d b55d 633e d5f5 9f3e
000002a0: 73ee 583e f858 e4bd fc39 7c3e f1ff 863d
000002b0: 49f3 1bbe bdd9 fe3d 93a7 633c a519 1d3d
000002c0: e74a eb3c a7ee 0ebe 9b69 b03d d2ff d03e
000002d0: a220 403e 073e 8ebd f84c 983d 8320 603d
000002e0: 41aa 6cbc 2e75 e03e d8fe c5bd 0b33 d6be
000002f0: 24fa a4bd 4601 bebd 4c37 81bd a798 f93d

net.2.bias f4 [6]
-0.49106082 1.5151746 0.5771589 -3.8776176 0.59288913 0.3038531
00000000: 536c fbbe 3ef1 c13f b0c0 133f e32a 78c0
00000010: 95c7 173f a292 9b3e
