training/nn-xsmall.pth (torch, 10087 bytes, 6 tensors)

net.0.weight f4 [32, 21]
0	0xbed6b60f	-0.41935775
1	0xbe6cdff6	-0.2313231
2	0xbd329d31	-0.04360694
3	0xbd1451e3	-0.036210906
4	0x3c466f18	0.012111448
5	0xbc069cb6	-0.008216074
6	0xbc0c27d2	-0.008554416
7	0x3ccdf1ed	0.025139773
8	0x3db57f54	0.088621765
9	0x3dc5853d	0.09644554
10	0x3d85de0a	0.06536491
11	0x3e3ca478	0.18422115
12	0x3d20f95b	0.039300304
13	0xbdecdfa9	-0.11566097
14	0xbe69e3eb	-0.2284085
15	0xbe733668	-0.23751223
16	0xbe2e1210	-0.16999078
17	0xbd95afc9	-0.07308919
18	0xbd62448b	-0.05524115
19	0x3d22d93c	0.039757952
20	0x3dafaeec	0.085782856
21	0xbed0a5cd	-0.40751496
22	0x3e5993a8	0.21247733
23	0x3ed2b223	0.41151533
24	0xbb642a19	-0.0034815131
25	0xbc8b219f	-0.016983805
26	0xbd822098	-0.06353873
27	0xbd69759e	-0.056996934
28	0xbd12ecb6	-0.035870276
29	0xbd90eac1	-0.07076026
30	0xbdbc34bd	-0.091897465
31	0xbd82c098	-0.063843906
32	0x3d15b8fb	0.036553364
33	0xbcfce183	-0.030869251
34	0xbce090bf	-0.02741277
35	0xbdbb89d3	-0.09157147
36	0xbe122b45	-0.14274319
37	0xbe2bd593	-0.16780691
38	0xbe25354f	-0.16133617
39	0xbdb93181	-0.09042645
40	0xbc951f8b	-0.018203517
41	0x3b29d1ab	0.0025912325
42	0xbd7ab53b	-0.06120799
43	0xbf17c30a	-0.5928198
44	0xbf36bce1	-0.71381956
45	0x3bbc392f	0.0057441215
46	0xbce8d923	-0.028423851
47	0x3e008e87	0.1255437
48	0xbcc1304f	-0.023582606
49	0xbd77d3a0	-0.060504556
50	0x3b997af1	0.004683845
51	0x3d04c0a5	0.032410283
52	0x3d027de1	0.03185833
53	0xbdc80c8b	-0.097680174
54	0xbd23f1db	-0.040025573
55	0xbaadc5eb	-0.0013257837
56	0x3d3b8b14	0.045786932
57	0x3ce6154b	0.028086325
58	0xbb87f4ad	-0.0041490407
59	0xbc0cc9ab	-0.008593003
60	0xbbc2cc88	-0.005944792
61	0xbdab9180	-0.08377361
62	0x3d182cb3	0.037152003
63	0xbfcfc020	-1.6230507
64	0xbe16ce64	-0.1472717
65	0xbf9f5588	-1.2447977
66	0xbe38cc85	-0.18046768
67	0x3fca1668	1.5788088
68	0x3eef42ce	0.46730655
69	0x3d8ee9f1	0.069782145
70	0x3cac626c	0.021043025
71	0x3b9f0729	0.0048531485
72	0x3bbedeb7	0.0058248895
73	0x3c7673f5	0.015042295
74	0xbd0d9d8d	-0.03457408
75	0x3cf9139e	0.030404862
76	0x3c7987f2	0.015230166
77	0x3cc84e56	0.024451416
78	0x39a2e19b	0.00031067137
79	0xbc98677e	-0.018604036
80	0xbb9598cf	-0.0045653353
81	0x3c20d6ac	0.009816807
82	0x3ef4c987	0.47810003
83	0xbcec95af	-0.028879968
84	0xbfeb68ce	-1.8391359
85	0xbeaf7ce0	-0.3427496
86	0x3eb15520	0.34635258
87	0x3f84a951	1.0364171
88	0x3f9632d1	1.1734258
89	0x3db8a6fb	0.09016224
90	0x3c78cd1f	0.015185623
91	0xbbe0e65f	-0.0068634
92	0xbb4b0ed3	-0.0030984178
93	0x3d0f9187	0.035050895
94	0x3d177586	0.036977313
95	0xbcc80b69	-0.024419503
96	0x3d9d399e	0.07677005
97	0x3cc0c8e8	0.0235333
98	0x3bc533fc	0.00601816
99	0x3c13aa28	0.009012736
100	0x3c04b76c	0.008100372
101	0xbc7ae716	-0.015313884
102	0xbd0c774c	-0.034293458
103	0x3f26a56b	0.6509616
104	0x3d08e600	0.03342247
105	0xbf711470	-0.9417181
106	0xbf2f27c2	-0.6842004
107	0x3ea3dc1a	0.32003862
108	0x3e52c364	0.20582348
109	0xbf1baef0	-0.6081381
110	0xbfbc032f	-1.4688472
111	0xbf5ec271	-0.87015444
112	0x3ee36248	0.4441092
113	0x3f6bbd0d	0.92085344
114	0x3eeb1f9e	0.4592256
115	0xbd10e381	-0.035373215
116	0xbc419ed7	-0.0118176555
117	0x3c892965	0.016743371
118	0x3c642d7e	0.013926862
119	0x3af4dcc7	0.001868152
120	0xbbceb0d6	-0.0063077016
121	0xbd002c20	-0.03129208
122	0xbbbfb611	-0.0058505614
123	0x3c7ae128	0.0153124705
124	0x3cb5e075	0.022201756
125	0xbd3f581d	-0.04671489
126	0xbe5b7927	-0.21432935
127	0x3e47989f	0.19491814
128	0xbe866c30	-0.26254416
129	0xbd02121d	-0.031755555
130	0x3b9bbf07	0.004752997
131	0x3b548053	0.003242512
132	0xbc8e2c0d	-0.01735499
133	0xbd5dee3a	-0.05418227
134	0xbd80b412	-0.06284346
135	0xbdc0c0fd	-0.094118096
136	0xbe7a8b24	-0.2446714
137	0x3d9a4895	0.07533375
138	0x3d50c36e	0.050967626
139	0x3cc494f9	0.023996817
140	0xbccbc7bc	-0.024875514
141	0xbc3e7193	-0.011623758
142	0x3cbc61b7	0.022995813
143	0x3d088144	0.033326402
144	0x3cc85f5a	0.02445953
145	0x3c224797	0.009904764
146	0xbe1daebf	-0.15398692
147	0x3f9842b5	1.1895357
148	0x3d24eb90	0.040263712
149	0xbf52a4fa	-0.82282984
150	0x3d915335	0.070959486
151	0xbf26cf5b	-0.6516015
152	0xbe655fc4	-0.22399813
153	0x3ce72f6f	0.02822086
154	0x3d814e77	0.06313794
155	0x3c358f9c	0.011081602
156	0xbc5ae90d	-0.013361228
157	0x3d2217e0	0.03957355
158	0xbd5b96ef	-0.05361074
159	0x39e83cf3	0.000442959
160	0xbcc9cd91	-0.024634155
161	0xbb02297e	-0.0019861157
162	0x3d3a6a7b	0.045511704
163	0x3d91c963	0.071184896
164	0x3d923c1b	0.071403705
165	0x3d3a3365	0.04545917
166	0xbe31a766	-0.17349014
167	0xbc99290f	-0.018696336
168	0x3f422c5f	0.75848955
169	0x3fc2cb85	1.5218359
170	0xbde86d14	-0.1134893
171	0xbe680830	-0.22659373
172	0xbddc9db4	-0.10772267
173	0xbccaeed7	-0.02477209
174	0xbc11ccd5	-0.008898933
175	0xbcccecbd	-0.02501523
176	0xbd10294a	-0.035195626
177	0xbc905536	-0.017618757
178	0xbc3e37ef	-0.011610015
179	0x3d380d35	0.04493447
180	0x3d85a394	0.06525341
181	0x3d294c8a	0.04133276
182	0x3c5e789d	0.013578561
183	0x3c019a53	0.007910329
184	0x3c1474d3	0.009061056
185	0x3a07ed86	0.0005185235
186	0x3d36f34e	0.044665627
187	0xbd084fe9	-0.033279333
188	0xbc9779fd	-0.018490786
189	0x3f397867	0.72449344
190	0xbed84eac	-0.42247522
191	0x3e96a367	0.2942154
192	0x3d833bd2	0.06407894
193	0x3dbb2ebb	0.091397725
194	0xbd24c646	-0.04022815
195	0xbdde0dca	-0.10842474
196	0xbda43146	-0.08017211
197	0xbcc9c3e1	-0.024629535
198	0x3c8f1762	0.017467204
199	0x3db40939	0.087908216
200	0xbdb92262	-0.09039761
201	0xbe67d494	-0.22639686
202	0xbde4127c	-0.11136338
203	0xbc81a979	-0.015827881
204	0xbd5103bf	-0.051028963
205	0xbdc64a3a	-0.09682126
206	0xbd2a78ea	-0.04161922
207	0xbd25c617	-0.040472116
208	0xbcff92f3	-0.031198
209	0x3a9fcca5	0.0012191726
210	0x3ea12b05	0.31478134
211	0x3d24ed9a	0.040265657
212	0x3e8d4d43	0.2759801
213	0xbd47ae7d	-0.04875039
214	0xbb3baedd	-0.0028638162
215	0x3e12a3ef	0.14320348
216	0x3e8efbea	0.2792657
217	0x3e92e467	0.28689882
218	0x3e0cd5b9	0.13753404
219	0xbcdf70e6	-0.027275514
220	0xbd832101	-0.06402779
221	0x3c159732	0.009130286
222	0xbcbc0e65	-0.022956083
223	0x3c857776	0.016292315
224	0x3c919620	0.01777178
225	0x3bad8a13	0.0052960007
226	0xbc168258	-0.00918635
227	0xbb9a3d0c	-0.0047069844
228	0xbb57a3c7	-0.0032904015
229	0xbd03d778	-0.03218791
230	0x3c46e252	0.01213892
231	0xbebf2cdd	-0.37338915
232	0x3f386d2e	0.72041595
233	0xbd917291	-0.0710193
234	0xbd519172	-0.051164098
235	0x3d8564bf	0.065133564
236	0x3d927431	0.07151068
237	0x3d08edd4	0.033429936
238	0x3d80ed78	0.062952936
239	0x3db71d55	0.089411415
240	0x3cc30aa1	0.02380878
241	0xbd69f689	-0.05711988
242	0xbe5a898e	-0.21341535
243	0xbe13ebc3	-0.14445405
244	0x3bd5d28d	0.0065253437
245	0x3da8c461	0.08240581
246	0x3d84e5f0	0.064891696
247	0x3c91e2e3	0.017808383
248	0x3c544b4e	0.012957407
249	0xbbc210d6	-0.005922417
250	0xbda93a2b	-0.08263048
251	0xbb4233b3	-0.0029632866
252	0x3d197a9d	0.03747045
253	0xbdf9f300	-0.12204552
254	0x3dbfdd54	0.09368387
255	0xbd74ff27	-0.059813645

net.0.bias f4 [32]
0	0x3f38fff4	0.72265553
1	0xbecd9a4a	-0.40156776
2	0x3fe04259	1.7520248
3	0xbfc3aa2f	-1.5286311
4	0x3eee270f	0.46514174
5	0xbf88355d	-1.0641285
6	0x3f4ebb84	0.80754876
7	0x3f1337d9	0.5750709
8	0xbe08733f	-0.13325213
9	0x3f1dc418	0.6162734
10	0x3fa91374	1.3209062
11	0xbe29e4af	-0.16591142
12	0xbf90914e	-1.1294343
13	0x3f2feede	0.6872386
14	0xbe6baac0	-0.23014355
15	0x3d5a368b	0.053274672
16	0x3da154e8	0.07877523
17	0xbf547554	-0.8299153
18	0x3f142712	0.57872117
19	0x3fd0f168	1.6323671
20	0x3e6d0a6b	0.23148505
21	0xbf4eff9f	-0.80858797
22	0x3ae84685	0.0017721212
23	0x4014e4e7	2.326471
24	0xbf5434b4	-0.8289292
25	0xbf9944e0	-1.1974144
26	0x3f48540a	0.78253233
27	0x3f410fe8	0.75414896
28	0xbd795b0d	-0.06087785
29	0xc051a7ab	-3.2758586
30	0x3e7b8a40	0.24564457
31	0xbef66080	-0.481205

net.2.weight f4 [32, 32]
0	0x3e13ac8b	0.14421289
1	0xbea1ea88	-0.31624246
2	0x3e3ef497	0.18647991
3	0xbf0b3381	-0.54375464
4	0xbe818952	-0.2530008
5	0x3ddef585	0.10886673
6	0xbe976308	-0.29567742
7	0x3f4fb665	0.81137687
8	0xbd9b5e1c	-0.07586309
9	0xbcf7fd25	-0.030272076
10	0xbe334c46	-0.17509565
11	0x3e02f8e6	0.1279026
12	0x3d9c7a1f	0.0764048
13	0xbf0bfc8d	-0.54682237
14	0xbf5ce861	-0.8629208
15	0xbd929d4e	-0.0715891
16	0x3d24fd27	0.040280487
17	0x3ecc7fad	0.3994116
18	0x3c9b0bb6	0.018926483
19	0x3e52c6e3	0.20583682
20	0xbe04e6f0	-0.1297872
21	0xbf0a84e8	-0.5410905
22	0xbd395290	-0.045244753
23	0xbe98a997	-0.29816887
24	0x3e1a80cd	0.15088196
25	0x3db8d94c	0.09025821
26	0x3f562d17	0.8366255
27	0x3ed3d243	0.41371354
28	0x3f6738fd	0.9032133
29	0x3f1888a5	0.59583503
30	0x3d992b25	0.07478932
31	0x3f43837d	0.7637251
32	0xbd70c30a	-0.058779754
33	0x3ea6759f	0.32511613
34	0x3d2c9207	0.04213145
35	0xbea0a01f	-0.31372163
36	0xbbbf689d	-0.0058413283
37	0xbf46f86e	-0.77722824
38	0x3ecfc39b	0.40578923
39	0xbef5e0e5	-0.48023143
40	0x3ef7e5e5	0.48417583
41	0xbe070a86	-0.13187608
42	0xbeec508d	-0.46155205
43	0x3ee75b33	0.45186767
44	0x3ee103dd	0.4394826
45	0xbdbdf5f3	-0.09275427
46	0x3d99b3c0	0.07504988
47	0x3ea31f5a	0.31859857
48	0x3e750281	0.23926736
49	0xbe9ad39d	-0.30239573
50	0x3ebdd403	0.37075815
51	0x3e0066c9	0.1253921
52	0x3e119a33	0.14218979
53	0x3d351f96	0.044219576
54	0x3f44482c	0.76672626
55	0xbf8857d8	-1.0651808
56	0x3ee8a421	0.4543772
57	0xbf5172ab	-0.81815594
58	0x3dbb8d61	0.09157825
59	0x3ee35e0b	0.44407687
60	0xbe05c53d	-0.13063522
61	0x3e32a16c	0.1744439
62	0xbd875819	-0.066086
63	0x3e4f03c5	0.20216282
64	0xbe105f49	-0.14098848
65	0x3e5c2e22	0.21501973
66	0xbe2393ad	-0.15974303
67	0xbe22383d	-0.15841766
68	0x3d033e5d	0.032041896
69	0xbe8c38e8	-0.27387166
70	0xbe34aef9	-0.17644872
71	0x3dd4e257	0.103947334
72	0xbe0ca667	-0.13735352
73	0xbe13cdf3	-0.14434032
74	0x3ebeb8d4	0.37250388
75	0xbeb16a01	-0.34651187
76	0xbe4e207a	-0.20129576
77	0xbd551819	-0.052024934
78	0xbde80000	-0.11328125
79	0x3e3b9d90	0.18321824
80	0xbd735cc1	-0.05941463
81	0xbe8723f8	-0.2639463
82	0xbea82e57	-0.32847854
83	0xbe93f1f0	-0.2889552
84	0x3eb507a6	0.35357398
85	0x3d10c972	0.035348363
86	0xbe03b215	-0.12860902
87	0x3e9583d4	0.2920214
88	0x3db8ec3f	0.09029435
89	0xbeba4107	-0.36377737
90	0x3dec55a7	0.115397744
91	0x3e6bb7e3	0.23019366
92	0x3d345785	0.044028778
93	0xbed0ffba	-0.40820104
94	0x3ee375bc	0.44425762
95	0x3e4d3f47	0.2004367
96	0x3e11e0cc	0.1424591
97	0xbaf962de	-0.0019026657
98	0xbe78d52b	-0.24300067
99	0x3f142872	0.57874215
100	0xbd92ce79	-0.07168288
101	0x3db24845	0.087051906
102	0x3e9aed44	0.30259144
103	0xb9147c57	-0.000141607
104	0x3f1a6ba6	0.6032051
105	0x3df8fa57	0.121571235
106	0xbe88a914	-0.26691496
107	0x3ebb3649	0.36564854
108	0x3b587db8	0.0033033919
109	0x3ec9f79a	0.39446718
110	0x3e8ed9a6	0.27900428
111	0x3dcf50ea	0.10122855
112	0xbc740538	-0.014893822
113	0x3d298e88	0.041395694
114	0x3df3bec9	0.11901624
115	0xbe8695e3	-0.2628623
116	0xbf31a563	-0.69392985
117	0x3d6e20a9	0.058136616
118	0x3ee58ac0	0.4483242
119	0xbd388d61	-0.045056704
120	0xbc105608	-0.008809574
121	0xbcb313f6	-0.021860104
122	0xbe112b90	-0.14176774
123	0xbd96ec61	-0.073693044
124	0xbeac43f3	-0.3364559
125	0x3e5d3a59	0.21604289
126	0xbdbc7898	-0.09202689
127	0xbf074622	-0.5284139
128	0x3e345336	0.17609867
129	0xbe2eb8ac	-0.17062634
130	0xbd48165a	-0.04884944
131	0xbf1c2c67	-0.6100525
132	0x3c98c644	0.018649228
133	0xbe86c84c	-0.2632469
134	0xbc01b8d0	-0.007917598
135	0x3ee54d39	0.4478548
136	0xbddc09a8	-0.10744029
137	0xbd269e2f	-0.0406782
138	0xbc50eb5c	-0.012751427
139	0x3e9c4cb3	0.30527267
140	0xbca5af3a	-0.020225156
141	0xbe1f71ed	-0.15570803
142	0xbed2403b	-0.4106463
143	0x3e085ead	0.13317366
144	0xbda84240	-0.08215761
145	0xbd45b1d7	-0.048265304
146	0x3d671f06	0.05642607
147	0x3df55602	0.11979295
148	0xbde03ece	-0.10949479
149	0xbe4d3c3b	-0.20042507
150	0xbc18d05b	-0.00932702
151	0xbdf74394	-0.120734364
152	0xbe861651	-0.261889
153	0xbd632ec8	-0.055464536
154	0x3f186e67	0.5954346
155	0x3f14e1f2	0.58157265
156	0x3ec67dd0	0.38767862
157	0x3eca99fb	0.39570603
158	0x3e870207	0.26368734
159	0xbc2f0d7c	-0.010684367
160	0x3e993c77	0.29928944
161	0xbe8e3b70	-0.27779722
162	0x3edda9f3	0.43293723
163	0x3f5af51f	0.85530275
164	0xbccd693d	-0.025074596
165	0xbcfef5f6	-0.031123143
166	0x3ed3a011	0.41333058
167	0xbf0916a1	-0.53550154
168	0xbea0f1f8	-0.31434608
169	0x3e26688e	0.16250822
170	0x3eb40730	0.35161734
171	0xbd021d2e	-0.03176611
172	0xbddd5a5b	-0.108082496
173	0xbe149c4d	-0.14512749
174	0x3f177dcc	0.59176326
175	0x3eb489b9	0.35261324
176	0x3d539af1	0.051661436
177	0x3da93160	0.08261371
178	0x3ecc931f	0.39955994
179	0xbe8d1862	-0.27557665
180	0x3ef29d95	0.4738585
181	0x3eed79d7	0.4638202
182	0x3ec0821e	0.37599272
183	0xbe4ba36d	-0.1988656
184	0xbddec658	-0.10877675
185	0x3d98e68f	0.074658506
186	0xbdeb4e51	-0.11489547
187	0x3e0c4c85	0.13701065
188	0xbfc13bf8	-1.5096426
189	0x3e15d11d	0.14630552
190	0xbd7a744a	-0.06114606
191	0xbe8084e3	-0.25101385
192	0x3e3c3805	0.18380745
193	0x3db2e89b	0.08735772
194	0x3dd9bd05	0.10631756
195	0x3ebca8ae	0.36847442
196	0x3c9524c0	0.018206
197	0xbdebe0f4	-0.11517516
198	0xbecf3162	-0.40467364
199	0x3d2dc111	0.04242045
200	0x3ebc734c	0.36806715
201	0xbdcd17e9	-0.10014326
202	0xbd44b3c7	-0.04802301
203	0x3efa349f	0.48868272
204	0xbe204a67	-0.15653382
205	0xbe504cb6	-0.20341763
206	0x3c93aa7f	0.018025635
207	0x3d86ad13	0.0657598
208	0xbe37a3ac	-0.1793353
209	0xbd113f6f	-0.035460886
210	0x3e640303	0.22266774
211	0x3d67543e	0.056476824
212	0x3c684933	0.014177608
213	0x3e045c48	0.12925828
214	0x3f0ce634	0.5503876
215	0x3e501863	0.20321803
216	0x3d9454e6	0.072427556
217	0xbca8ff4f	-0.020629553
218	0x3e87344e	0.26407093
219	0x3e312610	0.17299676
220	0x3d6db1df	0.05803096
221	0xbddb6883	-0.107132934
222	0x3f14f030	0.58179
223	0xbe49cf8b	-0.19708078
224	0x3b893f91	0.004188486
225	0x3da4ac9c	0.08040735
226	0x3f10929f	0.56473726
227	0x3e699089	0.22809042
228	0xbe9bee16	-0.30455083
229	0xbe9023a1	-0.28152183
230	0xbea13ef6	-0.31493348
231	0xbe7ed79b	-0.24886934
232	0x3ed694a6	0.41910285
233	0x3e3b5acd	0.18296356
234	0x3ef93a04	0.48677075
235	0x3d340179	0.043946717
236	0xbf02f40f	-0.51153654
237	0x3c406eb8	0.011745147
238	0x3e5eef72	0.21771029
239	0x3e462249	0.19349016
240	0xbe90b2b6	-0.28261346
241	0x3f169a53	0.5882923
242	0x3e8b651d	0.2722558
243	0xbe542708	-0.20718014
244	0x3da62873	0.08113184
245	0x3cca3578	0.024683699
246	0x3dba93fa	0.091102555
247	0xbf34eb7d	-0.70671827
248	0x3ed2964d	0.41130295
249	0xbe0a0c90	-0.13481355
250	0x3ed737e9	0.42034844
251	0x3ec86d60	0.39145947
252	0xbeb7221f	-0.3576822
253	0x3f470d27	0.77754444
254	0x3f030677	0.5118174
255	0xbeb93ec4	-0.361807

net.2.bias f4 [32]
0	0xbe026f35	-0.12737735
1	0x3d35de35	0.044401366
2	0x3d331594	0.04372175
3	0x3f2e0a9c	0.6798494
4	0xbe0fdba4	-0.1404863
5	0x3f122653	0.5708973
6	0x3e03726e	0.1283662
7	0x3f8b152f	1.086584
8	0xbe547a17	-0.20749699
9	0xbf7b2699	-0.9810577
10	0x3ebec73b	0.37261376
11	0xbe11b006	-0.14227304
12	0xbe6ff47d	-0.23433109
13	0xbea8eb38	-0.32991958
14	0xbe338ce4	-0.17534214
15	0x3ef02b34	0.4690796
16	0xbdbb967c	-0.09159562
17	0xbf2ddcd9	-0.6791511
18	0xbf07ff93	-0.5312435
19	0x3d7d7248	0.061876565
20	0xbe8849ca	-0.26618797
21	0x3e7fc64c	0.24977988
22	0xbec28f4c	-0.37999952
23	0xbf8233fb	-1.0172113
24	0x3ebeabf9	0.3724058
25	0x3ea63a3d	0.32466307
26	0x3e0c8789	0.13723578
27	0xbdf37b7c	-0.11888787
28	0x3e950b2a	0.2911008
29	0x3e0f394d	0.13986702
30	0xbd991cc9	-0.074761935
31	0x3eb9bc80	0.36276627

net.4.weight f4 [6, 32]
0	0x3d8c6ee8	0.06857091
1	0x3ee94936	0.45563668
2	0xbf00f04d	-0.5036667
3	0xbf4d5e96	-0.8022245
4	0x3d8acdbd	0.06777523
5	0xbe695bb4	-0.22788888
6	0xbefbe66a	-0.4919923
7	0x3efeb750	0.4974923
8	0x3e180eed	0.14849444
9	0x3e737e1d	0.23778577
10	0xbdf8d2e2	-0.12149598
11	0xbd95f5a7	-0.07322245
12	0xbefeaf76	-0.4974324
13	0xbf1090bf	-0.56470865
14	0x3eca0dc5	0.3946363
15	0xbed1d1d0	-0.40980387
16	0x3e420858	0.18948495
17	0xbe33f1ed	-0.17572756
18	0x3e4a40aa	0.1975123
19	0xbe1004b2	-0.14064291
20	0xbdb28b64	-0.08717993
21	0xbd683870	-0.056694448
22	0xbe9dcd21	-0.30820563
23	0x3ece8a66	0.40339965
24	0x3ed659a2	0.4186526
25	0xbe302c80	-0.17204475
26	0xbe6ba89a	-0.23013535
27	0x3f80cb43	1.006203
28	0xbedf17f4	-0.43572962
29	0xbf099d9c	-0.5375612
30	0xbe9d941e	-0.30777067
31	0x3e5979ec	0.21237916
32	0xbf301c94	-0.68793607
33	0x3f2b4b5e	0.66911876
34	0xbe5e5d7f	-0.21715353
35	0x3e882580	0.2659111
36	0x3eb7274f	0.35772178
37	0xbf76841b	-0.96295327
38	0xbf164409	-0.58697563
39	0x3ee604e2	0.449256
40	0xbf0ebf32	-0.5576049
41	0x3f55f469	0.83576065
42	0x3f572e2c	0.8405483
43	0x3ea2c0b5	0.3178765
44	0xbf67b992	-0.9051753
45	0xbf017502	-0.50569165
46	0x3f008464	0.5020201
47	0xbeea841a	-0.4580391
48	0xbdcedf5e	-0.10101198
49	0xbd5df353	-0.05418713
50	0xbc57fc3f	-0.013182699
51	0xbfae446c	-1.3614631
52	0xbf39a761	-0.72521025
53	0xbf97c0d0	-1.1855717
54	0xc0068d67	-2.1023805
55	0xbeb5921a	-0.3546303
56	0x3f913919	1.134555
57	0x3f8449f9	1.0335075
58	0xbce7a727	-0.028277947
59	0x3fd82ce1	1.6888696
60	0xbf28096d	-0.6563938
61	0xbf013f55	-0.5048726
62	0xbf9a36c7	-1.2047967
63	0x3fad42c4	1.3536
64	0x3ddc7822	0.10765101
65	0xbfbeff16	-1.4921596
66	0x3f93294d	1.1496979
67	0x3d0b99ed	0.034082342
68	0x3f030b00	0.5118866
69	0xbe49e5a1	-0.19716503
70	0xbf3409c6	-0.70327413
71	0xbfe777c8	-1.8083429
72	0xbf86641e	-1.0499303
73	0x3fcf8a1b	1.6214021
74	0x3f1269dd	0.57192785
75	0x3d22a5e4	0.039708987
76	0x3e7901d5	0.24317105
77	0xbe92faae	-0.28706878
78	0xbfbfaa94	-1.4973931
79	0x3fc7b942	1.5603411
80	0xbe7b5974	-0.24545842
81	0x3f86ccdf	1.0531272
82	0xbfa0b56d	-1.2555367
83	0xbeb5bc96	-0.35495442
84	0x3dc8e1b3	0.09808674
85	0x3ce8616e	0.02836677
86	0xbeb2a4ca	-0.3489135
87	0xc005b89b	-2.0893924
88	0xbf741e03	-0.95358294
89	0x3e11ae46	0.14226636
90	0x3fac3229	1.3452808
91	0xbe8bdf3d	-0.27318755
92	0x3fa0bb6a	1.2557194
93	0xbf60b2d0	-0.87772846
94	0xbd270277	-0.040773835
95	0x3f23a2bd	0.63920194
96	0x3ad43ccd	0.0016192436
97	0x3cc8e91b	0.024525216
98	0x3e5254a7	0.20540105
99	0x3f87dc9d	1.0614201
100	0xbe17d2e1	-0.14826538
101	0x3fc715f7	1.5553578
102	0x3e3b2eb3	0.18279533
103	0x3d283812	0.041069098
104	0x3d44a305	0.04800703
105	0xbf23a0f7	-0.6391749
106	0x3d19d201	0.03755379
107	0x3a8526d6	0.0010158669
108	0xbe983dfa	-0.29734784
109	0x3fa758a9	1.3073932
110	0x3d90bfc4	0.070678264
111	0xbe57ed45	-0.21086605
112	0x3fa93bbd	1.3221356
113	0xbf63b9e6	-0.88955534
114	0x3e116ab3	0.14200859
115	0x3ed0bf80	0.40771103
116	0xbd54a41c	-0.05191432
117	0x3e504268	0.20337832
118	0x3fcb2711	1.5871297
119	0xbe807a05	-0.25093094
120	0x3d322373	0.04349084
121	0x3e559b64	0.20860058
122	0xbc497329	-0.012295523
123	0xbf1ea71f	-0.61973757
124	0xbe0f0708	-0.13967526
125	0x3f2851eb	0.65749997
126	0x3e159508	0.14607632
127	0xbe9b38ad	-0.30316678
128	0xbb7f8203	-0.0038987405
129	0xbdadacae	-0.08480202
130	0xbba99b93	-0.0051760166
131	0x3c4e1314	0.012577791
132	0xbd4c3068	-0.04985085
133	0x3d2e6c11	0.04258353
134	0x3da0b624	0.078472406
135	0xbd2d25d8	-0.04227242
136	0xb989d6a6	-0.00026290602
137	0xbcc5a822	-0.024128024
138	0xbca75a9f	-0.020428954
139	0x3ac34149	0.0014896776
140	0x3d161d0a	0.036648788
141	0x3d7adf40	0.061248064
142	0xbdad3e50	-0.08459151
143	0x3b34a754	0.0027565556
144	0x3d064c48	0.03278759
145	0x3d308dce	0.043103985
146	0xbd3491cf	-0.044084366
147	0x3b427d2b	0.0029676657
148	0x3c03dafe	0.008047817
149	0x3d15b75d	0.036551822
150	0x3d037c8d	0.032101203
151	0xbc863cab	-0.01638635
152	0xbdba1c23	-0.09087398
153	0xbd3dfac2	-0.04638172
154	0x3d90e7c7	0.07075458
155	0xbde1cf45	-0.11025862
156	0x3dbc7aad	0.09203086
157	0xbca48190	-0.020081311
158	0x3d4c4846	0.049873613
159	0xbd88d306	-0.066808745
160	0x3f886266	1.0655029
161	0xbe77c4dc	-0.2419619
162	0xbe403803	-0.18771367
163	0x3df85546	0.121256396
164	0xbf72cbdd	-0.9484232
165	0xbdb4db88	-0.08830935
166	0x3c21d0c6	0.009876436
167	0xbdbcc7b0	-0.09217775
168	0x3e41e924	0.18936592
169	0x3e4db6d3	0.20089273
170	0xbf010fa2	-0.5041448
171	0xbf37a296	-0.7173246
172	0xbf00988f	-0.50232786
173	0x3e7b096a	0.2451531
174	0xbe828090	-0.2548871
175	0x3d351576	0.04420992
176	0xbe4810a4	-0.19537598
177	0xbe04a179	-0.12952222
178	0x3e47b9d2	0.19504479
179	0xbe0d0f5b	-0.13775389
180	0x3eaff504	0.3436662
181	0x3f37475d	0.71593267
182	0xbd6473ad	-0.05577438
183	0x3e40ff98	0.18847501
184	0x3dd0917a	0.101839975
185	0x3e0c3ab7	0.13694273
186	0xbd901577	-0.07035344
187	0x3ea7f36e	0.3280291
188	0xbdcfece7	-0.101526074
189	0xbe7af946	-0.24509153
190	0xbdbd6b3f	-0.09248971
191	0xbd064826	-0.03278365

net.4.bias f4 [6]
0	0x0007c6b1	7.14126e-40
1	0x3f6ebdde	0.93258464
2	0x0006f0b0	6.37355e-40
3	0x3f6f9b2d	0.93596154
4	0x3f1863ed	0.59527475
5	0x3f1863ed	0.59527475
