training/nn-xlarge.pth (torch, 557923 bytes, 8 tensors)

net.0.weight f4 [256, 21]
000000 f2 f7 85 3c a4 f2 44 3d 72 25 19 be ed 89 12 be
       0.016353581 0.048082963 -0.1495569 -0.14310427
000010 f6 ec d7 bd d8 c6 20 3e f5 1c 4f 3e ba e3 da 3d
       -0.105432436 0.15700853 0.2022589 0.10687967
000020 31 fa 82 3d 41 07 d5 3b 29 ad 3b bd 21 7c 37 bc
       0.063953765 0.006501109 -0.045819435 -0.011199028
000030 90 7d c3 3b bf 93 39 3a 26 be fc 3b bc 45 19 3c
       0.005965896 0.0007079206 0.007713097 0.009355005
000040 22 4f 7b bb d6 2d 86 3b da c6 97 bc 7d 99 11 bd
       -0.0038346727 0.0040948195 -0.018527437 -0.03554677
000050 9a a1 61 bb 2c c7 15 be 29 dc 8b 3b d0 b8 08 3d
       -0.0034428597 -0.1462676 0.0042681885 0.033379376
000060 a9 dd 03 be 79 59 50 be 3f a2 8b bd c3 53 25 be
       -0.12877525 -0.20346631 -0.06818055 -0.16145234
000070 80 58 c9 bd 81 41 f4 bd ee 66 01 be ad f7 19 be
       -0.09831333 -0.119265564 -0.12636921 -0.15035887
000080 c8 fe cc bc 48 04 53 bd 75 0f 41 bd 2b bb 9f bd
       -0.025023833 -0.051517755 -0.04713388 -0.07799371
000090 b6 70 f6 bd 8d 9b 12 be 0e 36 25 be 53 7e ac bd
       -0.12033217 -0.1431715 -0.16133901 -0.08422532
0000a0 a5 e8 13 be e8 03 93 3d 35 b8 58 bc 68 48 22 3e
       -0.14444216 0.071784794 -0.013227512 0.15847933
0000b0 e7 e1 65 3e b1 33 07 bf 4e ce cb be 80 8a 37 3d
       0.22449456 -0.5281325 -0.39805835 0.04480982
0000c0 0e 5f 8a 3e b5 a1 7e 3e 9b e9 91 3d f0 c6 bb 3c
       0.27025646 0.24866374 0.07124635 0.02292201
0000d0 60 03 11 3d 50 29 ed 3c 1f be 7c 3c a1 64 f3 3b
       0.03540361 0.028950363 0.015426188 0.0074277674
0000e0 44 e9 52 bb a9 28 18 bc d4 56 02 bd ee c9 c3 bc
       -0.0032182494 -0.009287038 -0.031821087 -0.023899999
0000f0 d8 41 cf 3c fa fd 5f be 9f c4 54 3a a8 86 18 3d
       0.025299951 -0.21874228 0.0008116457 0.037237793
000100 6c da 39 bd 19 67 db bd 42 e6 25 be 02 46 8d 3c
       -0.04537432 -0.10713024 -0.16201118 0.017245296
000110 ef d3 94 3d 61 12 bf bc ec 88 9a bd f0 c3 d7 bc
       0.072669856 -0.023324193 -0.07545647 -0.026338547
000120 75 97 bb bd 50 a7 56 be 73 81 3c bd 92 d4 e0 bc
       -0.091597475 -0.20962262 -0.04602189 -0.027445111
000130 0e 53 93 bb 9c 49 f8 bc 7f 82 d0 bc 46 c2 b6 bc
       -0.004495985 -0.030308537 -0.02545285 -0.022309434
000140 b0 a7 ac 3c d7 fd 47 3d eb dd 0b bd 4e a5 56 3b
       0.021076053 0.048826065 -0.034147184 0.0032752338
000150 bf 72 9e be 49 95 9e bd af 65 2e 3e 39 d4 8d 3f
       -0.3094692 -0.07743318 0.17030977 1.108039
000160 36 c6 69 be 35 77 16 3e dc 47 0a 3d d2 08 0f 3d
       -0.22829518 0.14693911 0.033759937 0.03492052
000170 30 8e 67 3c bb 6b 92 3a 6f 4c 1a 3c b6 ce 03 bf
       0.014133021 0.0011171022 0.009417637 -0.5148729
000180 ea 03 be bc 08 d7 40 bc 4f b4 05 bc b4 48 99 bc
       -0.023195226 -0.011770017 -0.008160665 -0.018711425
000190 a0 db d8 bb 58 b7 41 bc 27 7c 23 3d 44 b5 bb be
       -0.006617978 -0.011823498 0.039913323 -0.36661732
0001a0 b3 8c 14 bb a7 ee da be 3d 2f 9c 3d 99 7a 36 3e
       -0.002266687 -0.42760202 0.076261975 0.17820205
0001b0 6f 6f 34 3c f2 a7 92 bd 9f f1 61 bb f7 99 a2 3d
       0.011012896 -0.07160939 -0.0034476293 0.07939523
0001c0 7f 8f 90 3d 4b 0f 0c 3b 3f 5d 61 ba b3 7e ac 3d
       0.0705862 0.002137142 -0.00085969636 0.084226035
0001d0 67 94 16 3d 69 ff 00 3d 2d ed aa 3d 3e 72 a5 3d
       0.03676262 0.031493578 0.08346019 0.080784306
0001e0 ce 6b 53 3d 07 7a 0f 3d 1f ab d8 bc 63 5a 20 bc
       0.051616482 0.035028484 -0.026448784 -0.009787175
0001f0 5c 44 ce 3c d1 16 1c 3e 1e 99 49 3e 51 f8 f5 3b
       0.02517908 0.15243079 0.19687316 0.0075064083
000200 9f a1 24 bf eb 47 04 be 59 d2 b2 bd c3 80 f1 bc
       -0.64309114 -0.1291806 -0.08731527 -0.029480344
000210 3b af c0 bd 17 50 0a 3e eb 5b 17 3e 3c 7f 92 bd
       -0.094084226 0.13507114 0.14781158 -0.07153174
000220 7f 80 a6 bc 38 57 f0 3a ae 2c ab 39 f7 fd 65 3c
       -0.020324944 0.001833654 0.0003264895 0.014037601
000230 ce 62 74 3c 5c b5 06 bd 3a 75 11 bd 2f 39 7a bd
       0.014916135 -0.0328878 -0.035512187 -0.06108969
000240 52 f6 b7 bb 64 66 9b bd 2a ca 73 bc 04 be 9c bc
       -0.0056140805 -0.07587889 -0.014879743 -0.019133575
000250 48 ca 51 bc 5d 6b 4b be df fb ba bd 18 5a 88 bd
       -0.012804575 -0.19865175 -0.09130072 -0.06657809
000260 9e c4 7a 3e cd 09 7c 3e fc d6 92 bd 22 e0 28 be
       0.24489066 0.24613114 -0.07169911 -0.1649175
000270 75 b4 0d bd 7b 98 c1 3b 5f b8 c7 bc e6 99 4a ba
       -0.034595925 0.0059080697 -0.024379907 -0.0007728621
000280 f9 31 a9 3b 9a 4a e2 3b 15 08 9c 3b 6f 7b 9b 3b
       0.005163428 0.006905866 0.0047617056 0.004744939
000290 5c 33 00 bc de b1 67 bc 3e 10 ad bc 0b 04 d4 ba
       -0.007824745 -0.014141528 -0.021125909 -0.0016175521
0002a0 00 db c5 bc 2e 85 da bd 43 0c 60 bd 3f e5 5a 3e
       -0.024152279 -0.10669933 -0.054699194 0.21376513
0002b0 8c 6a 8b 3d b7 f6 53 be 25 ce 8e bd 77 58 08 3e
       0.068074316 -0.20699583 -0.06972913 0.13314997
0002c0 de 72 2c 3d 80 0c 25 be d8 d4 27 be 5d 56 12 3b
       0.042101733 -0.1611805 -0.16389787 0.0022329309
0002d0 26 24 b6 3b 5a dc 86 bb c1 f5 00 bc ab 97 2c bc
       0.0055585084 -0.0041156234 -0.007871092 -0.010534207
0002e0 d0 ef 17 bc 31 3d 73 3b 27 da c3 3c 30 43 8b 3d
       -0.009273484 0.003711533 0.023907734 0.067999244
0002f0 73 e3 3c 3d 3d ed 11 be 46 9c 91 3d ee 73 86 b9
       0.04611535 -0.14250655 0.07109885 -0.00025644846
000300 7e d0 8e be e4 36 e5 bc dc 47 35 bd a3 06 e4 bc
       -0.27893442 -0.027980275 -0.044257984 -0.027835196
000310 87 7e 55 bd f0 27 71 bd de c2 73 bc 7b aa 54 3d
       -0.05212262 -0.058875978 -0.014878003 0.051920395
000320 c4 10 0d bb 7f b9 03 bb ec 58 da 3a 3d 50 ea bb
       -0.0021524886 -0.0020099578 0.0016658581 -0.0071506784
000330 53 38 83 bc 40 35 2d bb d3 73 a9 bc 04 74 28 bc
       -0.016018068 -0.0026429445 -0.020685112 -0.0102815665
000340 55 b8 7f 3c d8 fc 60 3c ff a3 98 3e e9 44 a6 3d
       0.015607913 0.013732158 0.2981262 0.08118612
000350 ec b5 97 3e 60 c0 c6 3d 53 de ae 3d c3 c9 a4 3d
       0.29630983 0.09704661 0.08538499 0.080462955
000360 df 50 bb 3d 64 7d 9d 3d cc 61 8e 3d 9f db 4a 3e
       0.09146284 0.07689932 0.06952247 0.19810341
000370 96 ea f8 3d cc a2 82 bd bd 26 81 bc f6 81 73 bb
       0.12154119 -0.06378707 -0.015765542 -0.003715632
000380 d5 bd 44 3c 7f 40 04 bc fc b0 3c bc bc 1f b3 bc
       0.01200815 -0.008072018 -0.011516806 -0.021865718
000390 a9 df 6a bd b8 b3 91 bc 55 c0 ca 3d e4 30 3b b9
       -0.057342205 -0.017785892 0.09899966 -0.00017851923
0003a0 75 21 5e bd bd 73 89 be 38 b4 72 3c 05 e3 32 be
       -0.054231126 -0.26846114 0.014813475 -0.17469414
0003b0 63 4b 8e bd f5 ad a9 3e 41 8a 1c 3e c0 aa 8f be
       -0.069479726 0.3314053 0.15287115 -0.2805996
0003c0 1d c7 85 be f9 35 85 3c 97 e7 a3 bb e2 78 af 3a
       -0.26128474 0.016261088 -0.005001973 0.0013387466
0003d0 bb 38 db 39 16 a0 6b 3c 9e 47 39 3c 3c c9 da 3c
       0.00041813203 0.014381429 0.011308579 0.026707284
0003e0 04 a1 fa 3c 9b 32 52 bb e9 ba d9 3b a3 20 93 3b
       0.030594356 -0.003207362 0.006644596 0.0044899746
0003f0 6d 10 4c be 9f 59 f3 3d fe ba ca be e6 1b a2 bd
       -0.19928141 0.11882328 -0.3959579 -0.079154775

net.0.bias f4 [256]
000000 60 cc 27 3e e9 48 e2 3d ae 87 8a be 20 77 30 bd
       0.16386557 0.11049063 -0.2705664 -0.043082356
000010 a4 f8 b8 bd 5f fb 4c be 2a bb d0 be 1d b5 ee 3d
       -0.090317994 -0.20017765 -0.40767795 0.11655638
000020 ac 1a 55 bd 0b ce 43 be 67 ca 21 be 45 50 c2 be
       -0.05202739 -0.19121568 -0.15799867 -0.37951866
000030 b7 87 f8 be 98 d9 48 be d1 3c f1 3d a8 46 ad be
       -0.48541042 -0.19614255 0.11779178 -0.3384297
000040 16 0a db 3c 64 04 0e be 5b bf 85 be 3e 6c 2a 3e
       0.026738208 -0.13868862 -0.26122555 0.16642854
000050 c6 e9 08 3e 8e 74 ec 3e 11 e4 a5 3e 2b 52 d7 3d
       0.13370427 0.46182674 0.32400563 0.10513719
000060 a2 eb 55 3e c5 af 0d be 8d de 2a 3e d4 d6 17 3e
       0.20890668 -0.13836582 0.16686459 0.14828044
000070 1b cd 00 bf 5f 3f 6a 3e d7 4f 9b 3e a7 f5 cc 3d
       -0.50312966 0.22875737 0.3033435 0.10007792
000080 d6 6c 40 3c 5d c1 1c 3f 2e 8b 69 be 1e 4f dd bc
       0.0117446985 0.6123255 -0.22806999 -0.027015265
000090 1b ec ee 3e f6 4f 63 3e 75 a8 23 be 6b 5f 0a 3e
       0.4666451 0.22198471 -0.1598223 0.13512962
0000a0 c0 62 8e be fa 55 a7 bd e5 02 16 be 99 39 04 be
       -0.27809715 -0.081706956 -0.14649542 -0.12912597
0000b0 81 14 17 bc b0 9e 72 be 7a c2 4e be f7 86 0c bf
       -0.009221197 -0.23693347 -0.20191374 -0.5489344
0000c0 13 80 32 3e 40 2d 5b 3b c1 b6 12 be 30 1d 78 bd
       0.17431669 0.003344372 -0.14327528 -0.06057471
0000d0 ea b6 15 3e b0 0f 74 3e 88 80 0b 3e b5 bb e6 3c
       0.14620557 0.2383411 0.1362325 0.028165678
0000e0 14 49 33 be 78 14 13 3e ab 8e 3b be 9f 8e fd bd
       -0.17508346 0.14363277 -0.18316142 -0.123807184
0000f0 5f cb 35 3e fe f8 7f 3e 95 55 02 3f 44 3b c0 bb
       0.17753361 0.24997327 0.5091184 -0.00586644
000100 5c e4 98 3e a0 14 1d 3e 35 a2 2b 3d 9e ed 23 be
       0.29861724 0.15339899 0.04190274 -0.16008613
000110 b7 c0 0e bd b4 58 04 be f5 07 1e 3e 02 fb 61 3e
       -0.034851756 -0.12924463 0.15432723 0.22068408
000120 b4 c4 6e 3b e2 15 15 be f2 b4 fe 3d cb 06 0d bd
       0.0036433162 -0.14559129 0.12436856 -0.034430306
000130 cf 54 a6 bd 43 1f 06 3e 7f c7 72 3e d8 46 1c 3e
       -0.08121645 0.13097863 0.23708914 0.152614
000140 45 86 33 be ea bb c4 be f6 32 f1 bb 12 b0 91 3e
       -0.17531689 -0.38424617 -0.0073608113 0.28454643
000150 31 2f 20 3e 86 43 23 be c7 e0 87 3e 4d 7f 30 be
       0.15643002 -0.15943727 0.2653868 -0.17236061
000160 1c c7 ce bd 2f e2 5f bd 81 85 64 be b9 29 53 3d
       -0.10096571 -0.054659065 -0.22316553 0.05155346
000170 64 cd a5 bd 20 39 3d 3e 73 22 e7 bd 37 9c af 3e
       -0.08095816 0.18478823 -0.112858675 0.3429887
000180 30 f1 e7 bd 7a 6e bc be a8 10 a3 3e fd e2 bb 3a
       -0.113253 -0.36803037 0.31848645 0.0014334616
000190 3e f8 84 3e 5c a3 ea 3d 48 52 0e 3f 50 31 ac 3e
       0.25970644 0.114569396 0.555943 0.33631372
0001a0 86 b3 d6 bd 59 d8 04 be ae 23 9c 3e 6f 0c 03 3e
       -0.1048346 -0.12973155 0.3049597 0.12797712
0001b0 72 cd 1b be 8a 92 ea bc d3 37 21 be 44 72 4d 3e
       -0.1521509 -0.028634328 -0.15743951 0.2006312
0001c0 49 8a 07 be cf c8 10 be 57 1c b0 3e c1 44 b0 3d
       -0.13236345 -0.14139102 0.34396622 0.08606864
0001d0 91 e2 48 3e 82 42 25 3e d7 f8 d7 bd 24 17 d6 be
       0.19617678 0.16138652 -0.10545509 -0.4181453
0001e0 98 08 e6 be 92 f4 bd bd 28 ae bc 3e 4d 5c b7 bc
       -0.44928432 -0.09275164 0.3685162 -0.02238288
0001f0 df 5c 72 3e dd 87 06 be 76 92 19 bc a8 30 f1 3c
       0.2366824 -0.13137765 -0.009373298 0.029442146
000200 90 5c 97 be 09 2a 4e 3e 14 9b 05 3e 3b 59 30 3e
       -0.29562807 0.20133223 0.13047439 0.17221539
000210 1b 24 0b be fb 53 9b 3e a5 8c 9e bd 53 e9 29 3e
       -0.13587992 0.3033751 -0.077416696 0.16592912
000220 ac 10 5f 3e 71 5a cb 3d d8 27 82 3e 21 e2 79 be
       0.21783704 0.0992936 0.25421023 -0.24402668
000230 eb 8a 2d 3e 77 c3 a5 3e df 91 64 3d 16 e6 57 bd
       0.16947524 0.3237569 0.055803176 -0.05270966
000240 52 58 be 3d a4 a3 80 be cf 3a 02 be 3e 49 99 be
       0.092941895 -0.25124848 -0.12717746 -0.29938692
000250 9d 28 62 be d8 82 58 be 2d 03 9c 3d 7b 4a d1 3d
       -0.22085805 -0.21143663 0.07617793 0.10219284
000260 99 7d f2 3d fe b1 ba bd 9b b4 2b be 9d 64 08 3b
       0.11840362 -0.091159806 -0.16768114 0.0020811923
000270 80 bc 66 be e3 0e e2 3d 7c b5 a5 3e df 92 2b 3e
       -0.22532845 0.11037996 0.32365024 0.16755246
000280 c6 d1 13 be 26 b6 8e 3e 62 da 23 3e 11 e9 02 be
       -0.14435491 0.27873343 0.16001275 -0.1278422
000290 16 82 9a 3e fa c5 19 3f 15 a2 43 3d 16 e5 a3 3e
       0.30177373 0.60067713 0.047761995 0.32010716
0002a0 57 e2 87 bd 90 78 9d bd 44 d7 3b 3d a7 a7 2c 3e
       -0.06634968 -0.07689011 0.04585959 0.1686083
0002b0 5f 19 a5 3d 7f a1 39 bc 27 e5 62 be 6f 5d 3a 3e
       0.0806148 -0.011330008 -0.22157727 0.18199705
0002c0 d2 b7 48 3e 1b b9 6e 3e 96 47 0a be 5f 4e 01 be
       0.19601372 0.233128 -0.1350387 -0.12627552
0002d0 05 e2 6e 3c 9f 6f 3d 3e e7 47 81 be 23 ae c0 3d
       0.014580254 0.18499611 -0.2525017 0.09408214
0002e0 42 6e 02 be 81 1c b0 be 37 42 68 be f4 a5 5c bb
       -0.12737373 -0.34396747 -0.22681509 -0.0033668252
0002f0 9d ad b5 3e 36 eb 81 3e 91 92 19 be 3b c2 40 be
       0.3548402 0.25374764 -0.14997317 -0.18824093
000300 fa a5 05 bd 1e b0 f8 3d 6e 24 8c bd ab fb 68 bd
       -0.03262899 0.12142967 -0.06842886 -0.056880634
000310 66 29 7d 3e a0 1c 4c 3d c6 61 91 3e 0c ca ae be
       0.24722824 0.049831986 0.28394908 -0.34138525
000320 d8 bb 88 be 6f 60 30 3e 74 2c b0 be 34 d1 c4 bd
       -0.26705813 0.17224286 -0.34408915 -0.09610215
000330 57 08 d1 bc 41 57 8a be 64 60 8c 3e 50 4b ab 3c
       -0.025516672 -0.27019694 0.2741729 0.020909935
000340 83 1c b0 3e 54 5d 41 bf 02 ce 6e be 16 11 95 3d
       0.34396753 -0.7553303 -0.23320773 0.072786495
000350 02 31 bc 3d 5d 55 8c 3d 9f da d4 bb 44 61 1d 3f
       0.09189035 0.06852219 -0.006495788 0.6147654
000360 01 08 02 3e 8b 30 82 3e 57 c5 05 bf 2e 35 31 be
       0.12698366 0.2542766 -0.5225424 -0.17305443
000370 29 46 0c bf 6b 1c b0 be 64 ca cb bd 9b 1b 88 bd
       -0.54794556 -0.3439668 -0.09950712 -0.0664589
000380 c5 e8 3c 3e 31 01 61 bd 78 7b 10 bd 8d 59 08 3e
       0.1844817 -0.054932777 -0.035274 0.13315411
000390 41 f5 7f 3e fd 6e 1e 3d 59 1e 5b 3e 06 55 85 3e
       0.249959 0.038680065 0.21398295 0.2604143
0003a0 0d f4 05 be fa 59 81 3c 66 da 21 3e 59 46 c9 be
       -0.13081379 0.015789974 0.15805969 -0.39311484
0003b0 4a 26 67 3d 8c 08 e7 bc ab f3 0e be 2e dc 83 3e
       0.056433 -0.028202318 -0.1396014 0.2575392
0003c0 12 70 37 bc 5a 72 3f be 80 47 88 be ab 3b 51 be
       -0.011196153 -0.18695965 -0.2661705 -0.20432918
0003d0 da 11 90 3e bd e7 34 be 81 7b a5 3e ee d5 06 be
       0.2813862 -0.17666526 0.32320789 -0.13167545
0003e0 48 e1 0a bf 91 3c 48 be c1 67 1c 3e af f3 23 be
       -0.5425 -0.19554354 0.15273954 -0.16010927
0003f0 ed 3d b4 be ee 31 00 be 85 be 88 bd 2c c8 7f 3d
       -0.35203496 -0.12519047 -0.06676964 0.06244676

net.2.weight f4 [256, 256]
000000 b1 78 a7 3b 22 65 61 3d f0 0c 54 3e 1f ea df 3c
       0.005110823 0.05502809 0.2070806 0.027333317
000010 69 b5 ce be ed a9 65 bd ed cb 11 3e 69 1a 3e bc
       -0.4037278 -0.056070257 0.14237948 -0.011602976
000020 a6 84 6d bd 97 0a b2 3d 90 35 2b 3d 5d 1e 48 bc
       -0.05798783 0.08693426 0.041799128 -0.01221427
000030 a0 05 4b bd 2c e2 bc 3c f1 e6 19 3c 13 44 5b bd
       -0.04956591 0.023057066 0.00939344 -0.053531718
000040 05 5a ee 3c 7e 5c 95 3b 73 d6 99 bd 34 bc ba 3b
       0.029095659 0.004558145 -0.07511606 0.005698705
000050 d2 40 0e bd 8f 00 80 3d 65 7c 97 bd 57 d9 5b bc
       -0.034729786 0.062501065 -0.07396773 -0.013418517
000060 77 70 23 3e 3c 35 51 bc d9 7a d9 bd 3a cd 10 bb
       0.1596087 -0.01276904 -0.106191345 -0.002209498
000070 df d0 e8 3d 1d c3 68 be 2d fd 1f 3d 70 bc 9f 3d
       0.11367964 -0.2273068 0.039059807 0.077996135
000080 d8 ad 7f bc bd 97 b8 bd 96 2c 82 3d 37 c0 45 3e
       -0.015605412 -0.09013317 0.0635616 0.19311605
000090 38 5a 1c be 63 6d 4d bd cd a7 c3 bc de 6a 0e bc
       -0.1526879 -0.050153147 -0.023883725 -0.008692471
0000a0 de 6d 62 bd fb f3 ae 3d 50 5a 5b bd d7 b0 f0 3c
       -0.05528056 0.08542629 -0.053552926 0.029381199
0000b0 42 f9 1d 3e 4e 38 1f bd 54 dd ec 3c 5d 04 6d 3d
       0.15427116 -0.038872056 0.028914131 0.05786549
0000c0 77 30 d4 3d 56 e5 0c 3b b3 52 ac 3c 90 a3 86 3d
       0.103608064 0.0021499 0.021035528 0.06574166
0000d0 73 3a db bc 57 80 aa bd fd e8 2d bc a9 ed 3a 3d
       -0.02676127 -0.0832526 -0.010614631 0.045636807
0000e0 7f f3 0d 3d 69 50 cc 3e 1c 8f bb 3c 79 60 9c 3d
       0.034656044 0.39905098 0.022895388 0.07635588
0000f0 40 a4 c7 3d 40 c3 3c bd 10 b0 4c be 53 00 1b 3c
       0.09748125 -0.046084642 -0.19989038 0.0094605265
000100 c0 79 8c 3d b2 0f d2 be 22 f2 a0 bd 25 7a d0 bd
       0.068591595 -0.410276 -0.07858683 -0.10179547
000110 99 0d 0c 3e 3c 36 d5 3c 6d a5 ba bb 89 30 8f bd
       0.13677062 0.026026838 -0.00569599 -0.06991679
000120 a1 1c a4 bd 19 8f 56 39 61 d8 44 be 12 69 f2 3d
       -0.08013273 0.00020461938 -0.19223167 0.11836447
000130 94 70 9a 3d cb 83 c2 bc 51 3a ec 3b 09 10 c0 b9
       0.07541004 -0.023744484 0.0072091003 -0.0003663304
000140 df a1 c1 3b 19 3e 9f bc 02 66 d8 bd ed eb 5f bd
       0.005909189 -0.01943879 -0.105663314 -0.054668356
000150 8f 4a a5 3d d0 ca 02 be b4 90 5e 3c fc 8b a3 bd
       0.080708615 -0.1277268 0.013584305 -0.07985684
000160 0b 1f c1 3d 36 05 1c bd 80 85 7d 3d 9c e9 97 be
       0.09429749 -0.038090907 0.061894894 -0.29670417
000170 4b c0 48 3d b4 e2 45 3d 93 ce 2d 3c e9 a3 25 3d
       0.04901151 0.048311904 0.010608333 0.04043952
000180 8d 4f 16 3d 93 6f 23 3c 7f e2 dd 3c 89 93 ae bd
       0.03669696 0.009975332 0.02708554 -0.08524234
000190 9e c4 3b 3e 87 24 9d 3d 38 50 fa 3c af 03 5a bd
       0.18336722 0.07672983 0.03055583 -0.05322617
0001a0 27 49 b1 3d d8 76 cb 3e 2e b8 a4 3d f7 e5 85 bc
       0.08656531 0.39739108 0.08042942 -0.016345007
0001b0 00 20 09 3c 83 db a9 3c 70 1e 93 3d 74 c4 0b bd
       0.008369446 0.020734554 0.0718354 -0.0341229
0001c0 aa c6 60 be 8d 5f 67 3d 58 f4 4b 3d 46 2c 9b 3d
       -0.21950784 0.05648761 0.04979357 0.07576804
0001d0 f4 a6 95 3d 77 11 f0 3c 33 3a 0c be 54 59 95 3c
       0.073072344 0.029305203 -0.13694076 0.018231072
0001e0 a5 db 15 3e 20 6d b5 be e5 29 32 3e 5d 32 c2 3b
       0.14634569 -0.35434818 0.17398794 0.005926414
0001f0 3f 44 e9 3b d9 91 bf 3c 67 ec af 3d 72 46 e0 bb
       0.0071187313 0.023384975 0.08590012 -0.0068443352
000200 16 f4 7f bd 74 4e 1e bd 4a 38 4b bc ae d3 07 bd
       -0.062488638 -0.038649037 -0.012403557 -0.033160858
000210 43 a4 96 3c 43 2f 94 be b8 d7 12 bd 75 cd f0 bb
       0.018388873 -0.28942308 -0.035850257 -0.007348711
000220 61 f3 8f bc fc a2 5d 3d b2 2a 14 3d a1 61 63 ba
       -0.017572107 0.054110512 0.03617353 -0.00086739106
000230 91 ba 00 bd a6 a2 3b 3d f3 2d da bd 39 2d a6 3d
       -0.031427924 0.04580941 -0.10653295 0.08114094
000240 f6 61 4b 3c 03 65 40 3d 14 02 d6 3c f2 f7 43 bd
       0.012413492 0.046971332 0.026124038 -0.04784388
000250 a3 74 c3 3d bd c2 61 bd 32 f4 36 be f6 cc ca 3d
       0.09543731 -0.055117358 -0.1786659 0.099023744
000260 19 41 a8 bc 99 52 90 3d 45 68 de 3a 02 06 b1 bd
       -0.020538853 0.07047004 0.0016968331 -0.08643724
000270 ff 6b e2 bc 60 11 cc 3d fc a6 f6 bc 89 90 83 bd
       -0.027639387 0.099642515 -0.030108921 -0.06424052
000280 d3 b6 8c bd 11 48 a9 3c e3 6e 51 bd ae 8c 05 3e
       -0.068708085 0.020664247 -0.05113114 0.13041946
000290 10 35 23 3c 3e f6 f4 bd 7f 3b 93 3b 09 59 45 bd
       0.009961382 -0.119610295 0.0044931765 -0.048180614
0002a0 dc e6 0b 3e fe 08 3a 3b 06 c1 71 3c 74 de 37 3d
       0.13662285 0.0028386707 0.014755493 0.044889882
0002b0 a5 85 1f bd 08 af 2c bd 31 02 0f bd 86 c1 4a bd
       -0.038945813 -0.04215911 -0.0349142 -0.049500965
0002c0 34 f2 38 bd a7 48 6c 3c 1e 9e 33 3d 0d 4b 33 3c
       -0.045152858 0.014421619 0.043851964 0.0109431865
0002d0 a0 1f 87 3d c9 0b c1 bd 21 63 6a 3d 89 48 96 bd
       0.06597829 -0.09426076 0.057223443 -0.07338054
0002e0 d7 c5 c4 3c 41 f4 4b bd 32 35 01 3c 72 9d 97 bd
       0.024020119 -0.049793486 0.007886218 -0.07403077
0002f0 31 8e 6a 3d e5 36 0b bd 19 79 0f 3b a2 db 7e bc
       0.05726451 -0.0339879 0.0021892248 -0.015555294
000300 f7 8a a6 bd da 21 f9 bc f8 43 8c 3d 92 46 81 bd
       -0.08131974 -0.03041165 0.068489015 -0.06312288
000310 a7 8c 77 3d 6d 6a f9 3b 07 e9 46 3d 3e 25 c2 3c
       0.06043687 0.007611564 0.048562076 0.0236994
000320 9a 36 4c bd c2 9f 2b bd 4b 3c 4c bd dc 9a b7 bc
       -0.04985676 -0.041900404 -0.049862187 -0.02241271
000330 a3 67 3d bd 17 31 81 bd 9b bc 39 bd f6 10 32 bd
       -0.046241414 -0.06308191 -0.045345884 -0.043473206
000340 38 f4 4b 3d e9 d6 0f 3e 7a c9 71 3d 4f 65 09 bd
       0.049793452 0.14046825 0.059030034 -0.03354388
000350 93 7e 52 3d f6 12 2c 3d af 08 b3 3d 81 e7 d7 3c
       0.05139024 0.04201027 0.08741891 0.026355507
000360 47 32 e2 bc 1f 74 11 bd be e4 2e bc 8d 9c 90 bd
       -0.027611865 -0.035511132 -0.010674654 -0.0706111
000370 53 a4 a5 3d 57 f4 4b bd 30 65 5f 3d 31 96 b5 bd
       0.08087983 -0.049793568 0.05453986 -0.08866537
000380 97 7f f6 3b ce e4 bf 3d c9 bc b9 3d 37 f4 2d bc
       0.007522534 0.09369813 0.09069211 -0.010617307
000390 8c a6 22 bb 72 11 9b bd 0a 68 a1 bd 2d 01 d5 bc
       -0.0024818508 -0.07571687 -0.07881172 -0.026001537
0003a0 35 cf 2f 3d b4 3a 39 3d 9b 45 fb 3d c5 5f 0d 3e
       0.042922217 0.045222 0.122691356 0.13806064
0003b0 54 44 3c bd 17 50 83 3e 21 68 c3 bc 2f 5e ec 3d
       -0.0459636 0.2564704 -0.023853363 0.115414016
0003c0 ff c0 69 3d 8b ae 14 be e5 23 41 3d 7f 2b 1b 3e
       0.05706882 -0.14519708 0.047153372 0.15153311
0003d0 70 52 89 bd 90 db a5 bc 10 3f d0 36 f5 f7 4c 3d
       -0.06705177 -0.020246297 6.2062245e-06 0.050041158
0003e0 4e b4 88 bd 94 49 d8 bc b2 b1 c8 bc 09 4c 2a 3d
       -0.066750154 -0.026402272 -0.024498794 0.04157642
0003f0 54 6d 7d 3e 0c e2 7f 3d a1 48 83 bc 9a 91 17 3e
       0.24748737 0.062471434 -0.016025843 0.14801636

net.2.bias f4 [256]
000000 91 2c 97 3d 7a 86 a7 3c 15 49 6c 3b c6 16 3f bd
       0.07381547 0.020449866 0.0036054302 -0.046652578
000010 ea a7 2f 36 e7 7c fa 3d 1d 2d 89 bd 69 78 42 36
       2.617477e-06 0.122308545 -0.06698058 2.897834e-06
000020 b8 50 48 36 a8 06 21 3e d8 66 ca 3c 1e d0 29 bd
       2.9849307e-06 0.15725195 0.024707243 -0.04145824
000030 d9 ce a0 bd 6d 78 4c 36 a6 56 64 bd a8 4d 08 3d
       -0.07851953 3.0468466e-06 -0.055746697 0.033277184
000040 c7 97 72 3c 44 ba 3a b7 38 d7 65 bd 10 40 91 b6
       0.014806694 -1.1129832e-05 -0.05611345 -4.3287946e-06
000050 48 a1 aa bd 86 92 59 3d 1f af c2 3c 52 2f 2f be
       -0.08331543 0.05311825 0.023765145 -0.17107895
000060 7f 27 4c 3d da b2 94 b6 ef dc 91 3c 36 62 7b bb
       0.049842354 -4.431565e-06 0.017805545 -0.0038358099
000070 32 ff 40 b6 24 54 fa bd b2 e2 a6 bd 40 83 f2 bc
       -2.8758773e-06 -0.1222308 -0.081487074 -0.0296036
000080 76 60 4d 36 08 5b a7 3c 88 53 49 bd 5a 96 43 3c
       3.0603528e-06 0.02042915 -0.049151927 0.011937702
000090 a8 c0 f1 b5 88 b9 91 3c 6c 83 fd bc 73 d0 50 36
       -1.801197e-06 0.017788664 -0.030946456 3.1115749e-06
0000a0 72 d4 4f 3d 91 61 1e bd fb 37 9c 35 63 22 49 b6
       0.050739713 -0.038667265 1.1639198e-06 -2.997135e-06
0000b0 2c fd 26 bc 45 2c 16 3e f3 6a 4b b6 e9 64 fa 3d
       -0.010192197 0.14665325 -3.031161e-06 0.12226278
0000c0 ef 1a 34 bc d4 9b b0 34 fd 19 74 b6 9d 35 8e bd
       -0.01099275 3.2895935e-07 -3.637396e-06 -0.0694382
0000d0 00 de 44 3d 43 bc 4f b5 79 ed 3c 3d 20 83 6a 3d
       0.04806328 -7.7387466e-07 0.04612491 0.057253957
0000e0 c8 82 fa 3d 63 dc ff b5 c2 1e dc 3d 23 4d 66 36
       0.12231976 -1.9063121e-06 0.10748054 3.431757e-06
0000f0 9d af e1 3c bb fd 16 be bd ba d1 bd d6 1e 64 bd
       0.02754956 -0.14745228 -0.102406956 -0.05569347
000100 b4 d6 a1 bd 36 14 d6 bd 5e ea fa 3d c3 77 d6 bd
       -0.079022795 -0.10453074 0.12251733 -0.104720615
000110 0e f9 ab bd af 72 53 bd b4 8e 49 b6 5f be fa 3d
       -0.08397113 -0.051623043 -3.0034398e-06 0.12243342
000120 5c 8f b7 b6 3a 8c d6 bc 04 5c 3c bc bb 0c 84 3d
       -5.470514e-06 -0.026189912 -0.011496548 0.06447741
000130 91 25 af 3b a6 71 bf bb 8a d0 cf bd 63 ba f9 bd
       0.0053450544 -0.0058424054 -0.101471975 -0.121937536
000140 03 a6 38 3d 9d 97 36 bd 5d 3a 05 3d 53 75 0e bd
       0.045080196 -0.044578183 0.032526363 -0.034779858
000150 e4 19 c6 bb 50 39 7c 3d 6e 26 48 3d 17 25 fa 3d
       -0.006045567 0.061578095 0.048864774 0.122141056
000160 94 80 a8 3d 7d e9 02 3d 00 81 84 bd 56 42 88 36
       0.08227649 0.031960953 -0.06469917 4.0608384e-06
000170 05 93 75 36 88 4c 16 b6 68 62 cd 3c 96 47 f6 bd
       3.6593422e-06 -2.2396289e-06 0.025071338 -0.12025373
000180 46 23 8c 3d 7b 1c 41 bd 9d db 98 3c b3 46 8d 3a
       0.068426654 -0.0471463 0.018659407 0.0010778516
000190 6d 1e 11 3d 87 4f 4e bc 74 7e fa 3d 28 f1 05 b7
       0.035429407 -0.012592203 0.1223115 -7.983566e-06
0001a0 b8 75 7a bd 97 a5 85 bd 01 57 7c 3d 8c f6 36 3d
       -0.06114742 -0.065257244 0.06160641 0.04466872
0001b0 b4 f7 05 3c 4b ab d0 b9 cc 3f 1d 3d f4 01 73 3d
       0.008176733 -0.00039800475 0.03839092 0.059328035
0001c0 16 c7 ef b5 80 ce 34 3c 80 e1 45 36 83 91 05 bd
       -1.7864829e-06 0.011035562 2.9486546e-06 -0.032609474
0001d0 2b 5c 23 bd 31 f0 90 3b 50 aa 4a bd 91 42 37 bd
       -0.03988282 0.0044231643 -0.04947883 -0.044741217
0001e0 65 06 26 3e 95 62 5e 36 35 92 49 b7 0f 39 3a bd
       0.16213377 3.313796e-06 -1.2014575e-05 -0.04546457
0001f0 d6 2b c6 3b ce 53 ce bd 52 5c ee 3c fc 4b 61 37
       0.006047706 -0.10074578 0.029096756 1.3428737e-05
000200 bb d8 80 36 65 0f a5 3d 80 61 51 b6 79 90 44 b6
       3.839928e-06 0.08059577 -3.120018e-06 -2.929037e-06
000210 70 0c 4f b6 95 d0 e0 b6 85 59 44 3d 2b d6 36 bc
       -3.0852643e-06 -6.7000024e-06 0.047936935 -0.01115946
000220 27 cc 77 36 67 85 10 be 69 97 6a b6 19 53 21 3d
       3.69247e-06 -0.14113389 -3.495685e-06 0.03938589
000230 c2 fd c4 b5 b3 cc 32 b6 f4 67 4a 36 24 c6 e3 b6
       -1.4676991e-06 -2.6643218e-06 3.0160854e-06 -6.788194e-06
000240 08 7b 4c b6 e2 db a1 3d c4 27 28 b6 b9 99 e7 3b
       -3.0469982e-06 0.079032674 -2.5057097e-06 0.0070678857
000250 a7 20 67 bd a5 63 69 3e e6 49 57 3d 46 ae cd 3d
       -0.056427624 0.22791918 0.05256071 0.10043006
000260 3a 0b cd 3b 77 cd 13 bd e6 99 4c b6 ed 01 84 bd
       0.006257442 -0.03608462 -3.048795e-06 -0.0644568
000270 ed 56 54 36 e8 dd 80 36 9c e2 65 bd c8 b8 9c 35
       3.164106e-06 3.8405306e-06 -0.056124315 1.1676684e-06
000280 7a ca 62 bd 2c ac 49 b6 a5 c2 1b bc d4 f3 29 bc
       -0.055368878 -3.0051551e-06 -0.009506856 -0.010373075
000290 34 38 fd b5 38 a3 05 3e c9 81 b0 b3 c0 9b ee bb
       -1.8866326e-06 0.13050544 -8.2192464e-08 -0.0072817504
0002a0 9f 04 cc 3c d0 55 49 b6 b1 cf 43 3e 8d e0 d7 3c
       0.024904547 -3.0001283e-06 0.19122197 0.026352191
0002b0 88 43 42 36 ac 6f 3d 3c 5a fb 52 bc 5a be 14 3c
       2.894756e-06 0.011562269 -0.01287731 0.0090785865
0002c0 9a f1 2e 3e 44 09 fa bd 5a 0f 61 be 2a f3 46 bd
       0.17084351 -0.122087985 -0.21978512 -0.048571743
0002d0 37 0e 77 36 d1 eb fa 3d de 16 51 b6 81 9a 50 b7
       3.6814142e-06 0.1225201 -3.1156737e-06 -1.2433739e-05
0002e0 e7 c9 8b 3c 26 e5 e1 bd 6a 05 2b 3d 6b 23 f7 bd
       0.017064048 -0.11030035 0.04175321 -0.12067302
0002f0 bb 58 55 b4 f0 65 fa 3d 03 f8 d0 ba e7 65 37 b7
       -1.9869451e-07 0.12226474 -0.0015943054 -1.0931376e-05
000300 b3 29 90 3d 10 a8 66 3c c1 68 e9 bc 80 22 96 3d
       0.070392035 0.014078155 -0.028492333 0.07330799
000310 b2 b9 58 bd 3e 83 12 37 13 36 88 3d 15 65 41 3c
       -0.052911468 8.732835e-06 0.06650939 0.011803885
000320 e0 08 53 36 23 9e 8d bd 08 ba 30 b6 ba d5 43 b6
       3.1446616e-06 -0.06914928 -2.6334328e-06 -2.918167e-06
000330 60 75 26 3d d3 15 eb 3c 23 8f 2f 3d f8 c1 0b 3d
       0.04063928 0.02869693 0.042861115 0.03412053
000340 05 e5 4b b6 c7 a3 e3 b6 bd c0 83 bc f5 57 4c bc
       -3.0382664e-06 -6.7841934e-06 -0.016083116 -0.012472142
000350 bf 3d 24 3d 3a e7 9f bc 14 23 68 b6 58 0f 04 3e
       0.04009795 -0.019519437 -3.4591112e-06 0.12896478
000360 8e 22 2b 3d 2e ac 12 bc c6 b0 a0 3a cd 65 45 36
       0.041781 -0.008952184 0.0012259714 2.9414543e-06
000370 d9 3b 0f bd 31 bb 2d 3d 64 3d 2f bd f5 30 35 3d
       -0.034969185 0.042414848 -0.042783156 0.044236142
000380 4e 42 88 3d b4 c7 fa bd e9 ab 73 bd d0 be 91 3b
       0.066532716 -0.122451216 -0.05949012 0.0044477955
000390 7b 63 48 b6 83 d9 b7 3a e2 2c 93 bd d0 b3 38 bd
       -2.9860228e-06 0.0014026616 -0.07186295 -0.045093358
0003a0 4e db 27 3d cd 42 e8 bc cb c8 ad 36 31 07 31 3d
       0.04098063 -0.028352166 5.179177e-06 0.04321975
0003b0 9d ee 87 bb 1e a7 6e bd f0 7e 5a 3d 4f f1 5d b6
       -0.004148318 -0.058264844 0.053343713 -3.3072026e-06
0003c0 3c e4 47 b6 01 22 f9 3d 8d 32 fb 3d 79 e1 30 3d
       -2.978616e-06 0.12164689 0.12265501 0.043183777
0003d0 a1 15 9d b6 85 2e 32 3d 67 a5 74 bc 3f 70 5d 3d
       -4.6814826e-06 0.043501396 -0.014932013 0.054062124
0003e0 3a f2 55 36 5a a6 52 b6 31 d4 3b bd e7 04 76 bc
       3.1880468e-06 -3.1389268e-06 -0.04585666 -0.015015817
0003f0 0c 00 39 bd 03 93 38 3d 25 9f 08 3e 58 eb ab bd
       -0.04516606 0.045062076 0.13341959 -0.08394498

net.4.weight f4 [256, 256]
000000 07 c4 fa 35 ea 0a 34 36 ec 02 90 b5 52 11 82 b5
       1.8683503e-06 2.6828443e-06 -1.0729686e-06 -9.690796e-07
000010 45 15 23 31 8c 1a 18 b6 16 bb ef b6 ae 17 db 2f
       2.3731712e-09 -2.2665217e-06 -7.1445347e-06 3.9852693e-10
000020 1e 23 1a 30 bd ae a9 b5 33 a8 09 37 ac bc 32 b6
       5.607478e-10 -1.2642337e-06 8.204998e-06 -2.6633888e-06
000030 0e 78 0e 35 ac f0 3f 30 e2 2b 88 b5 15 4a 66 b6
       5.3073825e-07 6.982741e-10 -1.0145561e-06 -3.4315792e-06
000040 2a e6 5f b6 b9 d1 1a b2 ff 09 4d b4 8e 94 0d b1
       -3.3363563e-06 -9.011665e-09 -1.909575e-07 -2.0602644e-09
000050 25 03 60 36 29 2a 9e b6 87 dd a0 b6 85 d5 18 b6
       3.3380431e-06 -4.713675e-06 -4.7941608e-06 -2.277405e-06
000060 e7 04 18 b6 b7 fb 20 ae de 77 2b b6 f9 8a 73 b7
       -2.2652619e-06 -3.6603356e-11 -2.5550758e-06 -1.4516286e-05
000070 4a 1c 42 b1 4a fb 17 36 42 94 97 36 8c 36 ba b6
       -2.8246796e-09 2.2647023e-06 4.51741e-06 -5.549582e-06
000080 18 fb 49 30 c7 f7 29 b7 4e 7a a1 b5 a8 69 9a b6
       7.34802e-10 -1.0130875e-05 -1.203103e-06 -4.6018577e-06
000090 17 1e ba af 36 cb d7 36 1a e6 3b 36 a8 a2 68 30
       -3.3854583e-10 6.431156e-06 2.7999108e-06 8.4632257e-10
0000a0 66 cb 80 b6 12 ff c7 b5 e7 52 fa 2f 4b 3e 21 b0
       -3.838376e-06 -1.4900891e-06 4.553364e-10 -5.865998e-10
0000b0 66 02 70 b6 1c 93 b5 b6 05 eb 38 b0 e2 07 18 b6
       -3.5764183e-06 -5.411346e-06 -6.7272793e-10 -2.2654353e-06
0000c0 ad df c8 b5 e9 3b 2c 31 b5 5d 60 b0 08 7d f8 34
       -1.4966259e-06 2.506335e-09 -8.162389e-10 4.6284572e-07
0000d0 4e 74 16 b6 06 6d 12 b1 76 31 4e 36 11 2d dc 35
       -2.241944e-06 -2.1307769e-09 3.0725182e-06 1.6404393e-06
0000e0 fe 1e 18 b6 73 5a df af ee 97 27 b6 7e a7 3f 31
       -2.2667805e-06 -4.0627732e-10 -2.4973374e-06 2.7889366e-09
0000f0 d8 5d ce 36 71 3c 5c b5 2b 4a db b5 34 43 43 36
       6.1502033e-06 -8.204434e-07 -1.6338357e-06 2.9096382e-06
000100 3f 96 e5 35 0c 05 12 37 da 6e 18 b6 78 f6 bc 36
       1.7105557e-06 8.703453e-06 -2.271429e-06 5.6315293e-06
000110 d2 13 c7 35 34 11 fd 35 98 5e 26 b0 ca 4d 18 b6
       1.4832424e-06 1.8854976e-06 -6.0524874e-10 -2.2695044e-06
000120 76 d8 8a b1 2a 24 5b 36 85 1c 86 36 0d 15 fe 35
       -4.0409374e-09 3.2654593e-06 3.9968313e-06 1.8930601e-06
000130 15 42 80 b6 6d 47 92 36 5a 18 01 36 23 86 17 36
       -3.82239e-06 4.359454e-06 1.9236672e-06 2.2578831e-06
000140 f1 ff 69 36 ec 79 91 b6 bc 93 a1 b4 0c d9 07 b7
       3.4868683e-06 -4.3355303e-06 -3.0096078e-07 -8.097162e-06
000150 ed dd bf b5 34 af 7e b6 e9 6d 9f b4 f3 d7 17 b6
       -1.4295198e-06 -3.795093e-06 -2.9696028e-07 -2.2626452e-06
000160 d9 68 bd b6 5d fb 98 36 0c 17 a8 b2 47 a9 7f 30
       -5.644845e-06 4.5592155e-06 -1.9568255e-08 9.3009017e-10
000170 7a 5d 6a 30 c2 dd 5a b0 b1 7a 79 35 b3 eb 14 36
       8.526154e-10 -7.9623075e-10 9.293827e-07 2.2190914e-06
000180 89 f7 b0 36 34 88 f2 36 df 04 c0 b6 c6 4d 93 b5
       5.2740256e-06 7.228018e-06 -5.722613e-06 -1.0974989e-06
000190 84 3a 08 b5 37 5b b4 b6 c0 1b 18 b6 50 68 d4 b0
       -5.07491e-07 -5.375037e-06 -2.2665918e-06 -1.5454678e-09
0001a0 fa d6 d1 b6 24 25 0f b7 c6 ed 18 b6 46 4f 25 37
       -6.253712e-06 -8.532112e-06 -2.2788167e-06 9.853224e-06
0001b0 78 b8 b2 36 8e 02 17 b6 83 96 86 b5 8f 0a 41 36
       5.3262884e-06 -2.250224e-06 -1.0027583e-06 2.8765387e-06
0001c0 ff 6e 64 b1 34 bc bd b6 4c 2f 3b 2f e5 7c a2 34
       -3.324146e-09 -5.6545487e-06 1.7024354e-10 3.0265724e-07
0001d0 35 0b 01 b7 e8 a6 15 36 e2 8a ab b6 08 3f e3 35
       -7.6916085e-06 2.2299882e-06 -5.112365e-06 1.6931162e-06
0001e0 72 68 d8 b5 f0 c9 31 31 79 b3 8c b1 2f 98 4b 36
       -1.6123652e-06 2.5871678e-09 -4.09494e-09 3.033794e-06
0001f0 63 7f 1f 35 12 00 82 b6 6e cf d4 b6 f3 c7 04 31
       5.941749e-07 -3.87431e-06 -6.3422403e-06 1.9322186e-09
000200 55 cb 18 31 7f bd 06 36 8a c9 6c b0 94 7f 18 b1
       2.2234492e-09 2.0077857e-06 -8.6142704e-10 -2.219143e-09
000210 ad 40 59 b0 63 0e ba b1 b3 e7 27 b6 be a9 e6 b4
       -7.903605e-10 -5.414948e-09 -2.5019806e-06 -4.2964342e-07
000220 db 12 e2 30 9e be 71 b6 10 cf dc af 5d ef 45 b4
       1.6449023e-09 -3.6022752e-06 -4.0164894e-10 -1.8434135e-07
000230 a0 d9 33 b0 72 b5 23 b1 33 e3 2e 30 49 e8 bc b1
       -6.5429084e-10 -2.3822762e-09 6.36237e-10 -5.497928e-09
000240 e2 d0 17 b1 04 16 0b b7 e0 de 7f b1 2b c3 9a b6
       -2.2092128e-09 -8.2901715e-06 -3.7234074e-09 -4.612278e-06
000250 7b e5 66 35 0a 09 cd b5 77 ab 2e 37 b9 2f 69 37
       8.6015615e-07 -1.5276321e-06 1.04111305e-05 1.38989935e-05
000260 cf 52 01 b5 72 ea c3 36 e0 4e 41 b0 e5 45 c4 b5
       -4.817675e-07 5.838746e-06 -7.032508e-10 -1.462348e-06
000270 76 56 84 30 a7 e2 fe 30 61 31 b3 b4 1c 13 67 31
       9.628838e-10 1.8545351e-09 -3.3377276e-07 3.3625787e-09
000280 c4 7d 69 b6 f4 49 1e b1 8f 56 9e 36 80 ef 7f b6
       -3.479291e-06 -2.3034064e-09 4.7188437e-06 -3.8137368e-06
000290 85 ff ab b0 4e fa e9 35 c8 08 28 31 76 b0 d5 b6
       -1.251451e-09 1.7432701e-06 2.445221e-09 -6.3684374e-06
0002a0 36 ac bd 34 ac c8 24 b0 7f 78 83 36 54 15 b0 36
       3.5329293e-07 -5.9948024e-10 3.918132e-06 5.2476917e-06
0002b0 b4 7f 29 31 35 0e 16 37 5b 3b 1d b6 75 79 95 35
       2.4665328e-09 8.944005e-06 -2.3429373e-06 1.1136714e-06
0002c0 1a c5 1b b6 fb c3 17 36 be fa 9f 33 c0 d4 f3 b6
       -2.3211528e-06 2.261483e-06 7.449624e-08 -7.2667317e-06
0002d0 09 ce fb 30 00 70 18 b6 bf 1d 6a b0 59 bb 55 b1
       1.8321212e-09 -2.2714958e-06 -8.5170976e-10 -3.1102074e-09
0002e0 b0 ce cd 36 60 95 b3 35 e4 5c dc 34 24 91 15 36
       6.1335377e-06 1.3380013e-06 4.104578e-07 2.2287213e-06
0002f0 ae 93 23 31 d3 08 18 b6 03 f6 05 37 c1 85 9d b1
       2.3803568e-09 -2.2654901e-06 7.984697e-06 -4.5845074e-09
000300 7a 75 0c b7 89 de 45 b7 10 62 b4 b5 73 eb 0c b7
       -8.372002e-06 -1.1793928e-05 -1.3439585e-06 -8.39947e-06
000310 7c 72 04 b5 3b de a5 31 8f 38 ff b6 ff 04 64 b6
       -4.934043e-07 4.8273967e-09 -7.6061765e-06 -3.3977556e-06
000320 84 11 71 30 6b ea 9e b6 0e a9 25 ae c7 ab b6 b1
       8.770018e-10 -4.736057e-06 -3.7666807e-11 -5.316426e-09
000330 ab 05 88 b4 5c 84 88 b6 d0 47 ff 36 4a 8d a3 36
       -2.5336098e-07 -4.0685245e-06 7.6079523e-06 4.8742268e-06
000340 ef b8 3a b0 3c a1 b8 b1 1c 8e 58 b6 3b ec 28 36
       -6.792921e-10 -5.373435e-09 -3.2269227e-06 2.5171455e-06
000350 bc 44 41 b6 66 5c 5a 36 b4 b5 1e b0 f0 2f 91 b6
       -2.879925e-06 3.2538314e-06 -5.773828e-10 -4.3269174e-06
000360 27 55 08 b6 fd 33 00 37 44 53 ae b6 01 29 01 30
       -2.0315144e-06 7.641499e-06 -5.1952975e-06 4.6988197e-10
000370 24 62 e0 b5 b8 23 6c 33 bb c4 d8 34 b4 ae 18 36
       -1.6717863e-06 5.4980518e-08 4.0376275e-07 2.2751456e-06
000380 82 f6 2a b6 13 55 18 36 c8 fb 27 36 69 02 2c 35
       -2.547546e-06 2.2699285e-06 2.5031495e-06 6.40785e-07
000390 f6 75 1a b0 b6 74 2d b5 cd de 4a 35 a6 a0 16 b7
       -5.6192506e-10 -6.461736e-07 7.557508e-07 -8.978101e-06
0003a0 6d f2 96 b6 86 04 68 b6 7e e7 af 31 4d 71 66 b6
       -4.4985704e-06 -3.4573327e-06 5.119488e-09 -3.433862e-06
0003b0 76 fd 1a b7 f7 fc 75 b5 5d d8 10 36 cc 0b 31 b1
       -9.238129e-06 -9.1637725e-07 2.1583612e-06 -2.5763596e-09
0003c0 cd 44 17 b0 93 15 17 b6 18 a6 18 b6 a0 09 da b6
       -5.503125e-10 -2.2513311e-06 -2.2746444e-06 -6.498027e-06
0003d0 8c dc 96 30 0d dd 62 b4 eb 18 97 35 aa 33 0d b7
       1.097662e-09 -2.1128308e-07 1.1257629e-06 -8.416284e-06
0003e0 64 c9 46 2f 23 f5 d9 af c8 28 e1 b4 d5 ef b0 36
       1.8079543e-10 -3.964625e-10 -4.1939188e-07 5.273129e-06
0003f0 66 99 51 36 5d c0 12 37 a1 2f 72 36 3b ef b0 b6
       3.1232717e-06 8.747066e-06 3.6088534e-06 -5.273059e-06

net.4.bias f4 [256]
000000 e7 8e 8f b6 1b 24 7d be 30 42 88 b6 a9 f2 1f 34
       -4.278368e-06 -0.24720804 -4.060821e-06 1.4896308e-07
000010 1c be 86 36 c9 61 8c b6 d9 a8 d1 bc e7 ce 99 b6
       4.015643e-06 -4.183709e-06 -0.025593208 -4.583842e-06
000020 04 ef 85 36 41 78 de 35 5c 97 d5 3c 83 64 78 bc
       3.991534e-06 1.6575287e-06 0.02607315 -0.015160683
000030 5d 53 53 3d 5f 2d 66 3c f0 53 52 b6 06 3b 90 b6
       0.051593173 0.014048903 -3.1341297e-06 -4.2984057e-06
000040 a0 ad 81 bd b0 a6 0b bd 3b f0 91 bb 3e 42 89 bb
       -0.063319445 -0.034094512 -0.0044536865 -0.004188805
000050 71 ea 47 bd 38 b0 8d 36 a2 e7 51 bd 2b 6c 82 3c
       -0.048807565 4.222642e-06 -0.051246293 0.01592072
000060 58 c3 90 3d 06 12 fd b5 34 5d 8a 36 40 58 bb 3c
       0.07068509 -1.8855214e-06 4.1235708e-06 0.02286923
000070 d9 7b 87 b6 ee e8 b7 3c f4 75 ff 3c 0f f9 68 bd
       -4.0377313e-06 0.022449937 0.031184174 -0.056878146
000080 f3 e9 e6 bb 49 a9 77 bd b7 5f 42 36 20 0a 89 36
       -0.007046932 -0.060464177 2.8963966e-06 4.084097e-06
000090 46 56 2f 3c 0a 04 94 bd 77 e6 e1 3c 25 0f 8e 36
       0.0107017215 -0.07227333 0.027575715 4.233693e-06
0000a0 2d a5 8a 36 78 fc 80 3d 9b cf 92 36 df 8e e9 3d
       4.1319495e-06 0.062981546 4.3753075e-06 0.114042036
0000b0 94 f0 92 bb 79 51 8f b6 f6 bf 86 b6 e8 77 3d 3d
       -0.0044842456 -4.2712168e-06 -4.0158584e-06 0.04625693
0000c0 01 20 86 b6 64 9f 80 bd 04 9f 86 b6 66 b8 89 36
       -3.997237e-06 -0.06280401 -4.012023e-06 4.104385e-06
0000d0 ef 45 12 bd 23 c0 83 36 aa ab 02 bd 2a a8 87 3c
       -0.035711225 3.926472e-06 -0.031901993 0.016559679
0000e0 c4 43 8a b6 2a b2 c7 b5 08 a4 ef 3d dd ec 89 36
       -4.1206094e-06 -1.4878508e-06 0.11701208 4.1104927e-06
0000f0 d6 36 1a b6 53 f4 0c bc c2 03 8b 36 5e 6a 28 bd
       -2.2979707e-06 -0.008603173 4.1429603e-06 -0.041117065
000100 86 f0 89 36 94 4d 8d b6 68 4a 53 bb 6c eb 31 3c
       4.110919e-06 -4.2111587e-06 -0.0032240395 0.010859352
000110 10 d2 14 bd 3c bd b4 ba df d7 0c bd 0f 3d 95 b6
       -0.036333144 -0.0013789306 -0.03438556 -4.447654e-06
000120 44 c5 8f b6 f0 33 29 3d 26 1a 31 bd 82 8d f7 bc
       -4.284697e-06 0.041309297 -0.043237828 -0.030218843
000130 1c 74 8e 36 2f 92 9b bd 2d 4d d6 3d 5f 7e 45 bc
       4.2454467e-06 -0.07596242 0.10463939 -0.012054055
000140 ca 2b 8e b6 20 2a 27 3d 42 e3 8c b6 b1 dd 5e 39
       -4.2370275e-06 0.040811658 -4.1987814e-06 0.00021254156
000150 b6 43 8f b6 e6 39 9c bc dc b6 07 bd 3f 0d 8a 36
       -4.2696147e-06 -0.019070577 -0.033133373 4.1142625e-06
000160 50 3d 87 b6 b2 b6 bd 3c 48 42 98 bd 87 a3 d0 3d
       -4.0304512e-06 0.023158405 -0.07434517 0.1018744
000170 4d 64 86 b6 b8 2e 97 3c 10 4c 86 36 34 52 85 bd
       -4.0051877e-06 0.018454894 4.002366e-06 -0.065098196
000180 29 0d 8d b6 62 33 96 b6 1b 9b e4 3c a3 14 21 bc
       -4.2036595e-06 -4.47633e-06 0.027905991 -0.00983158
000190 1d b6 87 b6 47 c5 96 3b fd df a8 b5 13 a9 85 b6
       -4.0445143e-06 0.004601154 -1.2582165e-06 -3.9833917e-06
0001a0 8e bc b2 35 35 ea 95 b6 4b 25 81 bc 59 17 8d bd
       1.331691e-06 -4.4678113e-06 -0.015764853 -0.06889219
0001b0 7e e8 89 36 74 81 8d 36 99 60 77 bd 50 a1 54 33
       4.109984e-06 4.217198e-06 -0.060394857 4.950681e-08
0001c0 67 0b 3b 36 93 f5 87 36 ab 74 9c 3d 89 7c 89 36
       2.7871808e-06 4.051902e-06 0.0763944 4.097416e-06
0001d0 24 d9 88 36 19 7d fe 33 e1 ab 45 36 8c e2 14 bb
       4.0783943e-06 1.1850552e-07 2.9455334e-06 -0.002271804
0001e0 4d 6f 0a 3d 06 95 27 bc 7f bf 2c b6 8a 8a a9 bd
       0.03379755 -0.010228401 -2.5741463e-06 -0.08278377
0001f0 bb 48 e8 3c 2f fc 3a 3d 67 bf 86 bd 30 96 97 bd
       0.028354993 0.045650657 -0.06579476 -0.07401693
000200 7a cf 0b bc 27 65 30 b6 7c 0f 64 b6 c8 53 86 b6
       -0.008533353 -2.6284922e-06 -3.398366e-06 -4.0032646e-06
000210 f0 1f b6 bc 5c 97 06 bd bb e9 bd 3c 83 aa 4e bc
       -0.022232026 -0.03285919 0.02318274 -0.012613895
000220 35 26 c9 34 8f da 5e bd 70 51 98 bd 60 86 8f 36
       3.7466967e-07 -0.054407652 -0.07437408 4.2773754e-06
000230 d7 c4 0f 3d fa 50 8c 3c eb 59 8a b6 a5 b7 f4 bc
       0.03509983 0.017128456 -4.1231883e-06 -0.029872725
000240 dc 26 21 b6 1f e5 95 36 ca de 09 3d 0e b1 c7 3b
       -2.4013489e-06 4.4672192e-06 0.033659734 0.0060941046
000250 19 80 65 b6 84 68 6a 3c 3d 7f 25 3d 3f 69 a1 3d
       -3.4198222e-06 0.014307145 0.040404547 0.07881402
000260 0f 11 38 b6 fb bd 88 36 4b 7e 59 3c 2d ad 67 bd
       -2.7428066e-06 4.0752325e-06 0.0132747395 -0.056561638
000270 60 fe 8b 3c 63 2d 8a 36 d2 fd 8b b6 58 93 1b b6
       0.017089069 4.118004e-06 -4.1720714e-06 -2.3182565e-06
000280 11 d2 9b b5 9f ed 1d b6 5c 1f 2c 3d ea 01 26 3d
       -1.1609537e-06 -2.3533137e-06 0.042022094 0.04052917
000290 6b 60 b3 35 e6 74 7f bd 81 1a 90 36 3f f7 2b b6
       1.3364601e-06 -0.062367342 4.29462e-06 -2.5624902e-06
0002a0 f5 07 a9 3d f4 d2 39 b6 a7 4d fb 35 8a 83 53 3d
       0.08253471 -2.768994e-06 1.8723557e-06 0.051639117
0002b0 0c 77 94 bc 9b a1 11 bd f9 60 93 36 3c 03 ff 3c
       -0.018123172 -0.03555451 4.3922305e-06 0.031129472
0002c0 82 e5 89 36 6c c2 88 36 26 1e 8f b6 23 47 8f 36
       4.1096364e-06 4.0757495e-06 -4.265242e-06 4.2700135e-06
0002d0 6b b7 90 b6 8a e1 b2 35 60 ba 90 3d bf 56 09 3c
       -4.312887e-06 1.3327674e-06 0.07066798 0.008382498
0002e0 f1 77 4f bd 83 28 54 b6 2a a0 b6 3c 90 a5 43 b5
       -0.050651494 -3.1614043e-06 0.022293169 -7.2884086e-07
0002f0 0f bd 85 b5 c5 32 94 3d 68 b3 87 b6 31 61 b3 bd
       -9.964295e-07 0.07236246 -4.044199e-06 -0.08758772
000300 7c e4 e7 bc 5a 77 8c b6 ed 4f 38 b6 1e b6 89 36
       -0.028307192 -4.1862195e-06 -2.746466e-06 4.1041194e-06
000310 84 27 20 bd 07 67 8f b6 e3 5d 35 3d 98 cd 19 b6
       -0.039100185 -4.273726e-06 0.04427899 -2.2918448e-06
000320 94 d8 8e 36 07 d9 2f 3c 1f 07 2a bd 29 52 33 3b
       4.257143e-06 0.010732896 -0.041510697 0.0027362204
000330 46 9a 76 3c 5e ca 36 3d 8c 41 0b 3d 4d f3 3b bc
       0.01505143 0.044626586 0.033998057 -0.011471582
000340 06 74 8a 3d eb 74 92 bc 69 97 5e 3d b3 3a 8a 36
       0.06760411 -0.017878016 0.054343615 4.119554e-06
000350 16 76 28 bc 15 fe 5e bc f7 c2 90 36 b9 35 16 bd
       -0.01028206 -0.013610383 4.3142313e-06 -0.036672328
000360 a7 e1 33 bd 71 05 83 3d 14 ed 8d b6 e4 de 8f 36
       -0.04391637 0.06397522 -4.229727e-06 4.28768e-06
000370 24 23 d9 bd 44 2c b5 bb dc 84 16 3c a1 e0 d0 3c
       -0.10602406 -0.0055289585 0.00918695 0.025497736
000380 35 e7 85 36 2c e9 8c 36 cc 79 2e bc 46 25 cb 3b
       3.990625e-06 4.19947e-06 -0.010649156 0.0061995117
000390 50 09 60 35 2f dc 81 35 de d5 8b 36 f6 64 ac 3c
       8.3460054e-07 9.675331e-07 4.1674202e-06 0.021044236
0003a0 64 78 6d 3d e8 ca b8 3d 61 22 62 3c db 93 10 3d
       0.05797614 0.09023076 0.013802142 0.035297256
0003b0 40 bd 89 36 fb 88 2a 36 b4 28 8c 36 1c 9b a3 b5
       4.1049498e-06 2.5411707e-06 4.1770636e-06 -1.2189589e-06
0003c0 52 92 c1 3c f4 f1 07 3d 0a e5 84 bc 5e 20 6a 3d
       0.023629341 0.03318973 -0.016222496 0.057159774
0003d0 5b 59 26 bd 27 5f 8e b6 16 ab 8e bd 17 1d 8d 3d
       -0.04061256 -4.243007e-06 -0.06966226 0.06890314
0003e0 95 ca 08 b6 4c 67 7e bd d6 43 04 b6 3c d1 3d 3c
       -2.0383497e-06 -0.06211023 -1.9709018e-06 0.01158553
0003f0 04 c2 51 b6 0d 9e 53 bd 7b ac 0d bd da a8 44 3b
       -3.1256359e-06 -0.0516644 -0.03458832 0.003000787
