training/nn-xxsmall.pth (torch, 5297 bytes, 4 tensors)

net.0.weight f4 [32, 21]
0	0xbed3484f	-0.41266105
1	0xbc2b7f06	-0.0104672965
2	0xbead39aa	-0.33833057
3	0xbc06b785	-0.008222465
4	0x3d861059	0.06546087
5	0x3cb6bf05	0.022307882
6	0x3cdb641c	0.026781134
7	0xbce000ef	-0.027344195
8	0xbdface55	-0.12246386
9	0xbe716de4	-0.23577076
10	0xbeaef71d	-0.34172907
11	0x3d24c495	0.040226538
12	0x3da98a5b	0.08278342
13	0x3d549ccf	0.051907357
14	0xbc94ab3e	-0.01814806
15	0xbd245ab1	-0.040125553
16	0xbc0f7e97	-0.008758209
17	0x3bb7f156	0.0056134863
18	0x3cc707e9	0.024295764
19	0x3d4dd68a	0.05025343
20	0xbe10e485	-0.14149673
21	0x402f6a2a	2.7408547
22	0x3fb9eef2	1.4526045
23	0x3f9f2858	1.2434187
24	0xbfcd9637	-1.6061467
25	0xbfc0c013	-1.5058616
26	0xbee73759	-0.45159414
27	0xbd842abe	-0.06453465
28	0x3cb7f332	0.022454832
29	0x3ce81e2a	0.028334696
30	0x3d08354a	0.033253945
31	0x3d66b34a	0.056323327
32	0x3ca69ba0	0.02033788
33	0xbd7cc9d9	-0.061715934
34	0x3b50e920	0.0031877235
35	0x3c85958a	0.016306657
36	0x3caf4aa8	0.021397904
37	0x3c40aab7	0.011759452
38	0x3ba9cd03	0.00518191
39	0x3cb99898	0.02265577
40	0xbf2e4194	-0.68068814
41	0x3c22bc50	0.0099325925
42	0xc00f4b1d	-2.2389596
43	0x3f70e3d7	0.94097656
44	0x3ef67e73	0.48143348
45	0xbe046440	-0.12928867
46	0x3d2cc72c	0.042182133
47	0x3d28a94c	0.04117708
48	0x3ce2328b	0.027611991
49	0xbc5e67e8	-0.013574578
50	0xbd2d8151	-0.042359654
51	0xbd4333c2	-0.047656782
52	0xbd638e89	-0.055555854
53	0x3fe6a9e0	1.8020592
54	0x3f5bc46e	0.858466
55	0x3e5527c0	0.20815945
56	0x3d555555	0.052083332
57	0x3c47e75b	0.012201156
58	0x3bcbe90b	0.0062228492
59	0xbbf06ed0	-0.0073374286
60	0xbc57d31d	-0.013172892
61	0x3ef92fec	0.48669374
62	0x3ad64e8c	0.0016350313
63	0x3c6f5302	0.014607193
64	0x3eb3279a	0.3499115
65	0xbf91e474	-1.1397843
66	0x3d6e07a4	0.058112755
67	0x3e56f5b4	0.20992166
68	0x3e463ff9	0.19360341
69	0x3dd83723	0.105573915
70	0x3c231ed8	0.009956084
71	0xbcff0135	-0.031128505
72	0xbc8bc5a0	-0.017062008
73	0x3c63afde	0.0138969105
74	0xbd3c3e4f	-0.04595786
75	0xbd62cff3	-0.055374097
76	0x3b1e24b9	0.0024130775
77	0x3ce7ca71	0.028294774
78	0x3ce11dba	0.027479995
79	0x3d09ed52	0.033673592
80	0x3c6439c8	0.013929792
81	0x3c01d75d	0.007924882
82	0x3d026472	0.031834073
83	0xbc3c19ee	-0.0114807915
84	0x3ec379b4	0.3817879
85	0x3f422054	0.7583058
86	0xbf35f47a	-0.71076167
87	0x3e66aece	0.2252762
88	0x3dc99ac2	0.09843971
89	0xbbfe294b	-0.0077563873
90	0x3c08878d	0.008333099
91	0x3ca406ec	0.020022832
92	0x3b84ed5e	0.0040566167
93	0xbcd7deff	-0.02635145
94	0xbe046c37	-0.12931906
95	0x3d74e797	0.059791174
96	0x3d4823e1	0.04886234
97	0x3c805a10	0.015667945
98	0xbc8d1b3a	-0.017224897
99	0x3b782ed1	0.0037869702
100	0xbbf9ad9e	-0.0076195737
101	0xbd87eb1d	-0.06636641
102	0xbd887940	-0.066637516
103	0x3da877ca	0.08225973
104	0x3c247abe	0.01003903
105	0x3c4fab67	0.012675143
106	0x3f4f7a35	0.8104585
107	0x3f0a1064	0.5393126
108	0xbdcecf38	-0.100981176
109	0xbebe8186	-0.37208194
110	0x3e1c5a96	0.15268931
111	0x3e5e396f	0.21701597
112	0x3ca2f6d1	0.019893082
113	0xbdf51299	-0.11966438
114	0xbd58692b	-0.05283467
115	0x3cc3ee6f	0.023917405
116	0xbf26f08f	-0.65210813
117	0x3d0a8861	0.033821467
118	0x3e38b544	0.18037897
119	0x3ce993e3	0.0285129
120	0xbd8b1518	-0.06791133
121	0xbd66d59e	-0.056356065
122	0x3d08cd61	0.03339899
123	0x3d1b4002	0.03790284
124	0xbe8f8ad1	-0.28035596
125	0x3aa304b9	0.001243732
126	0x3f5db210	0.86599827
127	0xbf88416c	-1.0644965
128	0x3f951791	1.1647817
129	0x3f92360d	1.1422745
130	0xbee62216	-0.4494788
131	0xbf425b8a	-0.7592093
132	0xbf02f733	-0.51158446
133	0xbe7a05a2	-0.24416211
134	0xbdbbfa71	-0.09178627
135	0xbcdacd18	-0.026709124
136	0xbba37d48	-0.0049893
137	0xbd38087f	-0.044929978
138	0xbd51da42	-0.051233537
139	0xbc59667b	-0.013269062
140	0x3d046201	0.032320026
141	0x3d003af5	0.031306226
142	0x3cff8737	0.031192405
143	0x3d16b8f4	0.03679748
144	0xbcbe705d	-0.023246938
145	0x3dd215bb	0.10258051
146	0xbc51fb67	-0.012816287
147	0x3ed57f93	0.41698894
148	0x3f79224f	0.97317976
149	0xbf5d4005	-0.8642581
150	0x3f2c3856	0.6727346
151	0x3db9e8ab	0.09077581
152	0xbee0fdec	-0.43943727
153	0xbec3adc5	-0.38218513
154	0xbd883ad7	-0.06651848
155	0x3e1a5355	0.15070851
156	0x3e13cda8	0.1443392
157	0xbd981751	-0.07426322
158	0xbee9098b	-0.45515093
159	0xbdb985d4	-0.09058729
160	0x3bfca3fe	0.007709979
161	0x3ca1d32b	0.019754013
162	0x3d810ca5	0.0630124
163	0x3d02a5ce	0.031896405
164	0xbcaa83da	-0.020814825
165	0xbc5d3722	-0.013501914
166	0x3dc58796	0.096450016
167	0xbc1073f2	-0.008816706
168	0x3f6e82fe	0.9316863
169	0x3f5262d3	0.82182044
170	0xbed9b941	-0.4252415
171	0xbdf00841	-0.11720324
172	0xbdbca003	-0.09210207
173	0xbcf3d8c2	-0.029766444
174	0xbd0a7319	-0.033801172
175	0xbd653d0a	-0.055966415
176	0xbd59df8b	-0.053191703
177	0xbbbe28e3	-0.005803214
178	0x3cfd02ce	0.030885126
179	0xbd83a3a6	-0.06427698
180	0xbd3adaef	-0.045618948
181	0xbca175c9	-0.019709485
182	0x3c64a7d8	0.013956033
183	0x3d44cdfb	0.048048
184	0x3da02f3a	0.07821508
185	0x3d9ba7f1	0.07600392
186	0x3d85344e	0.06504117
187	0xbd82e00e	-0.06390391
188	0xbcee6658	-0.029101536
189	0xbee87855	-0.45404306
190	0xbeb42ef2	-0.35192066
191	0x3df1811c	0.11792204
192	0xbbab1ead	-0.0052221627
193	0xbce5b6a8	-0.028041199
194	0x3ccc15c4	0.024912722
195	0xbd3f8e83	-0.04676677
196	0xbda1c0f2	-0.078981295
197	0xbdd2066b	-0.102551304
198	0xbe2c2ccb	-0.16813962
199	0xbe4063db	-0.18788092
200	0x3dc54c54	0.09633699
201	0x3d0eee4e	0.034895234
202	0xbb992172	-0.0046731764
203	0x3d98bac9	0.074575014
204	0x3d576cc3	0.052593958
205	0x3cc42f1c	0.023948245
206	0x3d7ad1f5	0.061235387
207	0xbbe4838f	-0.006973691
208	0x3cb8d93a	0.02256452
209	0xc015e17c	-2.3418875
210	0x400bf555	2.1868489
211	0xbf79cb00	-0.9757538
212	0xbe20f676	-0.15719017
213	0x3d3cec98	0.04612407
214	0xbdabf9dd	-0.08397267
215	0xbcd6a483	-0.026201492
216	0xbb069674	-0.0020536454
217	0xbb8d2f2d	-0.0043086023
218	0xbc0151ce	-0.007893039
219	0x3a3c9068	0.0007193149
220	0x3d066832	0.032814212
221	0xbf295e56	-0.6615957
222	0xbf44e2e6	-0.7690872
223	0xbeeb832b	-0.4599851
224	0xbeaaf9fd	-0.3339385
225	0xbe4751a6	-0.1946474
226	0xbd68c4db	-0.05682836
227	0x3cb4ab11	0.022054227
228	0xbcc9c26a	-0.024628837
229	0xbe95f305	-0.29286972
230	0xbd102744	-0.035193697
231	0xbf273a58	-0.653234
232	0x3c362a98	0.011118554
233	0x3f05f339	0.52324253
234	0x3c0a22a9	0.008431115
235	0x3db82dc7	0.08993106
236	0x3dad7cd7	0.08471077
237	0x3b814064	0.0039444435
238	0xbb9f2f03	-0.004857899
239	0x3d18454b	0.037175458
240	0x3d0ee59d	0.034886945
241	0xbc0e2679	-0.008676165
242	0x3e044c4a	0.12919727
243	0x3e685002	0.2268677
244	0x3b65bc59	0.003505489
245	0xbe902e3c	-0.28160274
246	0xbef07483	-0.4696389
247	0xbed38a08	-0.41316247
248	0xbe0fd4d7	-0.14046036
249	0x3d3648d5	0.04450305
250	0x3dad239e	0.08454059
251	0x3d71a404	0.058994308
252	0x3f9416de	1.1569479
253	0x3ee4f54a	0.4471839
254	0xbfd7677a	-1.6828454
255	0xbe49ddd1	-0.19713522

net.0.bias f4 [32]
0	0x3f692cbc	0.91083884
1	0x3f6a1911	0.914445
2	0xbe923600	-0.28556824
3	0xbf424601	-0.7588807
4	0x3f457ce3	0.77143687
5	0xbfa5f019	-1.2963897
6	0x3f433440	0.762516
7	0x3d4c0da2	0.04981769
8	0xbf50bf59	-0.81541973
9	0xc001e67d	-2.029693
10	0xbf7d3369	-0.9890657
11	0x3f0d1960	0.55116844
12	0xbfccd4a1	-1.6002389
13	0x3fe47f8f	1.7851428
14	0x3e75c237	0.23999868
15	0xbf7a4c7a	-0.97772944
16	0x3d812b6c	0.0630711
17	0x3f852850	1.0402927
18	0xbe679bd3	-0.22618036
19	0xbec27cbd	-0.37985793
20	0xbf91ac5f	-1.1380728
21	0x3eb07379	0.344631
22	0x3dc2e87a	0.09516998
23	0xbf1b7560	-0.60725975
24	0xbfa9fecf	-1.3280886
25	0x3eb8651a	0.36014634
26	0xc0196c4d	-2.3972352
27	0x3dd279ab	0.102771126
28	0x3ffd14e1	1.9771997
29	0x3d8cd6ce	0.06876908
30	0xbfa3ee37	-1.2807072
31	0xbf00364b	-0.50082844

net.2.weight f4 [6, 32]
0	0xbf4720c6	-0.77784383
1	0xbe444bc3	-0.19169526
2	0xbea4195c	-0.32050598
3	0xbf660d05	-0.89863616
4	0xbd479cc6	-0.048733495
5	0xbe060154	-0.13086444
6	0x3e902c39	0.2815874
7	0x3dd8a3ff	0.10578155
8	0x3e423640	0.18966007
9	0x3eb93d49	0.3617957
10	0xbe4da1c5	-0.20081241
11	0xbea59c7c	-0.3234595
12	0x3e9a5cb4	0.30148852
13	0x3ee939c1	0.45551875
14	0xbf42af84	-0.76049066
15	0x3f1655ef	0.58724874
16	0x3f26ea7a	0.6520153
17	0xbe83c953	-0.25739536
18	0xbeb4c2cd	-0.3530487
19	0xbcbd5c07	-0.023115171
20	0xbeec12b1	-0.4610801
21	0xbeaa80c6	-0.3330137
22	0xbe0215dd	-0.12703653
23	0x3ddf498e	0.10902701
24	0x3edd96e0	0.4327917
25	0x3ebb1346	0.36538142
26	0x3f68691b	0.9078538
27	0xbdb8e06b	-0.09027179
28	0xbf3f737d	-0.74785596
29	0x3f818d8c	1.0121322
30	0xbd9cc54a	-0.076548174
31	0x3ec18327	0.37795374
32	0xbf47a9f4	-0.779937
33	0xbfc99f6e	-1.5751779
34	0x3f87b4d3	1.0602058
35	0xc0067c10	-2.1013222
36	0x3e7ac508	0.24489224
37	0x3f7f4c0b	0.9972541
38	0x3f237212	0.6384593
39	0x3f285d12	0.65767014
40	0x3fbf7707	1.4958199
41	0xbd1fa49b	-0.03897534
42	0x3f0681fd	0.52542096
43	0x3eb7ad06	0.35874194
44	0xbfc76880	-1.5578766
45	0x3fff5010	1.9946308
46	0x3f69bb51	0.9130145
47	0x3fea26bd	1.8293072
48	0xbfe7cb90	-1.8108997
49	0xbf3535e9	-0.70785385
50	0xbf141e14	-0.57858396
51	0x3f0cff08	0.55076647
52	0xbfefca94	-1.8733697
53	0x3ed16420	0.40896702
54	0xbf418ace	-0.75602424
55	0x3f86c1dd	1.0527912
56	0x3b004e27	0.0019577832
57	0xbf379254	-0.71707654
58	0x3f9d5877	1.2292622
59	0xbf6999fd	-0.9125059
60	0x3f51f8c4	0.8202021
61	0xbfb0e738	-1.3820562
62	0x3febb6fa	1.8415215
63	0xbcd01dd4	-0.025404848
64	0x40345630	2.8177605
65	0xbf1f7a86	-0.6229633
66	0xbf858db0	-1.0433865
67	0x3fb9e626	1.4523361
68	0x3fccb667	1.5993165
69	0xbdf96948	-0.12178284
70	0x3f5db340	0.8660164
71	0xbf23db85	-0.64006835
72	0xbf26148f	-0.6487512
73	0xbfd44ccd	-1.6585938
74	0xbf35719d	-0.70876485
75	0x3f98614a	1.190469
76	0xbf3363e4	-0.70074296
77	0x3f881fc5	1.0634695
78	0x3e5aca0e	0.2136614
79	0x3f9b5277	1.2134541
80	0x3f36adab	0.71358746
81	0xbdb07111	-0.08615316
82	0xbf310206	-0.6914371
83	0x3f278592	0.6543819
84	0xbf083fef	-0.53222555
85	0x3fb23137	1.3921269
86	0x3dfdd573	0.12394228
87	0xbd76ccb8	-0.06025383
88	0xbfb43742	-1.4079363
89	0xbfd452c7	-1.6587762
90	0xbe61b4d0	-0.2204163
91	0xbc0147f8	-0.007890694
92	0x3f86fc16	1.054568
93	0xbf95cc1f	-1.1702918
94	0x3f654bf4	0.8956902
95	0xc01555d0	-2.3333626
96	0xbe39d5a2	-0.181479
97	0x3fa4acca	1.2865231
98	0xc00e41fc	-2.2227774
99	0x3db1c1c3	0.08679535
100	0xbee34a40	-0.44392586
101	0x3e9f2d49	0.31089237
102	0xbebe645f	-0.37185952
103	0xbe0b24fe	-0.1358833
104	0x3f7e683a	0.9937779
105	0xbe31ef9f	-0.17376564
106	0xbe9a13a6	-0.30093116
107	0xbd23fc8a	-0.040035762
108	0x3eb2b134	0.3490082
109	0xbe60c8bd	-0.21951576
110	0xbdc669c3	-0.09688141
111	0xbf340247	-0.70315975
112	0x3fff7053	1.9956154
113	0x3df503d7	0.11963623
114	0x3e02f6fc	0.1278953
115	0xbe2e2909	-0.17007841
116	0x3f9bc9bd	1.2170941
117	0x3d8d379f	0.068953745
118	0xbeeb585d	-0.45965853
119	0x3ecf645b	0.40506253
120	0x3de710a7	0.11282473
121	0xbdbe3489	-0.09287364
122	0xbee52f5a	-0.4476269
123	0xbcf17414	-0.029474296
124	0xbeb071db	-0.34461865
125	0xbe1ffd66	-0.15624008
126	0xbec34d4b	-0.38144907
127	0xbf5d72b7	-0.86503166
128	0x3d8a8816	0.067642376
129	0xbdd4277d	-0.10359094
130	0x3ef30b89	0.47469738
131	0x3eecb7b6	0.4623391
132	0xbdd2d289	-0.10294063
133	0xbe13f186	-0.14447603
134	0x3d1843b0	0.037173927
135	0xbd5c4521	-0.053776864
136	0x3b17c00f	0.0023155247
137	0xbd4401c9	-0.047853265
138	0x3ef144ee	0.47122902
139	0x3e3df427	0.18550168
140	0xbe24e367	-0.16102372
141	0x3dfcace2	0.12337662
142	0xbd962982	-0.07332136
143	0xbd68c2df	-0.05682647
144	0xbe9eb0bb	-0.3099421
145	0x3e07f0e5	0.13275488
146	0xbdeb333c	-0.114843816
147	0xbc730cb6	-0.0148345735
148	0xbe44ff83	-0.19238095
149	0xbe5faeff	-0.218441
150	0x3dccd9c4	0.10002473
151	0xbe2b4095	-0.16723855
152	0xbe427863	-0.18991236
153	0x3e12b5b2	0.14327124
154	0x3df59155	0.119906105
155	0x3dd8128f	0.10550415
156	0x3e262004	0.1622315
157	0x3ea04c4e	0.31308216
158	0xbd8b3792	-0.067977086
159	0xbe877c4c	-0.26462018
160	0x3d3868cc	0.045021817
161	0x3dad1f50	0.08453238
162	0x3dbedf40	0.09319925
163	0x3e1b9b13	0.15195875
164	0x3f301181	0.6877671
165	0xbdd86a2a	-0.10567124
166	0x3e78d388	0.24299443
167	0xbdf32839	-0.11872906
168	0xbe0c70d5	-0.13714917
169	0x3dadb33f	0.08481454
170	0x3db19779	0.08671469
171	0xbd1b111f	-0.037858125
172	0x3e83ec4b	0.25766215
173	0xbebf9c97	-0.37424156
174	0xbe067e8a	-0.13134208
175	0x3d4e878f	0.050422247
176	0x3c8177ed	0.015804255
177	0x3ea96138	0.33081985
178	0xbe009206	-0.12555704
179	0xbf12ac94	-0.57294583
180	0x3cfa8004	0.03057862
181	0xbdfe17ae	-0.1240686
182	0x3e8a4eb8	0.27013183
183	0xbd710760	-0.058844924
184	0x3acc5730	0.0015589949
185	0x3e5436d2	0.20724037
186	0x3f031dd5	0.51217395
187	0x3f20ffe8	0.6289048
188	0x3c45c004	0.012069706
189	0x3e8c7d58	0.2743938
190	0xbd6c5ed4	-0.057707623
191	0xbaf25426	-0.0018488213

net.2.bias f4 [6]
0	0x8001d960	-1.69815e-40
1	0x3fcbb2d3	1.5913948
2	0x00084bca	7.61872e-40
3	0x400b110e	2.172916
4	0x3e4a9be5	0.19786032
5	0x3e4a9be5	0.19786032
