training/nn-xlarge.pth (torch, 820639 bytes, 10 tensors)

net.0.weight f4 [256, 20]
000000 e6 db 3b 3b b5 19 05 be 12 d8 52 be 1a be 78 bd
       0.0028665005 -0.12998088 -0.20590237 -0.06072817
000010 b5 b6 7a bd 86 39 af bd 88 cc 11 3d 1a 4e 52 3e
       -0.0612094 -0.085558936 0.035595447 0.20537606
000020 66 a1 33 3e 52 df b4 3b bd 40 16 bd 0f 9d 15 3d
       0.17542037 0.005519786 -0.036682833 0.036526736
000030 34 90 3f 3d 18 6b 4c bc ca 50 03 be 07 db 11 bd
       0.046768382 -0.012476705 -0.12823787 -0.03560927
000040 97 c9 49 3d 95 ea ad bd f1 c4 58 bd 78 5b 41 3e
       0.049264517 -0.084920086 -0.052922193 0.18882549
000050 59 c9 59 bd ba fa 05 3e a4 c2 ed 3c d3 78 c4 be
       -0.053170536 0.13083926 0.029023476 -0.38373432
000060 19 7b 6b bd cf 48 e5 3d fd 5f 33 3e 37 da 3a 3e
       -0.057490442 0.11195528 0.17517085 0.18247305
000070 cb b0 a0 3d 96 49 4f bd 39 b7 d7 bd 0c b5 01 3d
       0.078462206 -0.050607286 -0.10532994 0.0316668
000080 e5 76 2f 3e a6 0c cd 3d 07 7e 8a bb 3d 6e 44 bc
       0.17135198 0.10012178 -0.0042264494 -0.0119891735
000090 74 8b 17 3d 9b 28 11 3d 0d de 0c be 67 5f 09 3d
       0.036998227 0.035439115 -0.1375658 0.03353825
0000a0 b7 3f 81 be 42 5c b5 bc 36 49 91 3e c9 55 55 3e
       -0.25243923 -0.022138719 0.28376168 0.20833506
0000b0 1e d7 f9 bc f3 46 bb bd 40 71 5c be 91 e7 cc bd
       -0.030498084 -0.09144392 -0.21527576 -0.10005105
0000c0 1e 6e 9a bd 71 06 4f bd b2 f2 3c be 90 3a 6b bd
       -0.075405344 -0.050543252 -0.18451956 -0.057428896
0000d0 d6 5f 71 3d ca e5 ae bc 46 9a 53 bc 1f 01 10 3e
       0.058929287 -0.021349806 -0.0129152 0.14062928
0000e0 b5 b8 d4 3c e1 3f c0 3c 74 66 4e 3e 64 d9 36 be
       0.025966981 0.02346796 0.2015627 -0.17856365
0000f0 0b 08 91 39 3f a2 fa bc 34 3e f5 bd ee 6a 2e 3d
       0.00027662548 -0.030594943 -0.11974755 0.042582445
000100 07 88 31 3e c9 4b 78 3d 22 44 c3 bd 56 97 0b be
       0.17337047 0.06061915 -0.0953448 -0.13631949
000110 99 9b 39 bd 8f 09 c1 3c 8d 95 19 3e a1 8c 89 bc
       -0.045314405 0.023564128 0.14998455 -0.01679069
000120 d3 3d 87 3d 15 74 04 3e 1f 75 b1 3d 94 20 00 be
       0.06603589 0.12934907 0.08664917 -0.12512428
000130 e2 f8 65 be 65 db cd 3c 32 c5 88 bd 00 c2 98 bd
       -0.22458223 0.02512903 -0.06678237 -0.074588776
000140 6f 40 73 3e 0e 05 4c be 39 1e 46 bd 9f 39 ef 3c
       0.23755048 -0.19923803 -0.048368666 0.02920228
000150 44 34 56 bd bc 8d 6f be 0c af 1c be 45 9f 81 bd
       -0.052295938 -0.23393911 -0.1530115 -0.063292064
000160 4b c1 09 bc a4 5a 88 3d 20 ec a1 3e 56 70 2a 3e
       -0.008407901 0.06657913 0.31625462 0.16644415
000170 1e e2 d5 3d 29 5a fb bd c9 19 79 be 51 ee db bd
       0.10443519 -0.12273056 -0.24326243 -0.107388146
000180 d3 26 9b bc fc 6f 76 3c 3f ba 09 3d 01 aa 1a 3d
       -0.018939411 0.015041348 0.033624884 0.037759785
000190 1a 01 3a 3e e9 07 0e 3f cd 5f 6a 3d b9 5f d2 bb
       0.18164483 0.5548082 0.05722027 -0.0064201024
0001a0 d6 7a 3b bb 7a 3a f6 bb 4a 04 10 3d 3a f6 6b 3d
       -0.0028607151 -0.007514295 0.03516034 0.057607867
0001b0 e8 3e 98 ba f0 df 9d bd d9 74 0b be 85 9c c2 be
       -0.0011615427 -0.07708728 -0.13618793 -0.3801004
0001c0 38 ee a0 3e 40 ce e8 3c 86 ce ed 3c 0e ac 03 3a
       0.31431746 0.02841866 0.029029142 0.00050228916
0001d0 61 b6 f7 bc 60 e8 cb bb 0c b4 56 be 21 1b 3d bd
       -0.030238332 -0.0062227696 -0.2096712 -0.04616845
0001e0 0a 22 60 bc 90 c0 da 3c d7 3c 26 3c 21 e1 05 3c
       -0.013679991 0.02670315 0.010146341 0.008171351
0001f0 ed c8 6b 3b a2 28 b3 3c ad b9 07 3d 20 a4 0c 3d
       0.0035977915 0.021869961 0.03313606 0.03433621
000200 f2 c8 85 bb 9c ff 08 3b ea 93 c4 bb af 2b ce bd
       -0.0040827924 0.0020904308 -0.005999078 -0.10066926
000210 e4 61 d1 bd 6b 8a 44 3d 05 ef c2 3d 85 50 34 bc
       -0.10223749 0.04798357 0.095182456 -0.0110055255
000220 11 f4 97 bd c1 62 ca bc a8 b7 c9 bb 89 7d 16 bd
       -0.07419599 -0.024705293 -0.0061559267 -0.036740813
000230 7e 97 9b 3d df 9e 19 bf 5e 09 11 be 9c c5 99 bd
       0.07597254 -0.60008043 -0.1416373 -0.07508394
000240 3e 58 b1 bd ea 7c 84 bd 73 2e d3 3d e2 b7 e6 3d
       -0.08659409 -0.06469138 0.10311594 0.112655416
000250 e6 7e 0b be cd 02 99 bd 77 a0 b8 bd d3 87 1a be
       -0.13622627 -0.07471237 -0.09014981 -0.15090875
000260 a7 16 88 3e d4 cb a7 3d 05 c5 04 be 2b 01 94 3b
       0.26579782 0.08193174 -0.12965782 0.004516741
000270 b5 0f d1 3c 73 06 0f bd 3c f4 47 be 6a 22 fd 3b
       0.025520185 -0.03491826 -0.19526762 0.0077250497
000280 22 cc 86 3e 58 74 95 3c f5 81 17 be 85 2f 68 3e
       0.26327616 0.018243954 -0.14795668 0.22674377
000290 29 7b 7a bd c5 7d 14 3c 08 16 e2 39 57 37 23 3e
       -0.06115261 0.009063189 0.00043122494 0.15939079
0002a0 59 d6 88 3e 87 23 a3 bd 5c 39 3f 3e dd b8 b9 bd
       0.26726034 -0.07965761 0.18674225 -0.09068463
0002b0 59 65 f1 3d 41 9d 88 3d 74 b0 52 be 02 6b e8 bd
       0.11786909 0.06670619 -0.20575124 -0.11348535
0002c0 fd 74 0f 3c 98 1d 0e 3e 2b be c0 bc 96 86 0a bd
       0.0087559195 0.13878477 -0.02352818 -0.033819757
0002d0 0c d8 fc 3e 2f 57 97 3e 30 23 89 be f0 0b c3 be
       0.4938358 0.29558703 -0.26784658 -0.38095045
0002e0 6d 96 cc 3d 74 b6 cd 3d 06 f0 f2 3d 57 46 1d 3e
       0.09989629 0.10044566 0.11862187 0.15358864
0002f0 c1 7f 9f 3d 9f 95 a0 3c f8 34 de 3b 39 ed f5 3d
       0.07788039 0.019602595 0.0067812167 0.12008137
000300 18 a9 15 3e 22 3d 1a 3e 72 32 86 3d dc 84 1b be
       0.14615285 0.15062383 0.065525904 -0.151874
000310 42 e4 31 be f3 7f 1a bd 81 dd 04 bd 23 cc 4b bc
       -0.1737223 -0.037719678 -0.032437805 -0.012438807
000320 d6 9f b4 3d a8 77 04 bd d4 ea 1d 3f 63 49 79 3e
       0.08819549 -0.032340676 0.61686444 0.24344401
000330 24 b1 89 3d 28 8c 94 bd 2e 7e 89 bd 6b 68 d6 bc
       0.0672324 -0.07253295 -0.0671352 -0.026172837
000340 2a 9c 44 be b2 9e 13 bd 1a cf 74 3d 45 ef f9 3d
       -0.19200197 -0.036040016 0.05976782 0.1220384
000350 91 79 a4 3e fc 3c 1e 3e 3d 61 2a 3e d9 7c b6 bd
       0.32123998 0.15452951 0.16638656 -0.089105316
000360 4b 8b 11 be c1 c9 3e be 0f 4b f6 bc 45 f3 3c 3d
       -0.14213292 -0.1863165 -0.030065088 0.046130437
000370 92 63 9e bb 87 11 cc bc 03 9b 1d bd 81 af 4d be
       -0.004833647 -0.024910701 -0.03847791 -0.2008648
000380 23 51 fc 3c c3 9a 2c 3e 8f cd 11 3e 54 49 4a 3d
       0.030800408 0.16855912 0.1423857 0.049386337
000390 af d6 95 bd 84 1a 8b bd 10 89 a6 3d 09 3a 10 be
       -0.07316338 -0.06792167 0.08131611 -0.14084639
0003a0 a2 f0 f6 3d e8 8a 64 3e 34 c2 b0 3d 45 62 0f be
       0.12057616 0.22318614 0.08630791 -0.1400233
0003b0 e2 60 48 be 23 46 41 3d 95 28 b8 bd 34 b8 51 3c
       -0.19568208 0.04718603 -0.089921154 0.012800265
0003c0 8b c5 23 3c 58 84 80 3c ea cf e1 3d 82 e0 17 be
       0.009995828 0.015688106 0.110259846 -0.14831737
0003d0 2a f9 4e be 0d 28 cc bc 41 08 b5 3d 9f 48 d4 3c
       -0.20212236 -0.024921441 0.08839465 0.025913535
0003e0 f6 66 b4 3d 2f 67 7b bd 46 0f 62 bd 44 2b 09 3e
       0.08808701 -0.0613777 -0.055190347 0.13395411
0003f0 c7 74 0c 3e 89 cc 00 be fb 22 0d be b7 c2 4c 3d
       0.13716422 -0.12578024 -0.13782875 0.049990382

net.0.bias f4 [256]
000000 72 f8 8f 3e 20 15 b8 be bd ef 14 be 67 9f 57 ba
       0.28119236 -0.35953617 -0.14544578 -0.0008225352
000010 29 80 64 be 4f c0 a9 3e 27 d8 f4 3c 4c f8 e3 bd
       -0.22314514 0.33154532 0.029888226 -0.11131343
000020 8d f8 11 3e 11 cd 59 be d0 eb a7 3d d9 88 d6 bc
       0.14254971 -0.21269633 0.081992745 -0.0261883
000030 c6 5d b5 3d a7 c4 d4 be 48 3b c2 bd 1f 61 ea b7
       0.088557765 -0.41556284 -0.09483963 -2.79402e-05
000040 25 60 ef 3d cc 6a 99 3e e5 6f 6b 3e 2e 0c 50 3c
       0.1168826 0.29964292 0.22991903 0.012698216
000050 b0 51 b7 3e 02 19 00 3e 2d 75 d5 be fc be 42 be
       0.3580451 0.1250954 -0.4169096 -0.19018167
000060 c6 68 0b be 05 21 2b be 22 03 48 bd 7d aa 5b be
       -0.13614187 -0.16711815 -0.048831113 -0.21451755
000070 be 45 9b 3e 0d 49 5c 3d 7f 65 8a 3d ba 99 e4 bd
       0.30326647 0.053780604 0.0675764 -0.111621335
000080 36 96 88 be 65 90 65 3e 84 90 be be 82 fc c6 3e
       -0.26677102 0.22418363 -0.37219632 0.38864523
000090 9a 8a 4b bd 99 53 bf 3e a5 76 cb 3d 2a 89 07 3f
       -0.049692728 0.37368467 0.09934739 0.5294367
0000a0 e1 d9 95 3e b9 42 91 be 5d 24 8d 3b 51 4d fa b6
       0.2926779 -0.28371218 0.0043073134 -7.4595814e-06
0000b0 03 c7 c4 be 2d c6 94 3d d4 63 2b bd 03 08 c6 be
       -0.38433084 0.072643615 -0.04184325 -0.38677987
0000c0 58 61 77 be a0 8a a1 be 88 7b 23 ba ca 17 30 3d
       -0.24158227 -0.31551075 -0.0006236364 0.042991437
0000d0 06 8e 11 be f8 79 9a be c9 a1 e0 bd 5c e8 72 be
       -0.14214334 -0.3017118 -0.10968358 -0.2372145
0000e0 09 c0 23 be 9b ad f6 3e b7 27 a9 3d 52 3a 22 be
       -0.15991224 0.48179325 0.08259528 -0.1584256
0000f0 64 49 eb be 05 7c 00 be 98 b3 9c 3c 83 cf ae 3d
       -0.4595443 -0.1254731 0.019128606 0.085356735
000100 79 9a 5b be 61 06 aa be 5c 1b 33 be 6f b1 b0 be
       -0.21445645 -0.33207992 -0.17490906 -0.3451037
000110 66 09 67 3e ff fe f0 be fc ad b5 be e2 04 a9 3e
       0.22562179 -0.47069547 -0.35484302 0.33011538
000120 8a d0 09 bf 55 73 9d bd 95 56 69 be 5e ce 56 3e
       -0.5383383 -0.076880135 -0.22786935 0.2097716
000130 d2 0a 97 be 9b ba 81 3e 97 94 48 be 1e 15 da 3c
       -0.29500443 0.2533768 -0.19587933 0.026621398
000140 44 dc 8b 3d 74 1d e7 3d 73 c3 bf be 2c 14 fd 3d
       0.06829122 0.112849146 -0.37453803 0.12357363
000150 79 a6 bf be d5 2c 09 be 80 21 c7 be c0 0b ac bd
       -0.37431696 -0.13396008 -0.38892746 -0.08400679
000160 5f b8 40 3b 6f d3 cf 3e f3 91 a7 bd d1 af e5 be
       0.0029406769 0.40591 -0.081821345 -0.448607
000170 16 e8 9f 3d 34 7a a3 be 4e 8b 6a bb 5f e5 f3 3d
       0.07807939 -0.3192917 -0.0035788598 0.119089834
000180 de 5a 8a ba a4 83 9c be 1a 78 b3 3d 2f ae f7 bd
       -0.0010555645 -0.30569184 0.08763142 -0.1209377
000190 f5 20 4e bd 9a 56 05 3f 09 cf 02 3e 67 9d 7a bc
       -0.0503244 0.5208527 0.1277429 -0.015296317
0001a0 4f 28 2a 3e 3b 0e 89 be 85 fd f3 be 5f 76 01 3f
       0.16616939 -0.2676867 -0.47654358 0.50571245
0001b0 09 3b f4 be 7a fe 55 3e 4b 9b a4 3d 25 33 41 3e
       -0.4770129 0.20897856 0.08037432 0.18867166
0001c0 3c 49 9c 3e 69 66 de 3e 87 ad 98 3e 9a 74 7a be
       0.30524623 0.43437508 0.2981989 -0.24458542
0001d0 f8 1f 27 be 39 fd 36 3e 5f f6 8e be 57 83 29 bd
       -0.16320789 0.17870034 -0.2792234 -0.04138502
0001e0 34 c5 1a 3e d7 74 7d bd f2 07 c4 3d e9 1a bd 3d
       0.1511429 -0.061879005 0.09571828 0.09233648
0001f0 b7 bc b0 bd 1a f7 1d be 1c a3 3f 3e 84 be c5 be
       -0.086297445 -0.15426293 0.18714565 -0.38621914
000200 e2 22 18 be db 98 c7 be 48 f8 8e be 60 5f 7e 3e
       -0.14857057 -0.38983807 -0.279238 0.2484107
000210 05 34 2a 3f d2 61 c4 be f6 bf b7 bc f3 93 1e be
       0.66485626 -0.3835588 -0.022430401 -0.15486126
000220 04 96 06 be 98 68 b8 be a0 11 d4 3e f4 0c ad bc
       -0.13143164 -0.360173 0.41419697 -0.02112434
000230 de 7a 2d 3e 0a 48 0d bd 08 da cb 3d 8b f1 1f be
       0.16941401 -0.03449253 0.099536955 -0.15619485
000240 ef 6f a6 be 2f 36 84 3e ef 89 7e b8 5a 10 4c 3e
       -0.32507274 0.2582259 -6.068678e-05 0.19928113
000250 db ad 34 be 11 07 d3 3e f4 3c 26 3e ff 0c 28 bc
       -0.17644446 0.4121633 0.1623419 -0.010257005
000260 9e 6e 3a be 9f 3b ce be 97 07 b0 3e 34 e0 34 3e
       -0.1820626 -0.40279862 0.3438079 0.17663652
000270 47 6c bd bd 86 68 00 bd 43 49 7c be 46 f9 0d 3c
       -0.09249168 -0.03134968 -0.24637322 0.008665388
000280 c5 fa 46 be b1 cd 02 3e 8b 8a d5 be 57 0a 20 3e
       -0.19431598 0.12773778 -0.41707262 0.15628944
000290 b1 5d 14 bc 3d eb 1f 3e 1d a1 dd bd 57 0a 03 3e
       -0.009055541 0.1561708 -0.108217455 0.12796913
0002a0 8e ce 59 3e c2 84 01 3e 37 f1 82 3e 7c a1 5b 3e
       0.212702 0.126483 0.25574657 0.2144832
0002b0 a1 de 9a bd df 71 a1 3d 9f 33 a1 3e 3c 37 90 bd
       -0.07561994 0.07883047 0.31484696 -0.07041785
0002c0 13 c1 a1 3e d2 a2 67 be eb 48 95 be 66 ac da bc
       0.31592616 -0.22620705 -0.29157194 -0.026693534
0002d0 ed 5b 88 bd 17 66 d3 bd b4 84 28 3d d0 ff b4 3d
       -0.066581585 -0.103222065 0.04114218 0.08837855
0002e0 8f 40 1b 3e a5 0b 03 be 51 a9 70 be 5f f2 9e bd
       0.15161346 -0.12797411 -0.23502089 -0.07761072
0002f0 56 df 25 3e f3 7d 0e 3e bf e3 b5 be 6a 3d 1a 3e
       0.16198477 0.13915233 -0.3552532 0.1506249
000300 5d 11 c9 3c eb 39 0e 3f b7 2b 7e 3e 83 57 aa bd
       0.024544412 0.55557126 0.24821363 -0.08317473
000310 bd 7a 92 be ce fb b6 be 06 cc fb be f4 41 60 be
       -0.28609267 -0.35738987 -0.49179095 -0.21900159
000320 52 73 e2 3e ad ae 8b 3d b6 77 6f be 1d 55 0b bd
       0.44228607 0.06820426 -0.2338551 -0.034016717
000330 ea 0c 97 bd 92 c9 35 be e5 42 2b 3e 8c fd ec be
       -0.0737551 -0.17752674 0.16724737 -0.4628719
000340 e7 0c d7 be 83 42 d4 bd b9 d0 39 bf d0 5b de bc
       -0.4200203 -0.103642486 -0.7258411 -0.027143389
000350 fb c2 df 3d e2 31 08 3e d4 cb 14 3e ff 84 c6 be
       0.109258614 0.13300279 0.1453088 -0.38773343
000360 77 ad 9a 3e 6d 27 06 be c5 a1 54 3d 4d 04 57 3d
       0.30210468 -0.13100977 0.051912088 0.052494336
000370 da 12 94 bd 2b 17 c7 bc aa 08 5d be 1c b1 86 3e
       -0.07230158 -0.02430304 -0.21585336 0.26307
000380 5c ea 9c 3e b8 50 29 be ec dc e2 3c 67 f2 4a be
       0.30647552 -0.16534698 0.027693234 -0.19819032
000390 50 1b 1f bd 93 1d 62 be 63 94 04 3e 7b ca c2 3b
       -0.038844407 -0.22081594 0.1294723 0.0059445477
0003a0 86 89 71 3e a1 3c 81 bd 2e ab 0e bd 16 ea 03 3e
       0.23587617 -0.06310392 -0.03483122 0.12882265
0003b0 49 0e e9 bd 0e 30 9c bd f0 db 2d be f8 8d d6 3e
       -0.11379678 -0.07626353 -0.16978431 0.4190519
0003c0 0d e2 b8 3c 62 2a 8a 3e 4e 19 75 be fb 11 81 be
       0.022568727 0.2698546 -0.23935434 -0.2520903
0003d0 0e 3f a4 3e d1 ed f8 bb e3 72 9f 3b 42 19 9a 3e
       0.32079357 -0.0075967093 0.0048659905 0.30097395
0003e0 eb ca 1e be ee f4 91 be 45 4d c3 be be 28 b6 be
       -0.15507095 -0.2850718 -0.3814489 -0.3557796
0003f0 7f 5b 0e 3f 9e d1 ff bd f5 7a a0 be 19 5b 55 3d
       0.5560836 -0.12491153 -0.3134381 0.05208883

net.2.weight f4 [256, 256]
000000 0a 76 aa bd ac 0f 0e bd 6d 94 d9 3d 84 ac 7e 3d
       -0.083232954 -0.034682915 0.10624013 0.062176242
000010 4f 00 83 3d 3c 58 ea bd 70 bf b5 bc d6 90 93 3b
       0.06396543 -0.114426106 -0.022186011 0.00450335
000020 a2 6e 45 bd 8a 2e e7 bd a4 91 20 bd 33 7d 3c bd
       -0.04820121 -0.112881735 -0.039201394 -0.046017837
000030 ee 11 e1 bc 92 c7 b2 3d 87 f6 b6 3c a8 e7 22 35
       -0.02747437 0.08729471 0.02233435 6.0686807e-07
000040 89 39 7a bd 83 5c 4d bb 93 0c 6a bd e4 0d 08 3d
       -0.061090026 -0.003133566 -0.057140898 0.033216372
000050 39 4a 07 3d 27 df 8d bd 0b 66 98 3d fa ad ad 3c
       0.03302977 -0.069273286 0.07441338 0.021201123
000060 7a 2e 7e 3d 08 0e c4 3d 19 7b d7 3b 0f 5b ed 3d
       0.062056042 0.09572989 0.0065759537 0.11589634
000070 d8 c6 cf bd 41 c2 58 bd 5e 6f bd bc 91 a6 d6 3c
       -0.10145348 -0.05291963 -0.023124393 0.026202472
000080 28 14 9d bc e4 26 a8 bb 0e db 97 3b f8 8b b8 ba
       -0.01917465 -0.0051315892 0.0046342677 -0.00140798
000090 df 4a 13 3d 3c 43 a2 3d 03 c4 75 3c 17 18 28 bd
       0.035960075 0.0792298 0.015000346 -0.0410386
0000a0 b1 17 ae 3b 53 61 7d 3c b8 ae 6a bd 23 d8 af b7
       0.005312883 0.015465098 -0.05729553 -2.0962272e-05
0000b0 64 16 d2 3b 59 9e 58 bd 3c aa e4 bd 6d e3 bb bc
       0.0064113606 -0.052885387 -0.11165282 -0.022935594
0000c0 17 c2 11 3d 5e 90 3a b8 78 7c 81 bd c6 5c 82 3c
       0.03558549 -4.4480308e-05 -0.06322569 0.015913378
0000d0 5e a6 98 3c 6e 36 e2 3c 49 c8 fe bb 8c 00 fa 3b
       0.018634018 0.027613845 -0.0077753407 0.0076294597
0000e0 64 31 e5 bb be 5d 9c bd 42 43 70 bc d9 03 2f bd
       -0.006994413 -0.076350674 -0.014664473 -0.04272828
0000f0 b8 90 33 3d e6 ea dd 3c 98 98 3f bd ca 84 0a bc
       0.043839186 0.027089547 -0.046776384 -0.008454511
000100 8a 15 09 3d 04 1d 78 bc 19 0d c0 3c 1d 36 f8 3c
       0.033467807 -0.015143637 0.023443745 0.03029924
000110 e9 fe d8 bb c8 fe 36 3b 59 a6 c5 3d 85 1f 89 bd
       -0.0066221845 0.0027922858 0.09650869 -0.06695465
000120 d3 60 1f 3d e5 82 4a 3d bf b6 98 3c 6c 7d b6 3c
       0.0389107 0.049441237 0.018641828 0.022276603
000130 ea 17 41 3e 53 27 9e bc c0 d6 61 3d a5 53 97 bd
       0.18856779 -0.01930586 0.055136442 -0.07389001
000140 7e b7 cd 3c 68 c8 6b 3c 65 4b 33 3d 59 93 0a 3c
       0.02511191 0.014391042 0.043773074 0.008457982
000150 00 a7 90 3c 96 c6 18 3d a8 f8 45 3d a2 e0 da bc
       0.017657757 0.03729876 0.04833284 -0.026718441
000160 93 9d bb 39 a5 68 bb 3d 8a 93 d1 3c 04 33 70 3d
       0.0003578482 0.09150819 0.025583047 0.058642402
000170 96 5b 27 bd 17 35 23 3d d1 47 52 bc 2e 57 1c bd
       -0.040858828 0.039845552 -0.012834505 -0.03816908
000180 67 a9 84 3c 7f 08 35 3d 0c ab d5 bd 63 d8 66 3d
       0.016194059 0.044197556 -0.10433015 0.056358706
000190 a9 e6 f1 3c 2b 51 09 bd 04 75 8e ba b8 35 06 bc
       0.029528933 -0.033524673 -0.0010868614 -0.0081915185
0001a0 6f 62 5e 3d b3 a0 9b bd 3a 7c 29 bd bf d5 f1 bd
       0.054293092 -0.0759901 -0.041378237 -0.11808347
0001b0 36 1b 89 bc 22 d3 8d bd 57 02 87 bc 89 af da bd
       -0.016736608 -0.06925036 -0.016480608 -0.10678012
0001c0 92 9d 84 3c 57 9b 83 bd 72 ce cf 3c 90 29 f2 3b
       0.016188417 -0.06426113 0.025366995 0.0073902085
0001d0 e6 f3 14 3d 2b c1 48 3b f3 9e 97 3d 7f 75 d8 bc
       0.036365412 0.0030632715 0.07403364 -0.026423214
0001e0 4a 66 c1 bd 62 83 c8 3a 20 79 18 bd 90 66 32 bd
       -0.09443338 0.0015297944 -0.03722489 -0.043554842
0001f0 d4 cb f1 bb d8 28 a8 3c 9c c5 33 3b c6 48 98 3d
       -0.0073790345 0.020527288 0.0027431017 0.074357554
000200 cf 16 8c bd 9c 9c 5d 3d ba 20 55 bd 74 53 0d 3d
       -0.06840288 0.054104432 -0.052033164 0.034503415
000210 dc 8f 03 be 52 07 cd bc cf 6c 84 3d b9 80 33 bd
       -0.12847847 -0.025027905 0.06466066 -0.04382393
000220 54 74 f4 bc a1 e6 81 bc 08 f1 3e 3d a0 6a 35 3d
       -0.029840626 -0.015857043 0.046616584 0.04429114
000230 0e 8a 20 3d 12 c2 26 bc 27 68 f8 bd 2f 86 76 3b
       0.03919416 -0.010178106 -0.121292405 0.00376166
000240 a4 75 bf 39 58 b4 28 bd 13 a1 c2 37 8d 4c 0d 3d
       0.00036518008 -0.041187614 2.3201608e-05 0.034496833
000250 bc 22 0b 3d 02 fa 6c bc fa 8e 73 bb 8f fb 7f 3d
       0.033968672 -0.014463903 -0.0037164078 0.062495764
000260 47 ee 42 3d a9 63 d0 bc 6b 66 2e 3c 0b 43 4e be
       0.04759052 -0.025438147 0.0106445355 -0.20142762
000270 06 9c ba 3c b1 ed 2a 3c 2c 5f 0b 3c 26 ef 66 3d
       0.022779476 0.010432647 0.008506577 0.056380413
000280 2b 07 93 3d 41 80 07 3b 46 33 de 3a 24 1f 0c be
       0.071791016 0.002067581 0.0016952537 -0.13683754
000290 15 fe 17 bc ab 2c ed bd a3 01 ef 3d fd 44 15 bc
       -0.0092768865 -0.11580785 0.11670234 -0.009110686
0002a0 cb 30 26 3c bc a6 04 3e 63 bf 00 3d 64 88 f3 bb
       0.010143469 0.12954229 0.03143252 -0.0074320305
0002b0 d4 60 0b 3d f9 79 99 3d 7e f9 2d 3c 51 57 e0 3c
       0.03402789 0.074939676 0.010618566 0.027385386
0002c0 e8 9b 1a bd 64 b4 3f bc 99 3a 23 3d 00 10 da bc
       -0.03774634 -0.011700723 0.039850805 -0.026618958
0002d0 60 b8 e4 3c c7 5d 9d 3c 01 ef d9 bd 4c 21 96 3b
       0.027919948 0.019209756 -0.106412895 0.004581606
0002e0 61 29 df 3d 19 1a cf 3b 5c 64 e1 3d 2b c3 b3 3d
       0.10896564 0.0063202498 0.1100547 0.0877746
0002f0 1e c3 3e bd a5 9d 01 bd a7 42 25 3c 4a a2 b4 3c
       -0.046572797 -0.031644482 0.010086692 0.022050042
000300 89 2f 71 3c b6 58 b2 3c 5b 38 fa bc 58 56 c0 bd
       0.014720806 0.021770816 -0.03054445 -0.09391469
000310 bc e9 a9 3c aa bf 26 3e 41 04 bf bc fc cc fa bd
       0.020741336 0.16284052 -0.023317458 -0.12246129
000320 55 a9 70 bd e7 98 eb bc 2b 73 c2 3c e2 5b 70 bc
       -0.058755238 -0.028759433 0.023736557 -0.014670344
000330 34 7f ac bd 88 65 3f bd f7 c6 6d bd e0 a3 f9 3d
       -0.084226996 -0.046727687 -0.058051076 0.1218946
000340 4a e5 87 3d a4 be 7c 3d 70 27 59 3e 4e 57 3a 3d
       0.0663553 0.061705247 0.2120645 0.045493416
000350 77 e1 1e 3d 28 81 f0 3d 02 d3 8b bd 2a 7a 53 3d
       0.03878924 0.117433846 -0.06827356 0.051630177
000360 a1 e2 09 be 6c d4 96 bc f4 2f 0b 3d 32 eb a2 3c
       -0.13465358 -0.018411838 0.03398128 0.01988754
000370 39 cd 53 3b 60 f6 07 bc f1 c6 2e bd 74 14 5d bd
       0.0032318367 -0.0082984865 -0.042670194 -0.053974584
000380 69 20 03 3d 4c 6f cc ba 4a 68 39 bc 53 ec 24 3e
       0.03201333 -0.0015597134 -0.011316368 0.16105776
000390 91 42 fb 3c f1 f1 eb bc 32 6a e2 ba 7c ab 4e bd
       0.03067139 -0.02880189 -0.001727408 -0.05045651
0003a0 5b e6 49 bd f9 38 9a 3a ed 73 78 bd d3 30 d3 3c
       -0.04929195 0.0011766247 -0.06065743 0.025780117
0003b0 e7 80 a3 3d 69 b8 b9 bd 6b e6 d6 bc 34 80 21 be
       0.079835705 -0.090683766 -0.026232919 -0.15771562
0003c0 01 f9 81 3c 17 12 0d 3d 1c c8 9f bc d2 6c 26 bd
       0.015865805 0.03444108 -0.0195046 -0.040631123
0003d0 82 80 24 3d fc 3e 15 3c eb 00 82 bd dd d9 b2 bb
       0.040161617 0.009109255 -0.06347831 -0.0054581002
0003e0 64 b6 91 3d 07 50 7b bd 7c 2a 6b 3d 56 29 a9 3d
       0.071148664 -0.061355617 0.057413563 0.08259837
0003f0 98 cd c2 bc 2d 27 a4 3b 52 e6 9c 3c 5f 9b 80 bc
       -0.023779675 0.005009553 0.019152794 -0.015699087

net.2.bias f4 [256]
000000 47 9a a8 bd 86 6a 0d b8 d7 40 3d 3c b9 68 c1 3c
       -0.08232551 -3.3716227e-05 0.011551104 0.023609506
000010 5b f9 0d 3d ad 60 88 bd 5c c4 05 bd 48 5b 7c b7
       0.034661632 -0.066590644 -0.032657966 -1.5041624e-05
000020 a3 6e af bd c5 d8 c4 ba d9 bd 79 bd ed f0 74 bd
       -0.08566024 -0.0015018216 -0.06097207 -0.059800077
000030 a0 4d 4c 3c de a4 9b bc 59 cc 09 3a b1 77 ea ba
       0.012469679 -0.018999513 0.00052565854 -0.0017888454
000040 a3 6c a2 38 9b 5f c5 bc 3b 54 83 3c e1 7d 87 b8
       7.744997e-05 -0.02409344 0.016031375 -6.4607484e-05
000050 49 41 9d bc 22 e9 e7 3d 0e 54 aa ba 84 46 22 bd
       -0.01919617 0.113237634 -0.0012995021 -0.03961803
000060 6a 2f e9 37 db d0 f7 3c bb 90 a9 3d e3 e2 60 3d
       2.7797843e-05 0.030250957 0.08279558 0.054903876
000070 eb 9d 6a 3d d8 01 e7 b8 90 b9 4f 3c 2f cd 69 3c
       0.05727951 -0.00011015282 0.012678519 0.014270111
000080 c3 05 a4 3b 2d f7 3d bc 4f 03 49 bd c1 1c 0c 3e
       0.0050055697 -0.011594576 -0.04907542 0.13682844
000090 58 3f cb 3a d6 d6 ca 3c 1f 9b f1 3c 57 89 cc 39
       0.0015506549 0.024760645 0.029492913 0.00039012238
0000a0 13 ed 24 bc dd 47 d0 3c e9 4d 5f 3d 12 4d c6 3d
       -0.0100662885 0.025424892 0.05451766 0.09682669
0000b0 f5 a0 5e bd 87 14 08 bc e9 08 48 bd aa 16 39 bc
       -0.05435272 -0.008305675 -0.048836622 -0.011296907
0000c0 6a 1f af bb 95 22 5b bb 8f 4a 49 3d 78 a3 23 bb
       -0.005344321 -0.003343736 0.04914337 -0.002496926
0000d0 e6 d7 10 3e 40 96 9b ba cf 19 9b bd fa ae b5 b8
       0.14144859 -0.001187034 -0.07573282 -8.6633445e-05
0000e0 75 38 00 3e 85 8e 85 bd 18 cd e7 3a ea ee f7 bb
       0.12521537 -0.06521324 0.0017685024 -0.0075663226
0000f0 56 0e dc 38 13 ee 09 bb a8 3a 69 bc e3 31 cf 3d
       0.00010493088 -0.0021046444 -0.014235176 0.10116937
000100 8f d0 c7 bd 3c c4 50 b8 60 3b 10 be 04 cd c8 bd
       -0.09756576 -4.9773822e-05 -0.1408515 -0.098047286
000110 18 0a 39 3d 16 80 19 bc 60 ad ff bc 55 b3 f5 3d
       0.04517564 -0.009368917 -0.031210601 0.119970955
000120 43 e1 95 3d 71 de a9 3d ff 71 a5 bc dd 23 83 bd
       0.07318356 0.082943805 -0.02019596 -0.06403325
000130 df 6b 57 3c 56 15 bc 3d 68 2b 98 3d e3 d4 86 3d
       0.013148277 0.09183757 0.07430154 0.06583574
000140 82 cf 58 bc ce 80 ad 3c 6b 6a 85 3d e2 91 b4 bd
       -0.0132330675 0.021179583 0.06514438 -0.088168874
000150 af 49 ab 3d 9b 67 ae 3c 2c c7 06 3d 75 2e 29 bb
       0.083636634 0.021289637 0.03290479 -0.0025815044
000160 19 17 39 ba 65 42 27 3d aa b3 c3 bc ba b4 f6 3d
       -0.0007060632 0.040834803 -0.023889381 0.120461896
000170 e4 92 fd 39 f0 d5 c0 3b d7 41 cc bc 69 05 89 ba
       0.00048365362 0.0058848783 -0.024933739 -0.0010453883
000180 00 47 a3 3d 52 1e 02 3d b2 b1 ac ba 22 98 68 bb
       0.079725266 0.031767197 -0.0013175516 -0.003549107
000190 bd 88 00 3d d8 2f 83 bc d2 9b 66 bd 15 42 2b 39
       0.031380404 -0.016014025 -0.056300946 0.00016332448
0001a0 95 39 64 bd 5c 91 a2 bc 3c ea 0c 3e 07 f5 17 b7
       -0.055718977 -0.019844703 0.13761228 -9.057351e-06
0001b0 08 bd 2a bd 42 69 81 b7 74 81 06 3d a6 e3 83 bc
       -0.04168418 -1.5427013e-05 0.0328383 -0.016099762
0001c0 62 06 bc 3d 9b 0d db 3c 2e 34 8e 3d 68 20 d1 bd
       0.09180905 0.026739886 0.06943546 -0.10211259
0001d0 73 01 1e be 9b 7f ce bb 85 a3 e4 bc 4e b3 34 3d
       -0.1543024 -0.006301833 -0.027910003 0.04411631
0001e0 0c 69 cc 3a 67 96 d5 3d 94 17 33 39 f1 cf 3c 3c
       0.0015595271 0.104290776 0.00017079554 0.0115241865
0001f0 69 02 d1 3c 2b 66 fd bd 43 e1 d6 3d 52 9c ea bd
       0.025513845 -0.123730026 0.10492184 -0.11455597
000200 f7 9c 8a 38 73 cf 1d 38 59 c1 33 3c f2 b8 e1 3b
       6.60959e-05 3.762492e-05 0.010971391 0.0068885023
000210 96 91 27 3a 25 1b 90 3d 4e 12 f7 b9 e4 0f 5c 3c
       0.00063922384 0.070364274 -0.0004712515 0.013431523
000220 f4 0b d1 3a 45 84 d5 3d 33 12 25 bd e3 47 6f 3d
       0.0015948997 0.10425619 -0.04030056 0.058418166
000230 24 ee b9 bd 26 6e 04 bc b8 40 aa bd 6d c0 f9 bb
       -0.09078625 -0.008082902 -0.08313125 -0.007621816
000240 bc d6 09 3e 1d f5 47 bd b6 73 40 3d 7a 47 6b 3d
       0.13460821 -0.048817743 0.04698535 0.057441212
000250 e6 ed 1b 3d cd 09 9a bd cc 7f 5e bd f4 f4 a5 38
       0.038068675 -0.075214006 -0.054321095 7.913439e-05
000260 4b d8 56 bd 5c 0f 43 bd 79 61 ad bd 8d 91 2e be
       -0.052452367 -0.04762207 -0.08465857 -0.1704771
000270 82 d5 82 bd 8c 3c 99 bb 86 3d a6 bd 7f 1b d2 b6
       -0.0638838 -0.004676407 -0.081172034 -6.2616887e-06
000280 47 86 f5 3b 48 d7 9e bd 20 4a d7 bb 34 2d bb 3d
       0.0074928137 -0.077559054 -0.0065701157 0.09139481
000290 bd ff 18 be 33 e3 80 b6 f3 00 24 3c 56 75 49 3d
       -0.14941306 -3.8411467e-06 0.010009992 0.049184166
0002a0 a8 18 81 bc b8 f6 06 3c d3 03 bf 39 93 94 42 bd
       -0.015758827 0.008237533 0.00036433208 -0.047504973
0002b0 71 68 ba 3d 10 7c de 3d 6e dd 50 3c 03 49 86 3d
       0.09101952 0.10863507 0.012748105 0.06556895
0002c0 2f 69 4c 3d 6b 74 83 3c cc e6 28 bd d9 24 21 bd
       0.049905 0.016046723 -0.04123573 -0.03934178
0002d0 4e 61 90 3d c3 1a ad ba a9 c6 55 b8 d9 4b 99 bc
       0.070498094 -0.0013206828 -5.0968174e-05 -0.018712925
0002e0 b2 24 ad 3d 3a 03 0e 3e 6c 34 aa bd 0e fc 97 3d
       0.08454265 0.13868418 -0.0831078 0.074211225
0002f0 3f 83 80 bd 57 98 61 37 f5 4a 1b bc 9f 18 e1 bd
       -0.06275033 1.34465145e-05 -0.00947832 -0.10991024
000300 a8 e3 6f 3c 1e a4 37 36 1b 91 d2 bd ae a3 b1 3d
       0.01464168 2.7364654e-06 -0.10281583 0.086737975
000310 41 3c 7b 3c 4d c5 8b bb a3 73 79 bc ad 7f 09 3c
       0.01533419 -0.0042654634 -0.015225324 0.008392257
000320 79 93 a7 bb 7d 27 b3 3d 36 a2 4e 3d d7 bc f9 bc
       -0.0051140157 0.08747766 0.050447665 -0.030485554
000330 93 fc 94 3d e7 45 0e 3a 76 04 c2 3a 4e 1d 73 3d
       0.07274737 0.00054272864 0.0014802355 0.05935412
000340 65 14 74 3d 77 df 49 3d 84 e5 dc 3d 17 dd a1 bd
       0.059589762 0.04928538 0.10785964 -0.07903498
000350 a0 ed 28 3c ef 51 34 3d 8a 54 ae b9 d8 b6 1a bb
       0.01031056 0.04402345 -0.00033250853 -0.0023607519
000360 18 63 e0 b8 46 3b e2 3c d7 95 10 be 45 3b e5 bd
       -0.0001069961 0.027616154 -0.1411966 -0.111929454
000370 88 8e 6e bd cc 24 2a be 6a 7f 0a 3e 19 de 02 bd
       -0.058241397 -0.166156 0.13525167 -0.03195009
000380 f3 9b 86 ba 05 fc b6 bd b7 25 34 3c 55 60 fa 3d
       -0.0010269865 -0.08934788 0.01099532 0.12225405
000390 74 8b e6 3c 2c f0 2d 3d fd bb b0 3c d2 c4 b9 b8
       0.028142668 0.042465374 0.021574015 -8.858148e-05
0003a0 98 6f 52 bd 70 6f b3 3d a3 8b b6 3d 52 04 4a 3e
       -0.051375955 0.087614894 0.08913352 0.1972821
0003b0 1b ca d9 bb 81 bf a0 bc 8d 48 b7 3d 08 b2 b0 bd
       -0.0066464073 -0.019622566 0.08949385 -0.08627707
0003c0 be c4 94 bb cf 7d b6 3d 91 3a d0 bd 56 97 51 bd
       -0.004540055 0.08910715 -0.10167421 -0.051169716
0003d0 f5 39 33 3e 65 ec 35 3d a9 73 e8 37 28 f7 94 bd
       0.17502578 0.044414897 2.7710414e-05 -0.07273704
0003e0 44 b7 7a b8 d2 bf 6f bd 5c 4b 05 bd 49 3c db 3c
       -5.9775324e-05 -0.058532543 -0.03254257 0.026762145
0003f0 eb 3f c6 ba 14 94 80 39 73 1f 6f bc 82 94 11 b7
       -0.001512525 0.0002452439 -0.0145949 -8.677251e-06

net.4.weight f4 [256, 256]
000000 0c eb 2d bd 53 4e d2 b8 16 9f d6 ba 0a 93 85 3d
       -0.042460486 -0.00010028169 -0.0016374316 0.06522186
000010 b0 e9 9c 3c 31 34 a3 3c 44 ec 03 bd 36 ec e4 36
       0.0191544 0.019922348 -0.032207742 6.822428e-06
000020 dd 56 bf 3c eb 3c a5 b9 3a 7f a0 3c af 29 a5 3d
       0.02335685 -0.0003151664 0.019591916 0.08064591
000030 7d 80 e1 ba 29 ba 92 3c ae 35 66 39 b3 cf 9b b9
       -0.001720443 0.017911034 0.00021954507 -0.00029718652
000040 49 be 42 38 d7 f9 20 3d d5 1c ac b8 1a 40 71 b8
       4.643042e-05 0.039300766 -8.2069695e-05 -5.7518577e-05
000050 aa 25 9a bd 2f 2c 42 3d bb f9 af b9 25 16 ab bd
       -0.07526715 0.047405418 -0.00033564665 -0.08353833
000060 45 16 f5 37 ca d9 2d bd 97 35 91 3d c8 d6 71 3c
       2.9216646e-05 -0.042444028 0.070902996 0.0147606805
000070 e4 27 39 bc 7f 1c 83 b8 9e 2f ee ba e0 e9 10 3d
       -0.011301015 -6.2518746e-05 -0.001817215 0.03537929
000080 4f da cc ba 1b 6d 05 bd cd 13 9c 3c 53 9a cb 3b
       -0.0015629026 -0.032574754 0.01905241 0.0062134652
000090 34 f7 cf bd cb 85 2d 3b de 40 25 bd f5 d0 7e 39
       -0.10154572 0.0026477452 -0.040345065 0.0002430117
0000a0 9c ed 11 bc 4f ab e4 bc 30 46 0d 3d ca 92 20 3d
       -0.008906748 -0.027913718 0.034490764 0.03920249
0000b0 7b 71 9f 3d a0 52 ce 3a 46 81 74 bd 90 43 e3 3a
       0.077853166 0.0015741177 -0.059693597 0.0017338861
0000c0 bd 29 cf bd 36 9d ec b9 a6 09 e1 3c 9f 1c 91 b9
       -0.10115383 -0.0004513056 0.027470421 -0.0002767788
0000d0 1b 62 7b 3c ba 0c af b9 88 32 40 bc a2 60 5e b8
       0.015343214 -0.00033388083 -0.011730798 -5.301892e-05
0000e0 4d c9 86 3c 9e 2e b7 3c b8 49 9e 39 f5 ec d9 3a
       0.01645341 0.022361096 0.00030191033 0.0016626405
0000f0 70 0a 7c 38 65 32 2a ba 0f bc 0f 3d 37 b4 8c 3d
       6.0091203e-05 -0.0006492495 0.035091456 0.06870311
000100 c7 18 df bc 5d 4c 23 b8 df 45 79 bc 88 8d 8f bc
       -0.027233494 -3.8933347e-05 -0.0152144125 -0.017523542
000110 46 03 df 3c 44 7e d4 bc 97 bb 27 39 1d da e9 bd
       0.02722324 -0.025939114 0.00015996244 -0.11418555
000120 ca cf 96 3b 2c bb 94 3c 19 6b cf 3d 79 b4 c2 3d
       0.004602407 0.018155657 0.10127849 0.09507079
000130 1c 69 e9 ba c2 68 57 bc 0a 79 d8 bc 14 b9 ba 3c
       -0.0017807814 -0.013147535 -0.026424903 0.02279333
000140 2f 9b dd 3a 20 9d 0e be e7 12 67 3b e9 fe 89 bc
       0.001690721 -0.13927126 0.003525907 -0.016845183
000150 a2 ad e0 3b 50 6a fc 3a bf ef 15 3d f4 a9 0a 3d
       0.006856636 0.0019257758 0.036605593 0.033853486
000160 15 d6 b5 ba 52 f4 2e bd c1 17 4e 3d 79 7a 97 3d
       -0.0013873006 -0.04271347 0.050315622 0.07396407
000170 b8 f1 89 39 c9 04 48 bd 1f 4d 4b ba 1e c8 a7 b9
       0.0002631077 -0.04883269 -0.00077553274 -0.0003200182
000180 92 2c a2 bd 4d 2d 08 bd f1 c7 a6 b9 37 be 85 bd
       -0.07918657 -0.033246327 -0.00031810955 -0.06530421
000190 a5 c4 d7 bb 0b 63 de bc 89 9f ff bd bc bf cf 38
       -0.006584721 -0.027146837 -0.12481601 9.9062425e-05
0001a0 8a e3 9d bd 43 4e 3e 3d ac b1 6a 3c a9 a6 4d b7
       -0.07709415 0.046461355 0.014324587 -1.2257756e-05
0001b0 e7 e7 85 3d 74 d6 b4 b8 83 fc 3f 3c 30 43 fb 3a
       0.065383725 -8.623014e-05 0.011717918 0.0019169804
0001c0 6d 09 ba 3c 53 d6 0e 3d 23 96 3c bc a6 b4 ea bc
       0.022709573 0.034872364 -0.011510405 -0.028650593
0001d0 a7 7f b2 bc 20 ec be bb 57 f8 15 3c 35 07 20 3c
       -0.021789385 -0.005826488 0.009153447 0.009767343
0001e0 5c 98 a1 39 88 30 31 3d 34 6a 1b 39 69 24 ee ba
       0.0003082183 0.043259174 0.00014821516 -0.001816881
0001f0 bc 72 6a bc 2b 25 09 bc 42 0c 86 39 b3 b9 9d 3c
       -0.014309581 -0.008370678 0.00025567604 0.019253587
000200 88 ef 6e 38 a9 cc 2e 38 17 c3 d8 ba 14 24 8f 3d
       5.6966703e-05 4.1675437e-05 -0.0016537633 0.06989303
000210 8f e1 99 39 d8 37 5f 3d 6f 2c 8f b9 1d 6b e1 ba
       0.00029350488 0.054496616 -0.0002730819 -0.001719806
000220 b5 8b a9 39 ca ee 32 3e 7c 62 a6 3c 6a c4 94 bc
       0.00032338282 0.17473903 0.020310633 -0.018160064
000230 69 51 3f bd 18 aa e3 3a 47 9e 8b bd 8e 39 18 3d
       -0.0467085 0.0017369417 -0.068172984 0.037164263
000240 6e 16 4d bc f2 5c da bb aa 20 b5 3c 86 0d d7 3b
       -0.012517555 -0.006663912 0.022110302 0.0065628914
000250 4a 45 90 bd 27 1d a8 bc 5c 8c 17 3d fd 22 51 38
       -0.07044466 -0.020521713 0.03699909 4.986207e-05
000260 44 e4 e9 bc 82 7d 78 3d 3a 99 f9 bb a3 66 bc 3c
       -0.028551228 0.06066657 -0.007617143 0.02299816
000270 3c 21 d5 bc af 1f 64 3c 1e 54 49 3c 53 ce 3e b7
       -0.026016824 0.01392357 0.0122881215 -1.1372921e-05
000280 04 55 e7 ba 12 47 f5 3b 15 23 f4 3a db de a3 bc
       -0.0017649238 0.007485279 0.0018626178 -0.020003727
000290 7b 88 95 bd 8b a9 3b 37 81 92 df bc cc cf 6f 3d
       -0.07301422 1.1185543e-05 -0.027291538 0.05854778
0002a0 f9 e0 f9 3a 5d 2b 5d bc 3e 39 70 39 d7 ce 0e bd
       0.001906424 -0.013499108 0.00022909508 -0.034865227
0002b0 e7 0b e6 3c e9 98 73 3d 58 c6 ef ba 7a 09 d6 ba
       0.028081847 0.059472 -0.0018293364 -0.0016329729
0002c0 dd 84 e3 3c 5c cc 00 bb 50 46 83 bc dc 57 ad 3c
       0.027773315 -0.0019653058 -0.016024739 0.021160059
0002d0 6a a8 e5 3c c0 e6 a6 b9 bf fc 9a b8 7a 38 98 3d
       0.028034408 -0.0003183391 -7.39037e-05 0.07432647
0002e0 9f 0f 35 bc 08 01 50 bd a7 74 29 be cb ab a1 3c
       -0.011051088 -0.050782233 -0.16548406 0.019735238
0002f0 b4 f4 30 bd ad b9 13 b5 5b 68 bc 3c 9c eb f9 bc
       -0.043202117 -5.503196e-07 0.02299898 -0.030507855
000300 14 c7 a1 bd b0 00 23 36 a9 a7 92 bc ed da df 3c
       -0.07899299 2.4289293e-06 -0.017902212 0.027326072
000310 96 62 20 bd 0b e2 eb 3a 28 7a 01 3b 42 94 c5 bc
       -0.03915652 0.0017996443 0.0019756649 -0.024118546
000320 fa 16 75 bd cd 75 e3 3d ec 1e 1b 3d eb 4f 45 bd
       -0.059836365 0.11106453 0.037871286 -0.04817192
000330 94 0b 32 bd e3 a2 97 39 3f d4 a4 39 1a fe 68 bb
       -0.043468073 0.00028922324 0.00031438653 -0.0035551847
000340 eb 2e 01 3e 6b bd 8d bd c1 09 16 3d 43 e5 bd 3c
       0.12615554 -0.06920894 0.036630396 0.02318061
000350 bb b2 db ba 1a 20 b9 3d 87 96 5b b9 ff 6a 8e b9
       -0.001676164 0.09039326 -0.00020941543 -0.0002716407
000360 c9 35 be b8 b4 e9 1f 3d b9 46 30 3d b6 5e c9 3c
       -9.069924e-05 0.039041236 0.043036196 0.024581295
000370 a0 10 b0 3c d4 01 2e be ad e6 01 3b 58 21 3a bd
       0.021492302 -0.16992885 0.0019821331 -0.045441955
000380 be d5 aa b9 4f 07 06 bc 84 93 bf ba 2a 6a d0 bc
       -0.00032584177 -0.008180453 -0.0014616107 -0.025441248
000390 d4 d3 a9 3d bc 54 78 3b 24 d2 e6 bd 1a 83 60 b8
       0.08292356 0.0037892302 -0.1127055 -5.352786e-05
0003a0 d7 2c 25 3c 9b 20 5a bc 0b e1 4f 3d 9f e8 4f 3e
       0.010081491 -0.013313438 0.050751727 0.20303582
0003b0 6e bf 86 3d 25 30 13 be ca ec 74 bd 58 8b 2d bd
       0.06579481 -0.14373834 -0.059796132 -0.042369217
0003c0 1d 2a a3 3c d6 19 81 3c cd ff 06 be 99 f6 b5 bc
       0.019917542 0.01575939 -0.13183518 -0.022212313
0003d0 a9 0e 82 3c 02 79 37 3c 61 96 37 b8 1f 5c 92 3c
       0.015876131 0.011198284 -4.377065e-05 0.017866192
0003e0 a7 04 38 b8 53 84 37 3d 17 ad 61 3d 3a 95 01 bd
       -4.387335e-05 0.04480393 0.055096712 -0.031636454
0003f0 87 46 a9 b9 57 59 24 39 db ac 18 3d 1e ca 92 ba
       -0.0003228674 0.0001567354 0.037274223 -0.0011199152

net.4.bias f4 [256]
000000 2f 3f 94 3c d6 3c 35 bd 2a 22 37 3b 0d 20 fd bc
       0.018096535 -0.04424747 0.0027943947 -0.030899072
000010 ab 3b 7d 3b 3c 5e aa bc 5e 01 55 bd a3 24 f5 3c
       0.0038640301 -0.020796888 -0.052003257 0.029924696
000020 ca 80 85 3c 40 9d b5 3d 26 46 83 bd 68 e6 ad 3c
       0.016296763 0.08867884 -0.06409864 0.02122803
000030 e6 2f f3 3c bf 0e a7 bd 0c c9 13 bb b1 ce 87 3c
       0.029685926 -0.081571095 -0.0022550253 0.01657805
000040 53 ef 35 bc fa 17 58 3d f5 e7 ad 3c b8 4b a5 bd
       -0.011104423 0.05275724 0.02122877 -0.08071083
000050 3c 11 3b 3d 87 c0 8e bd 06 a5 30 bd 8d 12 c3 bb
       0.045670733 -0.069703154 -0.04312613 -0.005953139
000060 47 dd b4 bd 64 85 a6 3c 82 fb 65 3c 94 aa 2b 3d
       -0.08831268 0.020327277 0.014037015 0.041910723
000070 00 57 a1 3c e6 4b e5 3d 50 ed 86 3c 87 e4 81 bd
       0.019694805 0.11196117 0.016470581 -0.06342416
000080 a2 1a 71 3c 26 88 6e bb 02 bb 70 bd b7 6f 08 3e
       0.014715822 -0.0036397069 -0.058772095 0.13323866
000090 56 44 dd bc ca 24 dc bb 3b f3 f1 3b d0 3e 8b bc
       -0.027010124 -0.006718253 0.0073837317 -0.016997725
0000a0 55 af 0c bd 2a f4 32 3b 41 ee aa bb ff 61 6c bc
       -0.034346897 0.0027306178 -0.0052163904 -0.014427661
0000b0 64 d6 59 bc 67 33 08 bd e5 b8 b4 bd 9e df 0d be
       -0.013295744 -0.033252146 -0.08824328 -0.13854834
0000c0 4a a5 9b bc a7 3e 6b 3d d8 d6 8f 3c 84 59 1e 3a
       -0.018999714 0.057432797 0.0175585 0.00060405605
0000d0 c9 c6 5a 3d d3 45 b7 bd 1e 12 1e bd 2c 6c e1 ba
       0.053412233 -0.08948865 -0.038591497 -0.0017198375
0000e0 4a 73 8b 3b 53 b0 fd ba 08 5f 2e 3d 68 e9 97 3c
       0.004255687 -0.0019354917 0.042571098 0.018543914
0000f0 97 8a 5a bd c0 d0 fb bb 15 ee a7 bc 94 91 2d 3d
       -0.053354826 -0.007684797 -0.020499269 0.042375162
000100 69 2b 3a bc ef df 04 bc fd 16 86 3d bf 59 35 3d
       -0.011362889 -0.008110031 0.065473534 0.04427504
000110 d7 2d 02 3b ed 3b 45 bb 32 ca b2 bd 80 eb 9a 3d
       0.0019863748 -0.0030095533 -0.08729972 0.07564449
000120 db 22 29 3d 74 cf 6a 3b dc 7f b2 3b 6b 26 86 3d
       0.041293006 0.0035829218 0.005447371 0.065502964
000130 88 b9 1f 3b 11 d3 00 3c d0 1e b1 3d 42 78 66 bb
       0.002437206 0.007862822 0.08648455 -0.0035166894
000140 ce 10 75 3b b6 d3 0d 3d 4c 0f cb bd 1b a5 83 3c
       0.003739405 0.03462573 -0.09915027 0.01606994
000150 07 ad 3b bd 53 5a a7 bc 8c f4 89 3a 04 ff b9 3c
       -0.04581931 -0.020428812 0.0010525151 0.022704609
000160 03 d3 59 bd f6 24 48 bd dd dc e3 3c 16 d4 98 3c
       -0.053179752 -0.048863374 0.027815277 0.018655818
000170 08 b6 31 3b e5 05 f5 3c 12 6e 08 be 9b 04 bf bc
       0.0027116556 0.029910037 -0.13323238 -0.023317626
000180 69 c1 b3 bd d5 c5 5d bb 65 7b b3 bd 48 72 1f bb
       -0.087771244 -0.003383984 -0.0876377 -0.0024329592
000190 b2 32 b4 bd ef 72 d4 39 ee bf b7 39 cd eb 0a 3b
       -0.08798732 0.00040521423 0.0003504748 0.0021197677
0001a0 f1 79 b5 3b 7f 6f 07 3b ed 2e 0f 3d 69 c9 b4 bc
       0.005538218 0.0020665822 0.03495686 -0.022068696
0001b0 32 a2 6e 3d 9e fd 58 ba 37 b5 a8 3c 1d 8c f0 bc
       0.05826015 -0.0008277538 0.020594222 -0.029363686
0001c0 94 e6 7c 3d 2d c0 9e 3a 2d 25 ea 3a 07 6e 8c ba
       0.061743334 0.0012111716 0.0017863862 -0.0010713943
0001d0 6a 0b d1 3b a6 90 e2 ba 73 86 30 3c d5 da bf bc
       0.0063795345 -0.001728554 0.010774243 -0.023419777
0001e0 b4 b5 e0 bc 64 73 b5 bd 9e ff ca bc 76 21 b3 3d
       -0.027430393 -0.088599 -0.02478009 0.087466165
0001f0 9c 62 ad 3d 6a 38 ba 3d 46 4a b4 3c 8d 1d 74 3c
       0.08466074 0.090927914 0.022008073 0.014899624
000200 59 d4 8a bd 75 83 d9 3c 86 05 a1 bc cd ab 3f bc
       -0.06778783 0.026551941 -0.019655954 -0.011698675
000210 56 e8 8b bc 0f 2b 8b 3d 0e 4c 27 bc ea d1 be bc
       -0.01707856 0.06795322 -0.010211004 -0.023293454
000220 bc 33 0a bc 8f d2 b4 bd 54 af 45 3b e1 23 f2 bc
       -0.008435186 -0.08829223 0.0030164318 -0.029558124
000230 9a df 92 bb 11 96 f9 ba 19 6f a6 bd cd 9b 80 3d
       -0.004482222 -0.0019041916 -0.08126659 0.06279717
000240 64 ed d2 3c a5 46 0b 3d f7 1b 7e bc e5 1d da 3b
       0.025747962 0.03400292 -0.015509597 0.0066563957
000250 4a bf b2 bd c7 6b b1 3d 79 1b 59 3b ed 37 b1 3d
       -0.08727892 0.08663135 0.0033127947 0.08653245
000260 26 0b 35 3c ac 14 0b bc 75 4b 31 3b d3 df 8c 3c
       0.011050021 -0.008488815 0.0027053033 0.017196571
000270 c4 92 8e bd 27 79 b2 bd 51 0b b7 3c ea c0 83 bb
       -0.06961587 -0.08714514 0.022344263 -0.0040208
000280 bd 63 5f bd 3b 87 3d bd 05 1c 60 3d de d4 94 3d
       -0.054538477 -0.046271544 0.05471422 0.07267164
000290 fb c2 b4 bd 6d 3b 4f 3d 21 8c b0 bd ba f4 9e 3c
       -0.08826252 0.050593782 -0.086204775 0.019403804
0002a0 d4 2b cc 3c 1d da b6 3d 3e 5f ac 3d dc 2a af ba
       0.024923243 0.089283206 0.084166035 -0.0013364214
0002b0 d3 5e e4 bc f6 f0 85 3c ef de 8d bc 1c ec 5d bd
       -0.027877247 0.01635025 -0.017318217 -0.05418025
0002c0 8d 1d 74 ba 9b 89 22 3b 48 c6 4b bd cd 7a a5 bc
       -0.0009312265 0.0024801258 -0.049749643 -0.020200158
0002d0 10 29 d6 3a f5 ac 37 bd 53 69 ba ba bf 27 93 ba
       0.0016339142 -0.04484268 -0.0014222063 -0.0011227055
0002e0 c1 0e c4 3b bb 14 a5 bd 34 63 44 3b 23 62 fd 39
       0.005983204 -0.08060595 0.0029966356 0.00048329038
0002f0 5b 69 1c 3d 31 89 2c 3d b8 c1 03 3b 34 6d ac bd
       0.038186412 0.042123023 0.002010448 -0.08419266
000300 18 ff e4 bc 58 13 bf ba b5 07 be 3d 1f 51 76 3b
       -0.02795367 -0.0014577908 0.09278814 0.0037584973
000310 51 12 5f 3c aa 75 0f bd 82 52 b7 bd 03 84 09 bd
       0.013615207 -0.035024323 -0.08951284 -0.03357316
000320 f5 69 f3 bb 62 e3 22 bd 96 af eb bc bf 7d 06 bb
       -0.0074284025 -0.03976763 -0.02877025 -0.0020521728
000330 1b 1f b5 3d 41 4e 84 3d d7 82 0a bc 7c d0 4e 3b
       0.088438235 0.06460238 -0.008454046 0.0031557372
000340 00 4b 66 bc 28 49 15 3d d1 56 f6 3b 8e df be bc
       -0.014055967 0.03644672 0.0075176735 -0.023299959
000350 44 f7 00 3b 76 ff 4b bc 0d 34 d5 3a 6c 21 4a 3b
       0.0019678632 -0.012451043 0.0016266123 0.0030842675
000360 15 3d 86 bc 95 7e af bb d5 aa 4e 3a 83 99 79 bb
       -0.016386548 -0.005355666 0.00078837323 -0.0038085885
000370 fa a6 16 bc 81 55 49 3c 18 a9 78 bd c7 b2 85 bb
       -0.009195084 0.012288452 -0.060708135 -0.00408015
000380 f2 54 4d 3b ad bc 75 bc 0c 79 0d bc bc 5f a5 3d
       0.003133115 -0.014998597 -0.008634817 0.080749005
000390 27 56 d2 bb 28 6e b5 bd 9e 5d 29 3a 01 26 e7 bb
       -0.0064189616 -0.08858901 0.00064607884 -0.007054091
0003a0 0e 40 08 3d 67 15 51 3b 9e c7 88 bd f5 46 81 3c
       0.033264212 0.0031903626 -0.06678699 0.015780905
0003b0 e8 79 69 bb 69 a9 08 3d 77 57 af 3d c9 89 55 3d
       -0.003562564 0.033364687 0.085616045 0.052133355
0003c0 6d fc b2 3d 4f e4 6c bc 76 58 6c bb 75 13 5b bb
       0.08739553 -0.01445873 -0.003606347 -0.0033428345
0003d0 2d b6 69 bb 8d fb 75 3b a9 1d b7 bd 81 14 3d 3d
       -0.0035661564 0.003753397 -0.08941204 0.046162132
0003e0 fa 0c a8 3a ed ef 74 3b a4 41 78 bd 9e bd 9c 3b
       0.001282125 0.0037374452 -0.060609475 0.0047833463
0003f0 4c ff 20 bd 07 b7 e6 3c c8 69 08 bb ca 8b f8 3a
       -0.03930597 0.028163446 -0.0020815004 0.0018962559

net.6.weight f4 [256, 256]
000000 10 b5 9a 3b 3e e1 46 bc 42 ff 46 bb 05 f7 0d bc
       0.0047212914 -0.012138663 -0.0030364548 -0.008664851
000010 5d 0e ce 39 35 10 4c ba 4c be 60 bc bf ec e8 bb
       0.00039302083 -0.00077843975 -0.013717245 -0.0071083005
000020 e4 06 6f 3c 39 59 d4 3c 5b 4f ec 3a 11 ef 52 3b
       0.014589045 0.02592145 0.0018029021 0.0032185952
000030 f8 a1 d9 bb 7e c4 c5 bc 73 72 97 38 5d dd 52 bb
       -0.0066416226 -0.024141546 7.221559e-05 -0.00321754
000040 bf 71 26 3b d5 a0 31 3c 01 40 44 bb 3b b9 c3 bc
       0.0025397388 0.010841568 -0.0029945376 -0.023892036
000050 4b 79 8f ba 8d bf fa bb b0 8a 17 3b 60 14 11 bc
       -0.0010946182 -0.007652229 0.0023123436 -0.008854955
000060 f0 ac d3 bc 77 a3 98 3b 0d 54 23 3c 7e b0 08 bb
       -0.025839299 0.0046581584 0.00996877 -0.002085715
000070 b8 5e 4b bb 41 3c 8f 3c fa e6 67 3b fc e2 a4 bc
       -0.0031031799 0.017484786 0.0035385475 -0.020127766
000080 bf 03 00 3b 5c 80 fa b9 5b 76 b3 bb 8b ac b0 3c
       0.0019533483 -0.0004777935 -0.0054767556 0.02156665
000090 7b 2e 1c bb b9 92 56 3a 3b f2 02 bc d5 d2 cd 3b
       -0.0023831415 0.00081853155 -0.007992323 0.0062812367
0000a0 3b 5d 0b bb d4 61 90 39 f7 b5 15 bc ea dc 1e bb
       -0.0021265286 0.00027538708 -0.009137622 -0.0024240562
0000b0 7c 66 8e bb a8 08 0a bc 17 8e aa bc 58 68 05 bd
       -0.004345713 -0.008424915 -0.020819707 -0.032570213
0000c0 39 45 06 bc 06 3c 26 bb 1d 39 0f 3c 46 67 a9 35
       -0.008195215 -0.0025365367 0.008741644 1.2621538e-06
0000d0 41 00 41 3b 09 e6 d5 bc 1c f2 07 3a 66 e1 e9 3b
       0.0029449614 -0.026110666 0.00051859184 0.0071374653
0000e0 71 a3 e8 bb 7c 10 b0 b8 f0 c9 07 3c 09 44 3e 3c
       -0.007099562 -8.3954044e-05 0.008287892 0.0116129005
0000f0 b8 73 26 bc 28 01 9d 3a 4c fd 44 3b bc 4a cb ba
       -0.010159425 0.0011978494 0.0030058203 -0.0015509943
000100 62 64 27 bc d9 19 14 bc f3 f1 09 3b 2a 0b 44 3c
       -0.010216804 -0.009039366 0.0021048754 0.011965552
000110 2e 45 98 38 16 18 05 b9 3f 78 d1 bc ea 2c b9 3c
       7.2608105e-05 -0.00012692841 -0.025570033 0.022604425
000120 eb c4 be 3b 6b 9b b2 3b bc fb e6 bb a2 68 ad 3c
       0.0058218143 0.005450656 -0.007049052 0.021168057
000130 57 e1 6f b8 bc 98 0a 3c fd dd cf 3c 3a ec 20 ba
       -5.7191904e-05 0.008459266 0.025374407 -0.0006138716
000140 97 e6 fe 3a e4 de d8 3b 42 8e dd bb 10 ed 24 bb
       0.0019447383 0.0066183675 -0.006761343 -0.0025165714
000150 5e 6c e5 bb 29 75 ab 3b 71 01 dc 39 e6 97 84 3c
       -0.0070014438 0.0052324724 0.00041962744 0.016185712
000160 c4 dd 50 3b 1a 57 a3 bb cc 53 55 bb c8 9f c0 3c
       0.0031870464 -0.0049847485 -0.0032551168 0.02351369
000170 72 79 a9 39 30 b1 59 3c bf e8 7e bc 3f c4 b2 bb
       0.00032324676 0.013286874 -0.015558421 -0.0054555233
000180 2f 95 d2 bc 3d 8a eb b8 47 3e d2 bc 17 74 b9 bb
       -0.025705902 -0.00011231422 -0.025664462 -0.005659591
000190 39 f9 d2 bc fe 75 1a 39 0a 0a 00 ba 61 5d e2 b8
       -0.025753604 0.0001473054 -0.00048843084 -0.00010793913
0001a0 9b 87 00 3b 4c dd 8e b9 ef 7f a8 3c 02 a0 b0 bb
       0.0019612077 -0.0002724923 0.020568816 -0.005390168
0001b0 fd 8f 12 3c ba 01 8c 36 3c ca 2c bb 14 74 68 bb
       0.008945462 4.172526e-06 -0.0026365658 -0.0035469579
0001c0 1b 7e b1 3c ba ce 6d b9 0c 38 92 b9 23 eb 0b 3c
       0.021666577 -0.00022679093 -0.00027889048 0.008539948
0001d0 01 12 3c 3b 1c f5 fc b8 e1 75 c4 3b 96 7e 36 bc
       0.0028697255 -0.000120619516 0.0059954976 -0.011138579
0001e0 07 43 5d 3a 6c 37 d4 bc 2b a3 04 bc 2e fc d1 3c
       0.0008440469 -0.025905333 -0.008095543 0.025632944
0001f0 6b 0b cc 3c 79 2f e8 3a 64 e9 6e 3b 3a f3 19 3b
       0.024907788 0.0017714343 0.003645503 0.0023490922
000200 c3 b0 38 bb 61 52 97 3b f4 43 16 bb 6f 88 f1 3a
       -0.002818153 0.0046179746 -0.0022928687 0.0018427501
000210 4e fe 90 bb 02 fe 0e 3c 52 84 34 3c 31 14 1a bb
       -0.0044248467 0.008727552 0.011017876 -0.002351057
000220 9c 6f ea ba 9a 9a d3 bc 9b 97 2a 39 ad 7d b2 39
       -0.0017886045 -0.025830556 0.00016268941 0.0003404444
000230 19 c7 1b ba 42 05 1d 39 d8 05 c5 bc 57 83 90 bb
       -0.00059424486 0.00014974645 -0.024050638 -0.004410188
000240 1f 64 fe 3b 68 4a e6 3b 26 f3 f3 bb 52 2e ff ba
       0.0077634 0.007027913 -0.007444757 -0.0019468761
000250 fe 64 d1 bc 8d 35 d0 3c 6a 70 11 3b 67 13 d0 3c
       -0.025560852 0.02541616 0.0022192248 0.025399877
000260 25 d0 eb 3b b6 63 d3 b9 8d 71 ea 37 84 5e 30 3a
       0.0071964436 -0.00040319347 2.794785e-05 0.0006727951
000270 c6 9f 07 bb 11 48 d1 bc 0c dc 68 3b 62 5d 45 bb
       -0.0020694598 -0.02554706 0.0035531549 -0.0030115475
000280 e4 f8 42 b9 16 64 d8 bb cb 3f b9 b9 37 db 80 3b
       -0.00018594 -0.006603728 -0.0003533348 0.0039323824
000290 21 82 d3 bc f6 3e 9b bb f6 3c cf bc bc 8b 29 ba
       -0.025818886 -0.00473773 -0.025297623 -0.00064676604
0002a0 6e 93 8b 39 85 8b d5 3c da 1c cb 3c d8 2b 23 3b
       0.0002662199 0.026067505 0.024794031 0.002489796
0002b0 68 b9 15 3a 7a 02 07 3c 0d 4e 4f bc f1 cf b2 bc
       0.00057115266 0.008240337 -0.012652886 -0.02182767
0002c0 4d 09 1d 37 df ef 4f b9 50 62 8b 39 92 ee e3 bb
       9.360095e-06 -0.00019830417 0.00026585395 -0.00695593
0002d0 7a bb 92 39 fb fa f1 bb dc c0 21 b6 09 b6 59 bc
       0.0002798697 -0.0073846555 -2.4103128e-06 -0.0132880295
0002e0 d5 2d 80 3b 15 99 4a bc 3d 0f 8f 39 e3 a3 3c 3c
       0.0039117136 -0.012365599 0.0002728644 0.011513683
0002f0 69 42 03 bb 28 8f 0c 3b c8 da 5d bb 85 26 cb bc
       -0.0020028597 0.0021447632 -0.0033852328 -0.024798641
000300 6c 64 92 39 bc 25 ec bb ea 2f d0 3c 2e 7b c1 39
       0.0002792211 -0.0072066467 0.025413472 0.00036903605
000310 30 61 12 3b d3 48 10 bc 3f 59 f5 bb 56 be 47 ba
       0.002233576 -0.008806425 -0.0074874456 -0.000761961
000320 8f db c3 3b b9 2b 9a bb 1d c9 0b bc 15 b7 9f 39
       0.005977101 -0.004704919 -0.008531836 0.0003046325
000330 91 c8 d3 3c 5c 3b 3d bb c8 60 af 3b 28 8c 89 3b
       0.025852473 -0.0028874492 0.0053521134 0.004197616
000340 8f e4 39 b7 62 98 8f bb b1 4c 62 ba 47 1e e9 bb
       -1.1080075e-05 -0.004382179 -0.0008632644 -0.007114205
000350 46 b4 cf b8 92 de 61 38 95 4f 25 38 79 16 02 3a
       -9.904108e-05 5.3851465e-05 3.9413182e-05 0.0004962455
000360 b3 66 a4 3b 8b 78 ce 3a eb aa bc 39 d8 63 f2 b9
       0.0050171255 0.0015752477 0.00035985498 -0.00046232226
000370 98 53 da bb b2 e7 a3 3b 94 af ad 3b 25 1c ef b9
       -0.006662797 0.0050019855 0.0053004716 -0.00045606602
000380 d2 14 02 3a 6a 69 99 3b 1a e3 52 bb 4f d2 c5 3c
       0.0004962209 0.004681756 -0.003217882 0.024148135
000390 7e 4c 3e b8 38 1b d4 bc 38 c5 c4 b9 a5 27 62 3a
       -4.537077e-05 -0.025891885 -0.00037530973 0.00086271233
0003a0 2a 3f d2 3b fa e1 9d 39 4b eb 86 bb 0a 63 55 3b
       0.006416221 0.0003011374 -0.0041174046 0.0032560253
0003b0 84 77 10 ba 43 fe 4b 3c 86 ff cd 3c 8e ef b2 3b
       -0.0005510973 0.012450757 0.025146257 0.005460686
0003c0 ee c5 d1 3c e3 85 52 bc 40 93 1c ba 6a f4 b3 b9
       0.025607076 -0.012849304 -0.00059728697 -0.00034323643
0003d0 11 bb d9 b9 08 20 d0 39 f2 b0 d5 bc bc c1 ad 3c
       -0.0004152884 0.00039696717 -0.02608535 0.021210544
0003e0 04 8c 48 b9 00 4e f4 39 6e 9e 22 bc 15 c1 1c 3b
       -0.00019125646 0.0004659742 -0.009925468 0.0023918797
0003f0 e1 31 b0 bb 4d 72 75 ba 03 c4 1f b9 14 2f 3f b9
       -0.00537704 -0.00093630404 -0.00015236442 -0.00018232717
