training/nn-xxlarge.pth (torch, 821675 bytes, 10 tensors)

net.0.weight f4 [256, 21]
0	0x3ea118c0	0.31464195
1	0xbd9123d4	-0.07086912
2	0x3c7aa9ef	0.015299304
3	0x3db8f43c	0.09030959
4	0x3d746133	0.05966301
5	0x3cbd9851	0.02314392
6	0x3c933515	0.017969647
7	0x3c2cdf80	0.010551333
8	0xbd15d15d	-0.036576618
9	0xbb3bfa2c	-0.002868305
10	0xbb047342	-0.00202103
11	0xbcb44f12	-0.02201036
12	0xbdf5ece1	-0.12008072
13	0x3d309d90	0.043119013
14	0x3e12798a	0.14304176
15	0xbd226d28	-0.03965488
16	0xbdbb8a73	-0.091572665
17	0xbd46eb2a	-0.048564114
18	0x3b1a87ae	0.0023579407
19	0xbd7078a2	-0.058708794
20	0xbba3f437	-0.005003478
21	0xbe7bc4ca	-0.24586788
22	0x3c3771b1	0.01119654
23	0x3f44121c	0.7659013
24	0x3da60cd3	0.08107915
25	0x3dd5c719	0.104383655
26	0x3d5a7c12	0.05334098
27	0xbbf9313a	-0.007604745
28	0xbc0aed90	-0.008479491
29	0xbcddaed6	-0.027060907
30	0xbc0a16d0	-0.0084282905
31	0x3c016d03	0.007899526
32	0xbcfd8dcb	-0.030951401
33	0x3d3950e7	0.04524317
34	0x3e425fcd	0.18981858
35	0x3e51e32a	0.20496812
36	0x3de8f320	0.113744974
37	0x3d93584a	0.07194574
38	0x3cd5630a	0.026048202
39	0x3d3d2afb	0.046183567
40	0x3d02b001	0.03190613
41	0xbcc529c6	-0.02406777
42	0x3d7e8089	0.0621343
43	0x3ce83751	0.02834669
44	0x3db59ad0	0.08867419
45	0x3e848a4c	0.25886762
46	0x3d256081	0.040375236
47	0xbe53b2da	-0.20673695
48	0xbecf5717	-0.40496132
49	0xbe47169d	-0.1944222
50	0x3dfcc9b5	0.1234316
51	0x3e2eb055	0.17059453
52	0x3dc299f9	0.09502024
53	0xbd6945a8	-0.056951195
54	0xbd7aebfb	-0.061260205
55	0xbcdf5cc0	-0.027265906
56	0x3c16f474	0.009213556
57	0xbca96a18	-0.020680472
58	0xbd13b16a	-0.036057867
59	0xbced1151	-0.028938921
60	0xbbd1964e	-0.0063960915
61	0x3b5c143e	0.0033581401
62	0xbd70c967	-0.058785822
63	0x3d97e1dc	0.07416126
64	0x3bf04e07	0.0073335203
65	0x3db9abb8	0.09065956
66	0x3c975f47	0.018478049
67	0xbd50018c	-0.050782725
68	0xbd499ed1	-0.049223725
69	0x3c8ab4f6	0.016931992
70	0x3d364980	0.04450369
71	0x3d5680cb	0.05236892
72	0x3d5315d6	0.051534496
73	0x3c856ba3	0.016286677
74	0x3b10abaf	0.0022074988
75	0xbe15dd88	-0.14635289
76	0x3d067b0f	0.0328322
77	0x3e9d1eec	0.30687654
78	0x3e103542	0.14082816
79	0xbe2d5b48	-0.16929352
80	0xbe1b9df2	-0.1519697
81	0x3d65ee0c	0.056135222
82	0xbc616fc2	-0.013759555
83	0xbbc6428a	-0.0060504125
84	0xbcc9f0c4	-0.024650939
85	0x3bd6eb74	0.00655883
86	0xbdae418f	-0.08508598
87	0xbd7fb045	-0.062423963
88	0x3d9a4067	0.07531815
89	0x3e23ea0e	0.16007254
90	0xbc6638a2	-0.014051588
91	0xbdc9524b	-0.09830149
92	0xbd5fb236	-0.054613315
93	0xbcbba3c4	-0.022905238
94	0xbb8383a3	-0.004013495
95	0xbd161c66	-0.036648177
96	0xbda4afcf	-0.08041345
97	0x3d5369cf	0.05161458
98	0x3e181038	0.14849937
99	0xbc81f116	-0.015862029
100	0xbdfca047	-0.12335258
101	0xbd28ef3a	-0.04124377
102	0x3b9f8df1	0.0048692157
103	0xbca403d4	-0.020021357
104	0x3a1a2d38	0.0005881372
105	0xbdaa0f6a	-0.08303721
106	0xbcd53524	-0.026026316
107	0xbe1efd3d	-0.1552629
108	0xbe165bec	-0.14683503
109	0x3e0df1ab	0.1386172
110	0x3e3f0e5d	0.18657823
111	0x3d2e4f98	0.042556375
112	0x3cd9c811	0.026584657
113	0x3bf92325	0.0076030665
114	0xbc5d23cc	-0.013497304
115	0xbd269571	-0.040669862
116	0xbccc2de0	-0.024924219
117	0xbc8391d7	-0.016060753
118	0xbd109811	-0.03530127
119	0xbd4b5c44	-0.04964854
120	0xbc988e67	-0.01862259
121	0x3ca82812	0.02052692
122	0x3ca47e31	0.020079704
123	0x3c4e8836	0.012605717
124	0xbd3aef7f	-0.045638558
125	0xbde5fd23	-0.112299226
126	0xbcbb5cf2	-0.022871468
127	0xbc86a3f5	-0.016435603
128	0x3e12bf32	0.14330748
129	0x3c8461ad	0.016159857
130	0x3e040dbf	0.12895869
131	0xbc3efbff	-0.01165676
132	0xbe1543d2	-0.14576653
133	0xbd939449	-0.072060175
134	0x3caa3a9e	0.020779904
135	0x3b63a73f	0.0034737138
136	0xbd2f746b	-0.042835634
137	0x3b34a41e	0.0027563642
138	0xbd96f54f	-0.07371008
139	0xbd3a9c4c	-0.045559213
140	0x3de2048a	0.11036022
141	0x3e2877a1	0.16451885
142	0x3d24ae01	0.040205006
143	0xbd9edd20	-0.0775702
144	0xbd295fe7	-0.041351225
145	0x3c50e69e	0.012750296
146	0xbccaae78	-0.024741396
147	0x3cc9923f	0.024605868
148	0x3dfc441e	0.1231768
149	0xbdb6c12e	-0.08923565
150	0xbda4d94f	-0.08049261
151	0xbd0da459	-0.034580562
152	0xbd010578	-0.031499356
153	0xbd0788f8	-0.033089608
154	0xbbc41f48	-0.0059851743
155	0x3cfdc8f1	0.030979605
156	0x3bc2fe32	0.0059507126
157	0x3b26e8c3	0.0025468327
158	0x3db1c4b2	0.08680095
159	0x3dc91a46	0.098194644
160	0x3dbda544	0.092600375
161	0x3deaa58d	0.114573576
162	0xbd0a20bf	-0.033722635
163	0xbe9ad11a	-0.30237657
164	0xbe9bb48a	-0.30411178
165	0x3db242f6	0.08704178
166	0xb890ef90	-6.911077e-05
167	0xbc821bc5	-0.015882382
168	0x38d3889f	0.00010086712
169	0xb9d7b1d1	-0.0004114048
170	0xb8a312ad	-7.775924e-05
171	0xb9097a6a	-0.00013110941
172	0x3ab1219b	0.0013514044
173	0xbab5757f	-0.0013844221
174	0xb9c257c0	-0.00037067942
175	0x3a9a62ad	0.0011778675
176	0x39324221	0.00017000038
177	0xb9016a52	-0.00012342006
178	0xba29428b	-0.0006456754
179	0x3805d2ac	3.1905874e-05
180	0xba80148a	-0.0009771746
181	0xb8aca823	-8.232917e-05
182	0x3a93e1c3	0.0011282492
183	0xb92cd01d	-0.00016480726
184	0xb979cdc1	-0.0002382314
185	0xba933749	-0.0011231686
186	0x39318ea8	0.00016933179
187	0x380d90c2	3.3751836e-05
188	0xba4058be	-0.00073374424
189	0x3dec72b7	0.115453176
190	0xbd3ddd96	-0.0463539
191	0x3e975284	0.29555142
192	0x3e1fd752	0.15609482
193	0x3dbf5063	0.093415044
194	0x3d6e15c5	0.05812623
195	0xbe3027cc	-0.17202681
196	0xbe5add3d	-0.21373458
197	0xbd75feaf	-0.06005734
198	0x3d832e39	0.06405301
199	0x3d67aeac	0.056563064
200	0x3a47cb91	0.00076215813
201	0x3c8bb31e	0.017053183
202	0x3be26d83	0.0069100275
203	0xbd4df0bc	-0.05027841
204	0xbe1205a6	-0.14259967
205	0xbd966794	-0.07343975
206	0x3d99bf38	0.07507175
207	0x3d40ea13	0.04709823
208	0x3d2c85e4	0.042119876
209	0xbc7f83b8	-0.015595369
210	0x3d015ad6	0.03158077
211	0xbd7c6ffa	-0.061630227
212	0xbe4b2b5a	-0.19840756
213	0xbb390c30	-0.0028236024
214	0x3e815192	0.25257546
215	0xbd6d9512	-0.058003493
216	0xbe5922c2	-0.21204665
217	0xbbde702b	-0.006788274
218	0x3dca8c0b	0.09889992
219	0x3cfa2012	0.03053287
220	0x3b8bd771	0.004267626
221	0xbd02604c	-0.031830117
222	0x3c903d06	0.017607223
223	0xbb0dad6d	-0.0021618262
224	0xba1307fe	-0.0005608796
225	0x3cd3c005	0.025848398
226	0x3c3e9e0b	0.01163436
227	0xbcb6a877	-0.022297127
228	0xbb9fe5e5	-0.0048797005
229	0x3d23acac	0.039959595
230	0xba97fa58	-0.0011594994
231	0xbe377036	-0.17913899
232	0xbd50bf74	-0.050963834
233	0x3dbae3b4	0.09125462
234	0xbddb0e05	-0.106960334
235	0xbcbdbdca	-0.023161788
236	0xbcd2534e	-0.025674488
237	0xbc8eb81c	-0.017421775
238	0x3cf4904a	0.029853959
239	0x3ccfdb05	0.025372991
240	0x3c84e3e6	0.016221952
241	0xbbac8e94	-0.00526602
242	0x3cd1bb93	0.025602138
243	0x3dfdebf7	0.12398522
244	0x3d2c8f4e	0.042128853
245	0xbbd35428	-0.006449241
246	0x3c6c7477	0.014432064
247	0x3d579e43	0.052641165
248	0x3d5eea5b	0.054422718
249	0x3b07441f	0.0020639969
250	0x3c6c91eb	0.014439086
251	0x3d1499ac	0.036279365
252	0x3e3c4d2f	0.18388818
253	0x3cde454c	0.027132653
254	0xbd9783b3	-0.073981665
255	0x3e17fecb	0.1484329

net.0.bias f4 [256]
0	0x3ea1dbf0	0.31613111
1	0x3e01d8d4	0.1268037
2	0xbebe57f9	-0.37176493
3	0xbd491027	-0.04908767
4	0x3d90570e	0.07047854
5	0x3e2d3169	0.1691338
6	0xbe16c668	-0.14724123
7	0x3e13e2cb	0.14441983
8	0x3a0a4aac	0.0005275409
9	0x3eb9f6b5	0.36321035
10	0x3e5358bf	0.20639323
11	0xbe9eac52	-0.30990845
12	0xba961536	-0.0011450413
13	0xbc241ad7	-0.010016165
14	0xbdb27136	-0.087129995
15	0xbe911496	-0.28336018
16	0xbcb1cbe0	-0.02170366
17	0x3d4d11c7	0.050065782
18	0x3ebb14bb	0.36539254
19	0xbe2b8fdb	-0.16754095
20	0xbe5fe699	-0.2186531
21	0x3e221599	0.15828551
22	0xbcfcaa69	-0.030842977
23	0xbdf6ea4b	-0.120564066
24	0xbda01742	-0.07816936
25	0x3e8d7529	0.2762845
26	0x3d8c1fb9	0.06841988
27	0xbd8613c8	-0.06546742
28	0xbdcd6369	-0.100287266
29	0xb96fde11	-0.00022875542
30	0xbe1a0406	-0.15040597
31	0x3db796cd	0.0896431
32	0xbaff06a3	-0.0019456934
33	0xbe4ff0ee	-0.20306751
34	0xba255964	-0.0006307571
35	0x3cb3b7e9	0.021938281
36	0xbc88b035	-0.016685585
37	0x3dedb75e	0.1160724
38	0x3e5093f1	0.20368935
39	0x3e80fa8f	0.2519116
40	0xbd5203d8	-0.051273197
41	0xbd48edc2	-0.04905487
42	0x3e48c636	0.19606861
43	0xbd962e78	-0.07333082
44	0xbd9ec330	-0.07752073
45	0x3c79c2a0	0.015244156
46	0x3e78b63c	0.24288267
47	0xbdc0162b	-0.09379228
48	0x3e3bcc33	0.18339615
49	0x3da4d59d	0.08048556
50	0x3eb099fc	0.3449248
51	0x3e53caa6	0.20682773
52	0x3d9a8f56	0.075468704
53	0xbe03a4a4	-0.12855774
54	0x3ddf5816	0.10905473
55	0xbe41678d	-0.18887158
56	0xbe05b3e6	-0.13056907
57	0xbe672248	-0.22571671
58	0x3dde5fa5	0.108580865
59	0x3d78f0c4	0.060776487
60	0xbe4627e3	-0.19351153
61	0x3ddd3429	0.108009644
62	0x3e0cd01d	0.13751264
63	0xbcd3fde8	-0.025877908
64	0x3eae9169	0.34095314
65	0xbcf363e9	-0.029710727
66	0xba6495f1	-0.0008719853
67	0x3d07f70d	0.03319459
68	0x3cf06960	0.029347122
69	0xbdc6d26b	-0.09708103
70	0xbd585c10	-0.052822173
71	0xbe29bb6e	-0.16575405
72	0xbe362bb2	-0.17790106
73	0xbe29202a	-0.16516176
74	0xbea337f5	-0.3187863
75	0x3d40d9e0	0.04708278
76	0xbe1e29f2	-0.15445688
77	0xbe552d9e	-0.20818183
78	0x3d886cb2	0.06661357
79	0xbf087ccf	-0.5331544
80	0xbdb20f55	-0.086943306
81	0xbde624f2	-0.112375155
82	0xbe307cbb	-0.17235081
83	0x3dee3c2e	0.11632572
84	0x3f1e9acd	0.6195496
85	0xbdc706fc	-0.09718129
86	0xbdd3c49d	-0.103402354
87	0xbc86317b	-0.016381016
88	0xbe4afe6d	-0.19823618
89	0x3d8013a9	0.0625375
90	0xba2ca624	-0.0006586036
91	0x3c555b1a	0.013022209
92	0x3efaf117	0.49012062
93	0xbd136f23	-0.03599466
94	0x3e0b3d99	0.13597716
95	0xbcc6a3b9	-0.02424799
96	0xbce324c2	-0.027727488
97	0x3e07f222	0.1327596
98	0xbd8df17c	-0.06930825
99	0xbe5bdb3e	-0.21470353
100	0x3c2cb643	0.010541501
101	0x3cbb0fde	0.022834715
102	0xbe54cc72	-0.20781115
103	0x3c1ca728	0.0095613375
104	0xbd85935e	-0.06522249
105	0x3e261edc	0.1622271
106	0xbe4724cc	-0.1944763
107	0x3ee95d73	0.4557911
108	0x3d696096	0.056976877
109	0x3e11a92c	0.1422469
110	0xb9f59a41	-0.0004684497
111	0x3e6a121a	0.22858468
112	0xbea54fea	-0.32287532
113	0x3db580d2	0.08862461
114	0x39fb030e	0.00047876727
115	0xbdcaa161	-0.09894062
116	0xbed8158a	-0.42203933
117	0x3dd5f4f9	0.104471155
118	0x3de4fa82	0.11180593
119	0xbe280f91	-0.16412188
120	0x3e92252d	0.28543988
121	0x3d8925c4	0.06696656
122	0xbcf0855b	-0.029360464
123	0x3e8ed6d7	0.27898285
124	0xbe4772ca	-0.19477382
125	0xbdd81d47	-0.10552459
126	0x3de3b4ce	0.1111847
127	0xbdecc9ec	-0.11561951
128	0xbecb8dd4	-0.39756644
129	0x3eb8c65f	0.36088845
130	0x3ea15991	0.31513646
131	0x3dc834cb	0.097756945
132	0x3dbd3f90	0.09240639
133	0x3d347db6	0.0440652
134	0xbdebffe1	-0.115234144
135	0x3d4867db	0.04892717
136	0x3cae5c3e	0.021284219
137	0xbe4b7a53	-0.19870882
138	0xbd9913c9	-0.07474477
139	0xbc8f2564	-0.017473884
140	0x3daae264	0.08343962
141	0x3b7c15e8	0.0038465206
142	0x3e065c5a	0.13121167
143	0x3ea4a3d6	0.32156247
144	0xbea0291e	-0.3128137
145	0x3dcc29f6	0.09968941
146	0x39ff21dd	0.0004866262
147	0xbe104652	-0.14089325
148	0xbdb9e46b	-0.090767704
149	0x3d83dc48	0.064385
150	0xbe2dcf54	-0.1697362
151	0x3dab3e96	0.08361547
152	0x3db57336	0.08859865
153	0xbe22d40c	-0.15901202
154	0x3e57b16a	0.21063772
155	0xbdaefe80	-0.08544636
156	0x3aab41f4	0.001306592
157	0xbe443680	-0.19161415
158	0x3ea01cdd	0.3127202
159	0x3e80d93e	0.25165743
160	0xbdb7d0fe	-0.08975409
161	0x3c7e373a	0.015516097
162	0x3d19457d	0.037419785
163	0x3dc6eb14	0.09712806
164	0x39f20973	0.00046164877
165	0xbe889534	-0.26676333
166	0xbe232361	-0.15931465
167	0xbd548c9d	-0.05189191
168	0xbe73cc75	-0.23808463
169	0xbe0dd98b	-0.13852517
170	0x3e6fe2e1	0.23426391
171	0xbe05d75e	-0.13070437
172	0x3d8543bf	0.06507062
173	0xbc2289f1	-0.009920583
174	0x3ea45cb9	0.32101992
175	0xbe88d3ef	-0.26724193
176	0x3e0cb222	0.13739827
177	0x3dc6dc50	0.0970999
178	0x3d2c6382	0.042087086
179	0xbde09305	-0.10965542
180	0x3ec34fe0	0.38146877
181	0xbf06ff79	-0.5273357
182	0x3df7fac7	0.12108379
183	0xbde2e5a4	-0.11078957
184	0xbe2a9038	-0.16656578
185	0xbe069012	-0.13140896
186	0x3e488fc0	0.19586086
187	0xbd09c0c0	-0.033631086
188	0xbea362bb	-0.31911263
189	0x3f0ae86c	0.542609
190	0x3e7ffdd7	0.24999176
191	0xbe3ebc27	-0.18626462
192	0x3e9a952c	0.30191934
193	0xbe82090f	-0.25397536
194	0x3e76b801	0.2409363
195	0x3d89a5c2	0.06721069
196	0x3e037e4f	0.12841152
197	0x3ea1a9ca	0.3157485
198	0xbda9392b	-0.08262857
199	0xbe06188e	-0.13095304
200	0x3d0f3ac6	0.03496816
201	0xbea6162c	-0.3243879
202	0xbefaf06b	-0.4901155
203	0xbe20435a	-0.15650693
204	0xbe249e67	-0.1607605
205	0x3de1ac31	0.11019171
206	0x3e78cc84	0.24296767
207	0x3f0e5ad1	0.55607325
208	0xbe8a2307	-0.2697985
209	0xbe225c72	-0.15855578
210	0x3e03f724	0.12887245
211	0xbdefcfda	-0.117095664
212	0xbd9b6111	-0.07586873
213	0x3cb1dfbe	0.021713134
214	0xbe19a805	-0.150055
215	0x3e21e92f	0.15811609
216	0x3de2f350	0.110815644
217	0x3e4351ef	0.19074224
218	0xbd972fac	-0.073821396
219	0x3e6fb7e1	0.23409988
220	0x39fed464	0.000486049
221	0xba41fde1	-0.00074001966
222	0x3d8170a9	0.06320316
223	0x3819d7ae	3.667891e-05
224	0xbd8ad45a	-0.06778784
225	0x3d8b7b2b	0.06810602
226	0x3d034899	0.032051656
227	0x3b47f44d	0.0030510605
228	0xbecc0e61	-0.3985472
229	0x3a4997b6	0.0007690148
230	0xbc75f907	-0.015012986
231	0x3e97a1ec	0.29615724
232	0xbe75a64b	-0.23989217
233	0x3dbe917f	0.09305095
234	0xbe0588bb	-0.1304044
235	0xbe8a69a1	-0.27033713
236	0xbe1cd477	-0.15315424
237	0x3ea93bbb	0.33053383
238	0xbd4324da	-0.047642566
239	0xbe4bdf4e	-0.19909403
240	0xbe0ce5fb	-0.13759606
241	0xbf1470d6	-0.57984674
242	0xbcbac25f	-0.022797761
243	0xbe4b97f1	-0.1988218
244	0xbe20fcab	-0.15721385
245	0xbe07d187	-0.13263522
246	0x3d857b8e	0.06517707
247	0xbd36cabd	-0.04462694
248	0xba2bd5f9	-0.0006555017
249	0x3e5b5664	0.21419674
250	0xbd494484	-0.049137607
251	0x3e35d789	0.17758001
252	0xbdb84722	-0.089979425
253	0xbe9d0ece	-0.30675358
254	0x3de122d1	0.10992969
255	0x3ea37d31	0.3193145

net.2.weight f4 [256, 256]
0	0x3d63e002	0.055633552
1	0x3dfa584d	0.12223873
2	0xbe050c89	-0.12993063
3	0xbc027330	-0.007962033
4	0x3c88d13d	0.016701335
5	0x3c124932	0.008928584
6	0xbc8a863b	-0.01690971
7	0xbc0e9997	-0.008703611
8	0xb9ab94ee	-0.00032726623
9	0x3db01fce	0.08599816
10	0xbd8d76d3	-0.069074295
11	0xbd066716	-0.032813154
12	0x3d2e6930	0.042580783
13	0xbc4a6f85	-0.01235569
14	0xbdb1836e	-0.08667646
15	0x3d008892	0.031380244
16	0xbd76aa54	-0.06022103
17	0x3d1d6738	0.038428515
18	0xbd6d4701	-0.057929043
19	0xbc3c80fe	-0.0115053635
20	0xb975e085	-0.00023448661
21	0xbca67f5b	-0.0203244
22	0xbbb24496	-0.005440305
23	0x3cd7cb9e	0.02634221
24	0xbc275922	-0.010214122
25	0x3dd4302f	0.10360753
26	0x3c5b79db	0.013395752
27	0xbbd21649	-0.006411348
28	0xbd655179	-0.0559859
29	0x395ee762	0.00021257767
30	0xbc88ba24	-0.016690321
31	0xbcd38a7a	-0.025822867
32	0x3c42e526	0.011895454
33	0xbd1e675b	-0.038672786
34	0x39edbfdc	0.0004534711
35	0xbbb21060	-0.005434081
36	0xbdae843e	-0.08521317
37	0xbaa426db	-0.0012523787
38	0xbd95df69	-0.07318003
39	0x3c123a6c	0.008925062
40	0xbdb2bb74	-0.0872716
41	0x3c51f5b3	0.012814927
42	0x3a83e429	0.0010062504
43	0xbca3502a	-0.019935686
44	0x3d9553f6	0.07291405
45	0x3b64494a	0.0034833723
46	0x3c9667dc	0.01836007
47	0x3cfe074e	0.031009343
48	0x3c6e157f	0.014531492
49	0xbb427187	-0.0029669718
50	0x3dd03646	0.10166602
51	0x3d57c7d2	0.052680798
52	0x3c92aa5b	0.017903497
53	0xbd923267	-0.0713852
54	0x3bd276c5	0.00642285
55	0xbc075190	-0.008259192
56	0x3b50ec4e	0.003187913
57	0xbbdb16d5	-0.0066860714
58	0xbc9a37d4	-0.018825449
59	0x3b7b6729	0.0038361049
60	0x3d0637db	0.03276811
61	0xbd1ed829	-0.038780365
62	0x3d3d37de	0.046195857
63	0x3c9dbaee	0.019254174
64	0x3dc78121	0.09741426
65	0xbc35745d	-0.011075106
66	0x3a41e223	0.0007396063
67	0xbb270cfc	-0.0025489917
68	0x3d8a668f	0.06757843
69	0xbd4410ab	-0.04786746
70	0xbc5533bc	-0.013012823
71	0xbc696ea7	-0.014247573
72	0xbb26bffd	-0.0025444024
73	0x3c13d77f	0.009023546
74	0xbd9c393f	-0.07628106
75	0x3c5d8cee	0.01352237
76	0x3a130b18	0.0005609258
77	0xbca69d59	-0.020338701
78	0x3c441374	0.011967529
79	0xbdc10a2c	-0.09425768
80	0xba0a16cc	-0.0005267679
81	0xbd3bd5a7	-0.04585805
82	0xbb9aa788	-0.0047196783
83	0x3c8dc03c	0.017303579
84	0x3e89b059	0.26892355
85	0x3bdffbff	0.00683546
86	0xba841ded	-0.0010079719
87	0xbd3da2be	-0.04629778
88	0xb9905c6a	-0.00027534674
89	0x3d1e173f	0.038596388
90	0x39d7ebb3	0.00041183605
91	0x3da940b4	0.08264294
92	0x3daac6d9	0.083387084
93	0xbc8da780	-0.017291784
94	0xbdc1f175	-0.094698824
95	0xbce0cd41	-0.027441623
96	0xbc24f7be	-0.010068832
97	0x3c89a5e1	0.01680273
98	0xbd90248c	-0.07038221
99	0xbcabe903	-0.020985132
100	0xbd60cb22	-0.054881223
101	0xbd3200f9	-0.04345796
102	0xbbaae427	-0.005215186
103	0x3cb427f6	0.021991711
104	0xbb81f939	-0.0039664772
105	0x3caef9be	0.02135932
106	0xbb04d489	-0.0020268282
107	0x3df0dfde	0.11761449
108	0xbc1b0402	-0.009461405
109	0x3b43f152	0.0029898477
110	0x3a1336b9	0.00056157593
111	0x3d221bd0	0.039577305
112	0x3d94999a	0.0725586
113	0xbcc37d2e	-0.023863401
114	0xb9fa2621	-0.00047712124
115	0x3d2e47d9	0.042548988
116	0xbe1e23a3	-0.15443282
117	0x3dcae590	0.09907067
118	0xbaaa5045	-0.0012993893
119	0xba8dea23	-0.0010827224
120	0x3cc6bf09	0.024261015
121	0x3d17d569	0.03706876
122	0xbb09bf1e	-0.0021018456
123	0xbc98c1cf	-0.018647103
124	0xba9e01b9	-0.0012054957
125	0xbc5458d1	-0.012960629
126	0xbd075779	-0.033042405
127	0xbd3fe343	-0.046847593
128	0xbe048034	-0.1293953
129	0x3e04b2bf	0.12958811
130	0x3cce4968	0.025181487
131	0x3c412949	0.011789628
132	0x3c799453	0.015233117
133	0xbb1e8482	-0.0024187868
134	0x3d701675	0.058615167
135	0xbc586d20	-0.013209611
136	0xbb9c94ef	-0.0047784965
137	0xbd8f12ae	-0.06985985
138	0xbbebde1b	-0.007198108
139	0x3caa805f	0.020813165
140	0x3d176f5d	0.03697144
141	0xbc93e987	-0.01805569
142	0x3cf140b2	0.029449794
143	0x3d56646c	0.052341864
144	0xbd026736	-0.03183671
145	0x3c4a8e61	0.012363047
146	0xba1d07b7	-0.00059902243
147	0xbd2c34b1	-0.042042438
148	0x3c84f2fd	0.016229147
149	0xbc3cbd2e	-0.011519713
150	0x3da2ee3c	0.07955596
151	0x3c31a473	0.01084243
152	0x3c6abaf9	0.014326804
153	0x3d1ad72a	0.037802853
154	0x3c3ea217	0.011635325
155	0x3a889561	0.0010420495
156	0x3b4e1b58	0.0031449404
157	0x3d112761	0.035437945
158	0x3c7aeb37	0.015314869
159	0x3d29a8f4	0.041420892
160	0x3c07af78	0.008281581
161	0x3d48bc5a	0.04900775
162	0x3d4daad7	0.050211754
163	0x3cdf21ca	0.027237792
164	0xba0be2c8	-0.0005336222
165	0x39d933d5	0.00041428083
166	0xbda9130c	-0.08255586
167	0x3c3f93fa	0.011692995
168	0x3d1dc917	0.038521852
169	0xbdd8e54a	-0.105906084
170	0xbd98384b	-0.07432612
171	0x3d594dc9	0.053052697
172	0x3cc264a5	0.023729632
173	0x3b4e0a76	0.003143934
174	0x3c8aea39	0.01695739
175	0xbc94b2d5	-0.01815168
176	0xbb94b91c	-0.0045386683
177	0xbd063c42	-0.03277231
178	0xbb985a97	-0.004649471
179	0xbae5961d	-0.0017516051
180	0xbd62b011	-0.05534369
181	0xbd58723a	-0.05284331
182	0x3d0b8390	0.034061015
183	0xbcd0aa20	-0.025471747
184	0x3d965c97	0.07341879
185	0x3b84b76b	0.0040501854
186	0x3dc7767e	0.097393975
187	0x3bb2209b	0.005436016
188	0xbd9c4fef	-0.076324336
189	0x3e2b1020	0.1670537
190	0x3d11f765	0.035636324
191	0xbd5a3263	-0.05327071
192	0x3d503234	0.050829127
193	0xbb86bb6a	-0.004111697
194	0x3d819dec	0.06328949
195	0x3d8d2ed0	0.068936944
196	0x3d92687a	0.071488336
197	0x3b9e8d23	0.004838602
198	0xbb45cfc9	-0.0030183664
199	0x3d99b492	0.07505144
200	0x3d46417e	0.048402302
201	0xbc97e846	-0.018543374
202	0xbe42ae20	-0.19011736
203	0x3b478980	0.0030446947
204	0xb8a4dfa2	-7.861784e-05
205	0xba81d066	-0.0009904027
206	0x3d334b31	0.04377288
207	0x3e1a1fce	0.15051195
208	0xbcb565b6	-0.022143226
209	0xbd8b3682	-0.06797506
210	0x3d18b280	0.037279606
211	0x3d18e29c	0.037325487
212	0x3d63d530	0.055623233
213	0x3bef739b	0.0073074824
214	0x3c80ea90	0.015736848
215	0x3d886c47	0.06661277
216	0x3b0c3744	0.0021395246
217	0x3d72dda4	0.059293404
218	0xbc864398	-0.016389653
219	0x3d7c7b8a	0.061641254
220	0xb9fbaa9a	-0.0004800156
221	0x3a116532	0.00055463903
222	0xbda2f0ec	-0.079561085
223	0xb94caefd	-0.00019520144
224	0xbd1d6899	-0.03842983
225	0x3c909a18	0.017651603
226	0x3ca7a9ac	0.020466648
227	0xbb9b1b66	-0.0047334908
228	0xbe508faf	-0.20367311
229	0xba0c8f71	-0.00053619506
230	0x3b922187	0.004459563
231	0x3d4be133	0.049775314
232	0x3d1cc899	0.038277242
233	0x3d93d6be	0.07218693
234	0xbd890f3c	-0.06692359
235	0xbdb99919	-0.09062404
236	0x39a016f0	0.00030534668
237	0x3cef5d59	0.029219316
238	0xbca97641	-0.02068627
239	0xbd34303c	-0.043991312
240	0xbd42e260	-0.04757917
241	0xbe5bbba7	-0.21458302
242	0xbd0c48ca	-0.034249105
243	0xbbe9cb84	-0.0071348567
244	0xbad98c00	-0.0016597509
245	0x3af86557	0.00189511
246	0xbd9c9371	-0.0764531
247	0x3c9b6e65	0.018973539
248	0x3a3317d7	0.00068318605
249	0xbd75cc86	-0.060009502
250	0xbd1fd189	-0.039018188
251	0x3bc1a746	0.005909833
252	0xbc50951c	-0.012730863
253	0x3cbdfff6	0.02319334
254	0x39dd0842	0.00042158557
255	0x3d9c6647	0.07636695

net.2.bias f4 [256]
0	0x3df3c8f7	0.119035654
1	0xbdba460b	-0.09095391
2	0xb9b8ec59	-0.00035271308
3	0x3887ee01	6.481633e-05
4	0x39785a63	0.00023684795
5	0xbe39677a	-0.1810588
6	0xbd181eb2	-0.03713865
7	0x37c72361	2.3739123e-05
8	0x3881f45f	6.196717e-05
9	0xbccd9401	-0.025094988
10	0x38bb9639	8.944836e-05
11	0xb99ebd59	-0.00030277183
12	0xbc58ef07	-0.013240582
13	0xbe0da082	-0.1383076
14	0xbd7bc945	-0.061471242
15	0xbe0da08b	-0.13830774
16	0xbe3c9b79	-0.18418683
17	0x38c86735	9.555967e-05
18	0x3db6828c	0.089116186
19	0x3c0483e9	0.00808809
20	0xb6a493ce	-4.9047876e-06
21	0x398a9cf4	0.0002643835
22	0x3d4381da	0.047731258
23	0x3d2b8495	0.041874487
24	0xbe0da08e	-0.13830778
25	0xb88ceb7c	-6.7195826e-05
26	0xb90342ca	-0.00012518014
27	0xb88f24c1	-6.825617e-05
28	0x3d844d25	0.06460027
29	0x3e181435	0.14851458
30	0x3c6e92c5	0.01456136
31	0xb97c59d9	-0.00024066064
32	0x3cec36d4	0.028834738
33	0x38b6b2a6	8.711712e-05
34	0x390c8081	0.00013399312
35	0x399bbd56	0.0002970497
36	0xb8b03ae8	-8.403306e-05
37	0x39e7739a	0.00044145883
38	0x3de3d025	0.11123685
39	0xbdaa4c4c	-0.08315334
40	0xb8bc9112	-8.99156e-05
41	0x3924d54e	0.00015719721
42	0xb9935a5a	-0.00028105342
43	0xb83066a6	-4.205727e-05
44	0x3c3e070c	0.01159836
45	0x3c3e6c76	0.011622539
46	0xbc651af3	-0.013983476
47	0xbd683b4d	-0.05669718
48	0x3c9af976	0.01891778
49	0x3cfebf2e	0.031097021
50	0xbe0da085	-0.13830765
51	0xbd86832a	-0.06567986
52	0x3c9c9c7d	0.019117588
53	0x3db36dc9	0.08761174
54	0xba886afd	-0.0010407862
55	0xb8b81b5c	-8.7789e-05
56	0xb9507742	-0.00019880853
57	0x3b828303	0.003982903
58	0xbd401ffe	-0.04690551
59	0x3d049d3f	0.032376524
60	0xbd65fac6	-0.05614736
61	0xbdfb224f	-0.12262403
62	0xbc56daba	-0.013113672
63	0xbd2df57e	-0.042470448
64	0x39041f66	0.00012600198
65	0x3736286a	1.0857455e-05
66	0xb906f2f4	-0.00012869743
67	0xbb1e5091	-0.0024156908
68	0xbc05afac	-0.008159559
69	0xbd622a3a	-0.05521605
70	0xbce7277e	-0.028217074
71	0x3d84cda9	0.06484539
72	0xb8f4bbbf	-0.00011669797
73	0xbd8d26d8	-0.068921745
74	0xbd0fe277	-0.035128083
75	0x390cc561	0.0001342497
76	0xb9d075f8	-0.00039760745
77	0xbd7e056a	-0.062016882
78	0x39200c4b	0.00015263369
79	0xb960c760	-0.00021436578
80	0x3c80bf5d	0.01571625
81	0x3c83654f	0.016039519
82	0x3d3a040e	0.045414023
83	0x3c44df5f	0.012016146
84	0x3dfdf347	0.12399917
85	0xb8879a50	-6.4660446e-05
86	0x3d1388e7	0.036019232
87	0xbda606ca	-0.08106764
88	0xbc107744	-0.008817498
89	0x3944b721	0.00018760237
90	0x3e5f41dd	0.21802469
91	0x3cb4a70c	0.02205231
92	0x38d23fc6	0.00010025459
93	0xbe0cb59f	-0.13741158
94	0x3bdb7d4f	0.0066982876
95	0xbe0da08e	-0.13830778
96	0xbb33b56a	-0.0027421364
97	0xbd6d80ef	-0.05798429
98	0xbe4b2944	-0.1983996
99	0x393845d0	0.00017573615
100	0xbcf454d4	-0.029825605
101	0xb989740f	-0.00026217147
102	0xbd3722ab	-0.044710796
103	0x3c6e84d6	0.014558038
104	0xb8baba67	-8.903891e-05
105	0xb9a7f736	-0.0003203691
106	0xb8b3e065	-8.577182e-05
107	0x39c66d28	0.0003784683
108	0x3c500947	0.012697524
109	0x390efc97	0.00013636272
110	0x3cfc2e33	0.030783748
111	0x3745ab29	1.1781966e-05
112	0xbd8a5a4f	-0.06755506
113	0x3e05933e	0.1304445
114	0xbd812a8c	-0.06306943
115	0x3e0da08d	0.13830777
116	0x38e55ef5	0.00010937258
117	0x38c1f16c	9.2479255e-05
118	0x38a3c099	7.80832e-05
119	0xb9a6c91d	-0.00031811828
120	0x3dc596c5	0.09647898
121	0x387a5114	5.9680155e-05
122	0x3e0da089	0.1383077
123	0x3d6e8bde	0.058238856
124	0x3e0da081	0.13830759
125	0xb8bad431	-8.908695e-05
126	0x3d7c8882	0.06165362
127	0x396bcfee	0.00022488806
128	0x39167eed	0.00014352398
129	0xbd8cfa9e	-0.06883739
130	0xbbe67819	-0.0070333597
131	0x3e388c75	0.1802233
132	0x3c6c9adc	0.014441218
133	0xbcb314b4	-0.021860458
134	0x3bfabe40	0.007652074
135	0xb96d2ed6	-0.00022619529
136	0xb9846769	-0.00025254049
137	0x3dbaf537	0.09128802
138	0xb747dd8c	-1.1912907e-05
139	0xbcfd4fb1	-0.030921789
140	0x39a73166	0.00031889527
141	0x39d8eaf6	0.0004137379
142	0xbc6b2838	-0.014352851
143	0x3d071add	0.032984603
144	0xbd9e897a	-0.07741065
145	0x3949029a	0.00019169823
146	0x3db56daa	0.088588074
147	0xb8ddb193	-0.00010571177
148	0x3838562a	4.3949265e-05
149	0xb890fb9f	-6.913323e-05
150	0x38bba7d9	8.948119e-05
151	0xb85df368	-5.2917196e-05
152	0x38015200	3.0832365e-05
153	0xbd2d110d	-0.04225259
154	0xbe0da08c	-0.13830775
155	0xbd1cef50	-0.038314164
156	0xbd009d11	-0.03139979
157	0x3d264e56	0.04060205
158	0xb8ca7d10	-9.655405e-05
159	0xbd038ecf	-0.032118615
160	0xbdab2b58	-0.083578765
161	0xb9573238	-0.00020522706
162	0xb907cf78	-0.00012951891
163	0x3d4d3f3a	0.050109126
164	0xb9027f67	-0.00012445227
165	0xbd500dce	-0.050794415
166	0xbd9098da	-0.07060404
167	0x38c0ebcf	9.199196e-05
168	0xbd08c0df	-0.03338706
169	0xbd8edaed	-0.069753505
170	0xbbcb6a18	-0.0062077157
171	0x396b9e6d	0.00022470365
172	0x3d4f443e	0.05060219
173	0x3ca234ef	0.019800631
174	0x3cd61552	0.026133213
175	0x3d98be73	0.074582
176	0x39668781	0.00021984988
177	0x3d1659a8	0.036706597
178	0x3d643065	0.055710215
179	0xbdb8b98e	-0.09019767
180	0x3e0da083	0.13830762
181	0xbd23b9cb	-0.039972108
182	0x3d1101d7	0.035402145
183	0x38e43d0f	0.0001088326
184	0x3e366f31	0.17815854
185	0xbd726479	-0.05917785
186	0x3ad69911	0.0016372522
187	0xbd905dbf	-0.07049131
188	0xbcc937d5	-0.024562756
189	0xb8c2fdfb	-9.2979484e-05
190	0xbc0b189b	-0.008489753
191	0xbe0da08b	-0.13830774
192	0xb9aefe01	-0.00033377114
193	0xb9195b69	-0.0001462527
194	0x3d8ece90	0.069729924
195	0x3d2cde14	0.042203978
196	0x388fefcf	6.863439e-05
197	0xbe1ff8ac	-0.15622205
198	0xb905dfa2	-0.00012767178
199	0xbe0da08c	-0.13830775
200	0xbdbc25e2	-0.09186913
201	0x3d036841	0.032081846
202	0x3dbdce43	0.09267857
203	0xbd8b008e	-0.06787215
204	0x3e0da08c	0.13830775
205	0xbe0da087	-0.13830768
206	0xbd9bb626	-0.076031014
207	0xbcc89c87	-0.0244887
208	0xb8fe5edd	-0.000121293335
209	0xbb6a69f3	-0.0035768717
210	0x3c9563e1	0.018236103
211	0x37f75a56	2.948676e-05
212	0x3c963464	0.018335529
213	0xbd1d0e3a	-0.038343646
214	0x38aa2cca	8.114574e-05
215	0xb7ae1a26	-2.0754593e-05
216	0x37f77c9d	2.9502722e-05
217	0x3dc06ddb	0.09395953
218	0xbc8660e9	-0.016403632
219	0xb942a907	-0.0001856425
220	0xb969ac72	-0.00022284852
221	0x3c5aa27a	0.0133444015
222	0x3d0b789a	0.03405056
223	0xbdde51ca	-0.10855444
224	0x3ce05851	0.027385863
225	0x3ce4760c	0.02788832
226	0x3e0259fb	0.12729637
227	0xbc8714a0	-0.016489327
228	0xbdf71553	-0.12064614
229	0xb995fdc5	-0.00028608568
230	0xbc264960	-0.01014933
231	0xbcc9af55	-0.024619738
232	0xbd34a710	-0.044104636
233	0xb7af02a0	-2.0862848e-05
234	0xb93e4246	-0.00018144501
235	0x387029a7	5.725925e-05
236	0x3623dafe	2.4416363e-06
237	0x3c1d9355	0.009617646
238	0x3d600a8c	0.05469756
239	0xb9a3ab67	-0.00031217487
240	0xbd115932	-0.035485454
241	0x39b19853	0.0003387356
242	0xbda2fe53	-0.07958665
243	0x3d045a02	0.0323124
244	0x38be5816	9.076313e-05
245	0xbd0d38b8	-0.03447792
246	0x388a3af6	6.591335e-05
247	0xbd30a62c	-0.043127224
248	0xbd6c44d5	-0.05768283
249	0x3d461bb0	0.04836625
250	0x39c0b43a	0.00036755373
251	0xb7d12de5	-2.4936113e-05
252	0xbcad10b7	-0.021126134
253	0xbd8639a1	-0.065539606
254	0x39a0ab4c	0.00030645204
255	0xb92e6dc9	-0.00016634831

net.4.weight f4 [256, 256]
0	0xbc2dfe46	-0.010619706
1	0x3c8a3be3	0.01687426
2	0x3929785b	0.00016161932
3	0xb96211c7	-0.00021559662
4	0xb95dd7f3	-0.0002115665
5	0x3c68a435	0.014199306
6	0xbaf7be3d	-0.00189013
7	0x39a58cd8	0.0003157619
8	0x39a60277	0.00031663824
9	0x3bf0332a	0.007330318
10	0x3929ee8d	0.00016205963
11	0x391a824a	0.00014735121
12	0x3c022bad	0.007944983
13	0x3d75f3f0	0.06004709
14	0x3cb97093	0.022636687
15	0x3d75f3f9	0.060047124
16	0x3c95d2f9	0.018289076
17	0x39d224f5	0.00040081856
18	0xbce6a726	-0.028155874
19	0xbb9ff43d	-0.0048814104
20	0x39c0eb60	0.00036796462
21	0xb972b31a	-0.00023145639
22	0xba178d0b	-0.000578121
23	0xbc5ea368	-0.013588764
24	0x3d75f3f3	0.0600471
25	0x395dfb37	0.00021169787
26	0x398adb5a	0.0002648484
27	0x38bf66fb	9.126771e-05
28	0xbcc2f697	-0.023799224
29	0xbbfce6b1	-0.0077179302
30	0xbb276c1a	-0.0025546611
31	0x3997d3a3	0.00028958646
32	0xbbecc504	-0.0072256345
33	0x38824b3d	6.212897e-05
34	0x36927a20	4.3653563e-06
35	0xb8e58a07	-0.000109452805
36	0xb9642c25	-0.0002176022
37	0x376b89f4	1.4039211e-05
38	0x3bcc41e1	0.0062334393
39	0x3cbed5ad	0.023295248
40	0xb76c3bc2	-1.408061e-05
41	0x395f6fd2	0.00021308594
42	0x38b1a1d8	8.4701634e-05
43	0xb777c8c6	-1.47690935e-05
44	0xbbbc44f6	-0.0057455255
45	0xbbbd36d0	-0.0057743564
46	0x3b3c2d9e	0.0028713713
47	0x3c850880	0.016239405
48	0xbc06d605	-0.008229737
49	0xbc53280e	-0.012887968
50	0x3d75f3ee	0.060047083
51	0x3c64a6a1	0.013955743
52	0xbc219c54	-0.009863932
53	0xbceb8b51	-0.028752955
54	0xbc6c7789	-0.014432796
55	0x351bacaa	5.799326e-07
56	0x38b60f86	8.681328e-05
57	0xbb534bb1	-0.003224116
58	0x3ca7c269	0.020478444
59	0xbc511c82	-0.012763144
60	0x3c3eaf99	0.011638545
61	0x3ce1633c	0.027513139
62	0x3ca0b338	0.019616708
63	0x3c1d7fd3	0.009612995
64	0x399a4334	0.0002942324
65	0x390b0acf	0.000132601
66	0x378ce7ff	1.6797332e-05
67	0x3b4d6270	0.003133919
68	0xba3abb21	-0.00071232213
69	0x3c75e772	0.015008794
70	0x3c46e630	0.012139842
71	0xbbc5278b	-0.006016677
72	0xb94a86ee	-0.00019314486
73	0x3ce4cae4	0.027928777
74	0x3b9845bc	0.004646985
75	0xb96fd058	-0.0002287043
76	0x391ac117	0.00014758516
77	0x3c59c281	0.013291002
78	0xb9ef3f7d	-0.00045632935
79	0xb7f5f17d	-2.9318728e-05
80	0x38945677	7.073295e-05
81	0xbbbe0358	-0.0057987384
82	0xbc7292f6	-0.014805546
83	0x3c345b85	0.011008148
84	0xbd12bacb	-0.03582267
85	0xb9907b5b	-0.00027557727
86	0xbc2f56fe	-0.010701893
87	0x3c857472	0.016290877
88	0xbc5ee0c2	-0.013603391
89	0xb9417af8	-0.00018451724
90	0xbd042fc9	-0.032272134
91	0xbbf5d53b	-0.0075022257
92	0x39b92f6c	0.00035321282
93	0x3d06975a	0.032859184
94	0xbb46ece2	-0.0030353596
95	0x3d75f3f8	0.06004712
96	0xbb8206e8	-0.0039681084
97	0x3d022357	0.031771984
98	0x3d1a6304	0.037692085
99	0x39298ae3	0.00016168835
100	0x3bef213d	0.0072976635
101	0xb867cbe2	-5.5264572e-05
102	0x3bc9583b	0.006144551
103	0xba418d92	-0.00073834613
104	0x38950461	7.105689e-05
105	0x393c7f66	0.00017976537
106	0xb9d176a7	-0.0003995199
107	0xb93ea977	-0.00018182943
108	0x3c80b3a6	0.015710663
109	0x38537b88	5.0421368e-05
110	0xbc5bd0ed	-0.013416511
111	0x3958c53f	0.00020672845
112	0x3ce572f3	0.028008914
113	0xbcad3bbc	-0.021146648
114	0x3c63371f	0.013868122
115	0xbd75f3f6	-0.060047112
116	0xb832e894	-4.2655112e-05
117	0xb9beceef	-0.00036393802
118	0x39e03ad9	0.00042768454
119	0x392e2dcf	0.00016610998
120	0xbd1da41e	-0.038486592
121	0x39be6937	0.00036318015
122	0xbd75f3f0	-0.06004709
123	0x3b8713de	0.0041222414
124	0xbd75f3f1	-0.060047094
125	0xb9b2a404	-0.00034073007
126	0xbd1ff613	-0.039053034
127	0xb8c1ce27	-9.241356e-05
128	0xb963d55d	-0.00021727891
129	0x3c329146	0.010898894
130	0x3c5aa1f4	0.013344277
131	0xbcb7a868	-0.02241917
132	0x3b75bddc	0.0037497198
133	0x3c0a9d29	0.008460321
134	0xbbbf4729	-0.0058373404
135	0xbca3d4e2	-0.019998971
136	0x38e0c7bf	0.00010718358
137	0xbbb3505e	-0.005472227
138	0xb9e96bfa	-0.00044521672
139	0x3c81cb09	0.015843885
140	0xb9c5903b	-0.00037682228
141	0xb94d6e11	-0.00019591326
142	0xbc0bcce1	-0.008532734
143	0xbc4d11b8	-0.0125164315
144	0x3c3a04c2	0.011353673
145	0xb99ea877	-0.00030261624
146	0xbd085170	-0.03328079
147	0xb8797703	-5.9477064e-05
148	0x393b9df8	0.00017892558
149	0xb8be3687	-9.0700625e-05
150	0xb882f4bd	-6.244469e-05
151	0x39566ea8	0.00020449853
152	0xb965d901	-0.00021919982
153	0x3c87661f	0.016528187
154	0x3d75f3f9	0.060047124
155	0x3c8839b1	0.016629072
156	0x3c91d0fa	0.017799843
157	0xbc9095fd	-0.017649645
158	0xb96df17b	-0.0002269204
159	0x3c33bafc	0.0109698735
160	0x3d0f3c24	0.034969464
161	0x38e10434	0.00010729619
162	0x3881074f	6.152561e-05
163	0xbc7951da	-0.015217269
164	0x39abb4ba	0.00032750313
165	0x3c024010	0.007949844
166	0x3c971e2b	0.018447002
167	0xb9a7a4e8	-0.00031975587
168	0xbc1ccf36	-0.009570887
169	0x3c80e172	0.0157325
170	0xb9d1ffeb	-0.0004005426
171	0xb907d185	-0.00012952655
172	0xbc6d71d1	-0.014492468
173	0x3b45e78a	0.0030197822
174	0xbc1a5e02	-0.009421827
175	0xbd014b9a	-0.03156624
176	0xb95d1859	-0.00021085273
177	0xbb9d65e5	-0.0048034065
178	0xbbd7890d	-0.006577617
179	0x3bee1f02	0.00726688
180	0xbd75f3ec	-0.060047075
181	0x3b9e5f0c	0.004833108
182	0xbb05412b	-0.0020333033
183	0x38964db9	7.167034e-05
184	0xbd02f27d	-0.031969536
185	0x3c9e40dc	0.019318037
186	0xbba1e5f2	-0.0049407417
187	0x3ca88c23	0.020574635
188	0x3bb03b9c	0.0053781997
189	0xb9bdc16b	-0.00036192997
190	0x3b927254	0.0044691954
191	0x3d75f3f6	0.060047112
192	0xb940f9c7	-0.00018403596
193	0xb98e54c1	-0.00027147497
194	0xbce2d128	-0.027687624
195	0x3b2a2758	0.0025963392
196	0x38b159cf	8.456746e-05
197	0x3d02dbb2	0.0319478
198	0x38b55244	8.646076e-05
199	0x3d75f3ff	0.060047146
200	0x3c699c8b	0.014258514
201	0xbc561f5a	-0.013068998
202	0xba0a0fd1	-0.0005266639
203	0x3c0e9455	0.008702357
204	0xbd75f3f4	-0.060047105
205	0x3d75f3ef	0.060047086
206	0x3d0e861f	0.034795877
207	0x3b98a9f7	0.0046589333
208	0xb9bea776	-0.00036364392
209	0x3a07efe1	0.0005185586
210	0xbab1ebdc	-0.001357432
211	0x392662a8	0.00015867746
212	0xb95e7779	-0.00021216077
213	0x3c6a8eba	0.014316255
214	0xb9be86ba	-0.00036340003
215	0xb8e64c9a	-0.00010981523
216	0x3943b998	0.00018665788
217	0xbc6c3152	-0.014416056
218	0xbb5a3cf9	-0.0033300503
219	0x3999d067	0.00029337706
220	0x38c4aa48	9.377726e-05
221	0x3b9ca8b4	0.004780853
222	0x3b707cf0	0.0036695562
223	0x3caa1f1b	0.020766785
224	0xbc5adb38	-0.01335793
225	0xbcee71d8	-0.02910702
226	0xbd073e39	-0.033018325
227	0x3c0deca6	0.008662378
228	0x3c314d2d	0.010821623
229	0x3891d688	6.954098e-05
230	0x3c50c354	0.012741882
231	0x3c3dac3e	0.01157671
232	0x3c6c047d	0.014405367
233	0xb8eddb7d	-0.000113419235
234	0xb7254922	-9.851794e-06
235	0x398a5a3f	0.0002638865
236	0xb8a59bbe	-7.896822e-05
237	0x3b7bdd14	0.0038431333
238	0xbcdf7232	-0.027276132
239	0x391dfe30	0.00015067379
240	0x3bda35d6	0.00665925
241	0xb96cd595	-0.0002258628
242	0x3c21794d	0.0098555805
243	0xbd273e8f	-0.040831145
244	0xb8a9db4d	-8.099396e-05
245	0x3c82960b	0.015940687
246	0xb8c2d9d5	-9.291215e-05
247	0xbbb8141d	-0.005617632
248	0x3b534dde	0.0032242457
249	0xbcbe118c	-0.023201726
250	0xb85ba311	-5.2365536e-05
251	0x397437ce	0.00023290442
252	0x3acaf0d5	0.001548315
253	0x3cc12c77	0.023580773
254	0xb8b49765	-8.611268e-05
255	0x3973d2f1	0.00023252868

net.4.bias f4 [256]
0	0xbddaacbe	-0.10677479
1	0x39b824c6	0.00035122613
2	0xbc15d55c	-0.009145107
3	0xbd3914f7	-0.04518601
4	0x3d8983da	0.06714602
5	0xb95c3b78	-0.00021002989
6	0xb8a9538c	-8.07411e-05
7	0x3cc74db3	0.024329042
8	0xb89e439a	-7.546619e-05
9	0xbe04b806	-0.12960824
10	0x373c07ec	1.1207518e-05
11	0xbd0dd86c	-0.034630224
12	0xb7e16a01	-2.6871452e-05
13	0x3991370d	0.0002769757
14	0x3c59863d	0.013276634
15	0x3cc3efbf	0.02391803
16	0xb9c0f86d	-0.00036806185
17	0xbd120718	-0.035651296
18	0xbc1fb216	-0.009747049
19	0xb9b2011e	-0.00033951638
20	0xbbc3388b	-0.005957668
21	0x390cd69e	0.00013431392
22	0x3c37f0ac	0.011226814
23	0xbd2e6e0d	-0.04258542
24	0xb977e36a	-0.00023640474
25	0xbd6622b5	-0.056185443
26	0xb922fe2f	-0.00015544215
27	0x3d0bc5df	0.03412425
28	0x3e08fa61	0.13376762
29	0xb821bce8	-3.8561324e-05
30	0xb885c74c	-6.379056e-05
31	0xb8c95beb	-9.601548e-05
32	0x3ca2b15c	0.019859962
33	0xb92f31ef	-0.00016707902
34	0xbd7c55a1	-0.0616051
35	0x3b885ebd	0.0041616843
36	0x3e63bca9	0.22239937
37	0x3d2accc2	0.04169918
38	0xbdb02c69	-0.086022206
39	0xbbc34259	-0.005958837
40	0x3d825fd2	0.063659325
41	0x3cb34a1c	0.021885924
42	0x3d214f30	0.03938216
43	0xbd12b9dc	-0.03582178
44	0x38a7a812	7.994486e-05
45	0x3d50881b	0.05091105
46	0xbdcf6824	-0.10127285
47	0xbc67c5a7	-0.014146245
48	0x390e41b6	0.00013566655
49	0x3ca9e9eb	0.020741424
50	0xbcd8d4bf	-0.026468633
51	0x3d284085	0.041077156
52	0xbc23a1e0	-0.0099873245
53	0xbcc3c17d	-0.023895973
54	0x398a119b	0.00026334528
55	0x3ddb2aa8	0.107014954
56	0x3ddbbe51	0.10729659
57	0xbda5a91d	-0.080888964
58	0xbca39c42	-0.01997197
59	0xb8494d21	-4.7993966e-05
60	0x3ddacf24	0.1068404
61	0xb7ae6253	-2.0788202e-05
62	0x37e7daeb	2.7639288e-05
63	0x3914d7cd	0.00014194772
64	0xbd1d91d5	-0.038469154
65	0x37fd5935	3.020149e-05
66	0x3da7a1d5	0.08185164
67	0xba701503	-0.00091584044
68	0xbd135a59	-0.035974834
69	0x3cad710b	0.021172067
70	0xb9231000	-0.00015550852
71	0x37ddc553	2.643714e-05
72	0x3927c605	0.00016000129
73	0xbd21a4fe	-0.03946399
74	0x3d1d113a	0.038346507
75	0x39663f38	0.0002195806
76	0xb95631fb	-0.0002042725
77	0xbbe5b716	-0.007010351
78	0xb8f3119b	-0.00011590422
79	0x3ddb5246	0.10709052
80	0xb867e713	-5.5289896e-05
81	0x398f7696	0.0002736344
82	0x3c47e0db	0.012199606
83	0x3cdb4a94	0.02676896
84	0x37eb1ab0	2.802661e-05
85	0x38e95597	0.00011126248
86	0x3c80384d	0.015651846
87	0xbb507f62	-0.0031814207
88	0xb9180b25	-0.00014500001
89	0x3d15085f	0.036384936
90	0x3d333676	0.04375311
91	0xbd113748	-0.03545311
92	0xb670c87d	-3.5879486e-06
93	0xb9226490	-0.00015486986
94	0x3cffe9cf	0.031239418
95	0xb9984cbc	-0.0002904887
96	0xb8998158	-7.319701e-05
97	0x39395b86	0.0001767707
98	0xbd4e97af	-0.050437625
99	0x3cd7a4e6	0.026323747
100	0xb9161b03	-0.00014315177
101	0x3d53ee83	0.051741134
102	0xbd98581d	-0.07438681
103	0x3d1bd44e	0.038044266
104	0xbdeb7444	-0.11496785
105	0x3d8a5fbd	0.06756542
106	0xbd63cbe3	-0.055614363
107	0xbbe4939c	-0.006975604
108	0x3d525f24	0.051360264
109	0xbb53dba9	-0.0032326973
110	0x383a416c	4.4406785e-05
111	0x388bd24a	6.667206e-05
112	0x3d419fb3	0.04727144
113	0xb4c9a3ca	-3.755834e-07
114	0xbdb18ba0	-0.086692095
115	0x395af362	0.00020880767
116	0x38879113	6.464324e-05
117	0xbddbaad0	-0.10725939
118	0xb7d10e60	-2.4921435e-05
119	0xbc4a88f5	-0.012361755
120	0xbddbb3e3	-0.1072767
121	0x3d9ee2cc	0.07758102
122	0x3ddb99fb	0.10722729
123	0x38d0b2b7	9.951501e-05
124	0x3da5178d	0.080611326
125	0xb9851f95	-0.00025391267
126	0x3912610c	0.00013959798
127	0xbc801658	-0.015635654
128	0x3ddb76e9	0.1071604
129	0xb863dd67	-5.4327214e-05
130	0x3c963850	0.018337399
131	0x3cc534f1	0.024073096
132	0xbd1c5ff7	-0.038177457
133	0x3c83a8e6	0.016071748
134	0xbcad82c5	-0.02118052
135	0x3b373c08	0.0027959365
136	0xb94e7eb4	-0.00019692892
137	0xbdf363ed	-0.11884294
138	0xb89801b2	-7.2482406e-05
139	0xbd9414c2	-0.07230522
140	0x3d873d3e	0.06603478
141	0x39969c2b	0.00028726584
142	0xbca97670	-0.020686358
143	0xbb38b3ef	-0.002818342
144	0xbd452424	-0.04813017
145	0xb6e81df5	-6.9176263e-06
146	0xbbf7fc52	-0.0075679207
147	0xbd89f7b3	-0.06736698
148	0x3bd6fd4c	0.006560957
149	0xb8be7a38	-9.082671e-05
150	0xb94d5d42	-0.00019585065
151	0x36c33187	5.8172186e-06
152	0x38837a51	6.26935e-05
153	0xbd8d0a88	-0.06886774
154	0xbca6f2ea	-0.020379502
155	0x37e8ff26	2.7775368e-05
156	0x3cc2115b	0.023689916
157	0xbde43dc4	-0.11144593
158	0xbcaf6268	-0.021409228
159	0x3cc1d787	0.023662342
160	0xbdcb6d29	-0.0993293
161	0x393ef771	0.00018211991
162	0x389f3f06	7.59345e-05
163	0xb9a961c6	-0.0003230704
164	0x3ce0a610	0.027422935
165	0x39355bea	0.00017295746
166	0xb838a1e7	-4.4019802e-05
167	0xb94fe10e	-0.00019824898
168	0xb8b69a88	-8.70722e-05
169	0x3ca5156e	0.02015182
170	0x3d2ac671	0.041693155
171	0x37d70b94	2.5635389e-05
172	0x3863e724	5.4336284e-05
173	0xbd565fca	-0.052337445
174	0xb83aeb07	-4.4564742e-05
175	0xbb8aeb8a	-0.004239504
176	0x38b7aced	8.75833e-05
177	0x3963f27f	0.00021738744
178	0x39832cb4	0.00025019574
179	0xb828c177	-4.02345e-05
180	0xb825e1a5	-3.9549213e-05
181	0x3937ae11	0.00017517085
182	0x3b55d8d9	0.0032630472
183	0x3caf3033	0.021385288
184	0xbd993d71	-0.07482422
185	0x390973c6	0.00013108467
186	0xbd1f26d9	-0.038855407
187	0x38c3434d	9.31086e-05
188	0x378975be	1.63865e-05
189	0x363d5f66	2.8218724e-06
190	0x3d1dc5bd	0.038518656
191	0xbd80cc2a	-0.06288941
192	0x3d0e93b7	0.03480884
193	0xb8683185	-5.535923e-05
194	0xb9a164e3	-0.0003078348
195	0xb8947599	-7.079094e-05
196	0xb8bfac06	-9.1396316e-05
197	0x3d8b831b	0.06812116
198	0x399ef9f9	0.00030322353
199	0xbd39d82d	-0.045372177
200	0x36dc441d	6.5644404e-06
201	0x3c129f64	0.0089491345
202	0x3bb296e1	0.005450115
203	0x3909a0a6	0.00013125184
204	0xbc7420c7	-0.014900393
205	0xb89be1ac	-7.4330106e-05
206	0x3c62f129	0.013851442
207	0x3d0555e6	0.032552622
208	0xbce6d37d	-0.028177017
209	0xb99d1905	-0.00029964015
210	0x38265657	3.9657894e-05
211	0x39360566	0.00017358884
212	0xb8001f1b	-3.0546547e-05
213	0xbd81e248	-0.06341988
214	0xb9745d30	-0.00023304368
215	0x3d5a6647	0.053320196
216	0xbc8e56f2	-0.017375443
217	0xbcee33b3	-0.029077386
218	0xb94a552c	-0.0001929595
219	0xb95bd72e	-0.00020965628
220	0xbb8c25fe	-0.00427699
221	0x380066c5	3.061329e-05
222	0x397b44a4	0.00023962796
223	0xb96a3cc4	-0.00022338616
224	0x3d08062a	0.033209004
225	0x3cf291f1	0.029610606
226	0xb887590e	-6.4538894e-05
227	0xbc4707f3	-0.012147891
228	0xbac4c26c	-0.0015011556
229	0xbc46be8d	-0.012130392
230	0x3d196604	0.037450805
231	0xbbc9cb0a	-0.0061582373
232	0xb9981d87	-0.000290137
233	0x3903614d	0.00012529381
234	0xbce57232	-0.028008554
235	0xbb84a8be	-0.004048436
236	0xbc0d74ca	-0.008633802
237	0x3da832f9	0.08212847
238	0x3d3bdda6	0.045865677
239	0x38a13d71	7.6885226e-05
240	0x3c5524a9	0.013009229
241	0xb913eda3	-0.00014107539
242	0x37fada20	2.9903895e-05
243	0xb8fde779	-0.00012107095
244	0xbce9d5a1	-0.028544249
245	0xb9803a35	-0.0002445743
246	0xbcb8a5ff	-0.02254009
247	0xb97b8a98	-0.00023988856
248	0x3d5831dc	0.052781925
249	0x3ddb7529	0.10715706
250	0x363ae00f	2.784658e-06
251	0x3d57d598	0.052693933
252	0x3d82b7eb	0.06382736
253	0x3976b031	0.00023526025
254	0xb8f68dcb	-0.00011756605
255	0x3c674880	0.014116406

net.6.weight f4 [256, 256]
0	0xbd663d31	-0.0562107
1	0xb8480fbd	-4.7698373e-05
2	0x3d2cea66	0.042215727
3	0x3cdaed0f	0.026724366
4	0x3c50234f	0.012703731
5	0x389f8edd	7.608321e-05
6	0x39c6c2a7	0.0003791053
7	0xbd7af6a3	-0.061270367
8	0xb9fcf231	-0.00048245632
9	0xbdb3aca7	-0.08773165
10	0x39119725	0.00013884583
11	0xbd19459d	-0.037419904
12	0x3a1cced8	0.000598175
13	0xb9a02646	-0.00030546094
14	0xbd42ff87	-0.04760697
15	0xbd14374f	-0.03618556
16	0x38e22e05	0.000107850916
17	0xbc2ab10a	-0.010418186
18	0xbc659cc6	-0.0140144285
19	0x39b1ee5c	0.00033937662
20	0xbdaabd1b	-0.0833685
21	0x39ac7d67	0.00032899829
22	0xbdace68e	-0.08442412
23	0xbc7c7fc7	-0.015411324
24	0x393b0b82	0.00017837997
25	0x3d858ba2	0.065207735
26	0xb870a5ed	-5.737499e-05
27	0xbcd0c974	-0.025486685
28	0xbd2e3931	-0.04253501
29	0x39e6e362	0.00044038432
30	0x3a068252	0.00051311136
31	0xb92873da	-0.00016064887
32	0x3d85185d	0.064987876
33	0x393dea8e	0.00018111823
34	0x3bf5326e	0.0074828183
35	0xbd200061	-0.03906286
36	0x3d23a147	0.039948728
37	0xbd4f8cd3	-0.05067141
38	0xbbe55c8f	-0.0069995592
39	0x3c2b1601	0.010442258
40	0x3d586892	0.0528341
41	0x3d60a5b7	0.054845538
42	0x3d0fd3cd	0.0351141
43	0x3ceeadf5	0.029135684
44	0xb9805f0c	-0.00024484878
45	0x3d2b56d7	0.041830864
46	0x3c95c9e1	0.01828474
47	0xbc4c6d42	-0.012477221
48	0xb95b8045	-0.00020933252
49	0x3dac85fe	0.084239945
50	0x3d0db144	0.03459288
51	0xbc1b976e	-0.009496553
52	0xbcefe1dd	-0.029282505
53	0xbc9a4479	-0.018831478
54	0x38f7029b	0.00011778363
55	0x3d67ebc1	0.056621317
56	0x3d69e485	0.0571027
57	0xbd49cf1d	-0.049269784
58	0xbd8e3d54	-0.06945291
59	0x3a0d2b9e	0.00053852226
60	0x3d66b477	0.05632445
61	0xb89565b5	-7.123818e-05
62	0x37f93df9	2.9711971e-05
63	0x39f090d4	0.00045884273
64	0x3ad18e2e	0.0015987807
65	0xba1a174b	-0.0005878105
66	0x3db5e579	0.08881659
67	0xbc5aae02	-0.013347151
68	0x3dae9f6f	0.08526503
69	0x3d8fadb9	0.07015557
70	0xb8898926	-6.558215e-05
71	0x38d5d79a	0.000101967904
72	0xb8cd74f8	-9.796949e-05
73	0xbcd48d71	-0.02594635
74	0x3db9b31e	0.09067367
75	0xb985b475	-0.00025502188
76	0x39f82322	0.00047328422
77	0x3aec1363	0.0018011149
78	0x39952a67	0.00028451087
79	0x3d687354	0.05675061
80	0xbd3bc253	-0.04583962
81	0xb95d4832	-0.00021103097
82	0xbc11080f	-0.008852019
83	0xbbc2476f	-0.0059289257
84	0xb9c11da5	-0.00036833916
85	0x398fe15a	0.00027442985
86	0xbd87d5e2	-0.06632592
87	0xbd15a0d1	-0.03653032
88	0x39d1884c	0.00039965136
89	0xbaeb2423	-0.0017939847
90	0xbc2b7847	-0.010465688
91	0xbc9d145d	-0.019174749
92	0x3a216ff6	0.0006158346
93	0x380a2fe1	3.2946355e-05
94	0x3cc09f7f	0.023513554
95	0x399a04f0	0.00029376848
96	0x39ac3d71	0.00032852174
97	0xb9d14210	-0.00039912807
98	0xbd380dfe	-0.04493522
99	0xbd2c2df0	-0.042035997
100	0x397c0453	0.00024034204
101	0x3b37289b	0.0027947787
102	0x3d6ee135	0.058320243
103	0xbc4d5736	-0.012533
104	0xbe003f25	-0.12524088
105	0xbcc3a8ba	-0.023884166
106	0x3ca41860	0.020031154
107	0xbd01c529	-0.031682167
108	0x3cb4dba6	0.022077393
109	0xbbd6d280	-0.0065558553
110	0xb9c37e91	-0.00037287598
111	0xb9ce88a8	-0.000393932
112	0x3bc007ec	0.0058603194
113	0x3a16484b	0.00057328184
114	0xbd9592a4	-0.0730336
115	0x39360ea6	0.0001736233
116	0xb9eecbc7	-0.00045546723
117	0xbd69a032	-0.05703754
118	0x39aa7b76	0.00032516912
119	0x3c050aee	0.008120282
120	0xbd69c18f	-0.057069357
121	0xbdc3dc41	-0.095634945
122	0x3d69668d	0.056982566
123	0x3992ac0c	0.00027975475
124	0x3d2bd545	0.041951437
125	0xb82b221e	-4.080135e-05
126	0xba3fe70e	-0.00073205016
127	0xbd8f0842	-0.06983997
128	0x3d68f09a	0.05687008
129	0x384577d6	4.7080066e-05
130	0xbc8ff413	-0.017572438
131	0xbd3771a5	-0.044786114
132	0x3c46c530	0.012131974
133	0x3ba1b89d	0.0049353377
134	0xbd2d50ec	-0.0423135
135	0xbcbb2fa7	-0.02284987
136	0x3946b594	0.00018950395
137	0xbd741f5e	-0.059600227
138	0x38f9cdfe	0.00011911614
139	0x3c0de715	0.008661051
140	0xbd686ca6	-0.05674424
141	0xb99746e2	-0.00028853776
142	0xbda41b56	-0.080130264
143	0xbc99209b	-0.018692305
144	0x3aa29163	0.0012402948
145	0xb981cef1	-0.0002475898
146	0xbcf87a85	-0.03033186
147	0x3c909d5f	0.017653165
148	0xbcd9b9ce	-0.026577856
149	0x38dbf437	0.00010488222
150	0x38e17420	0.00010750466
151	0x398c6d95	0.00026784526
152	0x37ddab5c	2.6425048e-05
153	0xbd8e54d6	-0.06949775
154	0xb9b501f6	-0.0003452447
155	0xba11d064	-0.00055623637
156	0x3c0b4dc8	0.008502431
157	0xbdba0a11	-0.09083951
158	0x3d4b2513	0.049595904
159	0x3dc9b627	0.09849196
160	0xbd260bbd	-0.04053854
161	0xba1c777e	-0.00059687335
162	0xb9d2f16d	-0.00040234198
163	0x38402b39	4.581662e-05
164	0xbd20b027	-0.039230492
165	0x369bf13b	4.647443e-06
166	0x38b655fe	8.6944536e-05
167	0x392b6533	0.0001634553
168	0x3974a875	0.00023332408
169	0x3d135b70	0.035975873
170	0xbbf3addf	-0.0074364985
171	0x37ca79f9	2.4137074e-05
172	0xb7fbc073	-3.0011148e-05
173	0xbd37bd2f	-0.044858154
174	0x39466999	0.0001892209
175	0x3b019c84	0.0019777128
176	0x3983f1c4	0.00025166397
177	0x3987e49c	0.00025919534
178	0xb8dcf883	-0.000105367064
179	0x39fe188e	0.0004846495
180	0x3a32230b	0.0006795383
181	0xb94beedf	-0.00019448575
182	0xbc8a13d6	-0.016855162
183	0xbd2826cf	-0.041052636
184	0x3c9523e4	0.01820559
185	0x390a6956	0.00013199946
186	0x3d14a322	0.036288388
187	0xba0485b6	-0.0005055325
188	0xba0437a6	-0.00050436927
189	0x39fc38d7	0.00048107535
190	0xbd8c0cc4	-0.06838372
191	0x3d7a9bf9	0.061183903
192	0x3bda83f9	0.0066685644
193	0xb781d031	-1.5474945e-05
194	0x39405258	0.00018341222
195	0x399d543e	0.0003000814
196	0x399e7112	0.00030220352
197	0x3d855e70	0.06512153
198	0x39abe063	0.00032782843
199	0xbd12c589	-0.035832915
200	0x391d97c3	0.00015029222
201	0xbc96ea63	-0.018422311
202	0xbd8dadd3	-0.0691792
203	0xb9f9830b	-0.00047590616
204	0x3d1a2e63	0.037641894
205	0xba282235	-0.00064137887
206	0xbd07ad93	-0.033124518
207	0xbd446762	-0.047950156
208	0x3c548c23	0.012972864
209	0xb8898e29	-6.5591485e-05
210	0x3a46d111	0.0007584254
211	0xb9152061	-0.0001422181
212	0x3cbadaa7	0.02280934
213	0x3c1e261f	0.009652643
214	0x396c46e5	0.00022533124
215	0x3da96248	0.08270699
216	0x3d2e01ba	0.042482115
217	0x3d4ddbda	0.050258495
218	0x3938be0b	0.00017618404
219	0xb84970b5	-4.80271e-05
220	0x3d550a72	0.052011915
221	0xba0be4e4	-0.00053365366
222	0xb94745ba	-0.00019004094
223	0xb7533bbc	-1.2590488e-05
224	0x3da80826	0.08204679
225	0xbd9c36ab	-0.076276146
226	0x3a16ad63	0.00057478825
227	0x3d9c2232	0.0762371
228	0x3d87de87	0.066342406
229	0xbd3dd0bf	-0.046341654
230	0x3d1e743d	0.038685072
231	0xbcf4956a	-0.029856402
232	0x39903b04	0.0002750979
233	0xb9ab558e	-0.00032679405
234	0x3b3c7408	0.0028755683
235	0x3d9a6a7f	0.07539844
236	0xbcbc24da	-0.022966791
237	0xbda80ec1	-0.08205939
238	0x3d04b939	0.032403205
239	0xb97deb57	-0.00024215631
240	0xbd9f87f0	-0.077896
241	0x3939c028	0.00017714559
242	0xb888b1a1	-6.518071e-05
243	0xb9034546	-0.0001251894
244	0x3d9e8c3d	0.07741592
245	0xb90511e2	-0.0001269053
246	0x3cbaef77	0.022819264
247	0x3931aa96	0.00016943584
248	0xbd969626	-0.07352857
249	0x3d68ea32	0.05686397
250	0xba2f1a73	-0.00066796615
251	0xbcda30a4	-0.026634522
252	0xbbede4cd	-0.007259941
253	0x38631f87	5.415038e-05
254	0x399ac9ad	0.0002952343
255	0xbc5bdd8a	-0.013419518
